experiments/lstm/v2/lstm_last_model.pth (torch, 225605 bytes, 9 tensors)

lstm.weight_ih_l0 f4 [256, 20]
-0.000222099 -0.006291439 -0.0024799705 -0.0028287666 -0.0015920156 -0.004411146 -0.0013114263 -0.0031868853
-0.0054641357 -0.0024569011 -0.0043883943 -0.002856668 -7.934144e-05 -0.002848202 -0.0037986573 -6.274501e-05
-0.0034846677 -5.457513e-06 -0.0013090738 4.2563606e-05 0.0021987362 -0.0109074535 -0.0025581983 -0.006448258
-0.0016973348 -0.0038417194 -0.004281025 -0.0068156896 -0.010821976 -0.004700235 -0.010618036 -0.009562675
-3.9939773e-06 -0.01128717 0.0007626848 0.00027888367 -0.008502802 -1.3397857e-05 -0.0030168348 -0.0013660999
0.008030463 -0.011975744 -0.0026863248 -0.0057925824 0.0006487035 -0.0052933465 -0.001556985 -0.006191847
-0.00973408 -0.009945488 -0.008418462 -0.005761402 8.69078e-05 -0.0054182406 -0.0053432505 -0.00085596205
-0.006247803 -3.2571996e-05 0.00057839486 -0.0027526645 0.02753477 -0.0130509455 0.006256433 -0.002303442
0.007089452 -0.013654137 -0.0038093864 -0.014808144 -0.0062150494 -0.0014918591 -0.013205022 -0.012719886
0.0053324383 -0.015158429 -0.0014591702 -0.00036412163 0.0013934069 -0.0013240227 0.019213537 -0.023124697
-0.00081612024 -0.013918705 -0.005603077 -0.007959621 -0.002657295 -0.010834361 -0.0078485105 -0.009625095
-0.016679592 -0.0048629427 -0.012352115 -0.008802917 -0.000477036 -0.007191431 -0.0049509574 -0.0005648645
-0.014364356 4.679296e-05 -0.000389336 0.002275296 -0.10158732 0.14214076 0.04736887 0.18020685
-0.08622565 0.07224179 0.12111391 -0.013216808 0.10938775 -0.14772452 0.07082221 -0.10103503
0.016833471 -0.063970365 0.091562696 0.022765938 0.115935445 0.00014121387 0.11803729 -0.19435161
0.058761075 -0.00090524845 0.017848782 0.029028963 0.0066336486 0.009274063 0.02948535 0.0070087053
0.019338727 -0.0007597413 0.013174358 0.0054017697 0.013328223 0.009619879 -0.0014692504 -0.012365319
-0.018833343 -0.00073236576 0.047941413 -0.010733098 0.019141937 -0.057747997 0.02013473 0.004240782
0.014115764 0.00021289277 -0.013155632 -0.02474014 -0.0138576 -0.015824085 0.009212073 0.0009381329
0.017478012 0.028680557 -0.036515936 -0.014777152 0.00928371 0.00035409685 -0.007841648 -0.0050297035
0.011093231 -0.016751178 0.0020350397 -0.004983726 0.0037338694 0.00048618714 -0.0034768342 -0.0013073349
-0.009670197 -0.0068930765 -0.006976952 -0.0033318838 0.00049751595 0.0011593049 -0.004124343 -0.0009254726
-0.0031289132 -6.585785e-05 0.0014315897 0.0006237829 -0.0837583 0.37906623 0.060807854 0.10969019
-0.009976831 -0.017200679 0.08847814 0.16981389 0.08242584 -0.024367074 0.08078738 0.10302072
0.047029514 0.10756262 -0.05031285 0.0032981562 0.09786892 -0.00027012097 -0.010538331 0.03759079
0.0014693291 -0.008227725 -0.0037077994 -0.0059799505 0.00017238372 -0.0070645814 -0.005494584 -0.005086485
-0.009630706 -0.0007795497 -0.008101087 -0.0065370817 5.9117097e-05 -0.0068290937 -0.0006083862 -8.309522e-05
-0.008606359 -2.2389951e-05 -0.0026954045 0.003837077 0.019613747 -0.009959166 0.0027629258 0.00045045125
0.0009385854 0.007065956 0.005238681 0.004686863 -0.0029585173 -0.0042424724 -0.004141078 0.0038087242
0.00031568817 0.008191427 -0.010173146 -0.0040242136 -0.0093495445 0.00053268723 -0.00044841162 0.014445884
-5.7426943e-05 -0.024891198 -0.0116571095 -0.017146718 -0.00050376647 -0.020201236 -0.019335082 -0.016446404
-0.028002458 -0.006811065 -0.020812554 -0.01893329 -0.0010396147 -0.01371931 -0.004281737 -0.0020380626
00000000: 3fe3 68b9 6a28 cebb 0087 22bb d462 39bb
00000010: 2eab d0ba 608b 90bb 2ae4 abba 10db 50bb
00000020: 7e0c b3bb f603 21bb 85cc 8fbb f036 3bbb
00000030: 1c64 a6b8 e6a8 3abb e5f2 78bb f995 83b8
00000040: 065f 64bb ae1f b7b6 3a95 abba 5386 3238
00000050: ac18 103b 2db5 32bc 72a7 27bb e94b d3bb
00000060: 1b79 deba 5bc5 7bbb d747 8cbb 2656 dfbb
00000070: a84e 31bc 6e04 9abb 45f7 2dbc c4ac 1cbc
00000080: 0104 86b6 d3ed 38bc e9ee 473a 2237 9239
00000090: 564f 0bbc 5cc7 60b7 17b6 45bb b50e b3ba
000000a0: 3492 033c e935 44bc 0d0d 30bb b4cf bdbb
000000b0: c10d 2a3a cf73 adbb bf13 ccba fae4 cabb
000000c0: b17b 1fbc 66f2 22bc 97ed 09bc 25ca bcbb
000000d0: 4542 b638 7f8b b1bb 6f16 afbb a462 60ba
000000e0: 5fba ccbb ea9d 08b8 6c9f 173a 0c66 34bb
000000f0: 9990 e13c a2d3 55bc c402 cd3b 58f5 16bb
00000100: a24e e83b 9ab5 5fbc e6a6 79bb dc9d 72bc
00000110: 9da7 cbbb 7c8a c3ba e059 58bc 1267 50bc
00000120: bcbb ae3b 0f5b 78bc a141 bfba 94e7 beb9
00000130: faa2 b63a d48a adba b565 9d3c 0170 bdbc
00000140: e7f0 55ba 480b 64bc 049a b7bb 1269 02bc
00000150: 0326 2ebb 9b82 31bc 0a97 00bc 93b2 1dbc
00000160: a4a3 88bc 5259 9fbb 8660 4abc 1c3a 10bc
00000170: b01a fab9 18a6 ebbb a43b a2bb 6a13 14ba
00000180: 7a58 6bbc 8f43 4438 cb1f ccb9 221d 153b
00000190: 030d d0bd 598d 113e dc05 423d 2588 383e
000001a0: 1397 b0bd 81f3 933d 920a f83d 508b 58bc
000001b0: af06 e03d 1945 17be 3c0b 913d 74eb cebd
000001c0: 59e6 893c e502 83bd 3985 bb3d a27f ba3c
000001d0: 906f ed3d cf12 1439 89bd f13d 1c04 47be
000001e0: 74af 703d 324e 6dba 9c37 923c 26ce ed3c
000001f0: 145f d93b 3df2 173c 438b f13c 48a9 e53b
00000200: 406c 9e3c 6029 47ba 43d9 573c 5401 b13b
00000210: 9e5e 5a3c b29c 1d3c dd93 c0ba e897 4abc
00000220: 6248 9abc 3cfc 3fba 375e 443d e0d9 2fbc
00000230: 8dcf 9c3c 2a89 6cbd 97f1 a43c 42f6 8a3b
00000240: ce45 673c f83b 5f39 b88a 57bc d6ab cabc
00000250: fd0a 63bc 83a1 81bc 3cee 163c 08ed 753a
00000260: 0c2e 8f3c 7df3 ea3c bc91 15bd de1b 72bc
00000270: b41a 183c 13a6 b939 417a 00bc 36d0 a4bb
00000280: 62c0 353c c439 89bc 4d5e 053b 864e a3bb
00000290: efb3 743b efe6 fe39 99db 63bb e15a abba
000002a0: bf6f 1ebc 51df e1bb ea9e e4bb bc5b 5abb
000002b0: bb6b 023a d1f3 973a 7f25 87bb 6a9b 72ba
000002c0: 740e 4dbb 2a1d 8ab8 2ea4 bb3a 5d85 233a
000002d0: 7989 abbd f814 c23e a811 793d 40a5 e03d
000002e0: dd75 23bc 70e8 8cbc 0734 b53d b1e3 2d3e
000002f0: e1ce a83d 759d c7bc db73 a53d 87fc d23d
00000300: 05a2 403d ca49 dc3d d914 4ebd e125 583b
00000310: 806f c83d 069f 8db9 f7a8 2cbc cdf8 193d
00000320: 8196 c03a 94cd 06bc 8dfe 72bb 76f3 c3bb
00000330: e7c1 3439 017e e7bb e90b b4bb 87ac a6bb
00000340: 1cca 1dbc b25a 4cba 6cba 04bc 0435 d6bb
00000350: 80f4 7738 97c6 dfbb 1b7c 1fba 6843 aeb8
00000360: b001 0dbc 0ed2 bbb7 62a5 30bb 7877 7b3b
00000370: 02ad a03c c52b 23bc 3412 353b 8b2a ec39
00000380: 660b 763a 8989 e73b 3ea9 ab3b 4294 993b
00000390: afe3 41bb 7004 8bbb e1b1 87bb ca9b 793b
000003a0: f382 a539 5635 063c 44ad 26bc 8ddd 83bb
000003b0: d52e 19bc 09a4 0b3a ca18 ebb9 6eae 6c3c
000003c0: b6dd 70b8 a0e8 cbbc 76fd 3ebc 4677 8cbc
000003d0: 320f 04ba 107d a5bc 9b64 9ebc 9cba 86bc
000003e0: 6965 e5bc 5b2f dfbb 177f aabc fd19 9bbc
000003f0: ae43 88ba f5c6 60bc d04d 8cbb 0491 05bb

lstm.weight_hh_l0 f4 [256, 64]
-7.058149e-05 -7.788012e-05 -3.5685676e-05 -0.00027408914 -0.00025638065 -0.0017151757 3.1483487e-05 -0.0006105572
-0.00023968003 -0.001061903 0.0002998033 -0.00039859232 -0.00057347864 -0.00024963674 -0.00020500214 -4.642576e-05
-0.00029818507 -0.0003543143 0.00044568055 -0.00013104182 -8.474497e-05 9.042821e-05 -1.4557741e-05 -2.9372773e-05
4.0465595e-05 0.0009694957 -4.5979898e-05 0.0003879357 -0.00030865942 -3.047136e-05 1.1771739e-05 6.911721e-05
0.00011632388 -7.426874e-05 0.00021869429 -3.904395e-05 2.755436e-05 0.00015186345 -7.736022e-05 -0.00010536577
-5.100701e-07 6.4443107e-06 -8.967557e-05 -0.00017149888 5.081673e-05 0.0003121272 -5.6329765e-05 1.0716889e-05
0.001255916 -0.0004681161 6.4641295e-05 -0.00026046974 0.001287257 -0.000759765 0.00025402964 -0.0002798573
0.00020599093 0.0015702889 0.00012484596 -0.00033218833 0.00022873169 2.5902631e-05 -8.463784e-05 -0.00044546011
4.362965e-05 -2.3074228e-05 -0.00017530218 0.00089270645 -3.196035e-05 -0.0023900932 0.00079805334 0.00035558298
0.00015521774 -0.00059807976 3.18408e-05 -0.00036747195 0.0001617368 -0.00037623904 0.00026315678 -4.0711184e-05
0.00028837338 0.00019222696 -0.00029703064 -8.991657e-05 -0.0006163316 -0.00021348949 1.50995365e-05 -0.00024427415
-0.00014039912 0.0002847749 -3.7444457e-05 -0.0005038169 0.00044408118 -5.8695252e-05 -0.00019492293 -0.00045775212
-8.2040766e-05 -0.0004891288 0.00014644816 0.00010299785 -7.742839e-05 6.3566564e-05 0.00025285178 0.00030151027
-0.00026133782 -0.00045152087 0.00022152899 0.00023914325 0.00045591535 0.0006297246 -0.00023217207 -8.93899e-05
-0.000314734 0.00065109716 -3.975181e-05 -4.076874e-05 0.003003787 0.0008852085 -0.0006523093 0.00017167833
-0.0002530469 0.00027761745 -6.844867e-05 3.7644e-05 0.00047493487 0.0006943873 0.0011219309 5.550107e-05
-9.631562e-05 -0.00023687344 -0.0005895656 2.5123081e-05 -0.00019802578 0.0023007304 0.00032565882 -0.0017361089
-0.00080599904 0.002409707 0.00035619133 2.2744305e-05 -0.00039839325 0.0006093802 0.0005303708 -0.00013234426
0.00039621425 0.0007060316 -7.020175e-05 0.00046268138 -0.0005374733 -5.992647e-05 1.1907903e-05 -0.00021704836
8.840011e-05 -0.003382405 -0.0005397068 0.00024821173 -0.00017158994 -0.0001780188 -0.00033988428 0.0005785841
-0.0006512966 0.00012081159 -0.00022537903 -9.978804e-05 0.00025888043 3.9242346e-05 0.00047463953 0.00032894203
0.00056782167 -7.862706e-06 -0.00042305884 -0.00034360314 -0.00026838467 0.0033973868 -7.508294e-05 -2.0428619e-05
-0.0013455923 -0.0020212082 -2.5703106e-05 0.00048737586 0.0035177232 -0.002252134 0.000101464044 -0.00020464824
-0.00059349317 -0.002215056 -0.0003624589 0.004032083 -0.0011753666 0.0006488558 0.0004981191 -0.00042252228
0.0006611707 0.00039904355 -0.0016532368 -0.0011904949 0.0013764002 0.0033018247 -0.0022543143 -0.0022397265
-0.0028993266 -0.00010063045 -5.2413445e-05 2.0570722e-05 0.0004986764 0.0027585223 0.0038700094 0.0005424772
0.0034344709 0.0027947617 -0.0047378754 0.0010516145 -0.00088113325 -0.0021609836 -0.0004624333 -0.0025914903
-0.0011238911 -0.003668726 -0.0014221723 0.0037252186 0.0008907198 -0.0006182899 -0.0011376409 0.0010807787
-0.002830905 -0.0012346751 -0.0023338418 0.0012461981 0.001260882 -0.0004149485 -0.00067181257 0.003788541
0.002495913 0.001722503 0.00057784456 -0.0024882788 -0.0010274334 0.005773377 0.0005848045 0.004492074
-0.0038459767 -0.0025285862 -0.0021672326 -0.00031581026 0.004383536 0.00016582271 0.005726849 0.001989858
-0.003259159 0.0025259517 -0.0015257914 0.0074942396 -0.001167326 0.0025666298 0.001912679 0.0016573337
00000000: 2605 94b8 9253 a3b8 34ad 15b8 9fb3 8fb9
00000010: d46a 86b9 bfcf e0ba 230d 0438 cd0d 20ba
00000020: 9e52 7bb9 8d2f 8bba eb2e 9d39 28fa d0b9
00000030: 8055 16ba ade1 82b9 d8f5 56b9 48b9 42b8
00000040: b955 9cb9 43c3 b9b9 3baa e939 4568 09b9
00000050: 1cb9 b1b8 47a4 bd38 063d 74b7 8d65 f6b7
00000060: 9ab9 2938 c125 7e3a 8ada 40b8 d963 cb39
00000070: 91d3 a1b9 bf9c ffb7 3c7f 4537 05f3 9038
00000080: e8f2 f338 bac0 9bb8 4d51 6539 1fc3 23b8
00000090: 8a24 e737 893d 1f39 743c a2b8 d1f7 dcb8
000000a0: c0eb 08b5 353c d836 3410 bcb8 61d4 33b9
000000b0: 0c24 5538 01a5 a339 a043 6cb8 b0cc 3337
000000c0: 8c9d a43a 7b6d f5b9 0890 8738 a88f 88b9
000000d0: 2db9 a83a f72a 47ba 482f 8539 d0b9 92b9
000000e0: 45ff 5739 27d2 cd3a 15e9 0239 9029 aeb9
000000f0: b2d7 6f39 7a49 d937 987f b1b8 a58c e9b9
00000100: fbfe 3638 878f c1b7 52d1 37b9 8404 6a3a
00000110: 2a0d 06b8 1ca3 1cbb 7434 513a 8a6d ba39
00000120: f2c1 2239 74c8 1cba cc8c 0538 40a9 c0b9
00000130: e497 2939 f341 c5b9 4ef8 8939 4dc1 2ab8
00000140: d230 9739 8890 4939 c7ba 9bb9 9791 bcb8
00000150: 5091 21ba 26dc 5fb9 0454 7d37 ec11 80b9
00000160: 1a38 13b9 d74d 9539 ae0d 1db8 9412 04ba
00000170: 91d3 e839 8c2f 76b8 3a64 4cb9 73fe efb9
00000180: 4d0d acb8 e138 00ba e18f 1939 8d00 d838
00000190: 0d61 a2b8 0a4f 8538 3191 8439 0614 9e39
000001a0: 2b04 89b9 1bba ecb9 3c4a 6839 87c2 7a39
000001b0: ec07 ef39 1a14 253a 3773 73b9 d676 bbb8
000001c0: e202 a5b9 64ae 2a3a 2ebb 26b8 1aff 2ab8
000001d0: 2fdb 443b 560d 683a bcff 2aba 8d04 3439
000001e0: 61ab 84b9 2f8d 9139 1a8c 8fb8 f0e3 1d38
000001f0: ae00 f939 8b07 363a c10d 933a d2c9 6838
00000200: 0efd c9b8 3b61 78b9 148d 1aba 68bf d237
00000210: 24a5 4fb9 dac7 163b 30bd aa39 268e e3ba
00000220: ae49 53ba 2dec 1d3b 31bf ba39 06cb be37
00000230: 70df d0b9 d0be 1f3a 9508 0b3a e4c5 0ab9
00000240: faba cf39 fb14 393a 4739 93b8 0b94 f239
00000250: 39e5 0cba 8f59 7bb8 0ec8 4737 7a97 63b9
00000260: 7363 b938 57ab 5dbb 1c7b 0dba 6a22 8239
00000270: d3ec 33b9 8faa 3ab9 7f32 b2b9 1fac 173a
00000280: c6bb 2aba 3a5c fd38 b953 6cb9 4c45 d1b8
00000290: 58ba 8739 2698 2438 0ad9 f839 da75 ac39
000002a0: ded9 143a 11ea 03b7 ffcd ddb9 a225 b4b9
000002b0: fbb5 8cb9 b1a6 5e3b d975 9db8 205e abb7
000002c0: 965e b0ba 3f76 04bb 009d d7b7 7b86 ff39
000002d0: 9a89 663b 8a98 13bb 18c9 d438 d896 56b9
000002e0: a794 1bba 792a 11bb 6908 beb9 901f 843b
000002f0: c20e 9aba fa17 2a3a 3594 023a fb85 ddb9
00000300: 6a52 2d3a b836 d139 6cb1 d8ba 610a 9cba
00000310: 5468 b43a 6d63 583b 1ebd 13bb 60c8 12bb
00000320: a102 3ebb 9009 d3b8 82d6 5bb8 4a8f ac37
00000330: 9bb9 023a 53c8 343b fc9f 7d3b 0735 0e3a
00000340: dc14 613b 5228 373b 2e40 9bbb 54d6 893a
00000350: dafb 66ba 4a9f 0dbb bf72 f2b9 fed5 29bb
00000360: 874f 93ba 026f 70bb 2f68 baba cc22 743b
00000370: 327f 693a bc14 22ba e51c 95ba eaa8 8d3a
00000380: b486 39bb d2d4 a1ba 5ef3 18bb 7857 a33a
00000390: 2e44 a53a 728d d9b9 941c 30ba 2c49 783b
000003a0: 7992 233b 9cc5 e13a 7e7a 173a 6412 23bb
000003b0: f2aa 86ba 992e bd3b 914d 193a 3f32 933b
000003c0: c80c 7cbb a3b6 25bb 2108 0ebb 5693 a5b9
000003d0: c4a3 8f3b b2e0 2d39 4ba8 bb3b 4768 023b
000003e0: 9d97 55bb 708a 253b 10fd c7ba 3d92 f53b
000003f0: f600 99ba e734 283b dcb2 fa3a e43a d93a

lstm.bias_ih_l0 f4 [256]
-0.008784384 -0.016299412 -0.013325551 -0.009590159 -0.020782962 0.041421887 0.013260035 -0.004160844
-0.013192463 0.11831654 -0.012938358 -0.008074711 -0.031244827 -0.04654488 -0.017256446 -0.039843418
-0.027565464 -0.029472252 -0.030177489 -0.017367337 -0.019590689 -0.017995797 -0.027221693 -0.036381375
-0.024099233 0.14612004 -0.027062723 -0.013105361 -0.039641894 -0.032981783 -0.024908341 -0.064636044
-0.034603927 -0.016690055 -0.046986967 -0.013974545 -0.017523257 -0.015121576 -0.030372033 -0.032604232
-0.03782922 -0.015383547 -0.020545693 -0.016499672 -0.04621039 0.038710117 -0.026312524 -0.0023772193
0.110707626 0.007944285 -0.026865477 -0.023831995 0.029647771 0.013141767 -0.012441197 -0.019941268
-0.022732079 0.05144982 -0.01976213 0.0999952 -0.009013826 -0.01026348 0.0078045544 -0.035936814
-0.009963051 -0.01427469 -0.011469411 -0.0296838 -0.016366653 0.11634203 -0.022143418 -0.02710279
-0.02040593 -0.096594855 -0.011564727 -0.028391814 -0.026304923 -0.036518384 -0.015711553 -0.039191097
-0.023397915 -0.026956912 -0.026997916 -0.0148586705 -0.014753383 -0.016596373 -0.027315104 -0.027623363
-0.02699317 -0.14060551 -0.024935335 -0.018138321 -0.026449492 -0.03924809 -0.019827327 -0.04132794
-0.024264578 -0.022065753 -0.032534394 -0.01143595 -0.015889242 -0.01327204 -0.025928317 -0.02636543
-0.026923385 -0.011835469 -0.015588806 -0.013572303 -0.032209598 -0.074276775 -0.020292254 -0.013181231
-0.090189554 -0.021556532 -0.021053024 -0.021873202 0.03167523 -0.006241794 -0.012348298 -0.014536811
-0.018730687 -0.053287894 -0.021448405 -0.09184717 -0.03224865 -0.008798424 -0.010000818 -0.031287123
-0.0046207667 0.0037840498 -0.003320186 0.014764933 -0.0005124201 0.07553155 -0.014754869 0.03707428
0.006569611 0.11659328 -0.009182887 -0.009850853 0.00268025 -0.012935552 -0.000119196426 -0.010040092
0.01038292 0.009615825 -0.0067072837 0.0016677262 -0.0055123055 -0.000612385 -0.007815251 0.00212533
-0.011280183 -0.112700485 -0.006910151 -0.030040868 0.010776635 -0.008153389 -0.009817865 -0.010406302
0.0060160337 -0.06261694 0.016916292 -0.0024814736 0.009201479 -0.0016619046 0.0007991166 0.007390333
-0.014000301 -0.05900251 0.013387661 0.0029449686 0.0082407035 0.069665395 -0.0021153039 0.06803873
-0.06931122 0.077449836 -0.006564751 -0.008273219 -0.17814216 0.1154198 0.01056415 0.007077445
-0.00624104 0.20173341 0.0009728895 0.13661014 0.044336215 -0.0025508734 0.12258469 -0.0012614713
-0.022743821 -0.017149383 -0.01436676 -0.009319783 -0.021154318 0.074980915 0.016718138 -0.0070320484
-0.015013931 0.14685911 -0.013904803 -0.009450866 -0.031759042 -0.047357474 -0.02081911 -0.0841777
-0.033627376 -0.030139301 -0.030215291 -0.0214509 -0.019799966 -0.02014405 -0.04357271 -0.03997546
-0.036080513 0.16516395 -0.027411863 -0.014544071 -0.04138851 -0.06153267 -0.026377551 -0.07936139
-0.0370824 -0.018173253 -0.05097846 -0.017161004 -0.018349493 -0.015907679 -0.030949444 -0.034299053
-0.039510895 -0.01595069 -0.021957705 -0.01667146 -0.05464117 0.039101236 -0.028291581 -0.0024816704
0.1280039 0.0055286046 -0.029813977 -0.024265824 0.001824247 -0.00012798759 -0.0130277295 -0.020564076
-0.024756186 0.034518808 -0.028268704 0.11237931 -0.010106149 -0.010789821 -2.730044e-05 -0.037469562
00000000: 60ec 0fbc 5886 85bc 6953 5abc 0b20 1dbc
00000010: 0841 aabc ffa9 293d 9e40 593c b057 88bb
00000020: 3325 58bc f14f f23d 68fb 53bc cb4b 04bc
00000030: 27f5 ffbc d8a5 3ebd 645d 8dbc da32 23bd
00000040: f8d0 e1bc cb6f f1bc c836 f7bc f245 8ebc
00000050: a77c a0bc ec6b 93bc 0700 dfbc a304 15bd
00000060: c16b c5bc 7ea0 153e a5b2 ddbc deb7 56bc
00000070: 8a5f 22bd e817 07bd 940c ccbc e75f 84bd
00000080: d9bc 0dbd 95b9 88bc 6875 40bd 7df5 64bc
00000090: ef8c 8fbc 7dc0 77bc c5ce f8bc 048c 05bd
000000a0: d0f2 1abd 460b 7cbc 714f a8bc 522a 87bc
000000b0: 1b47 3dbd 808e 1e3d 5d8d d7bc 1fcb 1bbb
000000c0: aeba e23d bf28 023c fd14 dcbc 513b c3bc
000000d0: e2df f23c 9150 573c 2ad6 4bbc df5b a3bc
000000e0: a038 babc 0cbd 523d 31e4 a1bc 49ca cc3d
000000f0: baae 13bc 2828 28bc 59bd ff3b 7b32 13bd
00000100: 113c 23bc 64e0 69bc 32ea 3bbc 712b f3bc
00000110: 5c13 86bc bb44 ee3d 1d66 b5bc ac06 debc
00000120: 562a a7bc 86d3 c5bd fb79 3dbc f395 e8bc
00000130: 6c7d d7bc 4d94 15bd 84b5 80bc d886 20bd
00000140: fcac bfbc bed4 dcbc bc2a ddbc c871 73bc
00000150: 2cb8 71bc 1ef5 87bc edc3 dfbc 644a e2bc
00000160: c820 ddbc e4fa 0fbe 3045 ccbc d196 94bc
00000170: 9bac d8bc 9bc2 20bd eb6c a2bc 7c47 29bd
00000180: 82c6 c6bc 3dc3 b4bc c942 05bd da5d 3bbc
00000190: 282a 82bc f872 59bc 9f67 d4bc 50fc d7bc
000001a0: 6e8e dcbc 8ee9 41bc 3168 7fbc 5d5e 5ebc
000001b0: 36ee 03bd 6c1e 98bd f13b a6bc 17f6 57bc
000001c0: 4db5 b8bd 5397 b0bc 6477 acbc 6e2f b3bc
000001d0: e3bd 013d f787 ccbb 8450 4abc ce2b 6ebc
000001e0: 1971 99bc 6844 5abd 91b4 afbc 5e1a bcbd
000001f0: 2917 04bd 4427 10bc 79da 23bc ed26 00bd
00000200: cd69 97bb d2fd 773b 7a97 59bb 9ee8 713c
00000210: ee53 06ba 49b0 9a3d 68be 71bc 33db 173d
00000220: e445 d73b 75c8 ee3d d273 16bc 7965 21bc
00000230: 22a7 2f3b a3ef 53bc 18f9 f9b8 337f 24bc
00000240: 1f1d 2a3c b18b 1d3c c6c8 dbbb 9b97 da3a
00000250: 92a0 b4bb 7688 20ba 8a0b 00bc 1f49 0b3b
00000260: 84d0 38bc 83cf e6bd 8c6e e2bb 4418 f6bc
00000270: 7c90 303c cb95 05bc 1cdb 20bc 327f 2abc
00000280: 2622 c53b 4f3d 80bd 0994 8a3c 38a0 22bb
00000290: cdc1 163c 44d4 d9ba cf7b 513a 9b2a f23b
000002a0: 8561 65bc 9eac 71bd ec57 5b3c 6000 413b
000002b0: 0404 073c bbac 8e3d e9a0 0abb e457 8b3d
000002c0: 0af3 8dbd 059e 9e3d 1f1d d7bb 658c 07bc
000002d0: e66a 36be 3761 ec3d 4215 2d3c e9e9 e73b
000002e0: a381 ccbb 3493 4e3e 8209 7f3a 87e3 0b3e
000002f0: e499 353d 8e2c 27bb af0d fb3d f457 a5ba
00000300: 4051 babc dd7c 8cbc 8f62 6bbc 01b2 18bc
00000310: d24b adbc 988f 993d 7af4 883c 196d e6bb
00000320: fefc 75bc 3c62 163e f9d0 63bc ced7 1abc
00000330: c515 02bd e9f9 41bd d78c aabc 5c65 acbd
00000340: dcbc 09bd b2e6 f6bc 0f86 f7bc ccb9 afbc
00000350: 8a33 a2bc 2205 a5bc 4c79 32bd 4fbd 23bd
00000360: 29c9 13bd bd20 293e d88e e0bc 414a 6ebc
00000370: 0087 29bd ae09 7cbd bc15 d8bc 3988 a2bd
00000380: b7e3 17bd 13e0 94bc cace 50bd 3c95 8cbc
00000390: ad51 96bc d250 82bc b089 fdbc 2a7d 0cbd
000003a0: 2dd6 21bd 05ab 82bc a5e0 b3bc 9692 88bc
000003b0: 6bcf 5fbd 9e28 203d bfc3 e7bc 85a3 22bb
000003c0: 7413 033e 4c29 b53b 713c f4bc 1fc9 c6bc
000003d0: 921b ef3a 6834 06b9 4272 55bc fe75 a8bc
000003e0: 7ccd cabc 9863 0d3d c593 e7bc 2027 e63d
000003f0: 4394 25bc cac7 30bc 4003 e5b7 af79 19bd

lstm.bias_hh_l0 f4 [256]
-0.008785384 -0.016299633 -0.013324221 -0.009589889 -0.020782316 0.043004204 0.013260037 -0.0041599623
-0.013191826 0.11848327 -0.012939821 -0.008074384 -0.031244481 -0.046544053 -0.017257512 -0.039842002
-0.027566236 -0.029472247 -0.030177385 -0.017369494 -0.019591184 -0.017997202 -0.027222348 -0.036382273
-0.024099339 0.14612618 -0.027062805 -0.0131053645 -0.039645694 -0.032981988 -0.024907636 -0.06463508
-0.03460782 -0.01668952 -0.0469772 -0.013973899 -0.017523024 -0.015120919 -0.030372474 -0.032607615
-0.03783664 -0.015402201 -0.02054453 -0.016503265 -0.046206046 0.038711082 -0.026313668 -0.002375456
0.11072676 0.007968149 -0.026862696 -0.023831995 0.029469788 0.01329523 -0.012439379 -0.019945933
-0.022732135 0.04967686 -0.019765055 0.09991082 -0.009021231 -0.010262905 0.0077537373 -0.035937168
-0.00996184 -0.014274634 -0.011471183 -0.029683251 -0.016371945 0.14386813 -0.022144085 -0.02712819
-0.020405957 -0.098131284 -0.011565448 -0.028393416 -0.026306443 -0.036519952 -0.015709365 -0.039191663
-0.02339777 -0.026956942 -0.026998099 -0.014857721 -0.014753541 -0.016597036 -0.027315462 -0.02762201
-0.026992582 -0.14063498 -0.024934094 -0.01813784 -0.026451651 -0.039241664 -0.019826453 -0.041327924
-0.024263343 -0.02193556 -0.032534897 -0.011435857 -0.015889248 -0.013272016 -0.025928272 -0.02636867
-0.026923178 -0.011835691 -0.015585107 -0.013575254 -0.03221392 -0.07427646 -0.020292183 -0.013181558
-0.09021326 -0.021521471 -0.021054177 -0.021873392 0.012033528 -0.0062681655 -0.012345548 -0.0145391
-0.018730698 -0.06363076 -0.021448947 -0.09174237 -0.032250732 -0.008795627 -0.009855176 -0.031286307
-0.004351501 0.0052258754 -0.0038259178 -0.00772286 0.0027397815 -0.10185136 0.04096364 0.0668972
0.02840153 0.08739043 0.011288412 0.0009218912 0.020394951 -0.008085773 -0.0013008607 -0.010235407
0.009801786 0.01263438 -0.0064458703 -0.0006254921 -0.002538472 -0.006410434 -0.007335677 0.004017803
-0.008926432 -0.067322575 0.009619504 -0.012421308 0.010775517 -0.003712148 -0.00902266 -0.010769491
0.008014132 -0.07379756 0.015324169 -0.0026632645 0.00067443267 -0.0028120927 0.01568281 0.006291377
-0.013833969 -0.020123754 0.011929684 -0.012249308 0.0065782387 0.073699705 -0.0020558636 0.053390954
-0.13226463 0.06627581 -0.0048145694 -0.003059742 -0.24336518 0.09973622 -0.013101383 -0.0038755275
-0.012294799 0.16394316 -0.005733112 0.041882746 0.055446677 0.0024672262 0.13590322 -0.0012453154
-0.022753283 -0.017148472 -0.014363666 -0.0093198 -0.021154318 0.07567495 0.01671854 -0.0070147454
-0.015013592 0.14629492 -0.013905751 -0.009450781 -0.03175952 -0.04735952 -0.020817759 -0.08417181
-0.033627618 -0.030139407 -0.030215 -0.021452196 -0.01980102 -0.0201439 -0.043572642 -0.039975446
-0.036082882 0.16517486 -0.027412217 -0.014543843 -0.041385025 -0.06153965 -0.026376463 -0.079360776
-0.037078097 -0.018139303 -0.050989952 -0.017161867 -0.018349266 -0.0159093 -0.03094861 -0.03429898
-0.0395089 -0.015943097 -0.021966726 -0.01666636 -0.054640982 0.039100893 -0.028291713 -0.002480552
0.12799358 0.005556675 -0.029808812 -0.024266535 0.010606119 4.0333503e-05 -0.013026602 -0.020568212
-0.024756324 0.035514943 -0.02827483 0.112449326 -0.010165026 -0.0107917 -0.00015628556 -0.03746803
00000000: 92f0 0fbc cf86 85bc d54d 5abc e91e 1dbc
00000010: ad3f aabc 2d25 303d a040 593c 4b50 88bb
00000020: 8722 58bc 5ba7 f23d 8b01 54bc 6c4a 04bc
00000030: 6df4 ffbc faa4 3ebd a05f 8dbc 5e31 23bd
00000040: 96d2 e1bc c86f f1bc 9036 f7bc 784a 8ebc
00000050: b17d a0bc de6e 93bc 6701 dfbc 9405 15bd
00000060: fa6b c5bc 1aa2 153e d1b2 ddbc e2b7 56bc
00000070: 8663 22bd 1f18 07bd 190b ccbc 665f 84bd
00000080: eec0 0dbd 76b8 88bc 2a6b 40bd c8f2 64bc
00000090: 728c 8fbc bbbd 77bc b2cf f8bc 908f 05bd
000000a0: 98fa 1abd 8359 7cbc 014d a8bc db31 87bc
000000b0: 8d42 3dbd 838f 1e3d c38f d7bc 8aad 1bbb
000000c0: b6c4 e23d d78c 023c 280f dcbc 513b c3bc
000000d0: a06a f13c 3dd4 593c 89ce 4bbc a765 a3bc
000000e0: be38 babc f779 4b3d 53ea a1bc 0b9e cc3d
000000f0: c9cd 13bc be25 28bc 1013 fe3b da32 13bd
00000100: fc36 23bc 28e0 69bc a1f1 3bbc 4a2a f3bc
00000110: 751e 86bc 2b52 133e 8367 b5bc f03b debc
00000120: 652a a7bc 0ef9 c8bd 017d 3dbc 4f99 e8bc
00000130: 9c80 d7bc f295 15bd edb0 80bc 7087 20bd
00000140: aeac bfbc ced4 dcbc 1e2b ddbc cc6d 73bc
00000150: d6b8 71bc 82f6 87bc adc4 dfbc 8e47 e2bc
00000160: 8c1f ddbc 9e02 10be 9642 ccbc cf95 94bc
00000170: 22b1 d8bc debb 20bd 166b a2bc 7847 29bd
00000180: ebc3 c6bc 34b2 b3bc 5043 05bd 765d 3bbc
00000190: 2b2a 82bc df72 59bc 8767 d4bc 1c03 d8bc
000001a0: ff8d dcbc 7cea 41bc ad58 7fbc be6a 5ebc
000001b0: bef2 03bd 421e 98bd cb3b a6bc 76f7 57bc
000001c0: bbc1 b8bd cc4d b0bc cf79 acbc d42f b3bc
000001d0: 4628 453c 2f65 cdbb fb44 4abc 6835 6ebc
000001e0: 1f71 99bc d850 82bd b4b5 afbc 6ce3 bbbd
000001f0: 5819 04bd 891b 10bc 9b77 21bc 1226 00bd
00000200: 0997 8ebb d23d ab3b 40bc 7abb 0c10 fdbb
00000210: e88d 333b 7297 d0bd 7dc9 273d 6601 893d
00000220: 53aa e83c c1f9 b23d 08f3 383c 12ab 713a
00000230: 5013 a73c 317a 04bc a481 aaba 69b2 27bc
00000240: ac97 203c 6e00 4f3c e137 d3bb 10f8 23ba
00000250: 7e5c 26bb 9e0e d2bb 1e60 f0bb c6a7 833b
00000260: 2b40 12bc 6be0 89bd 209b 1d3c be82 4bbc
00000270: cb8b 303c 8247 73bb c7d3 13bc 8572 30bc
00000280: b54d 033c 2d23 97bd 3912 7b3c 2a8a 2ebb
00000290: 69cc 303a 164b 38bb 3d79 803c e527 ce3b
000002a0: dfa7 62bc 92da a4bc b974 433c 52b1 48bc
000002b0: 448e d73b dfef 963d abbb 06bb 79b0 5a3d
000002c0: 6170 07be 9dbb 873d 89c3 9dbb f485 48bb
000002d0: b934 79be 8142 cc3d 2fa7 56bc 90fc 7dbb
000002e0: 2070 49bc b7e0 273e d4dc bbbb 3e8d 2b3d
000002f0: 0e1c 633d 30b1 213b 372a 0b3e da39 a3ba
00000300: 1865 babc f47a 8cbc 9555 6bbc 13b2 18bc
00000310: d24b adbc 78fb 9a3d 52f5 883c f3db e5bb
00000320: 92fb 75bc 56ce 153e f2d4 63bc 73d7 1abc
00000330: 4516 02bd 0efc 41bd 018a aabc 4562 acbd
00000340: 1dbd 09bd ebe6 f6bc 7385 f7bc 84bc afbc
00000350: c035 a2bc d204 a5bc 3a79 32bd 4bbd 23bd
00000360: a5cb 13bd 9923 293e 968f e0bc 4d49 6ebc
00000370: 5883 29bd 0011 7cbd 7413 d8bc e787 a2bd
00000380: 34df 17bd e098 94bc d7da 50bd 0b97 8cbc
00000390: 3351 96bc 3854 82bc f087 fdbc 167d 0cbd
000003a0: 16d4 21bd 199b 82bc 90f3 b3bc e487 88bc
000003b0: 39cf 5fbd 4228 203d 06c4 e7bc c290 22bb
000003c0: c010 033e c514 b63b 9c31 f4bc 9dca c6bc
000003d0: 4ac5 2d3c c52b 2938 876d 55bc ab7e a8bc
000003e0: c6cd cabc 1e78 113d 9ea0 e7bc d54b e63d
000003f0: 368b 26bc accf 30bc 96e0 23b9 1478 19bd

lstm.weight_ih_l1 f4 [256, 64]
0.0002857445 -0.0004416721 -0.00053116336 -0.00026339074 -0.00027721733 0.0043443674 -0.00012224834 -0.002305391
-0.0012933204 0.0014171295 0.0005637161 0.0006929704 -0.0011557644 0.00041795746 -1.1397545e-05 -0.00019076731
-0.00078793475 0.00012661114 0.0006533778 0.00034951008 -0.0006699214 -0.0003077581 -4.5027067e-05 5.824937e-05
0.0003644098 -0.0029809347 -0.0011085573 0.0014077886 -0.00083150313 1.5022568e-05 6.268407e-05 0.00049553433
-0.0007822825 0.0010450479 -0.0007794803 0.0002672957 -0.0005677536 0.0014827176 -0.00012586985 -0.0008247795
0.0005326177 0.0005577126 -0.0007253089 -0.00036480118 -0.0005074559 0.0023756744 -0.00018958918 -0.00045777223
-0.00025367213 -0.003024659 -0.00014483856 -0.00016908786 0.0018580782 -0.0036131362 0.00120106 -0.000943923
5.3994427e-05 -0.0037938545 -3.0511248e-05 0.0034008818 -0.0018062431 0.00025178568 -0.001407582 -0.0002467211
1.0755996e-05 -0.000103700906 -9.6503485e-05 -0.00015314143 -0.00014275558 0.00016037132 0.00012245259 -0.00035673645
-0.0002456004 0.000519959 9.325914e-05 -8.1241e-05 -0.00016790364 -0.00012908006 6.6936e-05 -9.6539385e-05
9.9675715e-05 1.38524265e-05 -2.2719669e-05 6.9232556e-05 -5.5543318e-05 -7.531522e-05 -7.0117836e-05 -0.00014113799
-3.916327e-05 -0.00086495123 -8.402324e-05 0.00012007076 -5.4178716e-05 -0.00014797784 -0.00019181041 0.000205517
-0.00023297046 -5.385396e-05 9.078047e-05 0.00012018975 8.8507026e-05 4.485793e-05 -0.00012974543 0.00017007801
0.00016543023 -4.7041125e-05 -7.876883e-06 -0.00012961357 7.7375575e-05 0.00055111997 -2.6837992e-05 0.0001170469
-0.00023330784 -0.00034814482 -0.00016963693 -0.0001926663 0.0007483165 -0.0004570749 0.0001903078 -0.00010094839
-0.00019919881 -0.0007687236 -2.7936521e-05 0.0010237283 -0.00014386952 0.00023263486 0.000119002834 -0.000190024
-0.0019922436 -0.0017472762 -0.000846578 -0.0023007942 -0.008640665 0.03218432 0.012215574 -0.020225711
-0.01161856 0.02457367 0.0001953032 -0.0058898325 -0.009797905 -0.005733764 -4.988056e-05 -0.0016890974
0.004804875 -0.007899202 0.0016576773 -0.004225976 0.0018352218 -0.00336031 -0.0033896146 -0.005859194
-0.004082346 -0.03573506 -0.0040427884 0.0007769399 -0.001285563 -0.006007398 -0.0077401055 0.0039930725
-0.0026021982 -0.0057583293 0.007767263 0.0021864863 0.0025524686 0.0018610815 0.0036092934 0.008060982
0.005881025 -0.006517704 0.0014004372 -0.0041172374 0.003954107 0.030675564 0.0002745702 0.0016832664
-0.010668994 -0.01493326 -0.0027047007 -0.008158201 0.016951175 -0.022323355 0.0011510594 -0.003372434
-0.0026104625 -0.019597821 0.001953461 0.05019372 -0.004111301 0.0069172005 0.010983421 -0.015629025
-0.00073753553 -0.0031265076 0.00017845759 -0.0011653928 -0.0023751827 0.02374567 0.0023486353 -0.008969976
-0.0031510745 0.014672924 -0.0012088511 -0.0013640847 -0.0028516552 0.00045934715 0.00064714305 -0.00097229297
0.0007190061 0.0045203823 0.0007132132 0.0030425496 -0.0016738253 -0.0034214659 -0.000262941 -0.0018997086
0.00021890487 -0.019815717 -0.0062552 0.0006352484 -0.00053391495 -0.0013520016 -0.0014321853 0.0005302021
-0.0038400542 -0.0013488778 0.0019708325 0.0014957795 -0.0012910205 0.0027975144 0.005259159 0.0025328354
0.0018094785 -0.00064743473 -0.00083026424 -0.0015128936 -0.0017093034 0.015505679 -0.0028715115 0.00097017345
-0.006009902 -0.0071488516 -0.0021155372 -0.00047817547 0.009365635 -0.011838017 7.523119e-05 -0.00047951215
-0.0029760418 -0.015586464 -0.0010089289 0.02439733 -0.0032249403 -0.0004981931 0.003061748 -0.004998213
00000000: facf 9539 3a90 e7b9 c53d 0bba b517 8ab9
00000010: 7b57 91b9 325b 8e3b ca2f 00b9 0b16 17bb
00000020: a284 a9ba fabe b93a 59c6 133a 75a8 353a
00000030: 057d 97ba 4d21 db39 1538 3fb7 b608 48b9
00000040: 688d 4eba ebc2 0439 7147 2b3a 733e b739
00000050: aa9d 2fba 985a a1b9 72db 3cb8 c950 7438
00000060: 410e bf39 c95b 43bb 034d 91ba 8c85 b83a
00000070: 3bf9 59ba 7009 7c37 4175 8338 bfe6 013a
00000080: 1712 4dba fdf9 883a 0a56 4cba d223 8c39
00000090: 4dd5 14ba bf57 c23a eefb 03b9 0436 58ba
000000a0: 5e9f 0b3a 7633 123a a822 3eba c942 bfb9
000000b0: ca06 05ba 34b1 1b3b 75cc 46b9 2601 f0b9
000000c0: 4cff 84b9 5b39 46bb cedf 17b9 2d4d 31b9
000000d0: c28a f33a 5eca 6cbb e36c 9d3a 9a71 77ba
000000e0: 1378 6238 51a2 78bb 68f2 ffb7 54e1 5e3b
000000f0: 76bf ecba 1a02 8439 9d7e b8ba 585a 81b9
00000100: a774 3437 007a d9b8 ea61 cab8 9794 20b9
00000110: a9b0 15b9 5929 2839 9e66 0039 5b08 bbb9
00000120: edc3 80b9 dc4d 083a 1f94 c338 ee5f aab8
00000130: 4a0f 30b9 aa59 07b9 fe5f 8c38 3075 cab8
00000140: fe08 d138 b867 6837 1e96 beb7 f230 9138
00000150: 2ff7 68b8 8df2 9db8 3a0c 93b8 71fe 13b9
00000160: 3e43 24b8 e5bd 62ba a235 b0b8 80ce fb38
00000170: f43d 63b8 802a 1bb9 b720 49b9 0d80 5739
00000180: 8849 74b9 40e1 61b8 6561 be38 610e fc38
00000190: d99c b938 d625 3c38 460c 08b9 f856 3239
000001a0: 5777 2d39 064e 45b8 f426 04b7 e1e8 07b9
000001b0: b244 a238 0979 103a 2622 e1b7 1377 f538
000001c0: 19a4 74b9 3587 b6b9 91e0 31b9 7706 4ab9
000001d0: ac2a 443a 8ea3 efb9 5c8d 4739 41b4 d3b8
000001e0: 06e0 50b9 2b84 49ba 3959 eab7 9f2e 863a
000001f0: aedb 16b9 72ef 7339 2991 f938 2e41 47b9
00000200: 4d90 02bb dc04 e5ba e3ec 5dba ecc8 16bb
00000210: 9391 0dbc b5d3 033d d523 483c 64b0 a5bc
00000220: c65b 3ebc b94e c93c 4eca 4c39 7fff c0bb
00000230: 6487 20bc 4ce2 bbbb d836 51b8 b464 ddba
00000240: 3672 9d3b a86b 01bc 6c46 d93a 0e7a 8abb
00000250: d38b f03a a638 5cbb 4c24 5ebb 7bfe bfbb
00000260: 33c5 85bb ed5e 12bd 5e79 84bb 8eab 4b3a
00000270: 5680 a8ba b5d9 c4bb b6a0 fdbb 52d8 823b
00000280: a489 2abb 5eb0 bcbb 8684 fe3b 274b 0f3b
00000290: 5147 273b 88ef f33a e589 6c3b 3612 043c
000002a0: 9db5 c03b 7792 d5bb e08e b73a e4e9 86bb
000002b0: 7491 813b 524b fb3c 30f4 8f39 0ca1 dc3a
000002c0: 01cd 2ebc a2aa 74bc 5941 31bb faa9 05bc
000002d0: 31dd 8a3c 78df b6bc 25df 963a 0e04 5dbb
000002e0: 4b14 2bbb 9c8b a0bc a305 003b ee97 4d3d
000002f0: 18b8 86bb afa9 e23b cef3 333c 7108 80bc
00000300: 2c57 41ba 18e6 4cbb 5820 3b39 18c0 98ba
00000310: f4a8 1bbb 4886 c23c 90eb 193b cef6 12bc
00000320: 4282 4ebb b466 703c 5072 9eba 16cb b2ba
00000330: d6e2 3abb 88d4 f039 09a5 293a 7ae1 7eba
00000340: af7b 3c3a b71f 943b edf6 3a3a 8365 473b
00000350: 4264 dbba ac3a 60bb 58db 89b9 a5ff f8ba
00000360: d489 6539 9254 a2bc 6cf8 ccbb cc86 263a
00000370: 6df6 0bba a535 b1ba 2ab8 bbba 43fd 0a3a
00000380: 6ba9 7bbb d4cc b0ba 1529 013b 080e c43a
00000390: 7637 a9ba 8156 373b 0655 ac3b edfd 253b
000003a0: 062c ed3a 9cb8 29ba 17a6 59ba 494c c6ba
000003b0: b40a e0ba 880b 7e3c f82f 3cbb 3d53 7e3a
000003c0: b6ee c4bb ea40 eabb d3a4 0abb a0b3 fab9
000003d0: 5272 193c 3ef4 41bc 70c5 9d38 0867 fbb9
000003e0: b209 43bb 5e5e 7fbc 093e 84ba e9dc c73c
000003f0: 8559 53bb 2c99 02ba 9ca7 483b 0dc8 a3bb

lstm.weight_hh_l1 f4 [256, 64]
0.00010943493 -0.00026068653 0.002856193 0.0011002253 -2.7530976e-05 -8.013593e-05 -0.00021013692 0.00039509666
0.00055806723 0.0011177536 0.00016404627 0.001591787 -0.0031888261 0.00048947206 0.0012722205 0.004071095
0.002005833 -0.0006640381 -0.00015876735 -0.0007802522 0.0006154025 0.00017194914 0.0008119104 0.00014629308
7.515374e-06 0.00074064283 0.0013473977 0.0012772295 0.00015402673 -3.600232e-05 -1.0560336e-05 -0.001075956
0.0014272704 -0.0009643641 0.00054546655 -4.6246732e-06 0.00012672273 0.001311548 -0.00073409476 -2.4591129e-05
2.4722767e-05 -0.0014808187 -0.0011325864 0.0019220621 -0.0013476978 0.0007023919 2.9345716e-05 8.408123e-05
-0.000108760025 2.3970131e-05 -0.0010014581 0.00012503575 0.00090804225 -0.0017758355 0.001966355 -5.8683836e-05
0.00014165089 0.00014800731 0.00053246174 6.688637e-06 0.00068271725 0.0013929135 -0.0006360226 -0.00013849317
9.2069895e-05 -5.1318882e-05 0.00028024224 0.00015847405 1.3667321e-05 -2.581308e-05 -7.630273e-05 7.76255e-05
1.7042894e-05 0.00013839557 5.802146e-05 0.00018995909 -0.0006249945 0.00016453073 0.00014646068 0.00072433316
0.00074929214 -0.00014345809 -2.491179e-05 -0.00013249624 0.00017710126 1.6963817e-05 -5.868138e-06 9.072706e-06
1.7267831e-07 5.1772742e-05 0.00026434378 7.848382e-05 2.7975464e-05 4.38781e-06 -8.557856e-06 -0.00021275482
0.00040568167 -0.00024013809 -6.0236835e-06 1.4041823e-05 2.0899926e-05 0.00031460554 -0.00042882125 -9.03283e-06
1.4253275e-06 -0.00024429304 -0.00020092237 0.00023651303 -0.00022289132 1.3470317e-06 -1.2561703e-05 6.94699e-05
-2.953758e-05 9.406901e-06 -0.00026582828 1.07660835e-05 0.00022041582 -7.294663e-05 0.00023332874 -2.0570596e-05
1.609691e-05 4.956561e-05 0.00014826682 -2.8471342e-07 0.00012245768 0.00021854162 -2.5415375e-05 -4.22222e-05
0.0065568415 -0.0022559927 0.016766043 0.011123732 0.0008334563 -0.0023095608 -0.005928873 0.004040308
0.0018296025 0.0077537955 0.006312374 0.011367327 -0.026371816 0.008583634 0.009193469 0.03933996
0.011613382 -0.009111946 -0.0017579556 -0.008603867 0.009730827 0.0015236255 0.00028501882 0.0011250552
0.00020880217 0.0066083074 0.012827071 0.011721022 0.0009852478 0.00062083214 0.00074437715 -0.012247488
0.017068833 -0.016429873 0.00055613514 0.00012829089 0.0019430664 0.008696686 -0.002259382 -0.00075106724
0.00014610172 -0.017050274 -0.015000365 0.015354055 -0.016231555 0.0013751627 -0.00091538427 0.004834026
-0.0032272553 0.000623569 -0.01640957 0.0006034382 0.013273921 -0.0044329525 0.014434049 -0.0024337233
0.0008547447 0.0049521793 0.0073201773 -0.00030455296 0.0091113085 0.015118426 -0.0039502224 -0.0024512834
0.001837941 -0.00086458103 0.00603061 0.0035172496 0.00022468177 -0.00083663594 -0.0019505084 0.0014819469
0.00061315025 0.0016994266 0.001324688 0.0037372208 -0.015489849 0.00227127 0.002641466 0.022278415
0.013534355 -0.0033879313 -0.0004809908 -0.0025636358 0.0017575431 0.0004710636 0.00010168692 0.0006690416
5.866718e-05 0.0031909954 0.00087810797 0.0038556855 0.00036044628 0.00022501337 0.0002675164 -0.0069113085
0.0055890973 -0.0045773564 0.00016960688 -0.00023359199 0.00049595156 0.0018721 0.0012012494 -0.00018100544
4.21638e-05 -0.0060394 0.00013000792 0.004423543 -0.0057997233 0.0003222684 -0.00029030629 0.0012387679
-0.0008768995 0.00024622527 -0.00022747094 0.00021653 0.0021589694 -0.001923976 0.0038329067 -0.00059275475
0.00032254786 0.0015128007 0.0019127202 0.00013530909 0.003181586 0.00083033973 -0.0011483955 -0.00061217236
00000000: 6e80 e538 c1ac 88b9 f82e 3b3b 6f35 903a
00000010: 52f2 e6b7 a60e a8b8 3358 5cb9 fa24 cf39
00000020: 424b 123a 9681 923a d603 2c39 82a3 d03a
00000030: a0fb 50bb ea4f 003a a3c0 a63a d266 853b
00000040: 4b74 033b d812 2eba c97a 26b9 d789 4cba
00000050: f652 213a 3f4d 3439 62d6 543a 4066 1939
00000060: 922c fc36 b327 423a 2a9b b03a b668 a73a
00000070: 3c82 2139 3201 17b8 4c2c 31b7 1807 8dba
00000080: 3f13 bb3a 61cd 7cba a4fd 0e3a a42d 9bb6
00000090: e0e0 0439 40e8 ab3a 4470 40ba 0c49 ceb7
000000a0: bd63 cf37 0818 c2ba 4b73 94ba b4ed fb3a
000000b0: 3ca5 b0ba b920 383a 722b f637 c454 b038
000000c0: 1816 e4b8 7713 c937 5c43 83ba 071c 0339
000000d0: af09 6e3a 27c3 e8ba f6dd 003b 4a23 76b8
000000e0: 1f88 1439 6932 1b39 e794 0b3a f46e e036
000000f0: 61f8 323a 6c92 b63a c1ba 26ba 7a38 11b9
00000100: a615 c138 3b3f 57b8 7aed 9239 0e2c 2639
00000110: b24c 6537 2b89 d8b7 b704 a0b8 dfca a238
00000120: 56f7 8e37 471e 1139 115c 7338 c12f 4739
00000130: acd6 23ba e285 2c39 3d93 1939 2de1 3d3a
00000140: 256c 443a 3d6d 16b9 a9f9 d0b7 b0ee 0ab9
00000150: 42b4 3939 854d 8e37 ece6 c4b6 fa36 1837
00000160: 7469 3934 8f26 5938 9f97 8a39 ae97 a438
00000170: daac ea37 003b 9336 b693 0fb7 f016 5fb9
00000180: acb1 d439 94cd 7bb9 0c1f cab6 2c95 6b37
00000190: 4052 af37 a4f1 a439 6ad3 e0b9 b68b 17b7
000001a0: e14d bf35 7514 80b9 b0ae 52b9 7c00 7839
000001b0: efb7 69b9 a8cb b435 1bc0 52b7 5eb0 9138
000001c0: 78c7 f7b7 55d2 1d37 de5e 8bb9 fa9f 3437
000001d0: 6c1f 6739 ecfa 98b8 b5a9 7439 058f acb7
000001e0: da07 8737 abe4 4f38 1278 1b39 b7da 98b4
000001f0: fc67 0039 5228 6539 1a33 d5b7 be17 31b8
00000200: c6da d63b 47d9 13bb f158 893c 5040 363c
00000210: 4e7c 5a3a 005c 17bb fe46 c2bb 8f64 843b
00000220: 46cf ef3a 8d13 fe3b 08d8 ce3b 063e 3a3c
00000230: b509 d8bc 5fa2 0c3c 34a0 163c f022 213d
00000240: 0e46 3e3c 464a 15bc 346b e6ba 3cf7 0cbc
00000250: 0c6e 1f3c 63b4 c73a 946e 9539 9776 933a
00000260: e8f1 5a39 808a d83b a328 523c 8809 403c
00000270: 6e23 813a 57bf 223a 4e22 433a b0a9 48bc
00000280: f0d3 8b3c f197 86bc 99c9 113a d385 0639
00000290: 7dae fe3a 8b7c 0e3c 2412 14bb 45e3 44ba
000002a0: e232 1939 04ad 8bbc 17c4 75bc 938f 7b3c
000002b0: 0af8 84bc ce3e b43a 66f6 6fba c066 9e3b
000002c0: 5c80 53bb 0277 233a 5d6d 86bc 0d30 1e3a
000002d0: dc7a 593c 4d42 91bb ca7c 6c3c 1a7f 1fbb
000002e0: f210 603a e445 a23b 19de ef3b 68ac 9fb9
000002f0: 9947 153c 46b3 773c de70 81bb b6a5 20bb
00000300: 11e7 f03a 0da5 62ba 6c9c c53b a881 663b
00000310: 8e98 6b39 b051 5bba 34a8 ffba e33d c23a
00000320: d1bb 203a 4bbf de3a 27a1 ad3a 29ec 743b
00000330: 23c9 7dbc 96d9 143b 721c 2d3b 3981 b63c
00000340: 33bf 5d3c 0e08 5ebb 7e2d fcb9 ac02 28bb
00000350: 5c5d e63a 16f9 f639 c040 d538 9f62 2f3a
00000360: 6811 7638 0520 513b d430 663a abaf 7c3b
00000370: 48fa bc39 91f1 6b39 7241 8c39 4278 e2bb
00000380: bf24 b73b a6fd 95bb 80d8 3139 5ff0 74b9
00000390: bf02 023a 4161 f53a 3e73 9d3a 47cc 3db9
000003a0: 09d9 3038 29e6 c5bb bc52 0839 5ef3 903b
000003b0: 9b0b bebb 22f6 a839 4034 98b9 275e a23a
000003c0: bbdf 65ba cc17 8139 4485 6eb9 540c 6339
000003d0: 7f7d 0d3b ec2d fcba 8131 7b3b 1963 1bba
000003e0: a41b a939 2b49 c63a 3db4 fa3a c2e1 0d39
000003f0: 2882 503b 28ab 593a c285 96ba 317a 20ba

lstm.bias_ih_l1 f4 [256]
-0.013103693 -0.0050224136 -0.083492674 -0.03349934 -0.0011336427 -0.0022126005 -0.012201188 -0.007068751
-0.024789244 -0.027998472 -0.011949041 -0.06923972 0.32860363 -0.023106186 -0.026085095 0.20331097
0.5441337 -0.019336423 -0.0076993774 -0.021643069 -0.031490415 -0.0028874574 -0.022110222 -0.022177132
-0.00018247073 -0.028078558 -0.063481934 -0.020862594 -0.006978352 -0.0007011384 -0.018292382 0.089541666
-0.10436949 -0.04987534 -0.026677873 -0.0047120545 -0.0031755685 -0.074153155 0.24248949 -0.0014650436
-8.164588e-05 -0.069894835 -0.049974713 -0.05227783 -0.05770533 -0.02198642 -0.00092583516 -0.009243522
-0.00070520287 -7.066754e-05 -0.06592848 -0.0012041614 -0.03581451 -0.04036984 -0.07303435 -0.0032733288
-0.0015230305 -0.0028054472 -0.023402834 -0.004027174 -0.021590026 -0.04882914 -0.024670728 -0.0047921566
-0.01355145 -0.0053243507 -0.08047219 -0.03423071 -0.0009194859 -0.0020440647 -0.012587085 -0.009131066
-0.026384655 -0.030119028 -0.01235028 -0.07568878 0.32331148 -0.019814871 -0.025235612 0.2669826
0.08849399 -0.01812235 -0.008572825 -0.021823993 -0.027251389 -0.0033381935 -0.020274274 -0.015517759
-0.00013922137 -0.03106251 -0.06337482 -0.037742414 -0.0072545437 -0.0007978793 -0.016393438 0.03626095
-0.09641409 -0.04869181 -0.023152633 -0.0040939595 -0.0034224803 -0.07707122 0.12591279 -0.001426283
-8.480061e-05 -0.06996433 -0.045247924 -0.050883926 -0.058147606 -0.017712692 -0.0007717732 -0.0090202
-0.0007689863 -6.513481e-05 -0.06307006 -0.001168008 -0.035378516 -0.04191675 -0.07645438 -0.0030224733
-0.0017247176 -0.0028081045 -0.01997878 -0.00344691 -0.022174153 -0.045422822 -0.025435468 -0.005377972
-0.016348187 0.0071149175 -0.07644456 -0.04520945 -0.0015081585 -0.009843373 0.0059049358 0.012894068
-0.019568644 -0.019644447 -0.010139616 -0.06558597 0.007866949 -0.026621688 -0.04100333 0.038190365
0.07976056 0.022132074 -0.004415205 0.024931073 -0.02819983 0.0019789771 -0.020732936 -0.008840584
-0.012666631 -0.042887975 -0.05737723 -0.07713796 -0.017989974 -0.003116302 -0.013751408 0.005249633
-0.08148162 0.053506847 -0.0093181515 -0.008960622 -0.013530186 -0.045654684 -0.0023400637 0.010436629
-0.010170199 0.07017951 0.039367035 -0.044685893 0.058982823 -0.008411491 0.006841775 -0.009022284
-0.0051739374 0.0076921526 0.05732493 0.009326233 -0.03772655 0.02025206 -0.078943394 -0.0033528288
-0.035933245 -0.0003561065 -0.01920981 0.0091770645 -0.024546813 -0.049466606 0.016809007 0.011680364
-0.013383721 -0.005164748 -0.0887314 -0.03420991 -0.001187662 -0.0022014123 -0.012333883 -0.007947396
-0.025380801 -0.02803981 -0.012160228 -0.07390333 0.08486675 -0.024244754 -0.02667188 0.046855293
0.3769165 -0.020020315 -0.008403279 -0.021975355 -0.034066238 -0.002928067 -0.025310174 -0.023157537
-0.0001897616 -0.035761688 -0.066227056 -0.036239542 -0.009211563 -0.0008474267 -0.01855504 0.090692356
-0.11561168 -0.052696753 -0.02887493 -0.004827644 -0.0032139265 -0.07935307 0.15192829 -0.0014424704
-0.00012709678 -0.074759945 -0.05246485 -0.054654323 -0.060881957 -0.022662846 -0.0010244971 -0.009429103
-0.00070683635 -7.216562e-05 -0.06910012 -0.0015835373 -0.036973078 -0.044081196 -0.07539631 -0.0033124452
-0.0015501427 -0.0028290206 -0.024245987 -0.0040638866 -0.022204056 -0.051090818 -0.02578189 -0.004929145
00000000: dfb0 56bc 0f93 a4bb 35fe aabd 9b36 09bd
00000010: bd96 94ba 4701 11bb 7ee7 47bc fba0 e7bb
00000020: d012 cbbc 0d5d e5bc e9c5 43bc 8ecd 8dbd
00000030: bc3e a83e 2f49 bdbc 69b0 d5bc c030 503e
00000040: 594c 0b3f 6b67 9ebc 0f4b fcbb ce4c b1bc
00000050: 18fc 00bd 7f3b 3dbb 7f20 b5bc d1ac b5bc
00000060: 9d55 3fb9 0105 e6bc d102 82bd 08e8 aabc
00000070: a9aa e4bb 9acc 37ba e8d9 95bc 9f61 b73d
00000080: acbf d5bd 164a 4cbd 8e8b dabc 9467 9abb
00000090: 331d 50bb 9cdd 97bd 2a4f 783e b506 c0ba
000000a0: 4c39 abb8 0625 8fbd 49b2 4cbd 4721 56bd
000000b0: 6d5c 6cbd dd1c b4bc bfb3 72ba 2472 17bc
000000c0: 5ddd 38ba 5933 94b8 8305 87bd f4d4 9dba
000000d0: 3cb2 12bd d85a 25bd 0993 95bd 5885 56bb
000000e0: 6ca0 c7ba 98db 37bb 4db7 bfbc 62f6 83bb
000000f0: 91dd b0bc 1001 48bd 441a cabc 8607 9dbb
00000100: e706 5ebc e477 aebb 9bce a4bd 8035 0cbd
00000110: a709 71ba b7f5 05bb 103a 4ebc 779a 15bc
00000120: a224 d8bc 2ebc f6bc d458 4abc b802 9bbd
00000130: 1589 a53e cc52 a2bc eaba cebc f1b1 883e
00000140: 563c b53d 5375 94bc 0975 0cbc 3bc8 b2bc
00000150: 4e3e dfbc 98c5 5abb 3c16 a6bc 333e 7ebc
00000160: f4fb 11b9 ce76 febc a8ca 81bd ca97 1abd
00000170: 86b7 edbb c628 51ba 884b 86bc 5d86 143d
00000180: c074 c5bd 1071 47bd 97aa bdbc 9f26 86bb
00000190: b14b 60bb 84d7 9dbd 48ef 003e 1ef2 baba
000001a0: fbd6 b1b8 7549 8fbd e355 39bd aa6b 50bd
000001b0: 2f2c 6ebd 351a 91bc d350 4aba 76c9 13bc
000001c0: cc95 49ba fc98 88b8 e02a 81bd d817 99ba
000001d0: 10e9 10bd e6b0 2bbd 1d94 9cbd b014 46bb
000001e0: eb0f e2ba 2d08 38bb 8aaa a3bc 8ee5 61bb
000001f0: 92a6 b5bc 480d 3abd 0b5e d0bc b339 b0bb
00000200: a2ec 85bc 4124 e93b f78e 9cbd 8b2d 39bd
00000210: 67ad c5ba 1946 21bc 317e c13b a441 533c
00000220: 6c4e a0bc 64ed a0bc a220 26bc f051 86bd
00000230: 60e4 003c ba15 dabc 1cf3 27bd 806d 1c3d
00000240: 8159 a33d 534e b53c 6dad 90bb 403c cc3c
00000250: 5403 e7bc bab1 013b 1ed8 a9bc 19d8 10bc
00000260: b387 4fbc 4dab 2fbd 6304 6bbd 82fa 9dbd
00000270: b65f 93bc df3a 4cbb 964d 61bc 1d05 ac3b
00000280: d6df a6bd ff29 5b3d 29ab 18bc 93cf 12bc
00000290: b7ad 5dbc 6800 3bbd c15b 19bb 65fe 2a3c
000002a0: e8a0 26bc 46ba 8f3d 543f 213d 8e08 37bd
000002b0: f997 713d 5ad0 09bc f830 e03b 34d2 13bc
000002c0: 228a a9bb 740e fc3b 8ccd 6a3d 0ecd 183c
000002d0: 2887 1abd a6e7 a53c 13ad a1bd 22bb 5bbb
000002e0: bd2e 13bd ceb3 bab9 e45d 9dbc 665b 163c
000002f0: 6616 c9bc 7f9d 4abd 0bb3 893c ff5e 3f3c
00000300: 6547 5bbc 0c3d a9bb cfb8 b5bd b11f 0cbd
00000310: 53ab 9bba 9245 10bb 0e14 4abc cb35 02bc
00000320: 66eb cfbc beb3 e5bc b13b 47bc a15a 97bd
00000330: 9ece ad3d ef9c c6bc fd7e dabc 56eb 3f3d
00000340: 33fb c03e a501 a4bc e8ad 09bc a905 b4bc
00000350: 0a89 0bbd d0e4 3fbb 4857 cfbc e0b4 bdbc
00000360: befa 46b9 d97a 12bd 0da2 87bd ea6f 14bd
00000370: 18ec 16bc d825 5eba bd00 98bc eabc b93d
00000380: d1c5 ecbd 8dd8 57bd 1e8b ecbc 3731 9ebb
00000390: bda0 52bb dd83 a2bd 1793 1b3e 4611 bdba
000003a0: 4845 05b9 be1b 99bd 62e5 56bd 36dd 5fbd
000003b0: 5c5f 79bd 6fa7 b9bc 6b48 86ba 867c 1abc
000003c0: fc4a 39ba 9f57 97b8 5d84 8dbd b28e cfba
000003d0: 1571 17bd 7c8e 34bd 6169 9abd 9c15 59bb
000003e0: 282e cbba 1767 39bb 859f c6bc 5a2a 85bb
000003f0: 48e5 b5bc 9b44 51bd 8b34 d3bc aa84 a1bb
