experiments/lstm/v2/lstm_best_model.pth (torch, 225605 bytes, 9 tensors)

lstm.weight_ih_l0 f4 [256, 20]
-0.0026626706 -0.019059401 -0.00043646354 -0.018595902 -0.0109303435 -0.0020509793 -0.02634678 -0.058286637
-0.016831795 -0.03966383 -0.0040096818 -0.033627134 0.0011461652 -0.025472762 -0.0009503603 -0.0071445773
0.0045704935 8.2960134e-05 -0.0051682363 -0.006740875 -0.00266184 -0.027112126 -0.009407543 -0.023257894
-0.0058394833 -0.008229697 -0.016659299 -0.015550981 -0.019092022 -0.011394641 -0.018690873 -0.009327977
0.00046187104 -0.0051189116 -0.021033809 -0.003549909 -0.0128368195 1.0929346e-06 -0.0013175718 -0.0143609345
-0.00025427272 -0.010576409 -0.002416769 -0.0045881867 -0.0010895644 -0.0030384578 -0.0025305166 -0.0048366063
-0.0077312677 -0.004040824 -0.014997671 -0.005377895 8.838408e-07 -0.0075396723 -0.0018501473 0.00023202061
-0.00888511 -1.4239025e-05 0.0010992007 -0.0016525936 -0.008345126 0.060599815 0.032746863 0.01640121
0.00898074 -0.002094951 -0.004648893 0.012338739 0.062084544 0.01891862 0.0017926146 0.0016577819
0.05047907 -0.019218465 0.0013925737 -0.013789322 -0.0070250947 9.690257e-05 0.059342798 -0.027582804
0.0027286173 -0.05987046 -0.004104281 -0.034048915 -0.0030599034 -0.011669264 -0.013578864 -0.0325228
-0.03691442 -0.015291397 -0.020706594 -0.024322817 0.0029145274 -0.012129342 -0.0034823278 -0.0019658147
0.020865535 0.00059128326 -0.006227142 -0.012284759 -0.05107963 0.39204076 0.01746213 0.12950854
-0.056062322 0.044328164 0.15120749 0.09867273 -0.015125553 0.0044790423 0.17241743 0.002217425
-0.024952149 0.00090496684 0.11508245 -0.05491238 0.07948366 -0.0028764643 0.10064811 -0.09768423
0.0009933731 0.15240772 0.043540172 0.020705236 -0.0041632587 0.0057619954 -0.0015462483 0.04456356
0.022409448 -0.0004564236 0.011659695 -0.023357397 0.046143647 0.007820905 0.012793101 -0.039418902
0.006060239 -0.0015073955 0.011244798 -0.010614135 -0.018774172 0.03338676 0.026194096 0.024334803
-0.012647931 -0.024130724 0.098551966 0.01953137 0.0045211026 0.010005643 0.013843183 -0.008427084
0.014408469 0.010144896 -0.005500493 -0.028639661 0.03099861 7.326368e-05 -0.029311048 0.04631638
-0.007470038 0.058399 0.014855459 0.013449632 -0.0027679154 -0.004931725 0.036967937 0.029602021
0.012275834 -0.009705519 -0.0050530396 0.01469377 0.01372295 0.020657616 -0.018848566 -0.0058391956
-0.00871269 0.0011246245 0.008355634 0.02923704 -0.011985959 0.36423597 0.08971409 0.08438883
-0.026120583 0.015319079 0.07394945 0.08040808 0.061505854 0.013817183 0.08080234 0.025042633
0.034573685 0.08706043 0.024042295 -0.04211271 0.048771046 0.00096787733 0.03299538 0.00797712
-0.0016073814 0.00851088 0.0037610575 -0.010640449 -0.008077606 0.0013218485 -0.00611574 0.017071428
-0.023023434 -0.011349791 -0.014532971 -0.033825167 0.010429416 -0.017387886 0.008839716 -0.023890687
-0.00077968783 -0.00032307822 -0.021586603 -0.003622759 0.00051128113 0.11612464 -0.005795317 0.024860417
0.0041408017 0.018376565 0.05156348 -0.048472703 -0.001377356 0.0058940016 -0.018755978 0.007091861
0.009898367 0.009550182 -0.013812023 -0.0071025584 -0.059317462 0.0005872102 0.04801629 0.017567813
-0.00016237696 -0.023830824 -0.0046533784 -0.0076003573 -0.008114212 -0.022405133 0.007775277 -0.018155977
-0.027943825 0.008199007 -0.022867635 7.7037526e-05 0.002003976 -0.0012553323 -0.023211682 -0.000104860716
00000000: 3380 2ebb 7622 9cbc 25d5 e4b9 6f56 98bc
00000010: 2f15 33bc b969 06bb 34d5 d7bc f8bd 6ebd
00000020: d5e2 89bc 8a76 22bd a663 83bb 9bbc 09bd
00000030: ec3a 963a 41ac d0bc 9a21 79ba 0f1d eabb
00000040: 14c4 953b e2fa ad38 4f5a a9bb 8fe2 dcbb
00000050: 4472 2ebb 401a debc 1822 1abc 5787 bebc
00000060: 2359 bfbb dad5 06bc 1579 88bc 8bc9 7ebc
00000070: df66 9cbc 97b0 3abc 9a1d 99bc 5fd4 18bc
00000080: 4827 f239 8bbc a7bb 184f acbc 97a5 68bb
00000090: 8651 52bc f2b0 9235 60b2 acba 204a 6bbc
000000a0: e84f 85b9 ad48 2dbc a862 1ebb 8058 96bb
000000b0: b7cf 8eba dd20 47bb 06d7 25bb 657c 9ebb
000000c0: 9356 fdbb e368 84bb cbb8 75bc 0e39 b0bb
000000d0: 1441 6d35 5b0f f7bb a480 f2ba 8f4a 7339
000000e0: da92 11bc 26e4 6eb7 0e13 903a d79b d8ba
000000f0: ffb9 08bc 8337 783d 9321 063d d55b 863c
00000100: f423 133c 724b 09bb be55 98bb 6c28 4a3c
00000110: 5d4c 7e3d 39fb 9a3c 2af6 ea3a ee49 d93a
00000120: 24c3 4e3d 0b70 9dbc 0587 b63a 9cec 61bc
00000130: c432 e6bb 2c38 cb38 6f11 733d 55f5 e1bc
00000140: 9ad2 323b ba3a 75bd 347d 86bb e076 0bbd
00000150: a988 48bb 7130 3fbc e279 5ebc a136 05bd
00000160: 9333 17bd c588 7abc e0a0 a9bc a540 c7bc
00000170: a801 3f3b 26ba 46bc c437 64bb e6d4 00bb
00000180: 33ee aa3c 5900 1b3a 0e0d ccbb 0446 49bc
00000190: e038 51bd 91b9 c83e be0c 8f3c e39d 043e
000001a0: 9ba1 65bd 7391 353d 23d6 1a3e ee14 ca3d
000001b0: 2bd1 77bc eec4 923b 328e 303e 3852 113b
000001c0: 7368 ccbc 4c3b 6d3a 59b0 eb3d ceeb 60bd
000001d0: 54c8 a23d 1083 3cbb 9920 ce3d ab0e c8bd
000001e0: 1234 823a c510 1c3e 2e57 323d 079e a93c
000001f0: f26b 88bb 1fcf bc3b 7cab caba 4888 363d
00000200: 0594 b73c 234c efb9 4e08 3f3c 0358 bfbc
00000210: 1f01 3d3d 4123 003c 289a 513c b775 21bd
00000220: f894 c63b cd93 c5ba 1a3c 383c e9e6 2dbc
00000230: 4bcc 99bc 8ec0 083d 0095 d63c c859 c73c
00000240: 4539 4fbc ccad c5bc 9dd5 c93d 4000 a03c
00000250: c225 943b b5ee 233c 85ce 623c c111 0abc
00000260: 8011 6c3c c736 263c 7b3d b4bb b99d eabc
00000270: ccf0 fd3c 24a5 9938 b91d f0bc 3fb6 3d3d
00000280: 38c7 f4bb ca33 6f3d 5064 733c d85b 5c3c
00000290: ea65 35bb 4f9a a1bb b16b 173d f07f f23c
000002a0: 9420 493c e603 1fbc f893 a5bb 23be 703c
000002b0: 39d6 603c 293a a93c 4f68 9abc b956 bfbb
000002c0: acbf 0ebc 2368 933a 12e6 083c 8482 ef3c
000002d0: c160 44bc 237d ba3e 05bc b73d 0dd4 ac3d
000002e0: d5fa d5bc e0fc 7a3c cf72 973d feac a43d
000002f0: 90ed 7b3d 7761 623c b27b a53d 3526 cd3c
00000300: 239d 0d3d bd4c b23d 59f4 c43c 617e 2cbd
00000310: 26c4 473d 26b9 7d3a 2a26 073d 77b2 023c
00000320: c5ae d2ba 3871 0b3c 137c 763b 4755 2ebc
00000330: ef57 04bc e041 ad3a 8c66 c8bb 61d9 8b3c
00000340: a49b bcbc 79f4 39bc b31b 6ebc 428c 0abd
00000350: 24e0 2a3c 0a71 8ebc 75d4 103c 67b6 c3bc
00000360: f763 4cba d362 a9b9 63d6 b0bc cf6b 6dbb
00000370: 7f07 063a c1d2 ed3d a4e6 bdbb 13a8 cb3c
00000380: 90af 873b 738a 963c 3a34 533d 508b 46bd
00000390: 6688 b4ba 7822 c13b 23a6 99bc d862 e83b
000003a0: c32c 223c 5e78 1c3c d34b 62bc 94bc e8bb
000003b0: def6 72bd 02ef 193a bbac 443d 60ea 8f3c
000003c0: bc43 2ab9 dc38 c3bc 5e7b 98bb 6b0c f9bb
000003d0: 79f1 04bc f88a b7bc c0c7 fe3b d8bb 94bc
000003e0: 73ea e4bc 2155 063c e854 bbbc 358f a138
000003f0: 2355 033b f689 a4ba 6d26 bebc abe8 dbb8

lstm.weight_hh_l0 f4 [256, 64]
-0.0033301723 0.0009235892 -0.0003466679 0.0014642699 0.00051514147 -0.006990252 0.0014428868 0.000170058
-0.00086670235 0.00031341796 -0.0018784648 -0.0005594661 -0.0002737644 0.00044852935 0.0005188947 -0.00039856523
0.0004268777 0.00061578257 0.000114869414 -0.00025878905 0.0015651919 -0.00018279057 0.0004282055 0.0010507962
-0.0010810839 -0.0025150569 -0.0011826354 -0.0015930521 0.00053611543 9.006596e-05 -0.00059823866 -0.0005737457
-0.00061773276 -0.0014525487 -0.0006632973 0.00011270321 -0.00037046138 -0.000495953 -0.0004674287 -0.00014759971
0.00014205095 -2.45392e-05 -0.0004529936 -0.00022676254 0.00025047435 0.0027040772 0.00016069721 0.0014008295
-0.0026842717 0.0012751634 0.0004503174 0.003646586 0.0014962107 0.0012313022 -0.0007276981 0.00091261975
-0.0002598781 0.00012443069 0.0009325564 0.0024182752 0.0013611838 0.0011970378 -0.00040270013 0.0007332486
9.546715e-06 0.0002919641 -0.00014669691 0.001536501 -0.00015677427 0.006363406 0.002223078 -0.0042238594
-0.004519398 0.008126644 -0.00031896489 0.003456277 -0.0032508336 -0.002157768 -0.0002987582 -0.0007744883
-0.0010355888 0.0019067911 -0.00023127881 0.0004066769 -0.00017150628 0.00080434314 -0.0009886904 0.0007191384
-0.0008578528 -0.008984985 0.000734159 0.0014066584 0.00015696345 -0.0007868126 -4.9114245e-05 -0.0010116085
-0.00086659344 0.0010964093 -0.00102897 0.002488161 0.001815339 -0.000309202 -0.003672982 0.0018653485
0.0019338677 0.00039081354 -0.0010325881 -0.0019630813 0.00010518937 0.005800098 0.0010213298 -0.0026750327
-0.005547839 -0.0038799723 0.0023241686 0.0043668686 -0.00039805516 -0.001987297 0.0020389243 0.0026362552
0.0019752074 -0.0032736268 0.0009216893 0.008083761 -0.0025987965 -0.0015060541 0.0027250056 0.002666831
-0.00013475081 -4.2609263e-06 -0.00010387506 -0.0005391452 -1.9274885e-05 -0.002077543 -0.0005910963 0.0004673088
0.00029606005 -0.0013660124 -0.00015727404 -0.0006690927 0.00016455255 -3.6565625e-06 4.8777136e-05 2.8403625e-05
-6.9698246e-05 -1.0822187e-05 3.6974114e-05 -9.246951e-05 9.676177e-05 0.00012715293 -0.000115003735 7.018024e-05
7.7468445e-05 0.00016069933 -0.00011179921 -0.0005467283 2.9403616e-05 8.2435e-05 -2.360842e-05 5.511678e-05
9.9471945e-05 -0.00062112266 -0.00028237893 -2.436895e-05 -1.7459544e-05 -8.736265e-06 0.00044853258 3.4221994e-05
1.1012281e-05 -0.00027841376 1.3434817e-05 5.5352015e-05 2.1370142e-05 8.376025e-05 0.00025230658 0.00062313623
0.00060531637 0.0007227436 -1.5407504e-06 -0.00027653723 -1.2040116e-05 0.00074732566 -0.0003819913 -7.251758e-05
-0.00014328392 0.0010319004 1.0214539e-05 -0.00071454793 0.000993284 -4.3467444e-06 -0.00012657784 9.254337e-05
0.00020796846 0.00089291274 -0.00080577424 -0.00067913265 0.00055174675 0.031993207 0.0064063244 -0.012524576
-0.009650231 0.008714872 -0.0016697572 0.0070163603 -0.0049644914 -0.0045818123 -0.0016307981 0.0015481208
-0.0057368316 0.0068102633 0.0008160403 0.00253288 -0.000101107245 -0.0024917042 -0.00028435278 0.0006865994
-0.007606483 -0.014202813 -0.00014217963 0.0027636923 0.0039083133 0.001721045 0.0011103611 -0.0037369784
-0.0054954407 0.0026994934 -0.0027399627 0.0030402783 0.002842486 -0.000554942 -0.009169526 0.0056164255
0.0034780155 -0.0032105981 -0.001973247 -0.0044746962 0.0009232196 0.0060039787 -0.0030181198 -0.0073586963
-0.005668284 -0.01103504 0.006054202 0.0023491085 -0.013146943 -0.0056804814 0.006813766 0.004381672
0.0031407084 -0.014353689 0.00095560006 0.016212126 -0.0031834277 -0.0011428717 0.008635585 0.0065476173
00000000: 053f 5abb 061d 723a fac0 b5b9 bfec bf3a
00000010: 8f0a 073a 7c0e e5bb 3f1f bd3a 9951 3239
00000020: 6933 63ba 3f52 a439 d236 f6ba 22a9 12ba
00000030: 0988 8fb9 9728 eb39 6f06 083a 85f6 d0b9
00000040: 8ece df39 786c 213a 0ce6 f038 14ae 87b9
00000050: 2027 cd3a 78ab 3fb9 c580 e039 dfba 893a
00000060: 28b3 8dba a7d3 24bb a902 9bba f5cd d0ba
00000070: 198a 0c3a cbe1 bc38 1ed3 1cba 6c67 16ba
00000080: 58ef 21ba 7263 beba 21e1 2dba 135b ec38
00000090: 7c3a c2b9 d802 02ba 3811 f5b9 ffc4 1ab9
000000a0: 83f3 1439 88d9 cdb7 c67f edb9 1bc7 6db9
000000b0: 1952 8339 e336 313b d480 2839 0a9c b73a
000000c0: 9bea 2fbb 6223 a73a 9418 ec39 90fb 6e3b
000000d0: 801c c43a a563 a13a fec2 3eba e03c 6f3a
000000e0: 4040 88b9 9c79 0239 cd76 743a ed7b 1e3b
000000f0: c069 b23a ece5 9c3a 7f21 d3b9 7b37 403a
00000100: d42a 2037 c212 9939 a7d2 19b9 6b64 c93a
00000110: c663 24b9 1e84 d03b 0fb1 113b 4d68 8abb
00000120: 7517 94bb 9e25 053c be3a a7b9 b582 623b
00000130: f00b 55bb 5769 0dbb a6a2 9cb9 0807 4bba
00000140: 98bc 87ba 4bed f93a 6f83 72b9 4037 d539
00000150: 5ed6 33b9 8eda 523a f296 81ba 9084 3c3a
00000160: 87e1 60ba c235 13bc 9474 403a a05f b83a
00000170: 8e96 2439 1a42 4eba 0500 4eb8 f397 84ba
00000180: 1a2c 63ba 64b5 8f3a 81de 86ba 6a10 233b
00000190: abf0 ed3a 641c a2b9 6ab6 70bb b67e f43a
000001a0: d579 fd3a 1be6 cc39 e857 87ba 0aa7 00bb
000001b0: 1d99 dc38 c00e be3b 24de 853a 9a4f 2fbb
000001c0: a6ca b5bb 2247 7ebb 1451 183b f317 8f3b
000001d0: 0fb2 d0b9 503d 02bb 799f 053b 06c5 2c3b
000001e0: 7b72 013b 588a 56bb 869d 713a c071 043c
000001f0: 9250 2abb ca66 c5ba 0296 323b 00c6 2e3b
00000200: e54b 0db9 14f9 8eb6 80d7 d9b8 6c55 0dba
00000210: 80b0 a1b7 6327 08bb cdf3 1aba 2001 f539
00000220: 8238 9b39 c50b b3ba eee9 24b9 0d66 2fba
00000230: bd8b 2c39 4463 75b6 0d96 4c38 5244 ee37
00000240: f62a 92b8 f090 35b7 a714 1b38 31ec c1b8
00000250: 94ec ca38 5b54 0539 292e f1b8 bb2d 9338
00000260: 8e76 a238 6681 2839 be75 eab8 5152 0fba
00000270: c9a7 f637 f4e0 ac38 b20a c6b7 312d 6738
00000280: 989b d038 d6d2 22ba 420c 94b9 ec6b ccb7
00000290: 1676 92b7 f991 12b7 0629 eb39 9689 0f38
000002a0: 63c1 3837 10f8 91b9 1a66 6137 c629 6838
000002b0: 0844 b337 71a8 af38 0448 8439 f759 233a
000002c0: 18ae 1e3a 8176 3d3a c8cb ceb5 33fc 90b9
000002d0: e8ff 49b7 2de8 433a 0146 c8b9 9414 98b8
000002e0: 7c3e 16b9 d540 873a 1c5f 2b37 8050 3bba
000002f0: 1531 823a 40da 91b6 fbb9 04b9 d813 c238
00000300: 1c12 5a39 5c12 6a3a 983a 53ba d207 32ba
00000310: 19a3 103a 4f0b 033d 25ec d13b e133 4dbc
00000320: 011c 1ebc d3c8 0e3c c1db daba 7fe9 e53b
00000330: 2cad a2bb 0723 96bb 81c0 d5ba 50ea ca3a
00000340: 08fc bbbb a128 df3b 8aeb 553a adfe 253b
00000350: 8a09 d4b8 dc4b 23bb 2f15 95b9 e8fc 333a
00000360: ce3f f9bb eab2 68bc 0e16 15b9 101f 353b
00000370: 4f11 803b b094 e13a 8989 913a 18e8 74bb
00000380: 1913 b4bb fce9 303b f290 33bb 683f 473b
00000390: 0049 3a3b 8779 11ba c83b 16bc fe09 b83b
000003a0: 6bef 633b e668 52bb 9751 01bb 79a0 92bb
000003b0: 3804 723a 06bd c43b a6cb 45bb 3821 f1bb
000003c0: 03bd b9bb 50cc 34bc 5462 c63b 80f3 193b
000003d0: 4766 57bc 5523 babb 0346 df3b 2194 8f3b
000003e0: 58d4 4d3b bc2b 6bbc 3c81 7a3a 4bcf 843c
000003f0: 0ea1 50bb 69cc 95ba 457c 0d3c 658d d63b

lstm.bias_ih_l0 f4 [256]
-0.010353362 -0.03629021 -0.013967575 0.025790932 -0.03648224 0.09903329 0.011392839 0.036076915
0.031583548 0.08255643 -0.036898147 0.003258311 0.008599855 -0.03242482 -0.01011956 -0.035395555
-0.047520135 -0.04681494 -0.025515357 -0.040012795 -0.025366133 -0.0114578325 -0.04048272 -0.029201128
-0.014438449 0.08235289 -0.029573588 -0.029521298 -0.028741097 -0.03427069 -0.0094078425 -0.03736524
-0.015996033 0.014173999 -0.013725497 -0.030755334 -0.025989579 -0.016066233 -0.025603585 -0.023966018
-0.049428392 -0.043754008 -0.02321767 -0.031002631 -0.025910929 0.035535086 -0.038740452 0.033669833
0.05543486 0.020075805 -0.03328403 -0.00836996 -0.004178893 0.009114595 -0.011221619 -0.026586523
-0.035087854 0.09917354 -0.024521073 0.002758268 0.020597741 -0.08433515 0.058199495 -0.018293805
0.02098659 -0.036780033 -0.012649118 -0.08315567 -0.036599167 0.109116256 -0.07271204 -0.0018830218
-0.03879729 -0.03266105 -0.029114911 -0.03603284 -0.031087378 -0.022339487 -0.008277693 -0.030137615
-0.033699114 -0.04130001 -0.022706175 -0.028506748 -0.015100106 -0.029998882 -0.04612865 -0.03271726
-0.014532456 -0.10859424 -0.019872412 -0.012280076 -0.020238077 -0.026036425 -0.012607088 -0.023007963
-0.015380793 -0.029375836 -0.019648386 -0.025777511 -0.032332882 -0.014770847 -0.041440897 -0.02923435
-0.042208698 -0.033938676 -0.022588888 -0.030786261 -0.01871228 -0.088513836 -0.0408084 -0.03760196
-0.056814566 -0.046948995 -0.029228887 -0.07714775 0.12469649 -0.0315325 -0.022828287 -0.03633128
-0.028755333 0.015333926 -0.031609178 -0.08678141 0.037056264 -0.06879199 0.06184808 -0.009286408
0.060788754 0.10022464 -0.036352277 0.13022764 0.040505607 0.07710453 -0.048684746 0.0634945
-0.0076061906 0.03565945 -0.11129688 -0.0061923335 -0.0074908086 -0.020300092 0.04930858 -0.0551192
0.012810313 0.026812013 0.01261057 0.01902855 0.026473466 0.04997383 0.039543137 -0.006925848
-0.09364652 -0.055931263 -0.1000168 -0.09876718 0.03917751 -0.044076663 -0.055462886 -0.0025482255
-0.0843882 -0.088785015 -0.020614095 -0.014803211 0.00116024 0.05561837 0.010480232 -0.039504528
-0.05581856 -0.15113395 0.048261005 0.10557935 0.025936766 0.060485568 0.019320993 0.10091736
-0.008958273 0.11105148 0.016957453 0.047434784 -0.09709276 0.11672907 -0.01345956 0.05296732
0.053564105 0.12973179 0.07259313 0.10429316 0.014475434 0.01400536 0.10114983 0.08335403
-0.126828 -0.036991723 -0.015553927 0.010770523 -0.047852326 0.048798334 0.030272393 -0.017022926
-0.00051926635 0.074465424 -0.044023827 -0.025652153 0.005901483 -0.031664595 -0.021021344 -0.035691038
-0.048546243 -0.034239925 -0.02733764 -0.039414756 -0.02321564 -0.011795943 -0.040934198 -0.033913404
-0.020574875 0.08465244 -0.025622388 -0.021223826 -0.024960507 -0.03408337 -0.0118259825 -0.038856972
-0.016179206 -0.040577136 -0.021002648 -0.03386571 -0.02576917 -0.016860258 -0.02169241 -0.039897244
-0.047302794 -0.067045756 -0.024737732 -0.025823087 -0.024682296 0.027511245 -0.040605158 0.016383305
0.08190482 0.022874605 -0.033079255 -0.010141182 -0.0067786383 0.0009859577 -0.018139016 -0.02627674
-0.03669061 -0.0012739699 -0.03039656 0.05871471 -0.0045263288 -0.08755342 0.013754239 -0.004938563
00000000: 26a1 29bc 0ba5 14bd 41d8 64bc 8147 d33c
00000010: 676e 15bd f7d1 ca3d 08a9 3a3c 63c5 133d
00000020: c05d 013d 5813 a93d 8322 17bd 6389 553b
00000030: 68e6 0c3c e3cf 04bd 83cc 25bc eefa 10bd
00000040: 79a4 42bd 06c1 3fbd 9505 d1bc 75e4 23bd
00000050: a3cc cfbc a2b9 3bbc 35d1 25bd 3437 efbc
00000060: 3f8f 6cbc a2a8 a83d 4f44 f2bc a6d6 f1bc
00000070: 7372 ebbc 6c5f 0cbd 5a23 1abc 4b0c 19bd
00000080: 1d0a 83bc 103a 683c e8e0 60bc 9cf2 fbbc
00000090: 19e8 d4bc 559d 83bc 9cbe d1bc 6254 c4bc
000000a0: 6d75 4abd 6737 33bd fc32 bebc 3bf9 fdbc
000000b0: 2843 d4bc 3d8d 113d 4fae 1ebd 61e9 093d
000000c0: aa0f 633d 0476 a43c d654 08bd 2822 09bc
000000d0: 18ef 88bb 6255 153c e2da 37bc fbcb d9bc
000000e0: 48b8 0fbd 7f1b cb3d 6be0 c8bc 0fc4 343b
000000f0: 98bc a83c e8b7 acbd 9862 6e3d e4dc 95bc
00000100: 12ec ab3c a9a6 16bd 3f3e 4fbc 854d aabd
00000110: 02e9 15bd 5878 df3d 0dea 94bd bacf f6ba
00000120: e8e9 1ebd 98c7 05bd 6582 eebc 2c97 13bd
00000130: f5aa febc 4d01 b7bc 299f 07bc 29e3 f6bc
00000140: 1508 0abd 332a 29bd 4d02 babc fc86 e9bc
00000150: 6f66 77bc 37c0 f5bc 65f1 3cbd 8902 06bd
00000160: 8a19 6ebc a866 debd 78cb a2bc 5f32 49bc
00000170: 53ca a5bc 574a d5bc f68d 4ebc 327b bcbc
00000180: b9ff 7bbc 98a5 f0bc a7f5 a0bc 5c2b d3bc
00000190: 7c6f 04bd 6c01 72bc eebd 29bd e07c efbc
000001a0: 07e3 2cbd 4803 0bbd 550c b9bc 7833 fcbc
000001b0: 7f4a 99bc be46 b5bd b526 27bd 8304 1abd
000001c0: 64b6 68bd 974d 40bd 6b71 efbc a4ff 9dbd
000001d0: e060 ff3d 3928 01bd 6302 bbbc 1cd0 14bd
000001e0: 4e90 ebbc 263b 7b3c a078 01bd 74ba b1bd
000001f0: 4fc8 173d d1e2 8cbd 6a54 7d3d 0526 18bc
00000200: a1fd 783d 9342 cd3d 20e6 14bd 655a 053e
00000210: 35e9 253d fbe8 9d3d a869 47bd 6809 823d
00000220: 5a3d f9bb a50f 123d 9eef e3bd 0fe9 cabb
00000230: 7575 f5bb 614c a6bc cbf7 493d acc4 61bd
00000240: 59e2 513c dea4 db3c 909c 4e3c c3e1 9b3c
00000250: e2de d83c 5cb1 4c3d fcf7 213d 39f2 e2bb
00000260: bfc9 bfbd 2e18 65bd 9cd5 ccbd 7346 cabd
00000270: 9978 203d bb89 34bd 0d2d 63bd 2100 27bb
00000280: b8d3 acbd ebd4 b5bd e4de a8bc 2b89 72bc
00000290: 3213 983a 17d0 633d 47b5 2b3c 80cf 21bd
000002a0: 01a2 64bd dcc2 1abe 55ad 453d fc39 d83d
000002b0: 5779 d43c b7bf 773d 0f47 9e3c c3ad ce3d
000002c0: b8c5 12bc f56e e33d 5bea 8a3c fa4a 423d
000002d0: 92d8 c6bd a70f ef3d 7d85 5cbc 43f4 583d
000002e0: 0966 5b3d 69d8 043e b5ab 943d a797 d53d
000002f0: 5f2a 6d3c bd76 653c a427 cf3d 85b5 aa3d
00000300: 33df 01be a284 17bd e6d5 7ebc d976 303c
00000310: cd00 44bd c3e0 473d cffd f73c aa73 8bbc
00000320: 601f 08ba 5481 983d 5452 34bd 7724 d2bc
00000330: 3a61 c13b bcb2 01bd f434 acbc c430 12bd
00000340: 6dd8 46bd 2a3f 0cbd 30f3 dfbc 5e71 21bd
00000350: ba2e bebc c543 41bc 9eaa 27bd c8e8 0abd
00000360: a48c a8bc 425e ad3d 0be6 d1bc 97dd adbc
00000370: fa79 ccbc 019b 0bbd c4c1 41bc 7d28 1fbd
00000380: 418a 84bc 3634 26bd bf0d acbc c5b6 0abd
00000390: de19 d3bc 861e 8abc 48b4 b1bc 4b6b 23bd
000003a0: 93c0 41bd 494f 89bd c9a6 cabc f08a d3bc
000003b0: 8732 cabc 435f e13c 9851 26bd 4836 863c
000003c0: b7bd a73d 8663 bb3c 1d7e 07bd 3327 26bc
000003d0: 571f debb 403b 813a 4698 94bc 5142 d7bc
000003e0: e548 16bd 56fb a6ba 3502 f9bc d67e 703d
000003f0: 9951 94bb 354f b3bd 7659 613c abd3 a1bb

lstm.bias_hh_l0 f4 [256]
-0.00419443 -0.03618057 -0.014352368 0.017924493 -0.05599473 0.11290295 0.018426562 0.041184686
0.017421184 0.09765299 -0.020948121 -0.0025183363 -0.027920133 -0.039659135 -0.0058602677 -0.036760233
-0.0475193 -0.043933854 -0.02414655 -0.039505187 -0.03654347 -0.010682014 -0.04030307 -0.02890413
-0.014318452 0.087652415 -0.030735424 -0.031830717 -0.024903186 -0.03499874 -0.0094178775 -0.03746081
-0.015942898 0.02137115 -0.019479496 -0.031136883 -0.02996203 -0.016032778 -0.019508863 -0.0036627816
-0.045935042 -0.09750468 -0.023205865 -0.025582679 -0.026438639 0.068562254 -0.038624696 0.013221331
0.09356123 0.054217305 -0.033705417 -0.008042739 -0.0057310998 0.04245125 -0.048725214 -0.021011196
-0.035042286 0.044047344 -0.021950772 -0.021973196 0.0039181598 -0.08439988 0.040629964 -0.012892459
0.009454907 -0.03687072 -0.012202489 -0.093437575 -0.0060647456 0.16194187 -0.063530914 -0.06583657
-0.043096263 -0.07161251 -0.023029728 0.004182689 0.006470576 -0.02600915 -0.023251614 -0.030256601
-0.033664968 -0.028394936 -0.02664528 -0.028502496 -0.016010167 -0.029252024 -0.04611665 -0.032985397
-0.015527908 -0.14981909 -0.017215926 -0.040003438 -0.018915847 -0.028328307 -0.012756843 -0.023007432
-0.015371212 0.07452668 -0.017707122 -0.025798935 -0.03244003 -0.014757458 -0.04440151 0.005312083
-0.042267717 -0.022581967 -0.022583531 -0.022329334 -0.018668149 -0.106759086 -0.04083173 -0.012675941
-0.0733834 -0.010612757 -0.029155552 -0.077432565 0.06253997 -0.045223534 -0.045297794 -0.03492448
-0.028747886 -0.045421224 -0.030651802 -0.022395296 0.035880316 -0.068781614 0.079070784 -0.016662117
0.08329836 0.11458017 -0.0608907 0.037334207 0.08736979 -0.12296751 0.12680626 0.128122
0.09643612 -0.0032363073 0.04585072 0.029786626 0.10125515 0.04954206 -0.01531915 -0.062095564
-0.031474527 0.06337387 0.027387682 -0.05623815 0.09691167 -0.062388252 0.055410642 0.09966707
-0.051099468 0.0289018 0.025268339 -0.04245529 0.03912202 0.06563278 -0.020982016 -0.018079758
0.005668465 -0.11621583 -0.07771028 -0.018940525 -0.08739253 0.007923665 0.055249408 -0.059892148
-0.051869538 0.024142515 -0.004157312 0.000500392 -0.028048653 0.07279756 0.022517823 0.06788578
-0.11008049 0.09210388 0.044557225 0.11418455 -0.17889285 0.087926574 -0.085736744 -0.035950273
-0.07145692 0.07694568 -0.08251978 -0.051854383 0.037261005 0.07896736 0.12649682 0.08382816
-0.13828418 -0.037646867 -0.017269274 0.008708163 -0.04911016 0.053472526 0.018967325 0.006090276
0.00506424 0.039576106 -0.032748777 0.004004415 0.013314494 -0.027939638 -0.030089566 -0.036661256
-0.04855053 -0.026109168 -0.0141488 -0.039299503 -0.01909716 -0.011961078 -0.04102866 -0.033944864
-0.015846822 0.093343936 -0.028339732 -0.054428354 -0.030650703 -0.024977876 -0.011952102 -0.039000347
-0.016270567 0.0458168 -0.013520045 -0.03249013 -0.027449006 -0.016901078 -0.054236345 -0.040830977
-0.048326567 -0.050485544 -0.024756256 -0.031852063 -0.024687232 0.023159958 -0.04054396 0.002654727
0.06578497 0.056528054 -0.03372327 -0.0076425737 0.04232996 0.018618202 -0.030772598 -0.021888493
-0.036477074 0.009303215 -0.023022963 0.08442303 -0.042020563 -0.08748072 -0.0030098269 -0.031159958
00000000: 6e71 89bb 1432 14bd 3226 6bbc 63d6 923c
00000010: bb5a 65bd a939 e73d 4df3 963c 46b1 283d
00000020: dfb6 8e3c 4afe c73d 659b abbc ac0a 25bb
00000030: c3b8 e4bc 9e71 22bd 7d07 c0bb e691 16bd
00000040: 99a3 42bd fcf3 33bd fcce c5bc 31d0 21bd
00000050: 9bae 15bd 9d03 2fbc d514 25bd 5bc8 ecbc
00000060: f197 6abc 1c83 b33d dbc8 fbbc ed60 02bd
00000070: c401 ccbc d75a 0fbd 714d 1abc 8270 19bd
00000080: ae9a 82bc 8d12 af3c 7793 9fbc c712 ffbc
00000090: ee72 f5bc 2c57 83bc 0dd1 9fbc 470b 70bb
000000a0: 6226 3cbd 89b0 c7bd 3a1a bebc c492 d1bc
000000b0: d895 d8bc 5e6a 8c3d ee34 1ebd 489e 583c
000000c0: 089d bf3d f712 5e3d b10e 0abd b1c5 03bc
000000d0: f3cb bbbb 5de1 2d3d 1794 47bd ac1f acbc
000000e0: 8088 0fbd fd6a 343d 1bd2 b3bc 2201 b4bc
000000f0: e863 803b d8d9 acbd 9b6b 263d e43a 53bc
00000100: c1e8 1a3c c105 17bd f3ec 47bc 335c bfbd
00000110: c6ba c6bb 17d4 253e 7f1c 82bd 53d5 86bd
00000120: b585 30bd 94a9 92bd d7a8 bcbc f00e 893b
00000130: 2007 d43b 2411 d5bc 2b7a bebc b1dc f7bc
00000140: 47e4 09bd 7f9c e8bc 3447 dabc 117e e9bc
00000150: c127 83bc f1a1 efbc d0e4 3cbd b21b 07bd
00000160: c468 7ebc 2d6a 19be 6a08 8dbc a5da 23bd
00000170: 68f5 9abc c410 e8bc 1402 51bc 157a bcbc
00000180: 89d7 7bbc 72a1 983d 870e 91bc 4a58 d3bc
00000190: d6df 04bd 44c9 71bc 5cde 35bd fb10 ae3b
000001a0: ea20 2dbd d1fd b8bc 1901 b9bc 02ec b6bc
000001b0: f2ed 98bc 82a4 dabd 2c3f 27bd c0ae 4fbc
000001c0: 094a 96bd 21e1 2dbc a0d7 eebc f794 9ebd
000001d0: f514 803d 503c 39bd 2e8a 39bd f90c 0fbd
000001e0: b080 ebbc 9b0b 3abd 7d19 fbbc 5776 b7bc
000001f0: 3df7 123d 60dd 8cbd ddef a13d fe7e 88bc
00000200: 5598 aa3d 02a9 ea3d 8768 79bd c1eb 183d
00000210: efee b23d 64d6 fbbd 80d9 013e 6a32 033e
00000220: 4d80 c53d 3a18 54bb f7cd 3b3d 1503 f43c
00000230: dc5e cf3d 9dec 4a3d 2cfd 7abc eb57 7ebd
00000240: 6feb 00bd 29ca 813d 225c e03c f959 66bd
00000250: a079 c63d d38a 7fbd 45f6 623d 401e cc3d
00000260: ad4d 51bd 78c3 ec3c 8cff ce3c 99e5 2dbd
00000270: 693e 203d 7b6a 863d 7ae2 abbc 001c 94bc
00000280: 88be b93b 9102 eebd 9126 9fbd 2929 9bbc
00000290: dbfa b2bd 43d2 013c 344d 623d 7851 75bd
000002a0: 2775 54bd 86c6 c53c 103a 88bb bd2c 033a
000002b0: 4ac6 e5bc e316 953d 4c77 b83c b307 8b3d
000002c0: e171 e1bd f6a0 bc3d a381 363d 97d9 e93d
000002d0: b02f 37be d912 b43d bf96 afbd 9840 13bd
000002e0: 0158 92bd b295 9d3d 2100 a9bd 4365 54bd
000002f0: ff9e 183d a4b9 a13d 6288 013e 19ae ab3d
00000300: 5e9a 0dbe 9a33 1abd 4b78 8dbc afac 0e3c
00000310: bc27 49bd 0206 5b3d 5d61 9b3c f090 c73b
00000320: edf1 a53b 8e1a 223d 9523 06bd 7837 833b
00000330: 0925 5a3c abe1 e4bc 657e f6bc 1d2a 16bd
00000340: ecdc 46bd e5e2 d5bc 5ed0 67bc 84f8 20bd
00000350: a671 9cbc 66f8 43bc ab0d 28bd c509 0bbd
00000360: 32d1 81bc 1b2b bf3d ba28 e8bc 44f0 5ebd
00000370: 2f17 fbbc 679e ccbc c0d2 43bc d4be 1fbd
00000380: da49 85bc 66aa 3b3d 2e83 5dbc 5f14 05bd
00000390: bddc e0bc 2174 8abc ee26 5ebd 623e 27bd
000003a0: 14f2 45bd eec9 4ebd a2cd cabc 4f77 02bd
000003b0: e13c cabc f4b9 bd3c 6c11 26bd eefa 2d3b
000003c0: 45ba 863d f689 673d 6921 0abd 8e6e fabb
000003d0: 2e62 2d3d 3385 983c d116 fcbc 7f4f b3bc
000003e0: fc68 15bd 836c 183c a79a bcbc fbe5 ac3d
000003f0: c11d 2cbd 1729 b3bd 8440 45bb 2b43 ffbc

lstm.weight_ih_l1 f4 [256, 64]
-0.000568348 -0.00042495987 -1.1342074e-05 -0.00017461365 -0.00027068332 0.0054123444 0.00036683318 -0.0024696356
-0.0014504457 0.0023405945 0.00028663533 0.0011698848 -0.0018039664 -0.00037072747 9.6955104e-05 -6.243748e-05
-0.00016204522 0.00042044782 -0.0006290834 -0.00020978991 0.00014766234 0.0004323223 -0.0002040141 -7.756958e-05
6.0133847e-05 -0.0027927174 0.00023489383 0.0013069604 -0.0002640007 0.0003850693 -0.00018788208 -6.765433e-05
-0.0006228412 0.0011688379 -4.2196527e-05 0.00066660787 0.00084126485 5.5579776e-06 -0.0010145871 0.0005256381
0.0004456325 0.0016057884 9.233364e-05 -0.0010761034 0.0003255768 0.0019256269 0.001009365 -0.00073594385
-0.0018616751 -0.0014479895 0.00053442246 0.0020800987 0.0074908133 -0.001840812 0.0014858769 0.0015250824
0.0008870622 -0.006192662 0.00054805266 0.0027511066 -0.0030233772 -0.000571008 -0.0011584279 0.00010181549
-0.020875715 0.0042025307 0.00075562316 0.0094751995 0.0038833495 0.024589837 0.0051565766 -0.017612759
-0.01884286 0.0076188864 -0.0058049415 0.005704415 -0.005357389 0.0028160617 0.0030806172 1.5389174e-05
0.00043460337 0.0025840972 6.9486065e-05 -0.0038060537 0.006594775 0.0011189377 0.0010574394 0.005681265
-0.005704181 -0.023392526 -0.0021353422 -0.00053095433 0.00013981701 -0.004306734 -0.0039810515 -0.0014866571
-0.0005580784 0.010536058 0.0023405747 0.005607503 0.0005866786 -0.0024108335 -0.012895012 -0.0020541365
0.0056064716 0.0042533716 -0.0032902407 -0.0038100437 0.0009242473 0.019285671 -0.0052020005 0.0012960816
-0.018743698 -0.00769459 0.0037661046 0.025926271 0.033592217 -0.014559122 0.00431335 0.0037985393
-0.00015403143 -0.042419698 0.0072376444 0.020147355 -0.0093177855 0.0076027596 -0.015066045 0.0026012824
-0.00095566345 -0.0015020563 4.9536204e-05 -0.0035006164 -0.00081627304 -0.00017129397 -0.0023061407 0.0023867576
-0.0025909222 -0.008571991 0.0020875265 -0.006549226 0.0005219338 -0.0013513739 2.9090228e-05 0.00093807233
5.436805e-05 -0.00067488506 -0.0013839789 -0.0020349843 0.0014303965 0.0023095831 -0.0005567192 0.00025565733
0.0020638125 0.0011737209 -0.0009826656 -0.002213013 -0.00022507558 -0.00046087068 0.00025591167 0.001086348
0.0014441041 -0.0017968706 -0.0022146008 -0.0008604491 0.00088690856 -0.0014949276 -0.0020150815 0.001641352
0.00056163594 -0.0027156037 0.00022525692 -0.0012775189 0.0016702206 -0.0039390866 0.0011926744 0.0025888039
0.005838393 0.0034103347 0.0005655878 0.00057467195 -0.0031333703 0.0042606583 -0.0001530317 -0.0012341969
0.0012361596 0.0053909114 0.0009623985 -0.0035175122 0.0030644785 0.00039883985 0.0009992998 -0.00034327846
-0.0012723684 0.0012606865 -0.00031626085 0.0040360666 0.0001641828 0.008516264 0.0036747514 -0.0037322
-0.0027707699 0.0019772283 -0.0029717775 0.0016775822 -0.0019215748 -3.387502e-05 -0.0003317587 -0.00046381296
-0.0005742586 0.0013687075 -0.00040034874 -0.0004936566 0.0010653783 -0.0009952517 0.0010452527 0.0015596835
-0.0015426279 -0.0049951067 -0.0010670128 0.0007587052 0.00017943681 1.0497628e-05 -0.00030923405 -0.001536918
-0.0014534665 0.0013571689 -4.273513e-05 0.0012828293 -1.550288e-05 -3.911285e-05 -0.002170093 0.00098268
0.00022807701 0.0018499866 -0.001074433 -0.0011595424 0.00028427123 0.004542471 8.5572494e-05 -0.001786187
-0.0056285555 -0.0028032537 0.00067751756 0.0056992588 0.0028840993 -0.0016947854 0.0012581742 0.0024064253
-0.00040576555 -0.0056586605 0.001246044 0.0048213303 -0.0004070536 -0.00059773657 -0.0027833965 0.00146736
00000000: 30fd 14ba 26cd deb9 d649 3eb7 7f18 37b9
00000010: 80ea 8db9 095a b13b 8453 c039 9cd9 21bb
00000020: e21c beba a964 193b 8b47 9639 d256 993a
00000030: 1173 ecba 335e c2b9 6054 cb38 def0 82b8
00000040: afea 29b9 8d6f dc39 13e9 24ba 0dfb 5bb9
00000050: cfd5 1a39 51a9 e239 9eec 55b9 daac a2b8
00000060: 3a38 7c38 0606 37bb d54d 7639 504e ab3a
00000070: 9369 8ab9 20e3 c939 3602 45b9 a4e1 8db8
00000080: 2a46 23ba b133 993a 2dfc 30b8 4cbf 2e3a
00000090: 5488 5c3a aa7e ba36 e5fb 84ba faca 093a
000000a0: c8a3 e939 5179 d23a 3fa3 c138 0a0c 8dba
000000b0: 2eb2 aa39 5165 fc3a ab4c 843a 5bec 40ba
000000c0: 7303 f4ba 77ca bdba 7c18 0c3a 4452 083b
000000d0: 7f75 f53b 6747 f1ba c1c1 c23a 46e5 c73a
000000e0: bd89 683a d0eb cabb 31ab 0f3a e94b 343b
000000f0: da23 46bb b3af 15ba 64d6 97ba c685 d538
00000100: 8c03 abbc 62b5 893b 0315 463a de3d 1b3c
00000110: cb7f 7e3b a070 c93c 80f8 a83b a248 90bc
00000120: 575c 9abc daa7 f93b 6137 bebb 1aec ba3b
00000130: 098d afbb ad8d 383b 2ee4 493b 0018 8137
00000140: 7adb e339 f559 293b 0cb9 9138 fc6e 79bb
00000150: fb18 d83b 52a9 923a c799 8a3a e829 ba3b
00000160: 23ea babb afa1 bfbc 19f1 0bbb be2f 0bba
00000170: d89b 1239 811f 8dbb 7b73 82bb efdb c2ba
00000180: 024c 12ba 6e9f 2c3c 5464 193b 25bf b73b
00000190: 56cb 193a 13ff 1dbb 9a45 53bc b19e 06bb
000001a0: 7eb6 b73b de5f 8b3b 14a1 57bb edb1 79bb
000001b0: 3049 723a fcfc 9d3c 8b75 aabb 48e1 a93a
000001c0: 628c 99bc e622 fcbb c0d0 763b 5563 d43c
000001d0: fe97 093d 6289 6ebc 0157 8d3b eaf0 783b
000001e0: 7f83 21b9 47c0 2dbd c329 ed3b 110c a53c
000001f0: a0a9 18bc 9220 f93b 93d7 76bc 477a 2a3b
00000200: 7d85 7aba a5e0 c4ba 18c5 4f38 996a 65bb
00000210: 28fb 55ba 609d 33b9 9f22 17bb 266b 1c3b
00000220: 76cc 29bb 8971 0cbc e2ce 083b e49a d6bb
00000230: 62d2 083a 9520 b1ba ca06 f437 f8e8 753a
00000240: 4009 6438 c5ea 30ba a066 b5ba 5f5d 05bb
00000250: 247c bb3a 605c 173b cbf0 11ba bf09 8639
00000260: 0741 073b 8ad7 993a c9cc 80ba 3208 11bb
00000270: 4402 6cb9 04a1 f1b9 e22b 8639 ca63 8e3a
00000280: 1848 bd3a f984 ebba d622 11bb c38f 61ba
00000290: 6d7f 683a 72f1 c3ba 750f 04bb a222 d73a
000002a0: c03a 133a 45f8 31bb f232 6c39 6c72 a7ba
000002b0: 4eeb da3a 7413 81bb 8353 9c3a eca8 293b
000002c0: fd4f bf3b ec7f 5f3b f443 143a 95a5 163a
000002d0: 3b59 4dbb fe9c 8b3b 2277 20b9 c7c4 a1ba
000002e0: a206 a23a 3ea6 b03b 7849 7c3a 1086 66bb
000002f0: 6bd5 483b 611b d139 f0fa 823a 0efa b3b9
00000300: 99c5 a6ba 9f3d a53a d0cf a5b9 fb40 843b
00000310: 7c28 2c39 cd87 0b3c 19d4 703b ed97 74bb
00000320: ce95 35bb 6394 013b 27c2 42bb 51e2 db3a
00000330: 5add fbba 0715 0eb8 e6ef adb9 ec2b f3b9
00000340: d889 16ba 3466 b33a e6e5 d1b9 bc68 01ba
00000350: 2aa4 8b3a 1b73 82ba dc00 893a 4b6e cc3a
00000360: 0132 caba fead a3bb 02db 8bba d8e3 463a
00000370: 3427 3c39 f81e 3037 b120 a2b9 6972 c9ba
00000380: 3e82 beba 08e3 b13a 7f3e 33b8 9c24 a83a
00000390: 2e0c 82b7 1a0d 24b8 1e38 0ebb 45cd 803a
000003a0: f527 6f39 407b f23a fdd3 8cba c9fb 97ba
000003b0: 3d0a 9539 02d9 943b 6275 b338 7d1e eaba
000003c0: bf6f b8bb cbb6 37bb 6f9b 313a d9c0 ba3b
000003d0: 2803 3d3b 9023 deba 52e9 a43a 1eb5 1d3b
000003e0: eebc d4b9 496c b9bb 4c52 a33a 40fc 9d3b
000003f0: cf69 d5b9 6cb1 1cba a569 36bb 6e54 c03a

lstm.weight_hh_l1 f4 [256, 64]
-0.00037462488 0.0009715434 0.00027606983 -2.5215215e-05 -7.8296755e-05 7.65956e-05 6.2114395e-06 -0.0026583695
-0.0004892637 -0.00016208655 2.6597094e-05 -0.00032336102 -0.017284593 -0.00011800474 0.00030277262 0.018174604
0.0006217 -0.00065234484 0.00025698985 -0.00015099833 -0.00011798693 -0.00018142622 -0.000331442 -0.00019360478
-0.00013032468 0.0023513513 0.00028632555 0.00095948053 -0.0015303973 0.0013042071 -0.0004831712 0.00025327902
0.00015475921 0.00025181894 -0.00030304494 0.00020577738 0.00017033306 -1.1467094e-05 -0.016065365 -0.00021338616
0.0010996261 4.6174613e-05 -0.00023238196 -0.00022330366 0.00010633404 -0.00020585915 -0.00014115334 0.00020666097
-0.00015619223 -6.509941e-05 2.5191206e-05 -0.0009159851 4.0372008e-05 0.00031844704 -0.00019101166 -1.0678651e-05
-0.0011575076 4.606109e-05 -0.00010205228 -0.0001381936 -9.186369e-05 8.391653e-05 -0.00019082436 -3.193059e-05
-0.0022503603 0.018618641 0.0024936788 0.0014505035 -0.0007793711 0.00077216764 -0.00023306021 -0.025777282
-0.008599369 -0.001215732 -0.0013642916 -0.0025449388 -0.03386253 -0.001987486 0.0025446247 0.014899618
-0.011245834 0.0033701034 -0.0034743645 -0.0016800703 -0.00022106849 0.0005309808 -0.002900851 -9.4706935e-05
-0.0018877923 0.024841648 0.0024953727 0.0024518284 -0.023572912 0.019566283 -0.007398605 0.01791265
0.0011888612 -0.0008360025 -0.0027863835 0.0018632287 0.0029979693 0.007362788 -0.06528165 -0.0006542076
0.0132818585 -0.004654517 -0.00613962 -0.0017074344 -0.0050004665 -0.0014106716 -0.0011636993 0.0025788313
-0.0010343792 0.00041649723 0.0018356567 -0.012910823 0.00084129313 0.0026346683 -0.0040247315 -0.00053716096
-0.018166108 0.0019788588 -0.0011682805 -0.0011856444 0.0010533975 0.00060084835 0.0043419595 -0.0008599886
0.0005478809 0.00195027 -0.00076806615 -0.00016815476 0.00050849863 -0.00053013896 -7.0434144e-06 -0.0016777357
3.2338226e-05 0.0006233214 -6.2576437e-06 0.00036800577 0.0038368355 2.9246192e-05 -0.00057752256 -0.0066617536
-0.0042052246 0.0014955779 -0.0010181875 0.00035353148 -0.00016712317 0.0009651848 0.00087223575 -8.075783e-05
0.00060006167 0.0003298079 6.3989384e-05 -0.002500935 -0.0022001269 0.00015367722 -0.00013590994 0.002661321
-7.953895e-05 -0.00075155764 0.0006076893 0.000115702154 -0.0011126526 0.0013655219 -0.0066445875 0.00054503535
-0.0010276926 -0.0005784865 -0.00031241338 0.0005857118 -0.0007596456 0.00030398468 -0.00019778131 0.00029843202
-0.00035432525 -5.5807926e-05 0.00011999975 -0.00033439256 -2.2499567e-05 -0.0009636339 4.173534e-05 -0.00021020381
0.0003030489 -0.0007199388 -0.0002474958 0.00068162655 0.00023305905 0.00045506962 0.0007889276 -0.0006960705
-0.0014878298 0.0014235674 0.0012443599 -0.00025163253 -0.00046585264 0.00013372995 -0.0001414965 -0.0019454681
-0.0010297206 -0.00036073886 -0.00015457923 -0.0015232592 -0.008185696 -0.00070659746 0.0007069533 0.011870893
0.0048364517 -0.002847096 0.001475323 -0.0006532834 -0.00038847612 -0.001025348 -0.0010358411 -0.00030735944
-0.0005514307 0.0032955671 0.0011507553 0.0028617121 -0.0010324572 0.0022504686 -0.00051042734 -0.0043366994
0.00050995353 0.0014855699 -0.0008497271 0.0009273872 0.0007578834 -0.00033267366 0.0026073584 -0.00017374032
0.0023642883 0.0005316972 -0.0012323066 -0.0008863722 0.00073396444 -0.00021103655 -2.8437073e-05 0.0011467169
-0.00077453896 -8.7355147e-07 0.00022516429 -0.0014355108 0.00029659754 0.0013167622 -0.00073165144 -0.0001479755
-0.0022189575 0.00033994508 -0.0002682547 -0.00042893202 -0.00040918478 0.0005257924 -0.0015891383 -0.0003490604
00000000: 4d69 c4b9 2daf 7e3a 77bd 9039 4385 d3b7
00000010: 4033 a4b8 f3a1 a038 dc6b d036 0a38 2ebb
00000020: ee41 00ba c7f5 29b9 d31c df37 c888 a9b9
00000030: 6b98 8dbc 5079 f7b8 74bd 9e39 e8e2 943c
00000040: 95f9 223a 1f02 2bba 98bc 8639 4e55 1eb9
00000050: c06f f7b8 3b3d 3eb9 64c5 adb9 6302 4bb9
00000060: c4a7 08b9 2119 1a3b f71d 9639 a685 7b3a
00000070: 9d97 c8ba eef1 aa3a 2452 fdb9 89ca 8439
00000080: dc46 2239 9106 8439 01e2 9eb9 f2c5 5739
00000090: 6f9b 3239 cb62 40b7 839b 83bc 69c0 5fb9
000000a0: 5421 903a 9dab 4138 8fab 73b9 9f26 6ab9
000000b0: a7ff de38 e5db 57b9 9002 14b9 22b3 5839
000000c0: 88c7 23b9 fb85 88b8 b451 d337 b81e 70ba
000000d0: 1d55 2938 3df5 a639 4d4a 48b9 7528 33b7
000000e0: 83b7 97ba b831 4138 e704 d6b8 10e8 10b9
000000f0: f1a6 c0b8 58fc af38 0618 48b9 36ed 05b8
00000100: c87a 13bb 1f86 983c fd6c 233b d21e be3a
00000110: b64e 4cba 4b6b 4a3a a061 74b9 e12a d3bc
00000120: 5ee4 0cbc 3259 9fba 08d2 b2ba fdc8 26bb
00000130: 70b3 0abd 7b40 02bb b8c3 263b 871d 743c
00000140: 7240 38bc f4dc 5c3b 2ab2 63bb ce35 dcba
00000150: 9fce 67b9 8531 0b3a 341c 3ebb 669d c6b8
00000160: cc6f f7ba b680 cb3c 6889 233b dbae 203b
00000170: fb1b c1bc 7849 a03c ff6f f2bb 8dbd 923c
00000180: 90d3 9b3a 2e27 5bba c29b 36bb 9537 f43a
00000190: 9479 443b 8b43 f13b 63b2 85bd 217f 2bba
000001a0: 279c 593c eb84 98bb de2e c9bb fecb dfba
000001b0: f4da a3bb 49e6 b8ba 4587 98ba 9c01 293b
000001c0: 0294 87ba 505d da39 6b9a f03a eb87 53bc
000001d0: 3a8a 5c3a 66aa 2c3b e5e1 83bb 43d0 0cba
000001e0: 17d1 94bc beaf 013b fd20 99ba a067 9bba
000001f0: 2812 8a3a 4082 1d3a ff46 8e3b dc70 61ba
00000200: aa9f 0f3a 34a0 ff3a 0c58 49ba b352 30b9
00000210: c44c 053a 06f9 0aba 7856 ecb6 78e7 dbba
00000220: e8a2 0738 6466 233a c0f8 d1b6 e6f0 c039
00000230: 6b73 7b3b b855 f537 e264 17ba d74a dabb
00000240: fbcb 89bb 4407 c43a b474 85ba 315a b939
00000250: c93d 2fb9 7504 7d3a c0a6 643a 885c a9b8
00000260: 754d 1d3a 11ea ac39 0a32 8638 bae6 23bb
00000270: 0130 10bb 6a24 2139 0c83 0eb9 8f69 2e3b
00000280: 26ce a6b8 2e04 45ba 574d 1f3a 1fa5 f238
00000290: 6dd6 91ba 50fb b23a d7ba d9bb b4e0 0e3a
000002a0: a4b3 86ba 92a5 17ba 6acb a3b9 748a 193a
000002b0: f422 47ba 2260 9f39 8463 4fb9 de76 9c39
000002c0: bbc4 b9b9 4e13 6ab8 60a8 fb38 6951 afb9
000002d0: 74bd bcb7 609c 7cba fb0c 2f38 286a 5cb9
000002e0: 89e2 9e39 46ba 3cba 53c2 81b9 2faf 323a
000002f0: 5061 7439 6996 ee39 09d0 4e3a 8078 36ba
00000300: 4903 c3ba ff96 ba3a ca19 a33a 8ced 83b9
00000310: af3d f4b9 dc39 0c39 ad5e 14b9 14ff feba
00000320: b1f7 86ba 8d21 bdb9 8c16 22b9 19a8 c7ba
00000330: 4c1d 06bc f43a 39ba d552 393a 227e 423c
00000340: 197b 9e3b 5896 3abb a05f c13a 1b41 2bba
00000350: 62ac cbb9 f864 86ba 0fc5 87ba 1625 a1b9
00000360: e38d 10ba 71fa 573b f1d4 963a 908b 3b3b
00000370: 8453 87ba 997c 133b 33ce 05ba df1a 8ebb
00000380: 67ae 053a 74b7 c23a 38c0 5eba e71b 733a
00000390: b2ac 463a b46a aeb9 37e0 2a3b 102e 36b9
000003a0: 2df2 1a3b 9861 0b3a 5985 a1ba 6e5b 68ba
000003b0: 8567 403a b149 5db9 268c eeb7 6f4d 963a
000003c0: 6e0a 4bba 007e 6ab5 141a 6c39 c027 bcba
000003d0: a680 9b39 3597 ac3a 4ccc 3fba df29 1bb9
000003e0: ee6b 11bb a83a b239 89a4 8cb9 48e2 e0b9
000003f0: da87 d6b9 55d5 093a a24a d0ba 1802 b7b9

lstm.bias_ih_l1 f4 [256]
-0.091647536 -0.0029453298 -0.0012871148 -0.010891735 -0.007705462 -0.009103637 -0.008017242 0.049441017
-0.022793192 -0.040508434 -0.010692442 0.0003621726 0.0821513 -0.0046994314 -0.009650019 0.06142162
0.44477352 0.05553465 0.013248381 -0.012469528 -0.008234053 -0.03847709 -0.06576128 -0.007513407
-0.0038687338 0.06800108 -0.036239486 -0.01658795 -0.055350337 0.017117387 -0.074092455 0.13539504
-0.0024126961 0.015268252 -0.065161474 -0.024146127 0.0008111178 -0.07573108 0.23591399 -0.022645988
-0.073142566 -0.018579874 -0.042836238 0.001812903 -0.0028640698 -0.024918359 -0.023012869 -0.03674319
-0.024698993 -0.005056189 -0.03528182 -0.07316558 -0.002205261 0.005800958 -0.05644719 -0.009741507
0.032047495 -0.008009926 -0.0057347086 -0.008921023 -0.02123211 -0.026771057 0.016263505 -0.03138638
-0.082697146 -0.009091144 0.0038707322 -0.02663056 -0.009984638 -0.004316417 -0.0067048934 -0.090186566
0.0019175154 -0.0174086 -0.008617696 -0.01428345 0.07962701 -0.008842527 -0.009505688 0.18336275
0.029412907 -0.041064624 -0.02310544 -0.009093651 -0.008288193 -0.020347552 -0.00866133 -0.006578717
-0.0021975765 -0.00037518074 -0.028735109 -0.031514216 -0.10936865 -0.07003463 -0.009063847 0.017895592
-0.00464292 -0.010470177 0.00378037 -0.021570865 -0.001717255 -0.061449986 0.13658807 -0.0034780214
0.015864186 -0.037268832 -0.03374626 0.0016848721 -0.04207002 -0.06300836 -0.012888776 -0.029750295
-0.02089713 -0.004610895 -0.031828564 -0.0884778 -0.002461086 0.0015108826 -0.013007177 -0.0074852817
-0.04956573 -0.007944635 -0.004161077 -0.006380624 -0.01874997 -0.022970838 -0.004637089 -0.025235696
-0.04266701 -0.20480612 -0.07899313 -0.10081816 0.033822294 -0.04648555 -0.0256544 0.25900427
0.07801868 0.11778058 -0.014070351 0.030693289 0.09813199 -0.048119884 -0.12140383 -0.1076203
0.04767482 -0.09970612 -0.038938317 0.047213916 0.0059721256 0.16109155 0.0052307984 -0.055405967
-0.038310926 -0.20836365 0.0068718214 -0.18941231 0.19059 -0.13344441 0.061308738 -0.0045508863
0.0026319055 0.0005184726 0.06476015 -0.03985993 -0.08124241 0.067653514 0.07408441 0.065905064
-0.17149527 0.067808 -0.02113319 0.09459389 0.04047742 0.08028922 -0.0032211135 -0.023943642
-0.022759175 0.028631335 -0.033297133 0.20961356 0.019240294 -0.09370349 0.033786193 -0.0527446
0.01015297 -0.05907494 0.024925664 0.05989252 0.01839003 -0.03560959 0.027703386 0.05431679
-0.105301835 0.0060587465 -0.022991372 -0.018353704 -0.015870245 -0.0065860306 -0.006703309 -0.026146676
-0.08024776 -0.012107159 -0.010475922 -0.0015477343 0.13015266 -0.0055004144 -0.003583294 0.12922147
0.30487043 0.032423228 -0.016469581 -0.012889107 -0.009648831 -0.023026908 -0.06406905 -0.00749202
-0.0023658243 0.01655195 -0.036657557 0.008389182 -0.0749055 -0.0021978403 -0.10228812 0.11579888
-0.00316945 0.005590791 -0.062432848 -0.025961762 -0.005587117 -0.081153 0.15413025 -0.0063134483
-0.02282327 -0.056048706 -0.044940367 -0.009159794 -0.003381049 -0.07216046 -0.030435363 -0.03916294
-0.02584496 -0.0050940183 -0.036072556 -0.04435012 -0.0024319568 0.0019549413 0.006749361 -0.008721246
-0.0005489965 -0.00833768 -0.005088191 -0.009550056 -0.010565587 -0.028797686 0.016851787 -0.0323284
00000000: b4b1 bbbd 6f06 41bb 68b4 a8ba 3f73 32bc
00000010: 1a7e fcbb 6c27 15bc c05a 03bc aa82 4a3d
00000020: cab8 babc 2cec 25bd 5a2f 2fbc fce1 bd39
00000030: f13e a83d b0fd 99bb 1d1b 1ebc 3d95 7b3d
00000040: 5bb9 e33e 4d78 633d bd0f 593c fe4c 4cbc
00000050: 1fe8 06bc 279a 1dbd daad 86bd 0733 f6bb
00000060: 958a 7dbb 2644 8b3d db6f 14bd 74e3 87bc
00000070: 09b7 62bd c339 8c3c c9bd 97bd ffa4 0a3e
00000080: 531e 1ebb b127 7a3c 6173 85bd 19ce c5bc
00000090: 32a1 543a e518 9bbd 7093 713e 1484 b9bc
000000a0: c5cb 95bd d234 98bc 0d75 2fbd ee9e ed3a
000000b0: 1eb3 3bbb 9621 ccbc 7c85 bcbc 0780 16bd
000000c0: 8b55 cabc 63ae a5bb ab83 10bd d6d7 95bd
000000d0: 2486 10bb f615 be3b 2b35 67bd d79a 1fbc
000000e0: 3c44 033d 113c 03bc 39ea bbbb 7c29 12bc
000000f0: f6ee adbc fa4e dbbc 0b3b 853c 018f 00bd
00000100: 1f5d a9bd 06f3 14bc 1cac 7d3b 5528 dabc
00000110: 9b96 23bc bb70 8dbb b9b4 dbbb bcb3 b8bd
00000120: 2455 fb3a 7b9c 8ebc 3d31 0dbc 2205 6abc
00000130: 7c13 a33d 3fe0 10bc bfbd 1bbc 72c3 3b3e
00000140: 56f3 f03c 6133 28bd 9f47 bdbc 89fd 14bc
00000150: 33cb 07bc e9af a6bc 40e8 0dbc 4792 d7bb
00000160: 3705 10bb e8b3 c4b9 e465 ebbc 0d15 01bd
00000170: acfc dfbd 516e 8fbd 8880 14bc c799 923c
00000180: a323 98bb 1b8b 2bbc 16c0 773b 62b5 b0bc
00000190: 8415 e1ba fbb2 7bbd bedd 0b3e 84ef 63bb
000001a0: 9cf5 813c 34a7 18bd 8539 0abd edd6 dc3a
000001b0: 9d51 2cbd 870a 81bd 722b 53bc e4b6 f3bc
000001c0: 7530 abbc fe16 97bb ab5e 02bd d933 b5bd
000001d0: 2c4a 21bb cf08 c63a 0e1c 55bc 1847 f5bb
000001e0: 6f05 4bbd 372a 02bc a559 88bb 8e14 d1bb
000001f0: 8999 99bc 572d bcbc b9f2 97bb 17bb cebc
00000200: 9ac3 2ebd b2b8 51be 26c7 a1bd c079 cebd
00000210: 3f89 0a3d a267 3ebd 2d29 d2bc 359c 843e
00000220: 42c8 9f3d f236 f13d 5487 66bc 7e70 fb3c
00000230: 6df9 c83d 5b19 45bd 92a2 f8bd 0868 dcbd
00000240: ac46 433d b932 ccbd c97d 1fbd 6163 413d
00000250: d2b1 c33b 2ff5 243e 1e67 ab3b 5ef1 62bd
00000260: ebeb 1cbd 485d 55be 042d e13b 4df5 41be
00000270: 062a 433e a7a5 08be df1e 7b3d 9a1f 95bb
00000280: 0c7c 2c3b 1bea 073a f8a0 843d 2a44 23bd
00000290: 6c62 a6bd ed8d 8a3d 91b9 973d 3cf9 863d
000002a0: 759c 2fbe ecde 8a3d 831f adbc 71ba c13d
000002b0: a7cb 253d ad6e a43d 5119 53bb 7525 c4bc
000002c0: 7371 babc 438c ea3c 9362 08bd f0a4 563e
000002d0: d29d 9d3c 9ee7 bfbd 6463 0a3d b90a 58bd
000002e0: a558 263c 90f8 71bd e830 cc3c dc51 753d
000002f0: b0a6 963c 5ddb 11bd 36f2 e23c 487b 5e3d
00000300: 7da8 d7bd 7388 c63b 6758 bcbc 825a 96bc
00000310: 5102 82bc a1cf d7bb 6ea7 dbbb 8e31 d6bc
00000320: f058 a4bd 1b5d 46bc 34a3 2bbc 58dd caba
00000330: bd46 053e d23c b4bb b3d5 6abb a252 043e
00000340: fa17 9c3e 38ce 043d 37eb 86bc d52c 53bc
00000350: 2116 1ebc eda2 bcbc a236 83bd 9e7f f5bb
00000360: f20b 1bbb f497 873c 3c26 16bd c872 093c
00000370: 0e68 99bd a409 10bb 6f7c d1bd f727 ed3d
00000380: 8cb6 4fbb f432 b73b 96b9 7fbd c3ad d4bc
00000390: 2214 b7bb 8b33 a6bd 52d4 1d3e 0be1 cebb
000003a0: def7 babc 5493 65bd 6413 38bd f612 16bc
000003b0: 9794 5dbb ddc8 93bd 9553 f9bc 5269 20bd
000003c0: cfb8 d3bc b9eb a6bb d1c0 13bd 79a8 35bd
000003d0: 7761 1fbb 791e 003b be29 dd3b 8fe3 0ebc
000003e0: 88ea 0fba c49a 08bc d7ba a6bb d777 1cbc
000003f0: 491b 2dbc 20e9 ebbc c20c 8a3c c96a 04bd
