experiments/cnn/v1/cnn_best_model.pth (torch, 36073 bytes, 5 tensors)

conv.0.weight f4 [32, 20, 3]
0	0x3dc9f005	0.09860233
1	0x3ddb2d48	0.10701996
2	0xbcf8de23	-0.03037936
3	0x3dee8cd8	0.116479576
4	0xbcf84afa	-0.03030919
5	0x3cc5d88f	0.024151115
6	0xbd843148	-0.06454712
7	0x3d97f2e4	0.074193746
8	0x3de5dc4a	0.112236574
9	0xbdc4d5a1	-0.09611059
10	0x3de2dd79	0.11077399
11	0x3cbaf0f6	0.022819977
12	0x3dc229ba	0.09480615
13	0x3c8afaf4	0.016965367
14	0x3d7cf7b4	0.061759666
15	0xbc94d7c9	-0.0181693
16	0x3dcbe151	0.09955085
17	0x3c9c8170	0.01910469
18	0xbd7e3098	-0.06205806
19	0x3cfc41da	0.03079312
20	0xbd7ca151	-0.06167728
21	0xbc897763	-0.01678056
22	0xbd5e3294	-0.054247454
23	0x3dabf5f8	0.08396524
24	0xbdd09703	-0.10185053
25	0xbd73a493	-0.059483122
26	0xbd14ef4e	-0.03636103
27	0xbd9f0164	-0.07763937
28	0x3c46ad86	0.012126332
29	0xbe029594	-0.12752372
30	0x3de65504	0.11246684
31	0xbde91339	-0.113806196
32	0x3dc3c33b	0.09558722
33	0x3cad883d	0.021183128
34	0xbd2d11de	-0.042253368
35	0x3da2cf8f	0.07949745
36	0x3cab27d8	0.020893022
37	0x3dd73f56	0.10510127
38	0x3c74f0ff	0.014950036
39	0xbd31702b	-0.043319862
40	0x3d033f80	0.03204298
41	0xbd19ff2d	-0.03759687
42	0x3d5441bf	0.051820513
43	0x3de6fe6e	0.11278997
44	0x3d93c921	0.07216097
45	0xbd62aeb3	-0.055342387
46	0x3d9ae412	0.07563032
47	0x3cc663e5	0.024217555
48	0x3d806a03	0.0627022
49	0xbda631ab	-0.08114942
50	0xbe05c813	-0.13064604
51	0xbd4c4dda	-0.049878933
52	0xbdcacc2c	-0.09902224
53	0x3dd8f464	0.10593489
54	0x3d1f20aa	0.03884951
55	0x3d627775	0.055289704
56	0x3d2febe5	0.042949576
57	0xbb8ce620	-0.004299894
58	0x3dc9a7b9	0.09846444
59	0xbdc0b7dc	-0.094100684
60	0x3c052dc0	0.008128583
61	0xbdb475ee	-0.08811556
62	0x3d230dc8	0.039808065
63	0xbd361e6d	-0.04446261
64	0x3d2205c6	0.039556287
65	0xbcdc58b6	-0.02689777
66	0x3ddb40c0	0.107057095
67	0xbd9cbda9	-0.07653362
68	0xbd9db45f	-0.07700419
69	0xbd9dbaef	-0.077016704
70	0x3dedc6cb	0.116101824
71	0x3d3032f9	0.04301736
72	0x3dfe6928	0.12422401
73	0xbdda348a	-0.10654552
74	0xbe032001	-0.12805177
75	0xbdceda85	-0.10100273
76	0xbdb1db8d	-0.08684454
77	0x3d562daf	0.05228966
78	0x3d3d4228	0.04620567
79	0x3ddba651	0.10725082
80	0xbd8890a2	-0.066682115
81	0xbdb44711	-0.08802617
82	0x3d8c412a	0.068483666
83	0xbd55c02a	-0.052185215
84	0x3da06d4d	0.078333475
85	0xbcfb2349	-0.030656474
86	0x3d973751	0.07383598
87	0xbdcd7018	-0.10031146
88	0xbd8570d6	-0.06515662
89	0x3d2130a5	0.03935303
90	0x3cdf8919	0.027287053
91	0xbd06d661	-0.03291929
92	0x3d9d9730	0.07694852
93	0x3db3bc04	0.087760955
94	0xbdbfbbab	-0.09361967
95	0xbd8d25b3	-0.06891956
96	0x3df20c1e	0.118187174
97	0xbd3287ef	-0.043586668
98	0xbd3b8569	-0.045781527
99	0xbdffd3ec	-0.12491593
100	0xbd97678e	-0.07392798
101	0x3d041ba7	0.032252934
102	0xbc8b97fc	-0.017040245
103	0xbdbfec83	-0.09371283
104	0x3b465e31	0.0030268545
105	0xbdb49a92	-0.088185444
106	0xbde04ff9	-0.109527536
107	0xbd9197c2	-0.07109024
108	0xbde7721f	-0.11301064
109	0xbda85f0c	-0.08221254
110	0x3e04225b	0.1290373
111	0x3cc7c038	0.02438365
112	0x3d22f3c4	0.039783254
113	0xbdf69902	-0.12040903
114	0xbdada726	-0.08479147
115	0xbd3005a5	-0.042974133
116	0x3ca56018	0.020187423
117	0xbde8a613	-0.11359801
118	0xbd63e187	-0.055635
119	0xbd9e490e	-0.07728778
120	0x39cd7e9a	0.00039194972
121	0xbd4482e9	-0.04797641
122	0xbc118c67	-0.008883572
123	0xbdb2d08e	-0.08731185
124	0xbdb514fd	-0.08841894
125	0xbd9a04c6	-0.07520442
126	0xbd3259f8	-0.043542832
127	0xbdcf4378	-0.101202905
128	0x3ddefcde	0.10888074
129	0xbccdc0bf	-0.025116323
130	0x3de496f9	0.11161608
131	0x3d264063	0.040588748
132	0xbddfb451	-0.109230645
133	0x3db724a9	0.08942539
134	0xbd115252	-0.035478897
135	0xbd4a9424	-0.049457684
136	0xbddb6690	-0.107129216
137	0xbe036dc0	-0.12834835
138	0x3d198a1e	0.037485234
139	0xbce2290a	-0.02760746
140	0x3d4f773a	0.050650813
141	0xbdd80cd2	-0.1054932
142	0x3dc5454c	0.09632358
143	0xbdc18e7c	-0.09451005
144	0xbcb12a7a	-0.0216267
145	0x3ce2f08b	0.02770259
146	0x3d89abe7	0.06722241
147	0x3dd65c5c	0.10466835
148	0x3df1e402	0.11811067
149	0xbdd0db56	-0.10198085
150	0x3d05a18d	0.03262477
151	0xbd62ce5f	-0.055372592
152	0xbc6742b7	-0.014115027
153	0xbdc5a0b2	-0.09649791
154	0x3df12f0b	0.11776551
155	0xbdc1fff8	-0.0947265
156	0x3d8e9526	0.069620416
157	0x3d3c7de4	0.046018496
158	0x3d2e3c88	0.042538196
159	0xbd8f61a6	-0.07001047
160	0x3defe8d4	0.1171433
161	0x3ce59385	0.028024444
162	0x3c89d081	0.016823055
163	0xbde88dbd	-0.113551594
164	0x3d5ee51b	0.05441771
165	0xbc9c60a5	-0.019089052
166	0xbd70f4c7	-0.058827188
167	0x3de3bb4b	0.11119708
168	0x3cf37a10	0.02972129
169	0xbd908914	-0.070573956
170	0xbd84323d	-0.06454895
171	0xbbca05c0	-0.0061652362
172	0x3d93a0d8	0.07208413
173	0xbd071fc2	-0.03298927
174	0xbd96e7a9	-0.073684044
175	0xbd3542e5	-0.04425325
176	0xbdc5c367	-0.09656411
177	0x3d3c8948	0.04602936
178	0x3dcd00a5	0.100098886
179	0xbdf8b733	-0.121443175
180	0x3cf558e6	0.029949617
181	0x3d8889bc	0.06666896
182	0x3cbfba0a	0.02340414
183	0xbd43aad7	-0.047770347
184	0x3d861d7f	0.06548595
185	0x3d877865	0.0661476
186	0x3d421f3f	0.04739308
187	0xbcc13c9a	-0.023588467
188	0xbd0f4d4a	-0.034985818
189	0x3c462243	0.01209313
190	0xbcc9a70d	-0.024615789
191	0xbd242074	-0.040070012
192	0x3da806a7	0.08204394
193	0x3de2330a	0.11044891
194	0xbc5891f9	-0.013218396
195	0xbceea39a	-0.029130746
196	0x3ad83f63	0.0016498383
197	0xbc01428a	-0.007889399
198	0x3cf69176	0.030098658
199	0x3d0f72b9	0.035021517
200	0xbdf22f1e	-0.11825393
201	0xbd477e9c	-0.04870473
202	0x3ddc1f10	0.10748112
203	0x3d4a1ae6	0.04934206
204	0xbc02b46e	-0.007977588
205	0xbda2b8f0	-0.0794543
206	0xbda4ca0a	-0.080463484
207	0xbdee88ac	-0.11647162
208	0xbd2fe749	-0.04294518
209	0x3d2f5af6	0.042811356
210	0x3da6e8ee	0.081498966
211	0x3d7085a8	0.058721215
212	0xbdeb3aba	-0.114858106
213	0xbda26113	-0.07928672
214	0xbcb52d39	-0.02211629
215	0x3dfc8718	0.123304546
216	0x3c96db03	0.01841498
217	0xbd0a06fa	-0.03369806
218	0x3d59c8b1	0.05316991
219	0xbd4a5b5f	-0.049403545
220	0xbdabb06c	-0.08383259
221	0x3dc089d8	0.094012916
222	0xbd70a967	-0.058755305
223	0xbcd47515	-0.025934735
224	0xbe0382cf	-0.12842868
225	0x3dae2bc5	0.08504442
226	0x3dc56e56	0.096401855
227	0x3d3b6a7d	0.045755852
228	0xbdb8713f	-0.09005975
229	0xbe028559	-0.1274618
230	0xbdd6b711	-0.10484136
231	0x3dc528f0	0.09626949
232	0x3d7de0e4	0.06198205
233	0x3dde798c	0.10863027
234	0x3d87568c	0.066083044
235	0x3cfd7bf5	0.030942896
236	0xbb3a1d3c	-0.0028398773
237	0xbdc9b799	-0.098494716
238	0xbde2fac1	-0.11082984
239	0xbdf7aa35	-0.12093011
240	0x3d57c8ce	0.052681737
241	0xbd823162	-0.06357075
242	0xbcd65fcd	-0.026168728
243	0xbd9adb4a	-0.07561357
244	0xbccc6b0a	-0.024953384
245	0xbdbd3daf	-0.09240281
246	0xbdb09660	-0.08622432
247	0x3d2767bf	0.040870424
248	0xbd24a6ff	-0.040198322
249	0x3d9fb2de	0.07797788
250	0xbd3141bd	-0.043275584
251	0xbdc6256a	-0.09675105
252	0xbcbc1d8f	-0.022963313
253	0xbd8094c5	-0.062783755
254	0xbd227f60	-0.039672256
255	0xbdfb1ca7	-0.122613244

conv.0.bias f4 [32]
0	0xbda71943	-0.08159115
1	0xbdc5acc8	-0.09652096
2	0xbcbcce9c	-0.023047738
3	0xbd0f2500	-0.034947395
4	0x3d9e2782	0.07722379
5	0xbbd40534	-0.006470347
6	0x3d4d8e6d	0.050184656
7	0xbd75037a	-0.05981777
8	0x3dda473d	0.10658119
9	0x3de29bf3	0.11064901
10	0xbdeca4a7	-0.115548424
11	0xbd3494ac	-0.044087097
12	0xbdc43d2e	-0.095819816
13	0x3d5b0612	0.053472586
14	0xbde1ae81	-0.11019612
15	0xbd7bcfd0	-0.061477482
16	0x3de36b83	0.111044906
17	0xbdfc621f	-0.123234026
18	0x3dd3e31a	0.103460506
19	0x3c032b92	0.008005993
20	0x3df179fe	0.11790846
21	0xbd8d8a0a	-0.069110945
22	0x3dc773d7	0.097388916
23	0x3c8c23f0	0.01710698
24	0x3be7e533	0.007076883
25	0x3dc395e5	0.095500745
26	0xbdf61125	-0.12014989
27	0xbdd3ed0b	-0.10347947
28	0x3e074bf5	0.13212569
29	0xbda6be88	-0.0814181
30	0xbdb6b34f	-0.08920919
31	0x3b34bd4a	0.0027578645

conv.3.weight f4 [64, 32, 3]
0	0xbd06791f	-0.032830354
1	0xbc6873fd	-0.01418781
2	0xbd8cb9a8	-0.068713486
3	0x3d16d6f9	0.036826108
4	0xbdb3dbb1	-0.08782137
5	0x3c07700f	0.008266463
6	0x3d73d56e	0.059529714
7	0x3ca0b01a	0.019615222
8	0x3c5dc0fe	0.013534782
9	0x3c74a327	0.014931477
10	0xbcf4e0c4	-0.029892333
11	0xbc9f2dd4	-0.019431032
12	0xbd307ade	-0.043085925
13	0xbd8d38b7	-0.06895583
14	0xbd5d5e53	-0.054045033
15	0x3dce9a2e	0.10088001
16	0xbc8bc6d2	-0.017062578
17	0x3d125946	0.03572967
18	0x3d8fefd5	0.07028166
19	0xbc050970	-0.008119926
20	0xbd618ec9	-0.05506781
21	0xbd8e4904	-0.069475204
22	0xbd1bfd1a	-0.038083173
23	0x3d125a72	0.035730787
24	0xbdb0a559	-0.086252876
25	0xbc55fabe	-0.01306027
26	0x3d1b122f	0.037859138
27	0x3da8b9b8	0.08238548
28	0x3cf541db	0.029938629
29	0x3ca1cc73	0.01975081
30	0x3d8f17c5	0.069869556
31	0x3d412944	0.047158495
32	0x3d0d6937	0.03452417
33	0xbd01f4a0	-0.031727433
34	0xbda7f9cd	-0.082019426
35	0xbcb75c57	-0.022382898
36	0xbc9aaa71	-0.0188801
37	0x3bf4a248	0.0074656345
38	0xbc3695f4	-0.01114415
39	0x3d27a1c2	0.04092575
40	0x3d8a0234	0.067387015
41	0xbd2b4512	-0.041813917
42	0xbdc6b724	-0.097029
43	0xbd5753b9	-0.05257008
44	0xbd47afce	-0.048751645
45	0x3d6cf248	0.057848245
46	0xbd86dc27	-0.065849595
47	0xbc1d42ee	-0.009598477
48	0xbcb51816	-0.022106212
49	0xbd7eccd2	-0.06220705
50	0x3d3c7480	0.04600954
51	0xbd2e9d92	-0.04263074
52	0xbbb3176d	-0.005465439
53	0xbd938d4a	-0.07204683
54	0xbc37b27f	-0.01121199
55	0x3c58ddc7	0.01323647
56	0xbba87392	-0.00514073
57	0xbd1cac7e	-0.03825044
58	0x3cf9ed43	0.030508643
59	0xbcd8eddc	-0.026480608
60	0xbd6aa8b9	-0.057289813
61	0xbd9c8f68	-0.0764454
62	0xbcbf30e6	-0.023338746
63	0xbdc6085a	-0.09669562
64	0x3dab18e0	0.08354354
65	0xbd4a4110	-0.049378455
66	0xbd2e1c60	-0.04250753
67	0x3c141989	0.009039291
68	0x3cd3c67f	0.025851486
69	0xbc1e642b	-0.009667437
70	0x3d8ed0fb	0.069734536
71	0xbd73b95c	-0.059502944
72	0x3d159503	0.03651906
73	0xb9dc34a2	-0.00042000884
74	0xbdaa4303	-0.08313563
75	0xbd2406bf	-0.040045496
76	0x3cd1090b	0.025517007
77	0x3c9c5082	0.019081358
78	0x3d97bef1	0.07409466
79	0x3d8b219f	0.06793522
80	0xbd649a3a	-0.055811144
81	0xbd32a6cb	-0.043616097
82	0xbcb1921e	-0.02167612
83	0xbd95b7c4	-0.07310441
84	0xbce6b167	-0.028160764
85	0xbdacc9e1	-0.08436943
86	0x3d1a49bf	0.037667986
87	0x3d928e22	0.07156016
88	0x3becf84f	0.007231749
89	0xbd96a1a0	-0.07355046
90	0xbd9e7991	-0.07738031
91	0xbd235841	-0.039879087
92	0x3cf1d179	0.02951883
93	0x3ae8643e	0.001773007
94	0x3c9104c2	0.017702464
95	0x3dc2b7d5	0.095077194
96	0x3d4151a1	0.047196988
97	0x3cb1f5f1	0.02172372
98	0xbcaada9e	-0.020856198
99	0x3d45c19e	0.04828035
100	0x3d18f03a	0.037338473
101	0xbdbc2467	-0.09186631
102	0xbd771f3f	-0.060332533
103	0x3b5d530d	0.0033771426
104	0x3d1e6226	0.03866782
105	0x3d4b6bc5	0.049663324
106	0xbd78cfcb	-0.06074504
107	0xbdcf5b53	-0.101248406
108	0xbbb1b9c6	-0.0054237572
109	0xbc40cc36	-0.011767438
110	0x3cf1a85d	0.029499227
111	0xbce646d4	-0.028109945
112	0x3d9fb59c	0.07798311
113	0x3bdd807d	0.0067597018
114	0x3d979f63	0.074034475
115	0xbd928248	-0.071537554
116	0x3d24fbd5	0.04027923
117	0x3c3eb45e	0.011639683
118	0xbd5300ea	-0.051514544
119	0x3d4d134c	0.05006723
120	0xbdcef040	-0.10104418
121	0x3da78f25	0.081815995
122	0x3bf7badd	0.0075601176
123	0x3c177122	0.009243282
124	0x3d3ee961	0.046609286
125	0x3c0114b3	0.00787847
126	0x3d3331c0	0.043748617
127	0x3d84fb89	0.06493289
128	0xbda3225c	-0.07965538
129	0x3d897b59	0.0671298
130	0xbc803c95	-0.015653888
131	0xbcc5703f	-0.024101375
132	0x3ca48d6b	0.020086965
133	0x3da294b3	0.079385184
134	0xbd6519ee	-0.05593293
135	0xbd8de70f	-0.069288366
136	0x3d807914	0.06273094
137	0xbd4696db	-0.04848371
138	0x3d046037	0.03231832
139	0xbc7e90ae	-0.015537424
140	0x3ce1a4b9	0.027544366
141	0x3d9f8207	0.077884726
142	0xbd53de59	-0.05172572
143	0xbd4add93	-0.049527716
144	0x3d4ac545	0.049504537
145	0x3ba4ada6	0.0050255833
146	0xbc41c8b9	-0.011827641
147	0xbdb7ffe4	-0.08984354
148	0x3db0b2d5	0.086278595
149	0xbb85214d	-0.0040628077
150	0xbc9d2740	-0.019183755
151	0xbd2d13ee	-0.042255335
152	0xbca8474e	-0.020541813
153	0x3d4a73e0	0.049426913
154	0xbb248ba3	-0.0025107644
155	0x3db24ccd	0.08706055
156	0xbbe8e5c2	-0.0071074674
157	0xbc81e095	-0.01585416
158	0x3d66753f	0.05626416
159	0xbb4fdbcb	-0.00317167
160	0xbcab3ec9	-0.020903962
161	0x3d09938f	0.03358799
162	0x3da4280b	0.0801545
163	0x3ccdabd8	0.025106356
164	0x3d90ba20	0.070667505
165	0x3d875c68	0.06609422
166	0x3cec41fa	0.028840054
167	0x3d1156fd	0.03548335
168	0x3d0699a9	0.032861385
169	0x3c2c3dab	0.01051275
170	0x3db1aeaf	0.086758964
171	0x3dbeccaf	0.09316384
172	0x3d10c701	0.035346035
173	0xbbc85267	-0.0061133387
174	0x3dbb46c6	0.09144358
175	0xbda2cdc5	-0.07949404
176	0x3d9981a6	0.074954316
177	0x3d5d6425	0.054050583
178	0x3d862b6c	0.06551251
179	0xbc00f2d3	-0.007870394
180	0xbd9d039d	-0.07666705
181	0x3d93e6a2	0.07221724
182	0xbd38f18d	-0.045152236
183	0x3cdaab43	0.026692992
184	0x3d6c1122	0.057633527
185	0xbdc3a5d2	-0.09553112
186	0x3bdca822	0.00673391
187	0xbd14a988	-0.03629449
188	0x3d9444dc	0.072396964
189	0xbd86378d	-0.06553564
190	0x3d7b5cc8	0.06136778
191	0x3d810e3e	0.063015446
192	0x3d68c35a	0.056826927
193	0x3dca04a4	0.098641664
194	0x3c82cd5f	0.01596707
195	0xbdbd74da	-0.09250803
196	0x3d9535bc	0.0728564
197	0x3c191428	0.0093431845
198	0x3b1bb5ab	0.0023759406
199	0xbdc63978	-0.0967893
200	0xbcb7e594	-0.022448339
201	0xbd4d3ebc	-0.050108656
202	0x3dcb6eeb	0.09933265
203	0x3d939061	0.072052725
204	0x3d9e5c0a	0.07732399
205	0x3d918de8	0.071071446
206	0xbd7dfc18	-0.062007993
207	0xbd31d350	-0.043414414
208	0xbd21e569	-0.039525423
209	0xbd25c8b3	-0.040474605
210	0x3da4fd16	0.08056085
211	0x3d138972	0.03601975
212	0x3dab6d8b	0.08370503
213	0xb988d4ce	-0.00026098493
214	0xbdb19519	-0.08671016
215	0xbcce5bf5	-0.025190333
216	0x3da04b7c	0.078268975
217	0x3d8d5798	0.06901473
218	0x3d1ca22a	0.03824059
219	0xbcc38d00	-0.023870945
220	0xbdb74141	-0.08947993
221	0xbd48054e	-0.048833184
222	0x3d59f6fa	0.05321405
223	0xbd28a3a6	-0.041171692
224	0x3d47eef5	0.04881187
225	0x3cd114a5	0.02552254
226	0xbd29e412	-0.04147727
227	0x3d759824	0.059959546
228	0xbd025f26	-0.031829022
229	0xbb2ad3b9	-0.0026066138
230	0xbd194f96	-0.037429415
231	0xbdc52c60	-0.096276045
232	0x3c8c6557	0.017138166
233	0x3cf7e957	0.030262632
234	0xbd4aa222	-0.04947103
235	0x3d831a03	0.06401446
236	0xbdb78e4e	-0.08962689
237	0xbdc97be2	-0.09838082
238	0xbd811de7	-0.063045315
239	0xbd108a88	-0.035288364
240	0xbc086da2	-0.00832692
241	0xbc88481c	-0.016635947
242	0x3d4e41ae	0.050355606
243	0xbdb2a873	-0.087235354
244	0x3c8d8a04	0.017277725
245	0x3b82a6e5	0.0039871805
246	0x3d00a8c8	0.031410962
247	0x3dda0238	0.106449544
248	0x3d89e6e8	0.06733495
249	0xbd6906d5	-0.05689128
250	0xbdac3fee	-0.08410631
251	0xbcc92473	-0.024553513
252	0xbd42ef3c	-0.047591433
253	0x3d20ba4d	0.03924017
254	0x3b803355	0.0039123693
255	0x3da4fa23	0.08055522

conv.3.bias f4 [64]
0	0x3d3e4f81	0.04646254
1	0xbdb3c398	-0.08777541
2	0x3d0e028e	0.034670405
3	0xbdc6b6ae	-0.09702812
4	0xbd84971c	-0.06474134
5	0x3daa06b7	0.08302062
6	0xbcf11470	-0.02942869
7	0xbb224011	-0.0024757425
8	0x3db80b46	0.08986525
9	0xbdb7282b	-0.08943208
10	0xbcc3d053	-0.023903048
11	0xbb50bcaf	-0.0031850745
12	0x3c62ef76	0.013851037
13	0xbcacd64b	-0.021098277
14	0xbd94d99f	-0.072680704
15	0xbdc136b9	-0.09434266
16	0x39542a39	0.00020233625
17	0x3dbfcf1f	0.09365677
18	0xbd3b84ba	-0.045780875
19	0xbbfc3da3	-0.0076977774
20	0x3dce4f48	0.100737154
21	0xbdd35bd2	-0.10320248
22	0x3db3b6e0	0.08775115
23	0x3de8fe9e	0.113766894
24	0xbd329c20	-0.043605924
25	0x3d95a0f0	0.07306087
26	0x3d959b32	0.07304992
27	0x3d9b341b	0.07578298
28	0x3e033f1c	0.12817043
29	0x3ca82023	0.020523136
30	0x3d06a4fe	0.032872193
31	0xbd8848fe	-0.06654547
32	0x3cb455b2	0.022013519
33	0x3dc835e9	0.097759075
34	0xbc8736d7	-0.016505642
35	0x3ce55c15	0.02799801
36	0xbd6cdd1c	-0.057828054
37	0x3d38b059	0.045090053
38	0x3ca93ed5	0.020659843
39	0x3db60b96	0.088889286
40	0x3c4b102c	0.012393992
41	0x3d24b2e6	0.040209673
42	0x3d46b9ff	0.048517223
43	0x3bf30eb5	0.0074175247
44	0xbdc57b86	-0.09642701
45	0x3d8e35a3	0.06943824
46	0xbd8135cb	-0.06309088
47	0x3cbea190	0.023270398
48	0xbd99e99a	-0.07515259
49	0x3c782dbc	0.015147623
50	0x3c92af78	0.017905936
51	0xbdc434ca	-0.09580381
52	0x3cb7fd8d	0.02245977
53	0xbca69255	-0.020333448
54	0xbd287b88	-0.041133434
55	0xbd2244c0	-0.039616346
56	0x3dbc9bf4	0.09209433
57	0x3d8e451e	0.06946777
58	0x3d33e915	0.043923456
59	0x3d2bcbbd	0.041942347
60	0x3d4e66b5	0.050390918
61	0x3d063206	0.03276255
62	0x3d946133	0.07245102
63	0x3db9224e	0.09039746

fc.weight f4 [1, 64]
0	0xbd7ab992	-0.06121213
1	0xbc1eee42	-0.00970036
2	0x3da279d8	0.07933396
3	0x3dcbbb02	0.09947778
4	0xbdcd9e21	-0.10039926
5	0xbcbdcb4b	-0.023168227
6	0xbd56e249	-0.052461896
7	0x3dfc1e2a	0.12310441
8	0x3e21e7d0	0.15811086
9	0xbd6292e1	-0.055315856
10	0xbd1d71ff	-0.038438793
11	0xba36c0fa	-0.0006971505
12	0x3cae626a	0.021287162
13	0xbd0d50d7	-0.034500923
14	0xbdba4649	-0.09095437
15	0xbd8766a3	-0.06611373
16	0x3a133639	0.0005615685
17	0x3d4dff29	0.050292168
18	0x3bc99a15	0.006152401
19	0xbdd9d6cf	-0.106366746
20	0x3e134429	0.1438147
21	0xbd91ff8c	-0.0712882
22	0xbce62cd8	-0.028097555
23	0x3e1144c8	0.14186394
24	0x3a971659	0.0011527046
25	0xbdb5e0e6	-0.088807866
26	0x3d82b2f1	0.063817866
27	0xbd11bfbb	-0.03558324
28	0x3e20025e	0.15625903
29	0xbd0faf47	-0.035079267
30	0xbd74c356	-0.0597566
31	0xbda86220	-0.08221841
32	0x3d4568fc	0.048195824
33	0x3da0890d	0.0783864
34	0x3dc80ca1	0.09768034
35	0x3d03dad9	0.03219113
36	0xbd917eae	-0.0710424
37	0x3d09f647	0.033682134
38	0xbdacbbd0	-0.0843426
39	0x3d7d4ae3	0.061838996
40	0x3d9ef0db	0.07760783
41	0xbde83ee0	-0.113401175
42	0xbd99f642	-0.07517673
43	0xbd5cc1a2	-0.0538956
44	0xbd32a8fa	-0.04361818
45	0x3a8fbf39	0.0010967023
46	0x3d4e1ff0	0.050323427
47	0xbd996e4c	-0.074917406
48	0x3d854abc	0.06508395
49	0xbda39eec	-0.07989296
50	0x3e1c5fc3	0.15270905
51	0xbd941f70	-0.07232559
52	0xbd89724a	-0.06711252
53	0x3dba7ea7	0.09106188
54	0x3dd0f12c	0.1020225
55	0xbcbd1763	-0.02308244
56	0x3df74c8a	0.120751455
57	0x3d909a59	0.070606895
58	0x3db55c05	0.08855442
59	0x3b63bd4b	0.0034750279
60	0xbd008b37	-0.031382766
61	0xbca24d5e	-0.019812282
62	0xbdccb34b	-0.09995135
63	0x3dce9ec8	0.10088879
