experiments/cnn/v1/cnn_last_model.pth (torch, 36073 bytes, 5 tensors)

conv.0.weight f4 [32, 20, 3]
0	0x3dcb85f1	0.09937657
1	0x3ddc990c	0.10771379
2	0xbcf39ae9	-0.029736953
3	0x3df7bfe3	0.12097146
4	0xbcd49e35	-0.025954345
5	0x3cf26d23	0.029593056
6	0xbd738a9b	-0.059458356
7	0x3da1791e	0.078844294
8	0x3df13739	0.11778111
9	0xbdbda184	-0.09259322
10	0x3de96f67	0.113982014
11	0x3cd70f0a	0.026252288
12	0x3dcaed61	0.09908558
13	0x3cace10f	0.02110341
14	0x3d881be2	0.06645943
15	0xbc9ce738	-0.019153222
16	0x3dc91041	0.09817553
17	0x3c927f3a	0.017882932
18	0xbd808ad0	-0.062764764
19	0x3cecb099	0.028892802
20	0xbd866810	-0.06562817
21	0xbc98ac1c	-0.018636756
22	0xbd5ffe20	-0.05468571
23	0x3dab887d	0.083756424
24	0xbdbe3a1a	-0.09288426
25	0xbd50c31d	-0.050967325
26	0xbcde4800	-0.027133942
27	0xbd968e3a	-0.07351346
28	0x3c825a86	0.015912306
29	0xbdfca78d	-0.12336645
30	0x3de8735a	0.113501266
31	0xbde7ef27	-0.113249116
32	0x3dc62235	0.09674493
33	0x3cb600c7	0.022217168
34	0xbd29f4b5	-0.041493136
35	0x3da54ea0	0.08071637
36	0x3cd27611	0.025691064
37	0x3de0e412	0.10981001
38	0x3ca39f7e	0.019973513
39	0xbd561ff4	-0.052276567
40	0x3cbbc520	0.022921145
41	0xbd3e1ac2	-0.046412237
42	0x3d777991	0.06041867
43	0x3df7ec0a	0.12105568
44	0x3da569aa	0.080767944
45	0xbd5918b3	-0.05300207
46	0x3d9f6e77	0.07784741
47	0x3cda4f45	0.026649127
48	0x3d8892d3	0.066686295
49	0xbd9be008	-0.0761109
50	0xbe012c39	-0.12614526
51	0xbd4c4dda	-0.049878933
52	0xbdcae6e5	-0.09907321
53	0x3dd8dfdb	0.10589572
54	0x3d351caa	0.04421679
55	0x3d7ce25d	0.061739314
56	0x3d4cb0d8	0.04997334
57	0xbbe12819	-0.006871235
58	0x3dbea9e8	0.09309751
59	0xbdc96659	-0.098339744
60	0x3c052dc0	0.008128583
61	0xbdb475ee	-0.08811556
62	0x3d230dc8	0.039808065
63	0xbd3605b3	-0.04443903
64	0x3d2214f9	0.039570782
65	0xbcdc372a	-0.026881773
66	0x3ddb3fea	0.1070555
67	0xbd9cc080	-0.07653904
68	0xbd9dac45	-0.076988734
69	0xbd9dbfcc	-0.07702598
70	0x3dedbca3	0.11608245
71	0x3d303b40	0.043025255
72	0x3dfe69fa	0.12422557
73	0xbdda3641	-0.10654879
74	0xbe031fc7	-0.12805091
75	0xbdceda85	-0.10100273
76	0xbdb1df2a	-0.08685143
77	0x3d562657	0.052282657
78	0x3d3d3c58	0.046200126
79	0x3ddb9b84	0.107230216
80	0xbd888fe4	-0.0666807
81	0xbdb453b0	-0.088050246
82	0x3d8c3340	0.06845713
83	0xbd55be0d	-0.0521832
84	0x3da06d6c	0.078333706
85	0xbcfb39b9	-0.030667173
86	0x3d973b39	0.07384343
87	0xbdcd6f1a	-0.100309566
88	0xbd85743c	-0.065163106
89	0x3d212acd	0.03934746
90	0x3cdf94bf	0.027292607
91	0xbd06d67d	-0.032919396
92	0x3d9d97e0	0.076949835
93	0x3db3b7a4	0.08775261
94	0xbdbfbf4d	-0.093626596
95	0xbd8d254d	-0.0689188
96	0x3df20913	0.11818137
97	0xbd328e08	-0.043592483
98	0xbd3b6b1e	-0.04575645
99	0xbdffd3ec	-0.12491593
100	0xbd9765ff	-0.07392501
101	0x3d041ec5	0.032255907
102	0xbc8b97fc	-0.017040245
103	0xbdbff29e	-0.093724474
104	0x3b4596b6	0.0030149645
105	0xbdb49a92	-0.088185444
106	0xbde04ff9	-0.109527536
107	0xbd9197c2	-0.07109024
108	0xbde76bc7	-0.11299854
109	0xbda854b0	-0.08219278
110	0x3e04269a	0.1290535
111	0x3cc7c038	0.02438365
112	0x3d22f3c4	0.039783254
113	0xbdf69902	-0.12040903
114	0xbdadac04	-0.08480075
115	0xbd30176a	-0.04299108
116	0x3ca56018	0.020187423
117	0xbde8aa73	-0.113606356
118	0xbd63f3bf	-0.055652376
119	0xbd9e490e	-0.07728778
120	0x39f751de	0.00047172507
121	0xbd440e49	-0.047865186
122	0xbc0f8653	-0.008760053
123	0xbdb23d95	-0.08703152
124	0xbdb4d296	-0.088292286
125	0xbd9a1d67	-0.07525139
126	0xbd2fed85	-0.042951126
127	0xbdce0966	-0.10060386
128	0x3ddfeb06	0.10933499
129	0xbcca8242	-0.024720315
130	0x3de4ffce	0.11181603
131	0x3d25bfdd	0.04046618
132	0xbddffaec	-0.109365314
133	0x3db6dba3	0.08928611
134	0xbd122c66	-0.035686873
135	0xbd4a7f51	-0.049437825
136	0xbddb7161	-0.10714985
137	0xbe0376d6	-0.12838301
138	0x3d1bf8d8	0.038079113
139	0xbcdfd4f5	-0.027323226
140	0x3d4ef594	0.05052717
141	0xbdd6a33d	-0.10480354
142	0x3dc59623	0.09647777
143	0xbdc20ea2	-0.09475447
144	0xbcadc526	-0.021212172
145	0x3ce65264	0.028115459
146	0x3d89e877	0.06733792
147	0x3dd75c16	0.10515611
148	0x3df30e4c	0.11867961
149	0xbdd020d5	-0.10162512
150	0x3d0396fd	0.032126416
151	0xbd650eca	-0.055922307
152	0xbc738d28	-0.014865197
153	0xbdc5ac30	-0.09651983
154	0x3df11341	0.117712505
155	0xbdc296fb	-0.095014535
156	0x3d903d37	0.07042926
157	0x3d3f780c	0.046745345
158	0x3d307605	0.043081302
159	0xbd912f50	-0.07089102
160	0x3dee041c	0.116218776
161	0x3cdc40ed	0.026886428
162	0x3c8b2007	0.016983045
163	0xbde83bdb	-0.113395415
164	0x3d5f8f09	0.05457977
165	0xbc97ab94	-0.018514432
166	0xbd6e7822	-0.058220036
167	0x3de4f5e9	0.11179716
168	0x3cfbc806	0.030735027
169	0xbd8e9b81	-0.06963254
170	0xbd82effb	-0.06393429
171	0xbbca05c0	-0.0061652362
172	0x3d93a0d8	0.07208413
173	0xbd071fc2	-0.03298927
174	0xbd96eb14	-0.07369056
175	0xbd35c36c	-0.044375822
176	0xbdc659b7	-0.096850805
177	0x3d3b2034	0.04568501
178	0x3dcc7bf1	0.099845774
179	0xbdf90b7c	-0.121603936
180	0x3cf47864	0.029842563
181	0x3d8851c9	0.06656224
182	0x3cbf2b2a	0.023336012
183	0xbd47bea2	-0.048765786
184	0x3d83b0a4	0.06430176
185	0x3d859ec0	0.0652442
186	0x3d404e5a	0.046949722
187	0xbcc55300	-0.024087429
188	0xbd10c7da	-0.035346843
189	0x3c35709f	0.011074214
190	0xbcd365af	-0.025805322
191	0xbd27b629	-0.040945206
192	0x3da7899a	0.08180542
193	0x3de19bca	0.110160425
194	0xbc5c0097	-0.013427875
195	0xbcede16f	-0.02903816
196	0x3ae5b6b6	0.0017525766
197	0xbbfd94c5	-0.007738682
198	0x3cf1f374	0.029535033
199	0x3d0b77ec	0.034049913
200	0xbdf3ca5a	-0.1190383
201	0xbd4abc26	-0.04949584
202	0x3dd9dd84	0.10637954
203	0x3d476d3c	0.04868816
204	0xbc11f39c	-0.008908179
205	0xbda4d35d	-0.08048127
206	0xbda68534	-0.08130875
207	0xbdef92b8	-0.11697906
208	0xbd3239bb	-0.043512087
209	0x3d2d6fb9	0.042342875
210	0x3da5a93b	0.08088919
211	0x3d6d8b99	0.05799446
212	0xbdec437c	-0.11536309
213	0xbda4467c	-0.08021256
214	0xbcbdfb3e	-0.02319109
215	0x3dfabce3	0.122430585
216	0x3c968f29	0.018378811
217	0xbd0a4154	-0.033753708
218	0x3d59a1b4	0.053132728
219	0xbd4af80f	-0.049552973
220	0xbdac3544	-0.08408597
221	0x3dc03084	0.093842536
222	0xbd712061	-0.05886877
223	0xbcd56d54	-0.026053108
224	0xbe0382cf	-0.12842868
225	0x3dac9268	0.08426362
226	0x3dc3b709	0.095563956
227	0x3d388739	0.045050833
228	0xbdb88f78	-0.090117395
229	0xbe0294a2	-0.12752011
230	0xbdd6a00b	-0.104797445
231	0x3dc528f0	0.09626949
232	0x3d7de221	0.06198323
233	0x3dde7fe2	0.108642355
234	0x3d85b24d	0.06528149
235	0x3cf4322a	0.029809076
236	0xbb754f59	-0.0037431328
237	0xbdca2b87	-0.098715834
238	0xbde321e8	-0.110904515
239	0xbdf7ccd8	-0.12099618
240	0x3d5631e0	0.05229366
241	0xbd831482	-0.06400396
242	0xbcd9d7d9	-0.026592182
243	0xbd9bb038	-0.076019704
244	0xbcd2bad9	-0.025723862
245	0xbdbf8183	-0.09350874
246	0xbdb2e90d	-0.08735857
247	0x3d21be20	0.039487958
248	0xbd29940b	-0.04140095
249	0x3d9d199e	0.07670902
250	0xbd38a932	-0.045083232
251	0xbdcab339	-0.09897465
252	0xbcb85161	-0.022499742
253	0xbd7f5e3c	-0.06234573
254	0xbd2072f7	-0.03917214
255	0xbdfb8a01	-0.122821815

conv.0.bias f4 [32]
0	0xbd9aaae6	-0.075521275
1	0xbdc5b478	-0.09653562
2	0xbcb82c70	-0.022482127
3	0xbd1454ca	-0.036213674
4	0x3d9b2a18	0.07576388
5	0xbb06f94c	-0.002059537
6	0x3d30eca7	0.04319444
7	0xbd75bfea	-0.059997477
8	0x3de14673	0.10999765
9	0x3df1a177	0.11798375
10	0xbdeceb2b	-0.11568292
11	0xbd4abd9e	-0.04949724
12	0xbdc00a65	-0.093769826
13	0x3d55548a	0.052082576
14	0xbde1d860	-0.110275984
15	0xbd802c60	-0.06258464
16	0x3dde8f6e	0.10867201
17	0xbdf725d3	-0.12067761
18	0x3dc7e207	0.09759908
19	0x3ba0872c	0.0048989262
20	0x3df3e183	0.11908247
21	0xbd91d0d7	-0.07119911
22	0x3dc27a7b	0.094960175
23	0x3ca54757	0.020175619
24	0x3baace78	0.0052126013
25	0x3dbeee85	0.09322838
26	0xbdf1c025	-0.11804227
27	0xbddb86c4	-0.10719064
28	0x3e04b00a	0.12957779
29	0xbdb11db2	-0.08648242
30	0xbdb4068b	-0.087903105
31	0x3b64977b	0.0034880328

conv.3.weight f4 [64, 32, 3]
0	0xbd06c3a6	-0.03290143
1	0xbc6a7a3e	-0.014311371
2	0xbd8d885c	-0.06910774
3	0x3d16d7ae	0.036826782
4	0xbdb3d99c	-0.0878174
5	0x3c07713d	0.008266744
6	0x3d73ab1d	0.05948936
7	0x3ca194f5	0.019724349
8	0x3c5dafe4	0.013530705
9	0x3c748a02	0.014925482
10	0xbcf4eb77	-0.029897435
11	0xbc9f3b96	-0.019437592
12	0xbd309e5a	-0.043119766
13	0xbd8d03f6	-0.06885521
14	0xbd5ce671	-0.053930704
15	0x3dcea516	0.100900814
16	0xbc8ac155	-0.016937891
17	0x3d121695	0.035666067
18	0x3d900e95	0.07034031
19	0xbbe6f00f	-0.00704766
20	0xbd5e4b72	-0.05427117
21	0xbd8e6e12	-0.06954588
22	0xbd1bd88a	-0.038048305
23	0x3d137346	0.035998605
24	0xbdb0c74a	-0.08631761
25	0xbc57f728	-0.013181485
26	0x3d18b581	0.03728247
27	0x3da72cc7	0.081628375
28	0x3cf74769	0.030185418
29	0x3cac14ea	0.021006066
30	0x3d8f16f8	0.06986803
31	0x3d4124c9	0.04715422
32	0x3d0d6647	0.034521367
33	0xbd0193e4	-0.03163518
34	0xbda7c83f	-0.08192491
35	0xbcb92613	-0.022601163
36	0xbc9efd9d	-0.019408042
37	0x3c0d0b4d	0.008608651
38	0xbc1c946f	-0.009556874
39	0x3d278b7e	0.040904514
40	0x3d8a16d9	0.06742639
41	0xbd2ad8d6	-0.041710697
42	0xbdc6e035	-0.09710733
43	0xbd54346b	-0.051807802
44	0xbd42f06f	-0.047592577
45	0x3d6cd9c9	0.057824884
46	0xbd86ee0d	-0.06588373
47	0xbc1d6789	-0.009607204
48	0xbcb6ddc0	-0.022322536
49	0xbd7ac060	-0.06121862
50	0x3d3d43ba	0.046207167
51	0xbd2f3078	-0.042770833
52	0xbbbb7d03	-0.0057216897
53	0xbd9436f4	-0.07237044
54	0xbc4a8d20	-0.012362748
55	0x3c497147	0.012295074
56	0xbbaf179f	-0.005343392
57	0xbd1cbe10	-0.038267195
58	0x3d016d10	0.03159815
59	0xbcd7522f	-0.026284305
60	0xbd6d09fc	-0.05787085
61	0xbd9f4873	-0.077774905
62	0xbcc70506	-0.024294388
63	0xbdc67261	-0.09689785
64	0x3da882eb	0.082280956
65	0xbd4daced	-0.050213743
66	0xbd2df7d9	-0.042472694
67	0x3c128b83	0.008944395
68	0x3cd2f671	0.025752278
69	0xbc201010	-0.009769455
70	0x3d8d7f21	0.069090135
71	0xbd73cea0	-0.059523225
72	0x3d157345	0.036486883
73	0xba484f93	-0.0007641252
74	0xbdaa8d54	-0.083277375
75	0xbd272359	-0.040805195
76	0x3cd43d1b	0.025908044
77	0x3ca29f75	0.019851426
78	0x3d973616	0.07383363
79	0x3d89c842	0.06727649
80	0xbd66040d	-0.056156207
81	0xbd32985f	-0.043602344
82	0xbcb15358	-0.021646187
83	0xbd95702f	-0.07296788
84	0xbcedaaa4	-0.029012032
85	0xbdaf6910	-0.08564961
86	0x3d15b2f7	0.036547627
87	0x3d909050	0.070587754
88	0x3bbfb5af	0.005850516
89	0xbd9850ac	-0.07437262
90	0xbd9ec371	-0.07752121
91	0xbd23a63a	-0.039953448
92	0x3cf050c8	0.029335395
93	0x3a833806	0.0010011203
94	0x3c8df399	0.01732807
95	0x3dc1a69e	0.09455608
96	0x3d4355a4	0.047689095
97	0x3cb56d90	0.02214697
98	0xbca77290	-0.02044037
99	0x3d45c232	0.048280902
100	0x3d18f0c8	0.037339002
101	0xbdbc2459	-0.0918662
102	0xbd771a8f	-0.060328063
103	0x3b5dd247	0.003384726
104	0x3d1e43bf	0.038638826
105	0x3d4b890b	0.04969124
106	0xbd78afdc	-0.060714588
107	0xbdcf4bde	-0.101218924
108	0xbbb41c4e	-0.0054965382
109	0xbc40c23a	-0.011765057
110	0x3cf15320	0.029458582
111	0xbce77608	-0.028254524
112	0x3d9f6266	0.0778244
113	0x3bd74535	0.0065695294
114	0x3d9752a2	0.07388808
115	0xbd92d03c	-0.07168624
116	0x3d235151	0.03987247
117	0x3c39c874	0.011339296
118	0xbd535d60	-0.05160272
119	0x3d4c567d	0.04988717
120	0xbdcf0f34	-0.10110322
121	0x3da740c6	0.081666514
122	0x3bef4021	0.007301346
123	0x3c1295a2	0.008946808
124	0x3d3f1417	0.04665002
125	0x3bfd1c80	0.0077243447
126	0x3d333800	0.043754578
127	0x3d84ffda	0.06494112
128	0xbda31d27	-0.07964545
129	0x3d895db4	0.067073256
130	0xbc815398	-0.01578693
131	0xbcc72d40	-0.02431357
132	0x3c9de19e	0.019272622
133	0x3da157ef	0.078781
134	0xbd68b34d	-0.05681162
135	0xbd8df974	-0.06932345
136	0x3d80ab4f	0.062826745
137	0xbd46d87b	-0.048546296
138	0x3d038ef2	0.032118745
139	0xbc7f5459	-0.015584075
140	0x3cdf4731	0.027255626
141	0x3d9f7f24	0.07787922
142	0xbd53e494	-0.05173166
143	0xbd4ae13f	-0.049531218
144	0x3d4b15dd	0.049581397
145	0x3ba508f9	0.00503647
146	0xbc462544	-0.012093846
147	0xbdb803ff	-0.08985137
148	0x3db0e8c6	0.08638148
149	0xbb8249cc	-0.0039760824
150	0xbc9efa52	-0.019406471
151	0xbd2d65c6	-0.042333387
152	0xbcaab8b8	-0.020840034
153	0x3d490086	0.049072765
154	0xbb3b5bdd	-0.002858869
155	0x3db10ca8	0.08644992
156	0xbbf68ea4	-0.0075243283
157	0xbc82c88c	-0.015964769
158	0x3d65e9f3	0.056131314
159	0xbb6ba379	-0.0035955592
160	0xbcaf9fc7	-0.021438492
161	0x3d074fae	0.033034973
162	0x3da48940	0.08033991
163	0x3ccebbf3	0.025236106
164	0x3d90c1fb	0.07068249
165	0x3d8714bf	0.06595754
166	0x3ceb7fda	0.028747488
167	0x3d115777	0.035483804
168	0x3d06ad03	0.03287984
169	0x3c2ceb61	0.010554166
170	0x3db1e16b	0.08685573
171	0x3dbdc96d	0.092669345
172	0x3d0ff609	0.035146747
173	0xbbdc3af4	-0.006720895
174	0x3dbafebf	0.0913062
175	0xbda31102	-0.07962228
176	0x3d9954d8	0.07486886
177	0x3d5dadd9	0.054120872
178	0x3d86620c	0.0656167
179	0xbbfeb097	-0.007772516
180	0xbd9e8777	-0.077406816
181	0x3d93256e	0.071848735
182	0xbd3b1758	-0.04567656
183	0x3cd91a7b	0.026501885
184	0x3d6b0a0d	0.057382632
185	0xbdc3f796	-0.09568708
186	0x3bd93a34	0.006629253
187	0xbd150548	-0.03638199
188	0x3d93f971	0.072253115
189	0xbd866136	-0.0656151
190	0x3d7bbbc8	0.06145838
191	0x3d80d8f0	0.062913775
192	0x3d58fb9b	0.052974325
193	0x3dc27a33	0.09495964
194	0x3c45d109	0.012073764
195	0xbdbd78cf	-0.09251558
196	0x3d9531ce	0.0728489
197	0x3c190631	0.009339855
198	0x3b2f99ed	0.0026794628
199	0xbdc54c5b	-0.09633704
200	0xbcb32d93	-0.021872317
201	0xbd4ed8bb	-0.05049966
202	0x3dca8542	0.09888698
203	0x3d929c1e	0.07158683
204	0x3da0618a	0.07831104
205	0x3d934892	0.07191576
206	0xbd799561	-0.060933474
207	0xbd2d825d	-0.042360652
208	0xbd1dc212	-0.038515158
209	0xbd21638d	-0.03940158
210	0x3da5ec15	0.0810167
211	0x3d15e10d	0.03659158
212	0x3daf5f66	0.08563118
213	0x3aa3f059	0.0012507542
214	0xbdafc439	-0.085823484
215	0xbcc6b806	-0.024257671
216	0x3da0f323	0.07858875
217	0x3d8eb52a	0.06968148
218	0x3d1eff0e	0.038817458
219	0xbcb55b24	-0.022138186
220	0xbdb61c9b	-0.08892175
221	0xbd40a98f	-0.047036704
222	0x3d59d7e3	0.0531844
223	0xbd28d399	-0.04121742
224	0x3d47b697	0.048758116
225	0x3ccfbd7b	0.025358906
226	0xbd289939	-0.04116175
227	0x3d766239	0.060152266
228	0xbcd803ac	-0.026368938
229	0x3b143cc5	0.002261923
230	0xbcfb33d3	-0.03066436
231	0xbdc36283	-0.09540274
232	0x3c912d23	0.017721718
233	0x3cfacc88	0.030615106
234	0xbd45fe29	-0.04833809
235	0x3d831312	0.06400122
236	0xbdb49f30	-0.08819425
237	0xbdc96ae1	-0.09834839
238	0xbd8116cf	-0.063031785
239	0xbd1085d2	-0.03528387
240	0xbc082575	-0.008309712
241	0xbc880664	-0.01660461
242	0x3d557640	0.052114725
243	0xbdb22474	-0.08698359
244	0x3c8b406f	0.016998498
245	0x3b6b606d	0.0035915629
246	0x3d07dab9	0.033167575
247	0x3dde26b0	0.10847223
248	0x3d8e7d68	0.06957513
249	0xbd5b45ca	-0.053533353
250	0xbda5c838	-0.08094829
251	0xbca69b20	-0.020337641
252	0xbd3ea51c	-0.04654418
253	0x3d221144	0.039567247
254	0x3b516a27	0.003195414
255	0x3daaac26	0.08333616

conv.3.bias f4 [64]
0	0x3d343ba0	0.044002175
1	0xbdb4cd33	-0.08828201
2	0x3d229392	0.039691515
3	0xbdc6e8f4	-0.09712401
4	0xbd860288	-0.065434515
5	0x3da79bd3	0.08184018
6	0xbcf7b0eb	-0.030235728
7	0xbb51f244	-0.003203527
8	0x3da88990	0.08229363
9	0xbdb7e4ad	-0.08979163
10	0xbcbd29a9	-0.023091154
11	0xbb63dd6f	-0.0034769436
12	0x3c534d65	0.01289687
13	0xbcadfd2b	-0.021238884
14	0xbd934560	-0.071909666
15	0xbdc418ea	-0.095750645
16	0x395e1aa5	0.00021181496
17	0x3dbee69f	0.09321331
18	0xbd3d0302	-0.046145447
19	0xbb187ffc	-0.0023269644
20	0x3dc29108	0.09500319
21	0xbdd27f56	-0.10278194
22	0x3db54207	0.08850484
23	0x3de62746	0.112379596
24	0xbd330683	-0.043707382
25	0x3d982908	0.07429701
26	0x3d9419bc	0.07231471
27	0x3d996fa5	0.07491998
28	0x3df19768	0.117964566
29	0x3c9e471a	0.019321013
30	0x3d178097	0.036987867
31	0xbd873010	-0.06600964
32	0x3c9af642	0.018916253
33	0x3dca076c	0.09864697
34	0xbcbc2612	-0.022967372
35	0x3cd29628	0.025706366
36	0xbd802024	-0.0625613
37	0x3d319664	0.043356314
38	0x3c76bfc2	0.015060367
39	0x3db1ffa5	0.086913384
40	0x3c0c190b	0.008550893
41	0x3d0e6707	0.034766223
42	0x3d496e0c	0.049177215
43	0x3b847f5f	0.004043504
44	0xbdc4d54c	-0.09610996
45	0x3d91f7e9	0.07127363
46	0xbd6a17be	-0.05715155
47	0x3c9313c8	0.017953768
48	0xbd98f34f	-0.074682824
49	0x3c628dd2	0.013827758
50	0x3cd1716c	0.02556678
51	0xbdc4c524	-0.09607914
52	0x3ca98500	0.020693302
53	0xbcb533e0	-0.022119462
54	0xbd28eb53	-0.041240048
55	0xbd1c4856	-0.038154922
56	0x3dc09fe4	0.09405497
57	0x3d88694f	0.06660711
58	0x3d38f439	0.045154784
59	0x3d2abfd2	0.04168684
60	0x3d4f1d36	0.050564967
61	0x3d00e22f	0.031465705
62	0x3d955d6d	0.0729321
63	0x3db03e13	0.0860559

fc.weight f4 [1, 64]
0	0xbd70b566	-0.058766745
1	0xbc15a655	-0.009133895
2	0x3d8bc974	0.068255335
3	0x3dcbafe9	0.099456616
4	0xbdccfa4a	-0.10008676
5	0xbc3818e4	-0.011236403
6	0xbd814d76	-0.063136026
7	0x3de8cac4	0.113667995
8	0x3e2368d3	0.15957956
9	0xbd61f3f3	-0.05516429
10	0xbd214772	-0.039374776
11	0xba250547	-0.0006295037
12	0x3c4b574f	0.012410953
13	0xbd184187	-0.037171867
14	0xbdba7cea	-0.09105857
15	0xbd84eb70	-0.06490219
16	0x3b4807ea	0.0030522295
17	0x3d2fa5fd	0.042882908
18	0x3b11883b	0.0022206444
19	0xbe03854c	-0.12843817
20	0x3e1fcb5b	0.15604918
21	0xbd983827	-0.07432585
22	0xbcfbdc99	-0.030744838
23	0x3e1202f7	0.14258943
24	0xbc8cc271	-0.01718256
25	0xbdb7f86e	-0.08982931
26	0x3d62fa27	0.055414345
27	0xbd0f564a	-0.0349944
28	0x3e1c0af0	0.15238547
29	0xbd0bb18f	-0.03410488
30	0xbda37fe9	-0.07983381
31	0xbd9a77fd	-0.07542417
32	0x3d31dd5e	0.043424003
33	0x3de4acb1	0.11165751
34	0x3df04d64	0.11733511
35	0x3d126dcd	0.035749245
36	0xbd87906f	-0.066193454
37	0x3cf1b728	0.029506281
38	0xbda5133c	-0.08060309
39	0x3d45d68a	0.048300304
40	0x3dcd0297	0.100102596
41	0xbddbdd8b	-0.10735615
42	0xbda5c47e	-0.080941185
43	0xbd4ff3b8	-0.050769538
44	0xbd33d377	-0.04390284
45	0xbd1a5782	-0.03768111
46	0x3d8e5115	0.06949059
47	0xbd9f9898	-0.07792777
48	0x3d857aaa	0.06517537
49	0xbdb23137	-0.08700793
50	0x3e24cd63	0.16093974
51	0xbdb38166	-0.08764915
52	0xbd8ee809	-0.06977851
53	0x3db9f786	0.090804145
54	0x3dd0b4ff	0.10190772
55	0xbcf38d33	-0.029730415
56	0x3dfbf131	0.12301863
57	0x3d956953	0.072954796
58	0x3dd22c79	0.10262389
59	0xb9f57b74	-0.0004682202
60	0xbd014dc2	-0.031568296
61	0xbd0835f9	-0.033254597
62	0xbdcd18c8	-0.10014492
63	0x3dc89005	0.097930945
