experiments/gru/v1/gru_best_model.pth (torch, 170293 bytes, 9 tensors)

gru.weight_ih_l0 f4 [192, 20]
000000 d0 b3 c3 3d 57 78 d4 3d 9e 94 ec bc 9f 59 eb 3d
       0.09555781 0.103745155 -0.02887946 0.11491703
000010 c5 a3 df bc 44 62 ce 3c 7c 70 7a bd 65 64 95 3d
       -0.027299771 0.025193341 -0.06114243 0.07294539
000020 b8 df e1 3d 21 a7 bb bd a6 92 de 3d ff c9 bf 3c
       0.11028999 -0.09162737 0.10867815 0.023411749
000030 08 ab bd 3d 54 ce 8a 3c 44 04 77 3d 84 53 90 bc
       0.09261137 0.016944088 0.060306802 -0.017617948
000040 c0 de c5 3d 92 5b 97 3c 0f 1c 6f bd 8f f0 02 3d
       0.09661627 0.018476281 -0.058376368 0.031967696
000050 a3 c9 6b bd fe f7 6d bc 9a 4f 4f bd bf c2 a9 3d
       -0.057565343 -0.014524458 -0.050613023 0.08289098
000060 3c b0 c9 bd f6 97 6b bd fe ef 11 bd 1d a5 9a bd
       -0.09848067 -0.057517968 -0.035629265 -0.07551024
000070 c0 29 45 3c a3 97 fc bd 33 06 e8 3d 4d 24 d9 bd
       0.01203388 -0.1233361 0.113293074 -0.10602627
000080 7f 84 c5 3d 99 68 ac 3c 48 51 25 bd 42 fc 9d 3d
       0.09644412 0.02104597 -0.04036072 0.0771413
000090 dd f1 a1 3c ae d6 ce 3d 68 4c 5f 3c 22 3c 21 bd
       0.01976865 0.10099541 0.0136290565 -0.039363988
0000a0 b9 a9 09 3d 80 d7 0a bd af 74 57 3d 37 a6 e4 3d
       0.033609126 -0.033896923 0.052601513 0.111645155
0000b0 5d 0c 94 3d e3 99 5f bd 37 a9 93 3d a3 64 ba 3c
       0.072289206 -0.054590117 0.072100095 0.022753065
0000c0 a3 4a 82 3d ef cc 9b bd 38 41 fd bd 6c 81 45 bd
       0.06361892 -0.07607447 -0.12365955 -0.04821913
0000d0 9a 46 c4 bd 9c 2b d2 3d c9 7c 13 3d 79 03 54 3d
       -0.09583779 0.10262224 0.036007676 0.051761124
0000e0 d7 67 22 3d 98 83 0e bb 62 53 c8 3d 5c f0 b5 bd
       0.03964981 -0.0021745916 0.09781529 -0.088837355
0000f0 36 3e 02 3c 5d 92 af bd 57 47 1a 3d 7b 18 31 bd
       0.007949403 -0.085728385 0.03766569 -0.043236237
000100 b3 ce 1b 3d 79 ba d5 bc f6 dc d4 3d 6a b9 93 bd
       0.03803892 -0.026089894 0.103937075 -0.07213099
000110 0d c8 98 bd 80 8f 98 bd f3 62 e5 3d 7b ba 29 3d
       -0.07460032 -0.074492455 0.11200514 0.041437607
000120 af 6f f5 3d 80 17 d4 bd 6f 38 fe bd 88 2d c8 bd
       0.119841926 -0.10356045 -0.124131076 -0.097743094
000130 66 6a ad bd 3f 5f 4f 3d 2b e0 37 3d 10 be d3 3d
       -0.084675595 0.050627943 0.044891518 0.10338986
000140 90 7d 84 bd fd a1 af bd 23 bd 8a 3d 2a 80 50 bd
       -0.06469262 -0.08575819 0.06774356 -0.050903477
000150 3c 79 9b 3d 8f 17 f3 bc 60 e9 92 3d 39 7b d1 bd
       0.07591483 -0.02967432 0.07173419 -0.10228581
000160 34 a6 83 bd 18 ee 17 3d 7a 92 d6 3c f7 1a 08 bd
       -0.06428185 0.0370923 0.026192892 -0.03322884
000170 10 50 9a 3d ab f6 ab 3d 62 40 b8 bd a7 45 89 bd
       0.07534802 0.083966576 -0.08996655 -0.06702738
000180 89 6f ea 3d d9 bf 2c bd 4e 3a 37 bd 34 70 f6 bd
       0.11447055 -0.042175148 -0.044733338 -0.1203312
000190 80 74 92 bd 20 b1 01 3d fc df 87 bc 28 1b b9 bd
       -0.07151127 0.03166306 -0.016586296 -0.09038383
0001a0 d9 b5 4e 3b 8b 32 ae bd e8 9f d8 bd e2 3c 8a bd
       0.0031541495 -0.08505734 -0.10577375 -0.06749894
0001b0 1f 9a de bd 78 fa a1 bd 60 ad 00 3e c0 e6 c5 3c
       -0.1086924 -0.07909101 0.12566137 0.024157882
0001c0 25 e7 1c 3d cc 9f ed bd de 8a a7 bd fb 6e 2a bd
       0.038306374 -0.116027445 -0.08180784 -0.041609745
0001d0 be 9f a5 3c d4 42 e1 bd ba b8 5c bd cd 48 99 bd
       0.020217773 -0.109990746 -0.053887106 -0.07484589
0001e0 22 17 b5 39 19 88 3e bd aa 5c 0d bc e2 6d ad bd
       0.00034540246 -0.04651651 -0.00862805 -0.08468224
0001f0 31 b4 af bd 14 65 95 bd 38 47 2f bd af f2 c9 bd
       -0.08579291 -0.0729467 -0.04279253 -0.09860741
000200 47 b6 d6 3d 96 d2 ca bc fd 34 dc 3d 83 82 1f 3d
       0.104839854 -0.024758618 0.10752294 0.038942825
000210 64 ae d8 bd c8 1c b1 3d 7a ea 0c bd 96 2d 44 bd
       -0.10580137 0.08648068 -0.0344033 -0.047895037
000220 11 6e d4 bd 6d 81 fe bd 5c 72 12 3d 65 96 df bc
       -0.10372556 -0.1242703 0.035753593 -0.027293393
000230 ce db 46 3d 16 78 d3 bd 21 2d be 3d b4 86 bd bd
       0.048549466 -0.10325639 0.092859514 -0.09254208
000240 ba e4 b2 bc 28 07 d3 3c e5 b6 82 3d f8 82 c9 3d
       -0.021837581 0.025760248 0.063825406 0.098394334
000250 93 9e e6 3d 5a be cc bd 10 6d fa 3c 99 28 60 bd
       0.112607144 -0.09997244 0.030569583 -0.054726217
000260 b3 5d 5e bc 3b 39 c1 bd 7e d8 e8 3d 71 3a bc bd
       -0.013572144 -0.09434744 0.113694176 -0.09190834
000270 44 38 87 3d ce f1 33 3d 13 62 25 3d ed 55 8a bd
       0.06602529 0.043931775 0.040376734 -0.0675467
000280 d8 9a e8 3d 31 1e dd 3c a6 9d 81 3c 08 8a e2 bd
       0.11357659 0.026991935 0.015822243 -0.110614836
000290 80 26 56 3d 78 c0 9c bc 30 d6 6b bd 7a 7f d9 3d
       0.05228281 -0.019134745 -0.057577312 0.10620017
0002a0 09 50 df 3c 8b 4c 8e bd 8c c3 82 bd 8c 27 d2 bb
       0.027259843 -0.06948193 -0.06384954 -0.0064134058
0002b0 3e f5 8e 3d 09 35 04 bd 07 af 92 bd a3 dd 2f bd
       0.0698037 -0.03227714 -0.0716229 -0.04293598
0002c0 c0 6c c0 bd 75 99 36 3d 8b 00 c6 3d 59 3d f1 bd
       -0.093957424 0.04457994 0.09668072 -0.11779279
0002d0 65 e1 ed 3c c7 34 84 3d 1e 4f b9 3c ac 3e 36 bd
       0.02903814 0.06455379 0.022620734 -0.044493362
0002e0 b4 90 85 3d a5 7d 86 3d 52 4c 3f 3d a7 20 b2 bc
       0.065217406 0.065669335 0.046703644 -0.021744085
0002f0 40 41 07 bd f7 71 5c 3c da 27 b5 bc c6 98 18 bd
       -0.03302121 0.013454906 -0.02211373 -0.03725507
000300 8d 87 a3 3d 71 e2 db 3d f3 37 4a bc e7 f0 e4 bc
       0.07984839 0.1073655 -0.012342441 -0.027946902
000310 22 82 ec 3a f0 90 f4 bb b9 4d f6 3c ec 55 0f 3d
       0.0018044154 -0.007463567 0.030066358 0.03499405
000320 02 8d e8 bd 0a af 3d bd 83 7c d8 3d 7c 3b 47 3d
       -0.1135502 -0.04630951 0.10570624 0.048640713
000330 0e bb c3 bb 0e dd 9a bd fc e3 9c bd de 4f e6 bd
       -0.0059732264 -0.07561694 -0.07660672 -0.11245702
000340 5a 2a 25 bd e3 a0 2e 3d 25 55 a3 3d 41 01 6c 3d
       -0.040323593 0.042633902 0.079752244 0.057618383
000350 f3 63 e1 bd 7a 55 9a bd 88 ce 9e bc e3 84 f7 3d
       -0.11005392 -0.075358346 -0.019385591 0.12085893
000360 40 02 98 3c 29 9b 04 bd 1f 56 53 3d 31 45 42 bd
       0.01855576 -0.032374535 0.051595803 -0.047429267
000370 b1 af a5 bd 49 13 bb 3d 46 3e 68 bd bb 66 cc bc
       -0.08090151 0.09134538 -0.056700014 -0.02495133
000380 af 95 fe bd fd 78 ab 3d 51 21 c2 3d d8 ef 3a 3d
       -0.12430894 0.08372686 0.09479011 0.04563889
000390 08 59 b2 bd 8d 84 fc bd e2 b4 cf bd db fb be 3d
       -0.087083876 -0.123299696 -0.101419225 0.09325381
0003a0 17 1a 76 3d a2 7d d7 3d 82 4c 86 3d 60 ac 01 3d
       0.060083475 0.105220094 0.065575615 0.03165853
0003b0 e8 0c 89 ba 86 b0 c2 bd 4e 6b db bd 15 49 ef bd
       -0.0010456117 -0.095063254 -0.10713826 -0.11683861
0003c0 eb 1e 51 3d 8f 90 7c bd b3 98 c7 bc 1f 72 93 bd
       0.051054876 -0.0616613 -0.024364805 -0.07199501
0003d0 84 de ba bc 63 22 b4 bd a8 cc a6 bd 05 04 20 3d
       -0.022811182 -0.08795621 -0.08144504 0.039066333
0003e0 6b 62 1a bd a4 2d 9d 3d 90 81 25 bd 63 12 bd bd
       -0.037691515 0.07674721 -0.040406764 -0.092320226
0003f0 fd 14 b0 bc 51 3e 7a bd 01 c9 1b bd 0b d6 f3 bd
       -0.021494383 -0.061094586 -0.03803349 -0.1190606

gru.weight_hh_l0 f4 [192, 64]
000000 da 1f d8 bd 96 74 27 3d 57 02 a6 3d 5a 80 6d bc
       -0.1055295 0.04088267 0.08105915 -0.014495933
000010 7e e6 ea 3c 6f 54 63 3d 6c bd fc bd 07 e6 a7 bc
       0.02867436 0.055500444 -0.12340817 -0.020495428
000020 7c 5f 3d bd a5 d4 82 bd 69 26 9c 3d 19 a7 fd 3d
       -0.04623364 -0.06388215 0.07624514 0.12385387
000030 61 4d a4 3c 89 43 9f 3d 47 d4 bd bd 11 a5 b5 3c
       0.020056428 0.07776553 -0.09269004 0.022173436
000040 54 1b 85 bc 0e f6 9d bd d7 20 d2 3c e0 ef 22 3d
       -0.016248383 -0.07712947 0.025650425 0.039779544
000050 27 04 c2 bb 70 51 59 3d 83 80 75 3d 36 24 e8 3d
       -0.005920905 0.05305618 0.05993701 0.11335032
000060 f1 4e f0 3b dc 82 93 3b ff a4 f3 ba 8f f8 8b 3c
       0.0073336293 0.0045016836 -0.0018588601 0.017086295
000070 a1 07 a6 bd 41 d9 7b bc 22 6d d8 bd 87 8f b3 bd
       -0.08106924 -0.015371622 -0.105676904 -0.0876761
000080 e5 19 da bd 83 ca bd 3d b2 f6 92 bd da c3 26 bc
       -0.1064947 0.09267142 -0.0717596 -0.010178531
000090 43 24 5a 3c 0a 0a e2 3d 66 ac 68 3d 4d 63 b6 bd
       0.0133143095 0.11037071 0.056805037 -0.08905659
0000a0 b0 48 fa 3d 22 93 f2 bd 44 99 84 3c 3c 4b ea 3d
       0.12220895 -0.118444696 0.016186364 0.11440131
0000b0 89 c9 dd 3d 87 07 ed bc b9 c3 aa bd 43 dd 60 3d
       0.108294554 -0.028934253 -0.083381124 0.05489851
0000c0 02 34 c5 3d b3 6e 88 bd 3e a9 a1 bc 4a aa 9b bd
       0.0962906 -0.06661739 -0.019734021 -0.076008394
0000d0 e7 c5 43 3d 27 6d db 3c d0 3b 7d 3d 99 bc 2f bd
       0.047796156 0.026785446 0.06182462 -0.04290447
0000e0 09 69 f7 bd fc 51 57 bd bf 14 c8 bd 1e 96 f7 bc
       -0.12080581 -0.05256842 -0.09769582 -0.030222949
0000f0 a0 a5 3a 3d 69 18 d5 bd 63 56 be bb 8d 90 fa bd
       0.04556811 -0.104050465 -0.005808638 -0.12234602
000100 65 79 b5 bd 15 44 b3 bd 8c 3a 2e bd 61 ac 81 bd
       -0.08861045 -0.0875322 -0.042536303 -0.06331707
000110 48 f4 9c 3c 1f 55 9c 3d 0b 3a c1 3d 04 c2 21 3d
       0.019159451 0.07633423 0.09434899 0.03949167
000120 05 37 2a ba 84 d5 b5 bc 83 aa ad 3d dc d8 92 bd
       -0.0006493184 -0.022196539 0.08479788 -0.07170269
000130 af 3e b9 3d cb 72 f6 bd 52 29 bf bd 80 44 08 3d
       0.09045159 -0.12033614 -0.09334053 0.03326845
000140 c8 0e 53 bd c7 93 be 3c 2b 22 df 3d 89 f3 69 3d
       -0.05152777 0.023263825 0.10895189 0.05711702
000150 e6 a1 fa 3d 2d 1d 59 bd 73 a2 74 bd e5 21 82 bc
       0.12237911 -0.05300634 -0.059725236 -0.015885303
000160 72 d5 cd bc 83 e3 60 bd 6c 56 fd bb 68 0b e7 3d
       -0.025126193 -0.054904472 -0.0077312496 0.112814724
000170 88 5d 8c bd 2d d2 8f 3d 12 f7 6d 3d 00 2a 94 3d
       -0.06853777 0.0702251 0.058096953 0.07234573
000180 69 67 0a 3d d8 3f 3d bd 26 ae 53 3d 7b aa 71 bd
       0.033790026 -0.046203464 0.051679753 -0.059000473
000190 e5 32 9d bd 9d 39 ef 3d 3b 6f d4 3d 59 1c b9 bd
       -0.07675723 0.11680911 0.10372778 -0.0903861
0001a0 d6 dd cf 3d ab 73 d3 3c 30 0e 03 3d f8 20 f7 3d
       0.10149734 0.02581199 0.031995952 0.12066835
0001b0 e1 24 da bb ef 7d 22 bd 14 a3 a0 3d d4 31 04 bd
       -0.0066572283 -0.03967088 0.07843605 -0.032274082
0001c0 6d 8f f6 bc 23 9c 4e bd ac b6 fb 3d 07 67 74 3d
       -0.030097688 -0.050441872 0.12290701 0.059668567
0001d0 48 1b a6 bc d3 3d 19 bb 30 c4 0e 3c 06 d9 97 bd
       -0.02027668 -0.0023382797 0.008713767 -0.07414441
0001e0 ad c0 10 3d 8b 82 c6 bd 40 f5 bd bb f1 ee c0 bc
       0.03534 -0.09692868 -0.0057970583 -0.023551436
0001f0 f5 be 50 bd a5 af ec 3d 89 97 0f 3d 4d d6 76 3d
       -0.05096336 0.11556939 0.035056625 0.060262967
000200 95 70 a8 bd 45 30 a3 3c 17 4c 09 3d c7 ff 84 3d
       -0.08224598 0.019920478 0.03351983 0.06494098
000210 6e 07 17 bd b6 8b c8 bc 02 c6 cf bd f2 8c 9b 3d
       -0.03687232 -0.024480682 -0.10145189 0.075952426
000220 55 d6 aa 3d 3c 8b 70 3d a8 28 82 3d a9 6e 99 3d
       0.08341662 0.058726534 0.06355411 0.0749181
000230 ba 46 f1 3d 20 b1 27 3d 27 af 38 3d 58 ff 20 3d
       0.11781068 0.040940404 0.045088913 0.039306015
000240 e9 a7 90 bd 6a 9f 00 3d 6b 89 1a 3d f4 a6 cb bd
       -0.07063276 0.03140203 0.03772871 -0.09943953
000250 e3 b5 17 bd 40 0d 9e bd e7 7e a3 bd 65 d2 b1 3d
       -0.037038695 -0.07717371 -0.07983189 0.08682708
000260 4c 56 c9 3d b4 5a 8d bc e4 ea 1c 3d f0 9e ef bc
       0.09830913 -0.017255165 0.038309947 -0.029250592
000270 41 52 d9 3c 2d e9 ab bc 07 24 85 bd 63 85 57 bd
       0.02652848 -0.02098521 -0.06501012 -0.052617442
000280 b1 5c fe 3d e2 26 ad 3c be f2 8b bd 09 7d 68 3c
       0.12420023 0.021136705 -0.06833409 0.014189967
000290 ce 55 ff bd 81 64 96 3a ed 81 c4 3d 89 f4 6b 3c
       -0.12467538 0.0011474044 0.09595094 0.014401563
0002a0 34 eb f3 3c ee 26 f1 bd ff b9 c0 bc 88 01 97 3d
       0.02977524 -0.117750034 -0.02352619 0.07373339
0002b0 6f ba bb bd 2a 7f 6f bd 87 04 ad 3d c8 e9 12 3d
       -0.09166419 -0.058470882 0.08448129 0.035867482
0002c0 e6 31 6f 3d 8b d4 ee bd 86 f7 a2 3d a7 5f df bc
       0.058397196 -0.11661633 0.079573676 -0.02726729
0002d0 16 3c d7 3c de db ce 3d 32 c1 eb bd fe 83 12 3d
       0.026273768 0.1010053 -0.115114585 0.03577041
0002e0 11 72 e7 bd 47 6d bd 3d ec 4b 16 3d b5 16 64 3c
       -0.11301053 0.092493586 0.0366935 0.013921429
0002f0 62 41 4d bd 15 3d 41 3d de d7 84 bd d3 35 c4 3c
       -0.050111182 0.047177393 -0.06486486 0.023951447
000300 8e 55 d7 3d e5 2c c0 bd 82 a5 12 bd 7a 56 f0 3c
       0.10514365 -0.09383563 -0.03580237 0.02933811
000310 0e cc b3 3c 81 36 15 3b 96 2c dc 3d 91 41 06 bd
       0.021947887 0.0022768083 0.107506916 -0.032777373
000320 a2 0c 02 3d 11 e8 87 3d ae 23 c3 bc 42 2f a8 3d
       0.03175033 0.0663606 -0.023820724 0.08212139
000330 fe 90 a6 3d be 2c 64 3d 9e 8a fa bc 8a 7c dd 3d
       0.08133124 0.055706732 -0.030583676 0.108147696
000340 00 9a 93 bd 00 41 1f 3d 76 fb cd 3c b8 bb b4 3d
       -0.072071075 0.03888035 0.02514432 0.08824867
000350 2c 8a d2 bd 1e 60 b2 3c cc 03 93 bd 9b b2 87 3d
       -0.102802604 0.021774348 -0.071784586 0.06625863
000360 06 46 2e 3d bf 94 c7 bd 81 ee fe bb 39 14 11 3d
       0.04254725 -0.09745168 -0.0077798967 0.035419676
000370 2e ae 5a 3d 02 5e e3 3d 86 b5 65 3d ee 3b c3 3c
       0.053388767 0.11101915 0.056081317 0.023832288
000380 b0 72 88 3d 6c c6 f1 bd f5 5e aa 3d bd df 6b bc
       0.066625 -0.11805424 0.08318893 -0.014396605
000390 74 2c 91 3d 3f 97 13 3d 04 43 e0 bb cc 6d b4 3d
       0.07088557 0.03603291 -0.0068439264 0.088100046
0003a0 4f d7 94 bd 42 f4 10 3d bb 14 61 3d 79 9c 38 bd
       -0.07267629 0.035389192 0.05495141 -0.0450711
0003b0 6f 75 3a 3d 7e 59 fd bd 7a 6c 81 bd c0 6f 78 3d
       0.04552215 -0.12370585 -0.063195184 0.060653448
0003c0 81 37 84 3d b9 04 eb bd 76 ab 31 3d 83 83 41 3c
       0.06455899 -0.1147551 0.04337641 0.01181114
0003d0 8b a5 f9 3d 7d c7 fa bd b3 07 f0 bc 91 9c 90 bd
       0.12189778 -0.122450806 -0.029300546 -0.07061113
0003e0 a4 10 9b bd e9 1f aa bc e1 9c eb bd 19 64 c9 3d
       -0.07571533 -0.02076717 -0.11504532 0.09833545
0003f0 1b ae 36 bd 14 33 34 3d 30 86 96 bd 1f ba 57 3a
       -0.044599634 0.043994024 -0.07349813 0.00082293333

gru.bias_ih_l0 f4 [192]
000000 e9 35 95 bd 82 ae 97 bd 64 64 9b 3d 6a a4 8b 3b
       -0.07285673 -0.074063316 0.07587507 0.004261543
000010 4c 73 a9 bd 8f 98 e7 3d 88 7a 21 bd 29 4e f9 3d
       -0.08273944 0.11308395 -0.039423496 0.12173111
000020 33 f3 f1 3d 0f 97 b0 3c bf c2 d0 bd 99 a0 29 3d
       0.11813965 0.021556405 -0.10193395 0.041412923
000030 14 ef 3e 3b 83 13 7b bd f4 e8 96 bd da a8 b1 bd
       0.00291342 -0.061297905 -0.07368651 -0.08674784
000040 67 49 a4 3c d3 9d 56 3d fd ae a7 3c 85 c7 92 3d
       0.020054532 0.052396607 0.020469183 0.071669616
000050 a4 b5 3c bd e4 dd 36 bd 81 62 fc 3d 83 e8 c2 bd
       -0.046071663 -0.044645205 0.12323476 -0.09517004
000060 15 76 e8 bd 92 3e f7 3d 41 1b 9e 3d 53 b3 aa bc
       -0.11350647 0.12072481 0.07720042 -0.020837462
000070 c5 7c 14 3d 11 ee 1d bd 95 e5 99 bc f7 e9 8a 3c
       0.036251802 -0.038557116 -0.018786231 0.016957266
000080 b8 9d 32 bd dc 63 15 3c 4e 01 43 bd 23 3e d4 bd
       -0.043607444 0.009118047 -0.047608666 -0.10363414
000090 9d de 6c 3d 18 80 bb bd 4c 10 fa bd 27 09 cf 3c
       0.057829488 -0.09155291 -0.1221014 0.025272919
0000a0 67 0c bc 3d 37 88 36 3d 9f 9b b2 bd 92 97 9a 3d
       0.09182053 0.0445635 -0.087210886 0.07548441
0000b0 c8 0a 0f bd 16 47 77 bc db 37 98 3d c8 f4 46 3d
       -0.03492239 -0.015092632 0.074325286 0.048573285
0000c0 31 9d 36 bd d5 3f 9b 3d 51 55 07 bd 6c d3 09 bd
       -0.044583503 0.07580534 -0.03304035 -0.033648893
0000d0 44 3d b1 3d 7a be e3 bc 3c 6a f3 b9 05 46 ee 3d
       0.086542636 -0.027800787 -0.00046427723 0.11634449
0000e0 23 c1 f6 3d 05 21 eb 3c 9d 9a c4 3d f1 cc 93 bc
       0.12048557 0.028702268 0.09599803 -0.01804206
0000f0 a7 c7 67 bd eb bc f5 3d 11 bd 86 3d cf d0 af 3d
       -0.056586888 0.11998924 0.0657903 0.08584749
000100 ae c4 78 bd f3 35 86 3d 8f 70 d1 3d 1c d5 55 3c
       -0.060734443 0.06553259 0.10226547 0.0130512975
000110 de 6e af 3d b7 e1 e6 bd e0 fb 49 3d 26 44 fa bc
       0.08566068 -0.112735204 0.049312472 -0.030550074
000120 cc 1f e8 3d 90 a7 37 3d 26 04 ff 3d c7 e9 30 bd
       0.1133419 0.044837534 0.12451963 -0.043191697
000130 51 97 26 3c a2 e6 b5 3d fa b7 b7 bd 6e c4 34 bd
       0.010167913 0.0888188 -0.089706376 -0.044132642
000140 c2 a4 cc bd 52 e5 c0 bd 5a d5 62 3d de 3f 1c bd
       -0.099923626 -0.094187394 0.05537925 -0.038146846
000150 7a 4f a8 3d 8a 34 37 3c 2c 58 33 3d fa 6a 58 3c
       0.08218284 0.01118196 0.04378526 0.013209099
000160 04 84 ed bd 27 4e 99 bc 67 50 8c bd 7c 53 4c bd
       -0.115974456 -0.018714024 -0.06851273 -0.049884304
000170 06 77 d1 3d 1a e1 c5 bd 4c 8f bb bd 28 c6 23 bd
       0.1022778 -0.09662075 -0.09158191 -0.0399839
000180 c4 e6 69 bd 87 1f f5 3c 6d a5 a1 3d d4 2f a0 3c
       -0.05710484 0.02992226 0.078928806 0.019554056
000190 0c 3a 78 3a 70 93 79 3d 0c 12 99 3d 43 c2 94 3b
       0.0009469099 0.060931623 0.07474145 0.0045397594
0001a0 d1 2c ad bd d9 b5 df bd d5 1f 00 3e 08 6f 26 3d
       -0.08455814 -0.109233566 0.12512143 0.04063323
0001b0 3e 70 e6 3d 7d 41 46 bd 84 df 0c 3d e7 95 85 bd
       0.11251877 -0.0484023 0.03439285 -0.06522732
0001c0 56 fb 84 bd 03 56 69 bd 04 29 ff 3d 87 93 b9 3d
       -0.06493251 -0.056966793 0.12458995 0.09061342
0001d0 a2 0f 9d bd 40 f2 b6 bd ac 31 2a 3d ae db f0 bc
       -0.07668997 -0.08932924 0.041551277 -0.029401626
0001e0 23 9a 9b 3b 43 cc 84 3c 9a a5 df bd 88 8f e1 3c
       0.004748599 0.01621068 -0.10920258 0.027534261
0001f0 d0 37 02 bb 30 3e b2 bd 0a ea ff bd 33 96 82 3d
       -0.0019869693 -0.087032676 -0.12495811 0.063763045
000200 2a ed f1 bd 37 5c 82 bd de 6b ab 3d 1e 2e d6 bd
       -0.118128136 -0.06365245 0.083701834 -0.10458015
000210 6c 1e 83 bd 75 a8 8f bd 20 b2 8e 3d 5a 6f 41 3d
       -0.06402287 -0.070145525 0.069675684 0.047225334
000220 80 ca 8d 3c 07 26 44 3d 38 fa ef 3c e4 b4 af bc
       0.017308474 0.04788783 0.029294118 -0.02144856
000230 d7 13 2c bc 21 2f b4 bd a7 3f 69 bd 4e 3d 13 bb
       -0.010502777 -0.087980516 -0.05694547 -0.002246696
000240 7a 2f f8 bc 67 88 3f 3d c8 f4 9d 3d b6 c3 a5 3d
       -0.030296076 0.046760943 0.07712704 0.080939695
000250 6d 2e db 3d 53 37 b0 bc 62 a4 2b 3d 0c 72 e8 bd
       0.107022144 -0.021510756 0.041904815 -0.11349878
000260 53 a1 a5 3d bd 5b f8 bc 2c df d3 bd 98 12 aa bd
       0.08087411 -0.030317182 -0.10345301 -0.08304328
000270 cb ee ea bd 28 8b 14 bd 83 87 84 3d 09 19 ad bd
       -0.114713274 -0.036265522 0.06471159 -0.08452041
000280 04 35 51 bd d0 ac 12 bc ba 50 74 3d 9a 56 43 bd
       -0.05107595 -0.0089523345 0.0596473 -0.04769001
000290 7e 50 29 3d c2 9a a8 bd d2 60 9a 3d c5 5f 01 be
       0.04133653 -0.08232643 0.07537998 -0.1263419
0002a0 f9 ef b3 bd 91 44 0b 3d 14 88 99 3b b7 02 b0 3d
       -0.087860055 0.034000937 0.004685411 0.08594268
0002b0 88 54 5f 3d a6 80 ce bd 28 be cb 3d 38 59 79 bc
       0.054523975 -0.100831315 0.09948379 -0.015219025
0002c0 e1 6b 73 bc e3 fb 35 bd 2e cf c9 bb d7 7d e3 bd
       -0.014857263 -0.04442967 -0.006158731 -0.111079864
0002d0 a3 a2 43 3c 20 21 bc 3d 5c fe 06 bd f9 0e c9 3d
       0.011940631 0.091860056 -0.03295742 0.09817309
0002e0 c7 b7 79 bd fb c1 56 3d fd 29 90 3c 94 bc 2b bd
       -0.06096628 0.052431088 0.017598147 -0.04192789
0002f0 72 ef e7 3d f3 18 89 bb 38 f8 1b 3c d3 77 9e bc
       0.113249674 -0.0041838824 0.009519629 -0.019344246

gru.bias_hh_l0 f4 [192]
000000 82 c5 d2 bb 34 02 cf 3d d6 2a 9b bc 6d d1 97 3d
       -0.006432236 0.10107842 -0.018941324 0.07412992
000010 17 94 3a 3d 63 41 a8 3d 4a f3 c1 bd 55 59 e2 bd
       0.045551386 0.082155965 -0.09470232 -0.11052195
000020 0e 39 2b bd 53 16 0f bd 1b 04 f5 3d 08 b2 fc 3d
       -0.04180246 -0.0349334 0.11963674 0.12338644
000030 62 77 f2 bc 33 97 74 bd ab f3 19 3a a6 54 45 3d
       -0.029597942 -0.059714507 0.0005872796 0.04817643
000040 f8 15 32 3d 8b 54 c3 3c 41 c2 ba 3d 65 db 4e 3c
       0.043477982 0.023844024 0.09119082 0.01262555
000050 e8 40 ce 3d 03 04 fd 3c 8d f8 27 bc 3d 54 d4 3d
       0.10070974 0.030885702 -0.01025213 0.1036763
000060 19 df bb 3b fa 6b 85 3b 11 14 c8 bc 08 82 96 3d
       0.0057333824 0.0040717097 -0.02442363 0.0734902
000070 86 e1 1f bd 08 50 c9 3d c3 aa 85 3d b8 be 1b bb
       -0.039033435 0.09829718 0.06526711 -0.00237648
000080 f8 51 ad bc 9b 00 4a 3d 5d 50 fb bd cc 13 2a bd
       -0.02115725 0.049316984 -0.122711875 -0.041522786
000090 33 d0 36 bd 60 4a 78 bc c1 e8 74 bd ca ef 5a bd
       -0.044632148 -0.015154451 -0.059792284 -0.053451337
0000a0 66 fc 74 3d 52 e5 45 bc 0d e6 ae bd 80 a7 10 bc
       0.05981102 -0.0120786 -0.085399725 -0.008828998
0000b0 00 85 2a 3d 25 fe 4d bd 07 9e d9 3d 08 d5 b2 bd
       0.041630745 -0.0502912 0.106258444 -0.08732039
0000c0 45 d7 dd 3d 6b 7e 44 3d ea 97 92 bd f4 6a f2 bd
       0.10832075 0.047972124 -0.071578816 -0.11836806
0000d0 fa 14 49 3d 5a 10 bb bc f0 09 20 3d 48 2d 58 3d
       0.04909227 -0.022834945 0.039071977 0.05277756
0000e0 e5 0b ad bd d8 ab 64 3c 79 fd c9 bc 1f 58 e7 bd
       -0.08449534 0.013956986 -0.024656998 -0.11296105
0000f0 07 50 bc 3c 16 03 f4 3c 87 70 c3 bd 2d 95 f1 3d
       0.022987379 0.029786628 -0.09542947 0.11796031
000100 7d cd 85 3d 03 bf 91 3d ef 2c df bd 24 f5 da bd
       0.065333344 0.07116511 -0.10897242 -0.10691288
000110 87 c5 66 3d b7 3d 95 3d f1 cc db bd 1f 7e f6 3d
       0.05634072 0.07287162 -0.10732449 0.120357744
000120 2d a1 e3 bc 31 1e d0 bd 94 4a ba bd 15 71 eb bc
       -0.027786816 -0.101620086 -0.09096256 -0.028740445
000130 7b 01 84 3d 70 e3 b0 bd 8c 09 be 3d d6 bb fe 3d
       0.06445595 -0.0863713 0.09279165 0.124381706
000140 c2 db f0 3d c2 a8 67 3d 36 19 51 bd 82 41 44 bd
       0.117606655 0.056557424 -0.051049434 -0.047914036
000150 b8 b6 b8 3d 66 ca d8 bc ec c0 9a 3c 23 ad ff 3d
       0.09019226 -0.026463699 0.01889082 0.12484195
000160 be 14 fc bd 27 be e8 bc 02 df 49 bd 08 c2 a8 bc
       -0.12308644 -0.028410984 -0.049284942 -0.020600334
000170 8f 68 e0 3b 30 f4 dc bc 12 df f7 3d 64 0e 50 3d
       0.006848402 -0.026971906 0.12103094 0.050794974
000180 7a 2e a4 bd 5e 26 f6 3d 50 58 13 bd 64 f0 92 3c
       -0.08016677 0.12019037 -0.035972893 0.017936893
000190 75 9f 2a 3c b3 56 ba bd 56 70 82 3d c6 3b 9b bd
       0.010413994 -0.09098568 0.06369083 -0.0757976
0001a0 d5 60 e4 bd cf 00 d5 3d a9 11 9a 3d 14 67 56 bd
       -0.11151282 0.10400545 0.075229 -0.052344397
0001b0 c0 2b bb bd 3c 4f e6 3d 70 24 35 3d 93 b4 a8 bd
       -0.09139204 0.112455815 0.044224203 -0.08237567
0001c0 9a ec d2 bd 13 e1 52 bd f2 f6 8e bd 28 a6 08 3c
       -0.102990344 -0.05148418 -0.06980695 0.008340396
0001d0 f4 ea 47 3c 64 db fc bd 72 1a 81 3d 00 91 82 3d
       0.012202013 -0.12346533 0.06303872 0.06375313
0001e0 11 80 ea bd 8a 57 ce 3d dd db 4a bd ee 9c 83 3d
       -0.11450208 0.100752905 -0.049526084 0.06426416
0001f0 f8 40 f9 3d b4 8f 98 3d 88 24 a9 3d 6d 15 8e 3b
       0.12170595 0.07449284 0.08258921 0.0043360502
000200 2b 39 8a 3c 78 d4 e1 bd 91 07 b0 bd 7e ce b6 3d
       0.016872963 -0.11026853 -0.08595193 0.08926104
000210 f9 f2 f3 bd de 32 6e 3d b0 43 9b bd 9e de e2 3d
       -0.11911578 0.05815398 -0.0758127 0.11077617
000220 85 93 c0 3d a9 5b d1 bc 76 c5 a1 bc 87 47 ab bd
       0.09403137 -0.025556402 -0.019747477 -0.08363252
000230 6b 62 ee 3d ea ae a3 bd be d7 37 3d 34 dd aa 3d
       0.116398655 -0.079923466 0.044883482 0.083429724
000240 ce 43 04 be 6e 59 e7 bd 71 cf 9d bd 9b 85 dc bc
       -0.1291649 -0.11296354 -0.07705582 -0.026919177
000250 4c b2 92 3d 9c b3 34 bd 62 6a 5d bd 96 a3 9b 3d
       0.07162914 -0.0441166 -0.054056533 0.07599561
000260 31 1b d2 3d f3 ea 8c 3d 8c a1 d9 3d 6f 6f d4 bd
       0.102590926 0.068807505 0.10626516 -0.10372817
000270 80 7a f6 bd 10 87 f9 3c 23 c4 d3 bd 81 63 dd bc
       -0.12035084 0.03045991 -0.103401445 -0.027024986
000280 e4 fd 65 3d 59 89 01 3e cf 61 a0 bc a1 12 e0 bd
       0.056150332 0.1265005 -0.019577889 -0.10941053
000290 52 08 97 bd d8 8f f2 3d 94 20 b8 bc c7 7f ef bd
       -0.07374634 0.11843842 -0.022476472 -0.116942935
0002a0 0c d8 89 bd 92 dc ab bd 92 ef 21 bd 81 ec bc bd
       -0.06730661 -0.0839168 -0.039535113 -0.09224797
0002b0 9b 72 48 bd 22 1c ee 3d 41 a2 70 bd 35 5a 99 bc
       -0.04893742 0.1162646 -0.058748487 -0.018719772
0002c0 01 28 9a 3d 6f c5 e5 bd f9 46 6b bd be 60 f4 bb
       0.075271614 -0.11219298 -0.05744073 -0.0074578216
0002d0 7d 1a cb 3d 98 75 6c 3c 62 23 33 bb 4d 45 26 bd
       0.099171616 0.014432333 -0.0027334322 -0.040593434
0002e0 5f 86 6b 3d d8 82 51 bd eb a3 8f bc 84 81 50 bd
       0.057501193 -0.051150173 -0.017534217 -0.050904766
0002f0 14 28 2d 3d 4d 9b ef 3d 4b d5 bc bd ee 59 3b bc
       0.04227455 0.11699543 -0.0922037 -0.011435015

gru.weight_ih_l1 f4 [192, 64]
000000 db 9b 17 bc 61 e3 7f bd 08 30 b6 bd 20 f6 5a bd
       -0.009253467 -0.062472705 -0.0889588 -0.05345738
000010 df f2 c7 bd f0 96 c1 3d 2c 08 b5 bd 1d 9d 9c 3d
       -0.09763121 0.09452617 -0.08839449 0.076471545
000020 04 8c d4 3d 35 5b bd bc a7 85 ed 3d f6 89 b8 3d
       0.10378268 -0.02311478 0.11597758 0.09010689
000030 2b d7 b1 bd dc ef 91 3d 1d 8b 03 3d 5e 40 ca 3d
       -0.08683618 0.07125828 0.03211509 0.09875558
000040 c3 1a c2 bd 6c c6 c6 3d b7 bf 8e 3c 48 7a 79 3d
       -0.09477761 0.09705815 0.017425401 0.060907632
000050 0a 18 8d bd 66 bd a8 3d 5f 39 18 bc 05 64 d3 3d
       -0.06889351 0.0823925 -0.009291022 0.103218116
000060 0d d5 30 3c e0 0b 9f 3d 0e 33 a2 bd 3e ee e3 bd
       0.010792983 0.07765937 -0.07919894 -0.111294255
000070 b3 c8 31 3d 95 c5 87 3d 78 c9 0d 3d ea d8 20 3d
       0.043404292 0.06629483 0.034615964 0.039269365
000080 f8 8d a8 3d 6e 1c 84 bd 1a 77 89 3d b7 bd 74 3d
       0.082302034 -0.06450735 0.0671217 0.05975124
000090 9f 88 5a bd a7 4b 98 bd 9b 6f fd bd 13 41 bc 3d
       -0.05335295 -0.074363045 -0.12374803 0.091920994
0000a0 31 38 07 bb 50 3f e9 3c 7a 36 b5 bd 5d 80 bf bd
       -0.0020632858 0.028472573 -0.08848281 -0.09350655
0000b0 fd a8 d1 3d 62 e0 b4 3d 56 97 8a 3d bb b1 cc 3d
       0.1023731 0.0883186 0.06767146 0.09994837
0000c0 30 63 cd 3d 4b 87 97 3d 1d bb b8 3d 33 3e 82 bc
       0.10028684 0.07398852 0.09020064 -0.0158988
0000d0 b4 46 05 3d 34 a2 da bd 46 99 39 bd 91 92 40 bc
       0.03253813 -0.10675469 -0.04531219 -0.011753694
0000e0 14 23 d9 bb 35 2e fd 3d d4 1e d1 3d c2 20 20 3d
       -0.006626496 0.12362329 0.10210958 0.03909374
0000f0 d7 7a ef 3d e5 d2 82 bd bb 72 c8 3c df 6f cb bd
       0.11693352 -0.06387881 0.02446877 -0.09933447
000100 67 01 da bd 0f d4 88 3d 66 76 26 3d 96 98 df bb
       -0.10644799 0.06681072 0.040640257 -0.0068236096
000110 e2 9a a6 bd 5c fb b6 3d a0 74 17 bc 2b b4 af 3d
       -0.0813501 0.08934662 -0.009244114 0.08579286
000120 d5 79 af bd fa 5f c5 3d f9 9d d5 bb b0 d1 21 bd
       -0.085681595 0.09637447 -0.006519076 -0.039506614
000130 09 7f 21 bc 4e 98 c5 bd a7 e0 b9 bc 4c ce 03 3c
       -0.009856948 -0.096481904 -0.02269013 0.0080447905
000140 90 ce be bd 34 eb 89 3d 6c 90 f2 3d 64 c9 84 3d
       -0.093167424 0.067343146 0.118439525 0.06483725
000150 dc ee 79 bd 06 97 9f bd f1 5e cb bd 03 5c 9e bd
       -0.06101881 -0.07792477 -0.09930218 -0.077323936
000160 3b 25 9a 3d 12 04 6d 3d 0b bf 3f bd b4 40 a5 3a
       0.075266324 0.05786521 -0.046813052 0.0012607784
000170 ee 36 a3 bc 07 2f d8 3a b4 01 fe bd cf ea d7 3d
       -0.019923653 0.0016493507 -0.124026686 0.10542833
000180 f7 68 30 bd 37 9e dc bd fa 36 f6 ba 77 3d 16 3d
       -0.043068852 -0.107723646 -0.0018784695 0.03667971
000190 bb 84 6a 3d 04 fd 81 bd c5 5a 0f bc bf 99 c0 bd
       0.057255488 -0.06347087 -0.0087496685 -0.09404325
0001a0 66 9d c1 bd 28 82 a9 bd 65 a5 a1 bd 61 9f a2 3d
       -0.094538495 -0.082767785 -0.07892875 0.07940555
0001b0 bf ed e7 bd f6 bf d2 bc e5 08 54 bd ca 43 a8 3d
       -0.11324643 -0.0257263 -0.051766295 0.08216055
0001c0 dd 03 0b bc ef 82 8d bd f9 e0 cf 3d 4e 72 c2 bd
       -0.008484808 -0.06909739 0.10150332 -0.09494458
0001d0 52 89 40 bd de e2 e7 bd 9b aa 2a bc 61 8c 10 3d
       -0.04700596 -0.11322568 -0.010416652 0.035290126
0001e0 ef c0 de 3d 09 ef b8 bd 54 f9 a9 bd 9e 51 fe 3d
       0.10876643 -0.09029967 -0.08299509 0.12417911
0001f0 53 56 b8 3c 91 fe ad bd c1 0d 5c 3d c2 ae f6 3d
       0.0225021 -0.0849582 0.053724054 0.12045051
000200 73 8a 94 3b f3 bb 6a bd 23 e6 88 bd 01 62 38 bd
       0.004533106 -0.05730815 -0.0668452 -0.04501534
000210 b1 7f 82 3d 88 62 b5 bd 60 d5 e8 3d 45 52 9e bd
       0.063720115 -0.08856684 0.11368823 -0.077305354
000220 9a df 0f 3d 49 7b fe 3d eb 90 62 bd 8b 52 ab bd
       0.035125352 0.124258585 -0.055313986 -0.08365353
000230 38 9c 84 bd 8b c1 56 bd 8f 29 9d bd 39 27 fc bd
       -0.06475109 -0.05243067 -0.07673942 -0.12312169
000240 f3 77 83 bd bb 50 32 bd b0 95 dd 3d e6 4a af bc
       -0.06419363 -0.04353402 0.10819566 -0.021398019
000250 a9 2a 70 3c f2 6c 20 bd 6f 23 9f 3c 3d 29 74 3d
       0.0146586085 -0.0391664 0.019426076 0.05960964
000260 48 2e b3 3c 63 7e 7b bc 38 2d 2c 3c 71 65 f1 3d
       0.021872655 -0.015349957 0.010508828 0.117869265
000270 1c 85 aa bd bc 41 fb 3d bd a1 e3 bc 99 91 b6 3d
       -0.0832617 0.12268397 -0.027787084 0.08914489
000280 14 2a c6 3d e5 a8 8b 3b 63 f2 37 3b 41 70 b1 3d
       0.096759945 0.004262077 0.0028068058 0.08663989
000290 3d c4 8e bc 73 c4 0c 3d 0e 0d f5 3d 24 a8 ca bc
       -0.017427558 0.034367036 0.119653806 -0.024738379
0002a0 fd 6b 34 bd 2b 84 c6 3d f8 05 e6 3d d0 a8 f5 3d
       -0.0440483 0.09693178 0.11231607 0.11995089
0002b0 49 8b f1 bd 4a 99 a8 3d e8 17 7c 3d 6a 45 a3 bd
       -0.11794145 0.082323626 0.061546236 -0.07972224
0002c0 65 2e a7 3d 87 5f 89 bd 67 4d 87 3d 10 3e 2f 3c
       0.08163146 -0.067076735 0.0660656 0.010695949
0002d0 a2 65 21 3d 11 31 9d bd b2 f8 c6 bc 2b 30 8b bd
       0.039403565 -0.07675374 -0.024288509 -0.06796297
0002e0 31 27 8b 3d c6 2f cb bd 36 53 0f 3c 74 97 45 3d
       0.067945845 -0.099212214 0.008747866 0.04824014
0002f0 37 97 3a bb 15 37 1a bd e0 a1 e9 3c 13 8f 20 3c
       -0.0028471479 -0.037650187 0.02851957 0.009799737
000300 1b 25 8d bd 44 07 0b bd 56 15 e0 bc 27 4b 90 bd
       -0.06891843 -0.033942476 -0.027353924 -0.07045584
000310 82 d9 4a 3b c4 1d 1f bd 0b c1 90 bd 1a 65 cf bd
       0.0030952399 -0.038846746 -0.0706807 -0.101267055
000320 fc e9 a6 bd 19 24 df bc 17 bf cc 3d b7 42 71 bc
       -0.08150098 -0.027238892 0.09997385 -0.014725379
000330 43 74 89 bd 62 3c c3 bd 3a 9b ae 3c 74 ac d9 3d
       -0.06711628 -0.095330015 0.021314252 0.10628596
000340 f4 a7 e6 bd a9 5f c5 3d f1 9c e4 3d af 88 e7 3c
       -0.11262503 0.09637386 0.11162747 0.028263418
000350 60 7a 7f 3d 7b 19 18 3d 12 d2 df bd f3 2c 4c bd
       0.062372565 0.037133675 -0.109287396 -0.049847554
000360 20 c3 ef bc 70 a5 98 bd e9 ba 80 bb 9c 09 d8 3c
       -0.029267848 -0.0745343 -0.0039285314 0.02637177
000370 78 08 8c 3b 8e b2 8b 3d dc e1 96 bd 82 5b d7 3d
       0.0042734705 0.06821166 -0.07367298 0.105155006
000380 a1 47 50 bd b4 39 cd 3d 0c 32 e8 3d 10 1e d1 bd
       -0.05084956 0.100207716 0.11337671 -0.10210812
000390 2c 59 f5 bd 80 f6 bd 3d b0 e4 c2 3d 78 28 5b bc
       -0.11979899 0.09275532 0.09516275 -0.013376348
0003a0 08 55 d4 3c d0 f8 96 3c c5 4c 1c bd 1c b5 86 3d
       0.025919452 0.01842919 -0.03815915 0.065775126
0003b0 61 c9 2c 3d 76 f9 f6 bd b0 3b 0d bd 22 02 98 bd
       0.042184237 -0.120593 -0.03448075 -0.07422282
0003c0 b7 d2 5b 3d 61 95 ff bd b5 0a dc bd 5d aa e1 bd
       0.05366775 -0.12479664 -0.1074423 -0.11018822
0003d0 3d e1 2f bd 50 6a c5 bd 8d 48 cc bc 4f ad 91 bd
       -0.042939413 -0.09639418 -0.024936939 -0.07113134
0003e0 73 92 a4 3d 25 a4 e0 3d f4 07 46 3d 4f a9 46 bd
       0.080357455 0.10968808 0.04834743 -0.04850131
0003f0 4c ec 50 3d 04 d5 db bd d2 0c 80 bd eb c9 d6 bc
       0.0510066 -0.10733989 -0.06252445 -0.026219329

gru.weight_hh_l1 f4 [192, 64]
000000 2b 24 89 3d 69 d0 72 3d 36 18 ef bd fb f2 d9 bd
       0.066963516 0.059280787 -0.1167454 -0.10642048
000010 bb be b4 bd dc 91 e1 3d 1e b9 f5 bd 6b 69 c5 bd
       -0.088254414 0.110141486 -0.11998199 -0.096392475
000020 9b 1e 8b 3c 97 9f c9 bd e4 6b 88 bc 0b de 5c 3d
       0.016982367 -0.098448925 -0.016653009 0.053922694
000030 65 2b 04 bd ee a9 83 bd 9c 70 b0 3d 00 93 b0 bd
       -0.032267947 -0.06428896 0.086152285 -0.08621788
000040 18 88 0b bd 0d cb ce bd 7b ae d8 bd 73 0d 88 bd
       -0.034065336 -0.100973226 -0.105801545 -0.0664319
000050 33 ae f2 3d 93 f4 d3 3d fd 56 83 3d d0 02 a7 bd
       0.11849632 0.10349383 0.06413076 -0.08154833
000060 4b 13 57 bd 0d c1 bf bd 6f 33 1d 3c ae 64 6b bb
       -0.052508634 -0.093629934 0.009594782 -0.0035918164
000070 fc ec e1 3d 13 9c b1 3d fd 85 ae 3d 5c 18 fd bb
       0.11031529 0.08672347 0.0852165 -0.007723851
000080 a8 9d dd 3d 1c 03 9a bd c4 07 e3 3d ec dd ca 3d
       0.10821086 -0.07520124 0.110854656 0.099056095
000090 b4 da bf bd 1f 74 8f 3d 19 23 e3 3a 21 17 aa 3c
       -0.09367886 0.0700457 0.0017329186 0.020762982
0000a0 36 35 a2 bb 3e a2 a9 bd 68 12 a1 3d ac 0d b7 3c
       -0.004950191 -0.08282898 0.07864839 0.022345386
0000b0 06 bc f4 bd 15 5c a6 bd f3 22 1f bc 7d a6 c2 bd
       -0.11949925 -0.08123032 -0.009712922 -0.09504411
0000c0 44 b2 93 bc 54 c6 d0 3d da 3c ec 3d a4 de 6a bd
       -0.01802934 0.10194078 0.11535044 -0.057341233
0000d0 b3 b1 f0 3d 62 89 77 bd 1c 34 65 bd 54 65 ec 3c
       0.117526434 -0.060433753 -0.0559579 0.02885691
0000e0 31 ae db 3d fa b9 91 bd 9b 50 cb 3c e8 1b fd 3d
       0.10726584 -0.0711555 0.02481871 0.12358838
0000f0 50 d8 e0 3d 53 39 1c 3d 63 f8 55 3d 03 60 44 3a
       0.10978758 0.038140606 0.052238833 0.00074911135
000100 b2 42 d0 bc ac 36 e7 3d 23 3d a0 3d 5e f4 c6 3d
       -0.025422428 0.11289725 0.07824161 0.09714578
000110 e4 07 01 bd 70 77 f6 3d e4 d0 ef 3a eb 02 82 3d
       -0.031501666 0.120345 0.0018296507 0.06348213
000120 6b 4b 9d bd 87 df 92 3d eb f1 a4 bd 92 3b 92 bd
       -0.076804005 0.07171541 -0.08053955 -0.071402684
000130 a2 8a 79 3d 8f bc 78 bd 64 70 c0 bd c1 1e 86 3d
       0.060923226 -0.0607267 -0.09396437 0.065488346
000140 f1 6a 97 3c f9 51 cd 3d 00 23 1e 3d 4d 26 23 3d
       0.01848361 0.10025401 0.038607597 0.03983145
000150 e4 ae 6d bd 47 89 c4 bd 66 66 8b 3d b9 a3 4c bc
       -0.058028117 -0.09596496 0.0680664 -0.012490206
000160 1a 57 6d bd 4d 4b cd bd 2d 69 7b bc 4f 6d 65 bd
       -0.057944395 -0.10024128 -0.0153449 -0.056012448
000170 19 ea c1 3d 4e 9e b4 bd ad a9 b9 bd 82 78 ef 3b
       0.09468479 -0.08819257 -0.09065566 0.007308067
000180 31 f6 2c bd 24 b9 e1 bd 84 31 b9 3d bb 3f a5 3d
       -0.042226974 -0.11021641 0.090426475 0.08068796
000190 7f 15 00 be 91 81 ba 3d e1 6c ec bc b7 ef 13 bb
       -0.125082 0.09106744 -0.028860511 -0.00225733
0001a0 b4 54 b5 bd 1f a5 95 3d 12 ee 19 3d 07 9c 6a bd
       -0.088540465 0.07306885 0.037580557 -0.057277706
0001b0 23 4e 30 bd 73 c8 9c bd 81 e2 c1 bd 20 e9 98 bd
       -0.043043267 -0.0765542 -0.0946703 -0.0746634
0001c0 7f 83 da 3d 41 ff be bd 86 7f 6e bd 67 55 4b 3c
       0.10669612 -0.093260296 -0.058227085 0.012410498
0001d0 6e fb 98 3b bb 7e e7 3d bf be be bd 84 fb f1 3d
       0.0046686446 0.11303469 -0.09313726 0.11815551
0001e0 dd 1b dd bd 5c e0 ab bd fd 58 fe 3d 5c 4c 82 3d
       -0.1079633 -0.083924025 0.12419317 0.06362221
0001f0 f2 42 4f bd 77 38 9c bd 42 13 69 bd 5c c4 93 bd
       -0.050600953 -0.07627957 -0.05690313 -0.07215187
000200 49 88 69 bd 69 d6 f9 3d 89 80 b0 bd 32 0e d6 bd
       -0.057014737 0.121990986 -0.08618266 -0.10451926
000210 7e b7 ba 3d e0 6c 85 bd fa 54 d9 3d f6 03 c5 bd
       0.091170296 -0.06514907 0.10611911 -0.09619896
000220 c2 29 92 3d 9f b5 b3 bd 05 6b fc bd 27 fe 5f bd
       0.07136871 -0.08774876 -0.123251 -0.054685738
000230 53 20 df 3c 66 9e 4e 3d 3d 4a 4c bd ef 51 46 3d
       0.027237093 0.05044403 -0.049875487 0.04841798
000240 3d f1 9e bd c7 91 78 bd bf 26 72 3d 50 09 b6 3d
       -0.07760856 -0.0606859 0.059118982 0.08888495
000250 1d bd f1 3d 1f 36 ef bd 6f c5 ac bd db 09 b2 3d
       0.118036486 -0.11680245 -0.08436095 0.08693286
000260 65 32 9d bd 5d 86 b2 bd e3 40 a1 bd d0 9d 3f 3d
       -0.076756276 -0.08717034 -0.07873704 0.04678136
000270 19 b4 c5 bd a5 be a4 bd 47 f8 23 bb 2d 7d e0 3c
       -0.096534915 -0.08044175 -0.002501981 0.027403438
000280 b9 1b e6 3c 25 d2 70 ba 38 02 a4 3d b8 3a a6 bd
       0.028089391 -0.00091865874 0.08008236 -0.081166685
000290 84 d7 8d bb a1 43 24 bd 5a 04 5d bc 4b e2 cb bd
       -0.00432867 -0.04010356 -0.013489807 -0.09955271
0002a0 0d 9a 92 3d 83 f8 65 3c f8 93 73 3d 16 f8 a3 bc
       0.07158289 0.014036301 0.059467286 -0.020015758
0002b0 03 e3 8d bd 1a c3 02 3d 1e 92 a1 3d 37 d4 e8 3d
       -0.06928065 0.031924345 0.07889198 0.11368602
0002c0 48 16 46 3d 06 36 50 bd d2 e0 e7 bd 55 c1 aa 3d
       0.048361093 -0.05083277 -0.11322178 0.083376564
0002d0 93 16 6e 3d 65 19 ff 3d f4 60 e9 bd e1 5e 54 bd
       0.058126997 0.124560155 -0.113954455 -0.051848296
0002e0 b9 23 da bd 88 d3 9c 3c ea 1e c0 bc 2e 0b c4 3d
       -0.10651345 0.019143835 -0.023452241 0.09572445
0002f0 86 26 93 bd 2a 04 b4 3c d7 c1 f5 bd aa da 15 bd
       -0.07185082 0.021974642 -0.11999863 -0.036585487
000300 1e 5f c4 bd 2d 94 23 3d 74 ab fd 3d f2 70 4b bc
       -0.09588455 0.039936233 0.12386218 -0.012417065
000310 28 ec 9c 3c d0 74 9b bc e8 bf 0c 3b 5f 85 c3 bc
       0.019155577 -0.018976599 0.002147669 -0.023867307
000320 93 34 06 3d a4 b2 23 3d af d1 ef 3d 49 8c a8 3d
       0.032764982 0.039965287 0.11709916 0.08229882
000330 2d 29 76 3d f6 c0 d0 bd a0 a8 a7 bd f5 cb 95 bd
       0.060097862 -0.101930544 -0.081864595 -0.07314292
000340 bb cf c0 bc ae e6 bc 3b 6b 61 d3 3d 98 36 c7 bd
       -0.023536554 0.005764804 0.103213154 -0.0972721
000350 d3 94 07 3d df 2b 43 bc c0 71 89 3c 75 06 f0 3c
       0.033100914 -0.011912315 0.016777873 0.029299954
000360 1a 47 54 3d df 54 1a bc 48 8f 83 bc b9 b7 72 3c
       0.05182562 -0.009419649 -0.016059533 0.014814311
000370 b8 69 b6 bd d9 fb 97 3d 1c 58 ab 3d 61 53 b0 bd
       -0.08906883 0.07421083 0.08366415 -0.08609653
000380 a3 cb a8 bb 11 ca cb bd 4d 82 a6 bd 0f d0 b7 3d
       -0.0051512285 -0.099506505 -0.08130322 0.08975231
000390 ca b6 d0 3d 27 0c c5 3d 13 e9 41 3c bf 39 ff 3b
       0.10191114 0.096214585 0.011835354 0.0077888663
0003a0 cc 15 4a 3d df f8 b1 bc f0 5c 2e 3d d9 de d1 3d
       0.049337193 -0.021725116 0.0425691 0.10247583
0003b0 aa d1 9a 3d 8f 42 92 bd d8 68 ee bd 7e 4f 93 bd
       0.075595215 -0.07141601 -0.11641091 -0.07192896
0003c0 3f 49 c2 bd 06 8f 8d bd 6d e6 bd bd 42 84 af bd
       -0.09486627 -0.06912045 -0.09272466 -0.08570148
0003d0 f0 3d 16 3b ee 42 d9 3d 93 0c a6 bc 51 b5 d1 bd
       0.0022925101 0.10608469 -0.020269668 -0.102396615
0003e0 59 a2 f7 3d 34 4a 77 bd 94 11 f5 bd 43 a4 aa 3d
       0.12091512 -0.0603735 -0.119662434 0.08332112
0003f0 fc 64 0b bd 96 ae d4 bd 8e a8 08 bd 18 78 9d bd
       -0.034031853 -0.10384862 -0.03336387 -0.07688922

gru.bias_ih_l1 f4 [192]
000000 21 4f ef bd fe 2d 1f bd b9 09 80 3d 25 f7 af 3d
       -0.116850145 -0.03886222 0.062518544 0.08592061
000010 83 6e 4d 3d 97 cd 2f bd 98 78 8d 3d de ed cb 3d
       0.05015422 -0.042920675 0.06907767 0.09957479
000020 18 2a ee bd 71 99 38 bd 4b 4d c0 bd 82 c8 da bd
       -0.116291225 -0.045068208 -0.093897425 -0.10682775
000030 c2 ee 5f 3d ad 30 cb 3d bb 00 aa bc 5f 09 05 bd
       0.054671057 0.099213935 -0.020752301 -0.03247964
000040 78 5a 57 bb 9a 5b de bd c3 90 b7 3d 08 b8 40 bc
       -0.003286032 -0.10857315 0.08963158 -0.0117626265
000050 a4 63 99 3d 42 e9 ea 3d 18 81 ab 3d f4 da 31 3d
       0.07489708 0.11470272 0.08374232 0.0434217
000060 16 40 de bc 47 3c 24 bd 55 2e fe 3d 0d cb bb bc
       -0.027130168 -0.040096547 0.12411181 -0.02292397
000070 d2 22 ea 3d 80 68 c5 bd f2 f9 ed bd 76 b7 e5 3d
       0.11432423 -0.096390724 -0.11619939 0.11216633
000080 94 3a 88 3d 4e 75 e6 bd 97 54 25 3d e3 eb 9d bd
       0.06651798 -0.11252843 0.040363874 -0.077110074
000090 60 24 a5 3c d6 7f 76 3c 4c c2 79 bd d7 76 de ba
       0.020158947 0.015045127 -0.06097631 -0.0016972673
0000a0 9b 11 6d bd cc cd 9e 3d f3 f8 9d bd de 7e ff 3d
       -0.057878118 0.077540964 -0.07713499 0.1247537
0000b0 0b 9a 84 bd ff e5 d5 3d a2 0b e7 3d 9b 2e 2c 3d
       -0.06474694 0.10444259 0.11281516 0.042036634
0000c0 19 bb 23 3d fc 4a dd bd f5 de 46 bc 72 96 85 3d
       0.039973352 -0.10805318 -0.012138118 0.06522836
0000d0 a6 ca 4b bd e5 45 07 bd c4 4b f6 bc c3 81 0d bd
       -0.049753807 -0.03302564 -0.030065425 -0.03454758
0000e0 63 18 29 bd c5 c6 66 3d 07 c7 ff 3c bb 63 3c bd
       -0.041283023 0.056341905 0.031222833 -0.045993548
0000f0 71 81 80 bd 6c 60 b5 bd d8 d6 fb bd a1 df f3 bc
       -0.06274689 -0.08856282 -0.122968376 -0.02976972
000100 41 31 8e bc 52 9f 43 3d 67 d3 85 bd 11 2c 32 3d
       -0.01735747 0.04775936 -0.065344624 0.043499056
000110 5d 88 1f bd c4 18 54 3d f7 14 d0 3d 7d 2b b2 3d
       -0.038948406 0.05178143 0.10160249 0.08699701
000120 b8 3e f3 3d 49 6d 1e 3d 73 33 02 3c 69 fa 82 3d
       0.11877197 0.03867844 0.007946837 0.06395418
000130 90 b0 e4 bd d5 84 d2 3d eb ee 60 bd 67 13 ff bd
       -0.11166489 0.10279242 -0.05491535 -0.124548726
000140 da cd 82 3d 36 e9 a7 bd d7 1d 9d 3c 04 5d 59 bd
       0.06386919 -0.08198778 0.019179268 -0.053067222
000150 3d 14 fc bc c9 cf b3 bb 99 9f ba 3d fa e4 fd bd
       -0.03077137 -0.0054874164 0.09112472 -0.123971894
000160 c9 27 7d bd 24 cb 69 3d d9 ff de 3d 12 a0 f3 3d
       -0.06180552 0.057078496 0.10888643 0.11895765
000170 d2 6f d8 bd c5 16 5c bd 01 8b 09 bd ff 1e 15 bd
       -0.10568203 -0.053732652 -0.03357983 -0.036406513
000180 b0 bb 9e 3c ed c9 4d 3d 76 05 b6 bb 03 c0 d7 3c
       0.019376606 0.0502414 -0.00555485 0.026336676
000190 ac 6f da 3d 4d 4c e6 bd aa 6a 6a 3d 2b c0 73 bd
       0.10665831 -0.11245022 0.05723063 -0.059509438
0001a0 19 e9 b3 3b c5 4d b6 3d 20 71 32 3d 27 31 6b 3c
       0.005490434 0.08901552 0.043564916 0.014354981
0001b0 65 16 87 bd fb fa 0c 3d e5 7a 83 bb c7 6a fd 3d
       -0.06596068 0.03441904 -0.004012453 0.12373882
0001c0 65 18 d0 3d 35 b7 05 bd 33 e6 95 3d fe 8b 21 3d
       0.10160903 -0.032645423 0.07319298 0.039440148
0001d0 38 96 94 3d 47 66 1a bd de 3a e8 bb 4b 00 13 3d
       0.072552145 -0.037695196 -0.0070870956 0.03588895
0001e0 d1 38 c0 3c bd 48 cd bd 4a ee 03 3d ea 04 f8 3d
       0.023464592 -0.10023639 0.032209672 0.12110312
0001f0 58 07 8b bd 49 6d b8 3c 4a a0 ac bc 50 c7 99 bd
       -0.0678851 0.022513049 -0.021072526 -0.07508719
000200 df fd 73 3a 94 f2 b3 3d bb d3 8a bd 8c 17 57 bd
       0.0009307544 0.087865025 -0.06778666 -0.05251269
000210 a0 8c 64 bd ba ad 22 bd 38 dd af bd 10 06 78 3d
       -0.055798173 -0.03971646 -0.08587116 0.060552657
000220 82 9e c4 3c d8 75 84 3d b8 cb 01 3d f4 d7 81 3d
       0.024001364 0.064677894 0.031688422 0.06340018
000230 1a f5 e5 3d 5f 98 0a bd b9 ba d4 3d df e2 cd 3d
       0.1122839 -0.03383672 0.10387177 0.10053038
000240 14 29 80 bd e1 b2 ea bc 95 4c 92 bb 23 99 8f 3d
       -0.06257835 -0.02864975 -0.0044646957 0.070116304
000250 e8 97 0c 3e 5f e0 01 bd 60 fb b7 3d e8 d9 43 bb
       0.13729823 -0.031708118 0.08983493 -0.002988452
000260 98 61 c8 3c ce 93 01 3e 3e a0 31 bd 23 9e 2b bc
       0.024460599 0.1265404 -0.04336571 -0.010474714
000270 2b 68 19 3c 54 d1 d2 bc e3 a7 46 3c 57 5f e0 b9
       0.0093632145 -0.025734581 0.012124988 -0.00042795643
000280 e9 99 88 3d 12 f4 ba 3d a0 36 1e bd e1 7c 1d bc
       0.06669981 0.09128584 -0.038626313 -0.009612293
000290 65 09 56 bd 1e bd f8 bd b4 13 f7 3d c1 ee 9a bd
       -0.052255053 -0.12145446 0.12064305 -0.0756507
0002a0 13 2c 09 3e 9c 98 b1 bd 8b 96 e0 3b cb 6e 05 bb
       0.13395719 -0.08671686 0.0068538836 -0.0020360227
0002b0 db 07 8c 3d 62 31 74 3d 94 34 af bd 81 96 6a 3d
       0.06837436 0.059617408 -0.0855495 0.057272438
0002c0 7b c0 99 bd 1b 4a ca 3d de ba 46 3d d2 1e c5 3d
       -0.07507416 0.09877416 0.048518054 0.09625019
0002d0 e3 32 2d bd 79 e8 ca 3d cc a1 ad bd 6f 6a c4 3c
       -0.042284857 0.09907622 -0.08478126 0.023976533
0002e0 51 06 a9 3c c0 59 10 3d 87 f2 b2 3d ef 8d 75 bd
       0.020632895 0.035241842 0.08737665 -0.05994981
0002f0 d1 6b b3 bd a1 bf 7f bd b2 ec ac 3d 5d 82 75 3d
       -0.08760799 -0.06243861 0.084435835 0.059938777

gru.bias_hh_l1 f4 [192]
000000 73 1d 5c 3c 1f 2d b0 3d 03 28 b0 3d 15 a7 f9 bd
       0.013434756 0.08602356 0.08601382 -0.121900715
000010 ce c7 94 bd 2b d8 1b bd b0 67 4d bb af 7a 2a bd
       -0.07264672 -0.03804795 -0.003134232 -0.041620906
000020 26 11 6a bc 40 2d e2 3d 44 f1 96 bb 80 2b be 3d
       -0.014286315 0.11043787 -0.004606398 0.09285641
000030 c0 5d 88 bd 9d c7 22 bd 8f 8e ec bb 2c ec b2 bb
       -0.066585064 -0.039741147 -0.0072191427 -0.005460283
000040 d4 3d d8 3c 8e 3b b8 3d 5b 91 d7 bd dd c9 8e 3c
       0.02639667 0.08995734 -0.10525771 0.01743024
000050 e6 9e 97 3d f8 16 82 3d 9a a9 c6 bd fc c0 b5 bd
       0.07403354 0.06352037 -0.09700318 -0.088746995
000060 05 b6 ad 3d 93 c8 64 bd 05 18 3c bd f1 e9 8f bd
       0.08481983 -0.055855345 -0.045921344 -0.07027043
000070 c3 48 cf bc 7b d6 4b 3d a1 17 15 3d 92 81 f4 3d
       -0.02530325 0.04976509 0.036399487 0.11938776
000080 ca 70 91 bb b2 f1 dc bd 6b 81 0a 3d 43 b2 8b 3d
       -0.0044384943 -0.10788287 0.03381483 0.0682111
000090 21 c8 2f 3d 9a e3 a0 3d 15 b7 ed bd b8 16 d0 3d
       0.042915467 0.078559116 -0.11607186 0.10160583
0000a0 fa 22 fb 3d aa 17 40 3d 97 fb 82 3d f1 02 00 bc
       0.122625306 0.046897568 0.06395643 -0.007813201
0000b0 b6 fe 1e bd 6b df f1 3b e8 3f 0d bd f5 0c 48 bd
       -0.03881713 0.00738137 -0.034484774 -0.04884048
0000c0 cc 99 17 bc a9 d3 56 bd fc 7b 75 bd f4 49 22 3d
       -0.009252977 -0.05244795 -0.059932694 0.03962131
0000d0 ce 1d 6e bd e1 ae cb 3d 23 9c 86 3d 3e e7 9c 3d
       -0.058133893 0.09945465 0.065727495 0.076612934
0000e0 a5 bc 47 3d 05 65 f0 bc 66 1e 48 bc f5 2b da 3d
       0.04876389 -0.029345045 -0.012214279 0.106529154
0000f0 59 8c c9 3d ed d9 6b 3d bc 9a 31 3d 87 3d cf 3c
       0.09841222 0.057580877 0.043360457 0.025297893
000100 df 68 e0 bd 0d 53 a6 3d 65 29 57 3b 34 8c 16 bc
       -0.109575026 0.081213094 0.003283107 -0.0091887005
000110 b5 34 d9 bd c8 3a 07 3d 35 e8 37 3d 5a 3e c9 3c
       -0.10605756 0.033015043 0.044899184 0.024565864
000120 12 9d fa 3d 6b ea 29 bd 59 a7 f3 3d a7 87 d3 bd
       0.1223699 -0.041483324 0.118971534 -0.10328608
000130 c4 58 10 3d 8e 38 44 3d ce 28 ae bd d3 67 80 bd
       0.035240903 0.047905497 -0.085038766 -0.06269803
000140 4c 2f 8b 3d cb 31 32 3d 27 13 b5 3c df e4 21 3c
       0.067961305 0.043504518 0.02210386 0.009881227
000150 80 a8 af bc df 70 a7 3d d5 21 a0 bd 6a e6 ad 3d
       -0.021442652 0.08175825 -0.07818953 0.084912136
000160 2f fa d3 bc 9f 0b cb bd e7 ed cb 3d 8a 9b f4 bd
       -0.025876133 -0.09914326 0.09957486 -0.11943729
000170 e9 1b 45 bd 58 2b ef 3d 24 62 e2 3d 09 12 9f 3d
       -0.04812232 0.11678189 0.11053875 0.07767112
000180 12 0a 0b 3c 55 6e f4 bc c0 93 3b 3d 5b 6c 9b 3c
       0.008486288 -0.029837767 0.045795202 0.018972566
000190 ce ec df bd 17 c1 78 3d 26 55 92 3b 21 89 f5 bd
       -0.10933839 0.06073102 0.004465717 -0.11989046
0001a0 be 28 19 bd de 6d 32 3d 81 64 1b 3c 8a ff e7 3a
       -0.03739237 0.04356181 0.009484411 0.0017700058
0001b0 fb 41 8f bd d5 0f 5d bd 1d f7 a4 3d 87 6f f2 3d
       -0.06995007 -0.053970177 0.080549456 0.118376784
0001c0 7d f5 cc 3d a2 9e e5 3d dd 1f 9e 3d 94 c2 9b bb
       0.10007761 0.112118974 0.07720921 -0.00475342
0001d0 0e f0 d2 bd d0 25 fd 3b cd 01 78 bc 1f ec 15 3d
       -0.10299693 0.007725455 -0.015137148 0.036602136
0001e0 5b 48 47 3d b3 f1 70 3d 3e 73 7f bd d0 d5 9f 3d
       0.048652988 0.058824252 -0.062365763 0.078044534
0001f0 34 73 a4 bd ee a3 3b 3d 9f a2 fc bd de aa 3e 3d
       -0.08029786 0.045810632 -0.12335705 0.04654967
000200 1f a2 9f 3d 19 93 88 3d 7a 0c 8e bd 92 7d aa 3b
       0.07794594 0.06668682 -0.069359735 0.0052029574
000210 be 5f 0d bd 70 6e 70 bd 00 db 9f 3d b9 9c 04 3e
       -0.034515135 -0.05869907 0.07805443 0.1295041
000220 ec 3c cb 3d 60 03 7d 3d 81 65 42 3a 6e a7 b0 bc
       0.09923729 0.061770797 0.0007415638 -0.021564212
000230 83 3e 8b bd b9 5c c2 3d 0c 8d 28 bc 79 07 a5 bd
       -0.067990325 0.09490342 -0.010287534 -0.08058066
000240 91 08 3f 3c e6 7d 6e 3d 6b 84 9e bd 5a db da bd
       0.011659757 0.058225535 -0.077401005 -0.10686369
000250 de f0 98 3d dc e7 94 3d 3d 63 74 bc 49 71 81 bd
       0.07467817 0.07270786 -0.014916238 -0.063204356
000260 17 59 f2 3d 0c ad de 3c ab cf 21 3d cd b7 b8 3d
       0.11833399 0.027182125 0.03950469 0.09019432
000270 3a c6 e3 3d 79 b8 51 bd 6f af 39 3d 94 e8 67 3d
       0.11121793 -0.051201317 0.045333322 0.05661829
000280 7d f8 c1 3c 9f 61 58 bd ed 04 09 bc fe 2b 80 3d
       0.023678059 -0.052827474 -0.008362991 0.06258391
000290 a3 2c b9 bd 2e 04 37 bc a7 45 02 3d c6 be 8b bd
       -0.09041717 -0.01117043 0.031804707 -0.068234965
0002a0 8f 93 a7 3d 18 6c 2b 3d 79 b3 3e bd ac b2 c3 bb
       0.081824414 0.041851133 -0.046557877 -0.005972227
0002b0 22 f6 cb 3c 15 d4 68 3d 23 fd 1d bd e0 40 8e bd
       0.024897639 0.056842882 -0.038571488 -0.06945968
0002c0 71 70 ce bd 47 66 31 bd 23 45 78 3c 71 63 dd bd
       -0.1008004 -0.04331043 0.015153202 -0.108099826
0002d0 96 e7 6b bc ff a5 aa bd a2 d7 54 bd 0e 08 b2 bd
       -0.014398476 -0.083324425 -0.051963456 -0.086929426
0002e0 ec 48 89 3d 43 3f 02 3e 14 5f ea 3d fc 56 6a bd
       0.06703362 0.12719445 0.11443916 -0.05721186
0002f0 9d a3 60 3d cf 55 ac 3d 9b 9d ec 3c f4 57 db 3c
       0.054843534 0.08414804 0.028883746 0.026775338
