experiments/gru/v1/gru_last_model.pth (torch, 170293 bytes, 9 tensors)

gru.weight_ih_l0 f4 [192, 20]
00000000: 4ab7 c33d b9ed d33d d563 ecbc d77f eb3d
00000010: 27d1 dfbc 2cbf cf3c eec3 7bbd 7a92 953d
00000020: 5d09 e23d c961 bbbd 05b9 de3d e9da c13c
00000030: 4559 bd3d 989a 8b3c 8146 773d ed19 8fbc
00000040: af35 c63d b15c 973c e283 6fbd a94b 033d
00000050: 8bb9 6bbd d73a 6ebc 6073 4fbd adc7 a93d
00000060: 449e c9bd 891e 6cbd c0eb 11bd aa54 9abd
00000070: 34f6 443c b8b1 fcbd 3a16 e83d 0269 d9bd
00000080: b392 c53d 6f05 ac3c 9d0d 25bd 0ac9 9d3d
00000090: 33c5 a13c 5bd6 ce3d 4351 5f3c 845e 21bd
000000a0: ddc4 093d c0d1 0bbd a361 573d 73ad e43d
000000b0: ee4a 943d 8a11 60bd 8b1d 933d b775 be3c
000000c0: 9c72 823d 73b4 9bbd e809 fdbd aabf 44bd
000000d0: 3e5c c4bd 0795 d23d 3db4 133d 899c 533d
000000e0: c2ce 223d 058d 0ebb d84b c83d 4ee0 b5bd
000000f0: 2d48 033c a309 b0bd 73b5 193d 94d1 31bd
00000100: 7f2e 1c3d ba3c dbbc c10b d53d 8211 93bd
00000110: 050c 99bd daed 98bd 7329 e53d 2e8e 273d
00000120: 6b5a f53d 8de5 d4bd 3eb6 fdbd 6593 c8bd
00000130: 322a aebd 8f59 4f3d c850 383d f280 d33d
00000140: 8c9c 84bd 9ef6 afbd 2897 8a3d 7673 50bd
00000150: 7cd7 9a3d 5b30 ecbc 8394 923d 0ae5 d1bd
00000160: ff32 84bd b8be 173d 33cf d43c 7cb7 06bd
00000170: 7ee9 993d 961c ac3d 29d7 b8bd 799b 88bd
00000180: ef95 ea3d 5db6 2cbd 41b8 37bd 8e89 f6bd
00000190: 725d 92bd 866e 013d 1361 8abc e084 b8bd
000001a0: 1f35 583b c116 afbd 083c d7bd 359e 87bd
000001b0: da1a debd 8b74 a1bd 0dde 003e 6300 c63c
000001c0: c21c 1d3d e350 edbd e73b a7bd 552d 2bbd
000001d0: 677c a93c 8f44 e1bd b61e 5dbd d6b1 99bd
000001e0: 0f9d b939 fd45 3fbd a271 0ebc 7675 adbd
000001f0: 14b3 afbd f6a4 95bd da82 2fbd 6ca5 c9bd
00000200: 9aac d63d 0b87 cabc 4919 dc3d 5c92 1f3d
00000210: a2bd d8bd 1ff5 b03d a9d5 0cbd 74f2 43bd
00000220: 6859 d4bd 5d82 febd e32f 123d 069b dfbc
00000230: 57b7 463d 77a4 d2bd de9c be3d 2470 bdbd
00000240: a696 b4bc ada1 d73c 0b84 823d 52e2 c83d
00000250: b867 e63d a1a1 ccbd de8e f83c 3049 60bd
00000260: 36d1 5bbc 3c96 c1bd 2d8a e83d 53ca bbbd
00000270: 9b58 873d c0f7 333d b1fa 243d 2e2f 8abd
00000280: 1789 e83d ccf0 dd3c 5b74 803c c260 e2bd
00000290: 881a 563d 7a7d 9cbc 8de7 6abd 9aab d83d
000002a0: a72a df3c 0a34 8ebd 5ac3 82bd df2c c8bb
000002b0: cfd9 8e3d 9a35 03bd 241b 93bd 2eb0 2fbd
000002c0: 0a8a c0bd a59b 363d 832c c63d 4b3e f1bd
000002d0: d0d3 ed3c 6748 843d bf45 b93c a05d 36bd
000002e0: da8b 853d 6d85 863d ca4d 3f3d bca8 b2bc
000002f0: 944f 07bd 2e6b 5c3c e43b b5bc 199b 18bd
00000300: 3c8a a33d eeeb db3d f087 4abc ef1f e5bc
00000310: e2b6 e93a 1a8f f4bb ad30 f63c c367 0f3d
00000320: f79a e8bd 8e15 43bd 5f01 d83d e974 453d
00000330: 1d82 bfbb f126 9dbd e518 9fbd d91e e6bd
00000340: 7d4f 25bd e778 2f3d 2d11 a23d 8dde 6b3d
00000350: ac90 e1bd 62f1 9bbd 7e09 9dbc fe54 f83d
00000360: ed63 983c 2aa6 04bd 1b00 523d 0323 42bd
00000370: 21b3 a5bd 23c0 ba3d 1a87 68bd 7808 cdbc
00000380: abae febd f659 ab3d 94c3 c13d a7fa 3b3d
00000390: 30a3 b2bd d58b fcbd 3ace cfbd b4c0 be3d
000003a0: 0c10 763d 3d4d d73d 964f 863d 0aa9 013d
000003b0: 91c0 83ba 86b0 c2bd aea5 dbbd b357 efbd
000003c0: 17ed 503d 70f0 7cbd 9426 c6bc 282d 93bd
000003d0: 30bf bcbc 7c80 b2bd 0cf1 a6bd 9370 1f3d
000003e0: 261b 1abd aa97 9d3d 2401 26bd 9783 bcbd
000003f0: 2d1f b1bc 8884 7abd 398e 1bbd d71b f3bd
0.09556444 0.103480764 -0.028856197 0.11498993 -0.027321411 0.025359713 -0.06146615 0.07303329
0.11036942 -0.091495104 0.108751334 0.023663955 0.092455424 0.01704149 0.060369972 -0.017468417
0.09678208 0.018476816 -0.058475383 0.032054577 -0.057549994 -0.014540396 -0.05064714 0.08290038
-0.0984464 -0.057646308 -0.03562522 -0.0753568 0.01202159 -0.12338585 0.113323644 -0.10615732
0.09647121 0.020998685 -0.040296186 0.07704361 0.019747352 0.10099479 0.013630214 -0.039396778
0.03363501 -0.03413558 0.052583348 0.11165895 0.07240854 -0.054704227 0.07183369 0.02324949
0.06369516 -0.07602777 -0.12355405 -0.048034348 -0.09587906 0.10282331 0.03606056 0.051662955
0.03974796 -0.0021751535 0.09780091 -0.08880673 0.0080128135 -0.08595588 0.03752656 -0.04341276
0.03813028 -0.026762355 0.104026325 -0.07181074 -0.07472996 -0.074672416 0.111895464 0.040907077
0.119801365 -0.10395346 -0.123882756 -0.09793738 -0.08504142 0.05062252 0.044998914 0.10327329
-0.064751714 -0.0859196 0.06767112 -0.050891362 0.07560632 -0.028831651 0.071572326 -0.10248764
-0.06455039 0.037047118 0.025977707 -0.032889828 0.07515238 0.0840389 -0.090254135 -0.06670279
0.11454379 -0.042166103 -0.044853453 -0.12037955 -0.071467295 0.031599544 -0.016891992 -0.09009719
0.0032990647 -0.08549262 -0.10509497 -0.066219725 -0.10844965 -0.07883557 0.12584706 0.024170106
0.038357504 -0.115876935 -0.08165722 -0.04179128 0.020689202 -0.10999405 -0.053984366 -0.07504623
0.00035402967 -0.046697605 -0.008694084 -0.084696695 -0.08579078 -0.073068544 -0.0428494 -0.09846005
0.1048214 -0.024722597 0.1074701 0.03895794 -0.105830446 0.08640503 -0.03438345 -0.047838643
-0.103686154 -0.124272086 0.0356902 -0.0272956 0.04851469 -0.102852754 0.09307264 -0.09249905
-0.022044491 0.02632221 0.063728414 0.09808792 0.112502515 -0.09991766 0.030341562 -0.054757297
-0.013416579 -0.09452483 0.1135448 -0.0916945 0.06608697 0.043937445 0.04027814 -0.0674728
0.11354273 0.02709236 0.015680483 -0.11053611 0.052271396 -0.0191028 -0.05734973 0.105796054
0.027242018 -0.069435194 -0.063849166 -0.0061088647 0.069751374 -0.03203354 -0.07182911 -0.042892627
-0.09401329 0.044582028 0.09676459 -0.117794596 0.029031664 0.06459122 0.022616265 -0.04452288
0.06520815 0.06568418 0.046705045 -0.021808974 -0.033034876 0.013453288 -0.022123285 -0.037257288
0.079853505 0.107383594 -0.012361512 -0.027969329 0.0017830993 -0.007463348 0.030052507 0.035011064
-0.11357682 -0.047627978 0.105471365 0.048207197 -0.005844368 -0.07673443 -0.0776842 -0.112363525
-0.04035901 0.04283991 0.07913432 0.057585288 -0.11013922 -0.076143995 -0.019169565 0.12125586
0.018602336 -0.03238503 0.05126963 -0.04739667 -0.08090807 0.091186784 -0.056769468 -0.025028452
-0.12435659 0.08366768 0.09461132 0.045893338 -0.08722532 -0.12331358 -0.101467565 0.09314099
0.060073897 0.10512779 0.065581486 0.03165535 -0.0010051896 -0.095063254 -0.1072496 -0.11686649
0.051007356 -0.061752737 -0.024188317 -0.07186347 -0.023040384 -0.08715913 -0.08151445 0.03892572
-0.037623547 0.07694943 -0.04052843 -0.09204786 -0.021621311 -0.061161548 -0.03797743 -0.118705444

gru.weight_hh_l0 f4 [192, 64]
00000000: 882c d8bd 0961 273d 4409 a63d 63e9 6cbc
00000010: 86c1 ea3c 627c 633d 0986 fcbd 52c6 a7bc
00000020: 3856 3dbd 9bb1 82bd 6c20 9c3d 5eb7 fd3d
00000030: 185d a43c 684a 9f3d bcd9 bdbd 0d45 b63c
00000040: fd21 85bc 55e8 9dbd 5276 d23c b7cd 223d
00000050: ce90 c2bb d60c 593d bb79 753d 2910 e83d
00000060: d96c f13b a9e6 923b a4e7 f5ba 2da1 8b3c
00000070: 5a08 a6bd 949f 7bbc 766d d8bd 6c79 b3bd
00000080: 7305 dabd 9be5 bd3d 8ed0 92bd 6526 27bc
00000090: dade 593c b409 e23d 11bf 683d ca6c b6bd
000000a0: 184b fa3d 28a1 f2bd fadd 843c 643e ea3d
000000b0: f2b4 dd3d 738f ecbc 9ee1 aabd e6bf 603d
000000c0: 4dfe c43d ea77 88bd c5f7 a1bc fc9a 9bbd
000000d0: 4fcf 433d ffb0 db3c fa38 7d3d 99cc 2fbd
000000e0: e17e f7bd 8253 57bd 87ff c7bd 0e70 f7bc
000000f0: c2d9 3a3d b520 d5bd 3b7c bbbb 7874 fabd
00000100: 5874 b5bd 883e b3bd ef43 2ebd 4ead 81bd
00000110: 091c 9d3c f466 9c3d 1137 c13d 2bbc 213d
00000120: c1d9 2cba 48ab b5bc dbb9 ad3d 2fce 92bd
00000130: 0d3d b93d 2e75 f6bd 192d bfbd cd16 083d
00000140: 151e 53bd 6c90 be3c 1c23 df3d 1a0b 6a3d
00000150: 86a3 fa3d 2110 59bd 0e92 74bd ddf2 81bc
00000160: 1035 cebc d2f2 60bd 080a fdbb 1216 e73d
00000170: 8b56 8cbd 9ebc 8f3d 69ea 6d3d a715 943d
00000180: 625e 0a3d 1a36 3dbd 058e 533d d8ac 71bd
00000190: 8a32 9dbd 9a47 ef3d b96e d43d 711d b9bd
000001a0: 6cdb cf3d 6a90 d33c 0ef8 023d 432b f73d
000001b0: bde2 d9bb 686f 22bd fcab a03d 5340 04bd
000001c0: 0265 f6bc e19c 4ebd aaba fb3d b274 743d
000001d0: b626 a6bc 26b2 19bb 5450 0f3c b2d5 97bd
000001e0: 48cf 103d b088 c6bd 21ae bebb 77e3 c0bc
000001f0: a5f3 50bd 78bd ec3d e78e 0f3d 8bcc 763d
00000200: c863 a8bd b123 a33c 1e2e 093d cf2e 853d
00000210: 9800 17bd 1a5c c7bc 42a3 cfbd bd83 9b3d
00000220: 7ebd aa3d eb15 713d e839 823d 778c 993d
00000230: d537 f13d 73bf 273d 067b 383d 5515 213d
00000240: 92c3 90bd 57c1 003d 23c0 1a3d 4a9a cbbd
00000250: ccb0 17bd eb33 9ebd 995c a3bd 8ac7 b13d
00000260: 1a41 c93d f6da 8dbc dde9 1c3d c57f efbc
00000270: a998 d93c 441e acbc 8d3b 85bd 7583 57bd
00000280: 9c63 fe3d 2ecb ad3c cbea 8bbd 37cb 683c
00000290: fa50 ffbd 7f1b 9f3a 1d7e c43d 222b 6b3c
000002a0: 428d f33c 151d f1bd 46bc c0bc 2ff0 963d
000002b0: 08c8 bbbd cd43 6fbd 7e01 ad3d 84c0 123d
000002c0: 96d2 6e3d 28f4 eebd a1e8 a23d fa28 dfbc
000002d0: 2c5f d73c dbd2 ce3d 59a9 ebbd ed6c 123d
000002e0: d582 e7bd be5d bd3d c02d 163d 1265 643c
000002f0: c053 4dbd 8893 413d 98af 84bd eeb4 c43c
00000300: ee41 d73d 511b c0bd 2e0e 13bd 91e3 ef3c
00000310: 9550 b43c 9277 1e3b ba17 dc3d 3f75 06bd
00000320: 4188 013d 74de 873d b973 c2bc 8c61 a83d
00000330: d182 a63d 6f3a 643d eb15 fabc 602b dd3d
00000340: 678c 93bd c254 1f3d 3e65 cd3c 83a9 b43d
00000350: 9175 d2bd 1de9 b23c e304 93bd 73fb 873d
00000360: 4fa1 2d3d 4fbe c7bd 6714 fdbb 8833 113d
00000370: a5d4 5a3d 1a31 e33d 5e41 653d bb99 c23c
00000380: 013c 883d 85d3 f1bd a813 aa3d 6bc9 6abc
00000390: 5924 913d 07eb 133d d7f9 e0bb c15f b43d
000003a0: e2b8 94bd a04d 113d 3a06 613d e2a4 38bd
000003b0: f1d2 3a3d f63b fdbd d855 81bd 8d4e 783d
000003c0: e969 843d fedf eabd 73db 313d 62db 423c
000003d0: 2cb3 f93d 53f1 fabd 7b58 efbc f169 90bd
000003e0: 33d7 9abd 4088 aabc c8c4 ebbd 8899 c93d
000003f0: fe3a 37bd a851 343d 3773 96bd 1daa 423a
-0.10555369 0.040864024 0.08107236 -0.014459941 0.028656732 0.055538543 -0.12330253 -0.020480309
-0.046224803 -0.06381532 0.076233715 0.1238849 0.020063922 0.07777864 -0.09270045 0.022249723
-0.016251558 -0.077103294 0.025691185 0.039746966 -0.005937672 0.052990757 0.059930544 0.11331207
0.007367712 0.0044830632 -0.0018761051 0.017044628 -0.08107062 -0.015357871 -0.10567753 -0.08763394
-0.106455706 0.092723094 -0.07168685 -0.010202025 0.013297761 0.11037007 0.05682284 -0.089074686
0.12221354 -0.11847144 0.016219128 0.11437681 0.10825528 -0.028876996 -0.08343814 0.05487051
0.096188165 -0.06663497 -0.019771466 -0.0759792 0.047805127 0.026817797 0.061821915 -0.04291973
-0.12084747 -0.052569874 -0.09765535 -0.030204799 0.045617826 -0.10406629 -0.0057215965 -0.12229246
-0.088600814 -0.08752161 -0.042545255 -0.06331883 0.019178407 0.07636824 0.09434331 0.03948609
-0.0006593727 -0.0221764 0.08482715 -0.07168233 0.09044848 -0.12034069 -0.093347736 0.03322487
-0.05154236 0.023262225 0.108953685 0.057139494 0.12238221 -0.052993897 -0.0597096 -0.015862877
-0.025171787 -0.05491907 -0.007722143 0.112835065 -0.06852444 0.07018398 0.05808488 0.07230692
0.033781417 -0.046194173 0.051649112 -0.059002727 -0.07675655 0.11683579 0.10372681 -0.09038819
0.10149273 0.025825698 0.031974845 0.120687984 -0.0066493438 -0.039657027 0.078453034 -0.032287907
-0.030077461 -0.05044258 0.12291463 0.0596816 -0.02028213 -0.0023452132 0.008747179 -0.07413806
0.03535393 -0.0969404 -0.0058190976 -0.023545964 -0.051013608 0.11559576 0.03504839 0.06025366
-0.08222157 0.01991448 0.033491246 0.06503069 -0.0368658 -0.02433591 -0.10138561 0.075934865
0.08336924 0.058858793 0.06358701 0.07497495 0.11778227 0.040954065 0.0450392 0.039326984
-0.07068552 0.031434383 0.037780892 -0.09941538 -0.03703384 -0.07724746 -0.07976646 0.08680637
0.0982687 -0.017316323 0.038308967 -0.02923573 0.026562052 -0.021010526 -0.06505499 -0.0526156
0.12421343 0.021215048 -0.068318926 0.014208606 -0.12466617 0.0012138932 0.09594367 0.014353545
0.029730443 -0.11773125 -0.023527276 0.0737003 -0.09169012 -0.05841427 0.0844755 0.03582813
0.0583063 -0.11667663 0.07954527 -0.027241219 0.026290499 0.10098811 -0.1150691 0.03574841
-0.11304251 0.092463955 0.036664724 0.013940113 -0.0501287 0.047259837 -0.06478804 0.024012055
0.10510622 -0.0938021 -0.035902195 0.029283317 0.02201108 0.0024180156 0.10746713 -0.03282666
0.031624082 0.066342264 -0.023736821 0.082217306 0.0813042 0.05571979 -0.03052803 0.10799289
-0.07204514 0.03889919 0.02507269 0.08821394 -0.1027633 0.021839673 -0.071786664 0.06639757
0.042390164 -0.09753095 -0.0077233794 0.035449535 0.05342545 0.1109335 0.055970542 0.023754945
0.0665207 -0.11807922 0.083045304 -0.014330248 0.07087011 0.03611281 -0.0068657207 0.08807326
-0.07261826 0.03547442 0.05493758 -0.04507912 0.045611326 -0.12364952 -0.063152015 0.060621787
0.06465513 -0.11468504 0.043422174 0.011893125 0.121923774 -0.1225306 -0.029216995 -0.07051457
-0.07560577 -0.020816922 -0.115121424 0.09843737 -0.044733994 0.044023186 -0.07346194 0.00074258615

gru.bias_ih_l0 f4 [192]
00000000: f3e4 94bd d4ca 97bd f59f 9b3d 285b 7e3b
00000010: 69a0 a9bd c6f1 e73d 4a98 21bd a064 f93d
00000020: 2b02 f23d 9471 b03c e449 d1bd bf38 293d
00000030: 432c 4d3b 41f3 7abd 54b0 96bd 440f b2bd
00000040: 81ec a33c f592 563d 5c97 a73c 9935 933d
00000050: 097b 3cbd a016 36bd df93 fc3d acd2 c2bd
00000060: 835a e8bd 2818 f73d 5745 9d3d 3785 a9bc
00000070: b5c7 113d 969e 1dbd 2d95 9abc 3dc9 8a3c
00000080: 74c9 32bd 481f 153c 5b06 42bd fb2d d5bd
00000090: f41a 6d3d b359 bbbd d30d fabd 074a cf3c
000000a0: df21 bc3d 0475 363d eda1 b2bd 0ee6 9a3d
000000b0: 538d 0dbd be03 78bc 1330 983d 31ac 463d
000000c0: 660e 37bd b21f 9b3d 39f5 06bd 3162 09bd
000000d0: 9909 b13d 60a3 e2bc d6dd b438 7115 ee3d
000000e0: 4be3 f63d cc7e e93c 8d1c c53d 3597 94bc
000000f0: 790d 67bd 765f f63d 089d 863d 997b af3d
00000100: 01c6 79bd 790f 863d 0ad9 d03d 9a0e 603c
00000110: 8bda af3d aa62 e5bd abde 483d c144 fbbc
00000120: dadd e83d 66d9 373d c056 ff3d ee37 31bd
00000130: 6e35 263c ea56 b63d 9582 b7bd 23ea 37bd
00000140: f38f ccbd 22ff c0bd 46f0 623d 2f10 1dbd
00000150: 9827 a83d 3f81 363c 86eb 303d 9360 573c
00000160: 3b4f eebd 2807 9bbc 3b76 8cbd 3391 4bbd
00000170: d9a1 d13d 1e5a c6bd 644c bcbd b776 23bd
00000180: ceca 68bd 3055 f53c 4b04 a13d cc6b 9e3c
00000190: 691f 853a 0d70 7a3d 2500 993d e086 913b
000001a0: 692a adbd 3c13 e0bd 69d6 ff3d e6f5 253d
000001b0: c4c5 e53d 0f6f 46bd 9f8b 0c3d c1ac 85bd
000001c0: 5be0 84bd 6f2e 69bd 8067 ff3d b4da b83d
000001d0: f846 9dbd 99d2 b6bd 6bc5 273d 9a8f efbc
000001e0: 54b4 903b 851a 883c 3bf8 dfbd 4318 e13c
000001f0: 5111 09bb 178d b2bd b042 00be 85a9 823d
00000200: 552c fdbd e0ed 7fbd b582 a73d a527 dfbd
00000210: 3637 75bd 0562 88bd c84a 8e3d d8cc 313d
00000220: 9a1a 733c 4df1 3f3d 48f9 fd3c 5b88 90bc
00000230: 152a 31bc e7f1 b7bd adb0 6fbd 451a cfbb
00000240: 8ede f4bc 3796 433d 29c8 973d a511 903d
00000250: ef13 df3d 7eff b3bc c2dc 153d 7162 e2bd
00000260: 8957 933d fc40 dcbc b3a5 dbbd 81bc a4bd
00000270: afc2 e3bd 940b d0bc f98b 803d 5428 a5bd
00000280: 460f 7cbd 9465 12bc 4935 6b3d 5f36 21bd
00000290: 0794 ef3c 79de a5bd e04e 9c3d ce5e 01be
000002a0: 7d7b b0bd a19e 063d f129 cf3b 8b1d ac3d
000002b0: 8c88 723d bc36 d2bd 493d cd3d 20e8 65bc
000002c0: 3ec3 5abc e2b7 00bd 681e 8dbb e49f ddbd
000002d0: e06c 2a3c 4884 b13d ee39 32bd 7242 ca3d
000002e0: 33ee 7bbd 30ea 5d3d 0872 793c de17 2abd
000002f0: 487f e53d b146 13bc 4b46 473c 06fc a8bc
-0.07270231 -0.07411733 0.07598869 0.0038811658 -0.08282549 0.113254115 -0.039451875 0.12177396
0.1181682 0.021538533 -0.10219172 0.041313883 0.00313069 -0.06126714 -0.07357851 -0.08694318
0.020010235 0.052386243 0.020457916 0.07187957 -0.046015773 -0.04445517 0.12332892 -0.09512839
-0.11345389 0.12065154 0.07679241 -0.020693405 0.035590846 -0.038481317 -0.01886996 0.016941661
-0.043649152 0.009101696 -0.047369342 -0.10409161 0.057887033 -0.09147968 -0.12209668 0.025303854
0.09186148 0.04454519 -0.08722291 0.07563411 -0.034558605 -0.015137611 0.074310444 0.04850406
-0.044691466 0.07574405 -0.032948706 -0.03354091 0.08644409 -0.027665794 8.624389e-05 0.116251834
0.120550714 0.028502844 0.09624586 -0.018138507 -0.056409333 0.120299265 0.0657292 0.08568496
-0.060979847 0.0654592 0.10197647 0.013675356 0.08586606 -0.11200459 0.049040478 -0.030672433
0.1137044 0.04488506 0.12467718 -0.04326623 0.010144575 0.08903296 -0.089604534 -0.044901025
-0.09988394 -0.09423663 0.055404924 -0.038345512 0.08210677 0.011139213 0.043193363 0.013145584
-0.11636206 -0.01892431 -0.06858488 -0.04969902 0.10235948 -0.09685157 -0.09194258 -0.039908137
-0.056834035 0.029947847 0.07862147 0.01933851 0.0010156456 0.061142016 0.07470731 0.004441127
-0.08455355 -0.10941169 0.12492067 0.04051771 0.112193614 -0.048445757 0.03431284 -0.06527091
-0.06488105 -0.05692905 0.12470913 0.09026089 -0.07679552 -0.08926887 0.040959757 -0.02924328
0.004416028 0.016614208 -0.10936018 0.02747739 -0.0020914862 -0.08718317 -0.1252544 0.063799895
-0.12361971 -0.062482715 0.08179227 -0.108962335 -0.059867106 -0.06659321 0.06947857 0.043408245
0.014837885 0.04686098 0.031002656 -0.017643144 -0.010813256 -0.08981686 -0.0585181 -0.0063202702
-0.029891279 0.047750678 0.074112244 0.070346154 0.10892474 -0.021972414 0.036587484 -0.110539325
0.071944304 -0.026886456 -0.10724964 -0.08043767 -0.11121117 -0.025396146 0.06276698 -0.080643326
-0.061538003 -0.008935351 0.057423864 -0.039358493 0.02924539 -0.08099074 0.07632232 -0.12633821
-0.086173035 0.032866124 0.0063221385 0.084040724 0.059212252 -0.10264346 0.10021455 -0.014032394
-0.013352213 -0.031425364 -0.004306603 -0.10821512 0.010401934 0.08667809 -0.043512277 0.09875955
-0.06150646 0.054178417 0.015224941 -0.041526668 0.112059176 -0.008989022 0.012162755 -0.020627987

gru.bias_hh_l0 f4 [192]
00000000: 9cb7 cdbb e2e5 ce3d 273c 9abc 060a 973d
00000010: ee39 3a3d 9a9a a83d 2a02 c2bd de42 e2bd
00000020: 1a1b 2bbd 0629 0fbd f67c f43d 167e fc3d
00000030: a5af f0bc f176 74bd 1b3c 363a b987 443d
00000040: 50e7 313d be3e c33c 55bc ba3d 7a4c 523c
00000050: 465e ce3d 9092 fe3c 886e 26bc 146a d43d
00000060: ee99 bd3b db04 833b c56b cbbc 95cd 963d
00000070: 9696 22bd ce77 c93d f77e 853d 1ac4 1cbb
00000080: 6aa9 adbc 7cef 493d 01d3 fabd 52f3 2bbd
00000090: dc93 36bd 9217 77bc d8e3 74bd 26cf 5abd
000000a0: 4127 753d 2e32 46bc 5bec aebd cb32 0ebc
000000b0: 7502 2c3d 522d 4ebd 3f96 d93d 4bf9 b2bd
000000c0: ad9e dd3d 093e 443d e167 92bd 3e32 f2bd
000000d0: 89ad 483d 40f5 b9bc 344b 223d 10cc 573d
000000e0: bde9 acbd 5067 613c 73f5 c7bc a38a e7bd
000000f0: 47c4 bd3c d38c f63c 9090 c3bd f73f f13d
00000100: d74c 853d 8998 913d 74c4 dfbd f4ad d9bd
00000110: d59c 673d c4bc 963d a95b dcbd f33d f63d
00000120: d0a8 e0bc 4f05 d0bd faf7 b9bd 6e0d ecbc
00000130: 48f5 833d 2873 b0bd f13e be3d 1429 fd3d
00000140: 91f0 f03d 4475 673d 4afe 50bd d311 45bd
00000150: d68e b83d f623 d9bc 8de7 953c dd8b ff3d
00000160: f5df fcbd 2877 eabc 662a 4abd 6b3d a7bc
00000170: cc16 e33b 3bd8 debc fa21 f73d d55d 503d
00000180: 98a0 a3bd bb33 f63d 559a 14bd 5c2c 913c
00000190: d4bf 2b3c 6de8 b9bd 6f5e 823d 846f 9bbd
000001a0: 6d5e e4bd 6ca3 d43d 6fa8 993d 36e0 56bd
000001b0: 3ad6 bbbd 8c38 e63d 8bd0 343d 6dcb a8bd
000001c0: 9fd1 d2bd 7fb9 52bd 76b8 8ebd 87df 023c
000001d0: 992f 463c bdbb fcbd b7c8 7f3d 0be4 823d
000001e0: 622e ebbd 142b cf3d 1181 4bbd 197f 833d
000001f0: 380a f93d cd40 983d 2a89 a83d ae49 8f3b
00000200: 45a5 693c d0c5 e0bd aadb b2bd 7a1d b23d
00000210: baff efbd 27bb 743d 7c7e 9bbd cd2e dc3d
00000220: 6c12 bd3d 8581 d6bc 6c0d 9fbc 5d6e a7bd
00000230: 85d6 ec3d 5a17 a5bd c1bd 323d c3c2 a73d
00000240: 9c2f 04be 8d07 e6bd 36e0 a0bd e01f 04bd
00000250: aa8f 943d 8e61 36bd d6bd 64bd 1ab6 9e3d
00000260: 8e68 c73d 3e5a 903d 8f35 d63d 348b d0bd
00000270: faf2 f3bd 3616 153d 9cc0 d6bd 1f97 d0bc
00000280: 8ede 513d 9f7b 013e 2704 a1bc d44a d8bd
00000290: c348 a5bd 2beb f33d a7c4 b3bc 7e55 efbd
000002a0: 4454 87bd ec05 aebd be3c 1ebd 7576 bebd
000002b0: 92b2 3fbd fffd eb3d d546 6fbd c612 94bc
000002c0: b40f 9c3d f3cd d7bd cfaf 67bd ba53 c6bb
000002d0: 2f35 c93d b1f7 523c 11cf 05bc 5a1e 24bd
000002e0: 2907 6e3d edc2 4bbd 04e3 97bc c7c3 4fbd
000002f0: 897f 293d b486 ec3d 1388 babd b23b 4ebc
-0.0062779915 0.101024404 -0.018827511 0.07374959 0.045465402 0.08232613 -0.09473069 -0.1104791
-0.041773893 -0.034951232 0.11937897 0.123287365 -0.029380629 -0.059683744 0.00069517054 0.047980998
0.043433487 0.023833629 0.09117953 0.012835616 0.10076575 0.031075746 -0.010158189 0.10371795
0.005786172 0.0039983816 -0.024831662 0.073634304 -0.03969439 0.09837304 0.06518357 -0.0023920597
-0.021198947 0.049300656 -0.12247277 -0.041980095 -0.044574603 -0.015081303 -0.0597876 -0.05342021
0.05985189 -0.012096925 -0.08541175 -0.008679102 0.04199453 -0.05033619 0.1062436 -0.08738955
0.10821281 0.047910724 -0.071487196 -0.11825989 0.04899362 -0.022699952 0.0396225 0.052684844
-0.084430195 0.013757542 -0.024409031 -0.1130574 0.023164881 0.030096447 -0.095490575 0.117797785
0.06508797 0.07109172 -0.10926142 -0.10628882 0.05654605 0.07360223 -0.1075967 0.120235346
-0.027424246 -0.101572625 -0.09080501 -0.028814998 0.06443268 -0.08615714 0.09289349 0.12361351
0.117646344 0.056508318 -0.05102376 -0.0481127 0.09011619 -0.026506405 0.018298889 0.12477849
-0.12347404 -0.028621271 -0.04935684 -0.020415029 0.006930208 -0.027202716 0.120670274 0.050870735
-0.07989615 0.120215856 -0.036279995 0.017721348 0.010482747 -0.09077535 0.06365668 -0.07589629
-0.11150823 0.10382733 0.07502829 -0.052459918 -0.0917172 0.11241254 0.044144195 -0.082419254
-0.10293888 -0.051446434 -0.06968777 0.007987863 0.012096309 -0.12340496 0.062447276 0.06391152
-0.11483456 0.101156384 -0.049683634 0.06420726 0.12160152 0.07434235 0.08229287 0.004372797
0.014260595 -0.1097523 -0.08733304 0.086970285 -0.11718698 0.059748795 -0.07592484 0.10751114
0.09232029 -0.026184807 -0.01941558 -0.08175347 0.11564354 -0.080610946 0.043637995 0.08191445
-0.12908787 -0.11231909 -0.07855265 -0.03225696 0.07253964 -0.04452663 -0.055845104 0.07749577
0.09736739 0.07048462 0.10459434 -0.10182801 -0.119115785 0.036398135 -0.10485956 -0.025462685
0.051237635 0.12644814 -0.0196553 -0.10561147 -0.08070519 0.11910089 -0.021944357 -0.11686228
-0.06607869 -0.08497223 -0.038632147 -0.09299938 -0.046801157 0.11523055 -0.05841716 -0.018075358
0.07620183 -0.105373286 -0.05656415 -0.0060524615 0.09824597 0.012876437 -0.008167044 -0.040068008
0.058112297 -0.049746443 -0.018540867 -0.050723817 0.041381393 0.1154913 -0.09107985 -0.012587475

gru.weight_ih_l1 f4 [192, 64]
00000000: c7fa 17bc 5402 80bd b806 b6bd 6041 5abd
00000010: d6b0 c7bd 64cb c13d 5cb3 b4bd 3c81 9c3d
00000020: d240 d43d 8009 bdbc a2b1 ed3d 71d7 b83d
00000030: d80e b2bd 8001 923d e726 033d 5063 ca3d
00000040: ecc2 c1bd 17dd c63d 940f 8e3c ec9d 793d
00000050: 621e 8dbd ddb6 a83d 02f4 18bc 734f d33d
00000060: 5d89 303c dbe4 9e3d 105d a2bd b4d5 e3bd
00000070: 39d6 313d 67a1 873d 7819 0e3d 2327 213d
00000080: b71c a93d 0e07 84bd cfac 893d 8221 753d
00000090: de4f 5abd c425 98bd 4262 fdbd b26b bc3d
000000a0: aee1 02bb a79a e93c b0de b4bd ee28 c0bd
000000b0: d7d1 d13d 0dfc b43d dc68 8a3d 2c90 cc3d
000000c0: dbf0 cc3d 5164 973d c184 b83d 25b3 81bc
000000d0: 1ce1 043d bbb1 dabd e78d 39bd 6441 40bc
000000e0: 0417 d9bb a500 fd3d ac3f d13d fe78 203d
000000f0: b098 ef3d d8df 82bd 5ac9 c83c 2e2e cbbd
00000100: e9ba d9bd 35ae 883d d2dc 263d dd34 d5bb
00000110: f155 a6bd 395a b73d d89e 13bc df6f af3d
00000120: 3005 b0bd 9bbb c53d 38bb cebb e6a6 20bd
00000130: 17d4 25bc 5c5e c5bd adab babc 05d7 033c
00000140: 1f82 bebd 5d0e 8a3d ffaf f23d 7efb 843d
00000150: c95a 7abd cbbc 9fbd b83a cbbd 9f7c 9ebd
00000160: 501e 9a3d 5451 6c3d 2ae6 3fbd bc07 b03a
00000170: 19cc a2bc 4a2d be3a 97e7 fdbd ab07 d83d
00000180: 8876 2ebd b25a dcbd 3717 efba b4bb 163d
00000190: 9b6a 6b3d fbbe 81bd c2cd 10bc dd9d c0bd
000001a0: d864 c1bd 952d a9bd 2036 a1bd a2a2 a13d
000001b0: 7f7f e7bd 44e1 d2bc f24d 54bd 0e03 a83d
000001c0: 4101 0fbc 51f8 8dbd ac80 cf3d 666a c2bd
000001d0: 38c1 40bd 8445 e8bd dfb2 27bc 039e 103d
000001e0: d81b df3d b156 b9bd 27db a9bd 698c fe3d
000001f0: 692b b83c 5dc1 adbd d1bf 5b3d 2338 f73d
00000200: d742 953b 92c3 6abd 56e8 88bd b667 38bd
00000210: 407f 823d ce6e b5bd 48c8 e83d ab56 9ebd
00000220: 89db 0f3d 166c fe3d 187b 62bd 145f abbd
00000230: 45a5 84bd bac2 56bd 4224 9dbd d231 fcbd
00000240: eb6c 83bd 5258 32bd ca93 dd3d cc24 afbc
00000250: d7f4 6f3c cf5f 20bd d62d 9f3c d31d 743d
00000260: 373e b33c b527 7bbc d01e 2c3c f06b f13d
00000270: 4484 aabd d942 fb3d 1994 e3bc 8e96 b63d
00000280: 393e c63d 5835 8b3b 4c2e 373b 9279 b13d
00000290: 8893 8ebc 96af 0c3d e104 f53d 238b cabc
000002a0: fc6b 34bd b088 c63d 200e e63d 0999 f53d
000002b0: 5e83 f1bd 0b89 a83d 150c 7c3d 823b a3bd
000002c0: c23b a73d e561 89bd 1047 873d 05c1 2e3c
000002d0: 5b5d 213d 3b43 9dbd 45fa c6bc 2831 8bbd
000002e0: 9037 8b3d 7f2f cbbd 1f2e 0f3c b68a 453d
000002f0: 8e49 3abb 9136 1abd 325f e93c 0c67 203c
00000300: 7b1f 8dbd d80a 0bbd a1f7 dfbc ab51 90bd
00000310: 84a6 493b 4847 1fbd dfc6 90bd 6161 cfbd
00000320: 61e4 a6bd 6845 dfbc 21be cc3d b5d4 71bc
00000330: b373 89bd 2937 c3bd c9d6 ae3c 6bab d93d
00000340: 65a6 e6bd 7d59 c53d bba7 e43d c9b8 e73c
00000350: 6067 7f3d 7f19 183d 38d8 dfbd a13b 4cbd
00000360: 5891 efbc ba93 98bd 3bcd 80bb 02e7 d73c
00000370: e8ef 8b3b dab3 8b3d 31de 96bd 4e62 d73d
00000380: 5609 50bd 1132 cd3d dc31 e83d 5f1f d1bd
00000390: 234c f5bd 06e8 bd3d dee3 c23d 2a52 5bbc
000003a0: 365d d43c 66ee 963c 9146 1cbd 62b5 863d
000003b0: 00d1 2c3d d30a f7bd fd3c 0dbd 6ef8 97bd
000003c0: cde9 5b3d b298 ffbd 0516 dcbd d6bb e1bd
000003d0: 29d0 2fbd e47a c5bd 2757 ccbc 48a8 91bd
000003e0: c1a3 a43d a1a4 e03d 6808 463d 4ac9 46bd
000003f0: df0b 513d bfe0 dbbd 9c1b 80bd 6cf1 d6bc
-0.009276099 -0.06250444 -0.08888 -0.053285003 -0.09750526 0.09462622 -0.088232726 0.07641837
0.10363926 -0.023075819 0.116061464 0.09025467 -0.086942375 0.07129192 0.032019522 0.098822236
-0.094610065 0.09710138 0.017341413 0.06094162 -0.06890561 0.082380034 -0.00933552 0.10317888
0.010774937 0.077584945 -0.079279065 -0.11124745 0.04341719 0.06622582 0.034692258 0.039343964
0.0825743 -0.06446658 0.06722414 0.05984641 -0.053298824 -0.07429078 -0.12372257 0.09200229
-0.0019970941 0.028516127 -0.08831537 -0.09382807 0.10245102 0.08837137 0.067582816 0.09988436
0.10006877 0.07392181 0.09009696 -0.015832493 0.032441244 -0.10678431 -0.045301344 -0.01173434
-0.006625058 0.123536386 0.102172226 0.039177887 0.11699045 -0.06390351 0.024510074 -0.099209175
-0.106313534 0.06673852 0.040737934 -0.006506546 -0.08121861 0.089527555 -0.009010039 0.085662596
-0.085947394 0.096549235 -0.0063089393 -0.039221667 -0.010121367 -0.09637138 -0.02278694 0.00804687
-0.093021624 0.06741021 0.11849975 0.06493281 -0.061121736 -0.07799681 -0.09923309 -0.07738613
0.07525313 0.057694748 -0.04685036 0.0013430039 -0.019872712 0.0014509347 -0.12397688 0.105483375
-0.04259351 -0.10759486 -0.0018241171 0.0368001 0.057474714 -0.06335255 -0.008838119 -0.0940511
-0.094430625 -0.08260647 -0.07871652 0.07892348 -0.11303615 -0.02574218 -0.051832147 0.08203708
-0.008728326 -0.06932128 0.10131964 -0.0949295 -0.047059268 -0.11341384 -0.010235517 0.03530694
0.10893983 -0.09049738 -0.08293753 0.12429125 0.022481637 -0.08484147 0.053649727 0.12071254
0.004555087 -0.057315417 -0.066849396 -0.04502078 0.06371927 -0.08859025 0.113663256 -0.07731374
0.035121474 0.124229595 -0.055293173 -0.08367744 -0.06476835 -0.0524318 -0.07672931 -0.1231419
-0.06417259 -0.04354126 0.10819204 -0.02137985 0.014645777 -0.03915387 0.019431036 0.059598755
0.021880252 -0.015329291 0.010505393 0.117881656 -0.08326009 0.122686096 -0.02778058 0.08915435
0.09679837 0.0042483024 0.002795118 0.08665766 -0.017404333 0.03434714 0.11963821 -0.024724549
-0.044048294 0.0969404 0.11233163 0.1199208 -0.117926344 0.08229264 0.06153496 -0.079703346
0.08165695 -0.06708125 0.06605351 0.010666137 0.03939567 -0.07678839 -0.02428926 -0.06796485
0.06797707 -0.099211685 0.0087390235 0.04822799 -0.002842519 -0.037649695 0.028487775 0.009790193
-0.0689077 -0.03394589 -0.027339758 -0.07046827 0.0030769417 -0.03888634 -0.07069182 -0.101259954
-0.081490286 -0.027254775 0.09997202 -0.014760186 -0.06711521 -0.09532005 0.021342652 0.106283985
-0.11262206 0.09636209 0.111648045 0.028286355 0.062354445 0.03713369 -0.10929912 -0.049861554
-0.02924411 -0.074500516 -0.0039307154 0.02635527 0.0042705424 0.06821413 -0.073665984 0.10516797
-0.050790153 0.10019315 0.11337635 -0.10211062 -0.119774126 0.092727706 0.095161185 -0.013386289
0.025923353 0.018424224 -0.038153235 0.06577565 0.042191505 -0.120626114 -0.03448199 -0.07420431
0.053689767 -0.12480296 -0.107463874 -0.11022155 -0.042923126 -0.0964258 -0.024943901 -0.07112175
0.08039046 0.109689005 0.04834786 -0.048531808 0.05103671 -0.10736226 -0.06255266 -0.026238166

gru.weight_hh_l1 f4 [192, 64]
00000000: 8a30 893d 95ef 723d c5e6 eebd efe1 d9bd
00000010: b6b8 b4bd 2593 e13d 16c4 f5bd c36b c5bd
00000020: 1063 8b3c ed87 c9bd cb96 88bc c7a6 5c3d
00000030: 2dea 03bd 4f9f 83bd 786d b03d 0696 b0bd
00000040: 7b87 0bbd 1abb cebd 1396 d8bd a20e 88bd
00000050: 1eb5 f23d f9e6 d33d 0e3f 833d 750b a7bd
00000060: e250 57bd 5bb1 bfbd 9a4f 1c3c 85e4 6bbb
00000070: 4005 e23d 408a b13d a39a ae3d 3db0 ffbb
00000080: 3688 dd3d 91f3 99bd 120c e33d 83db ca3d
00000090: 93c9 bfbd 5869 8f3d 9639 e73a ee8d aa3c
000000a0: 6059 a3bb 58ae a9bd d600 a13d 001b b73c
000000b0: b6d1 f4bd c36c a6bd 9f34 1fbc 7da1 c2bd
000000c0: 491d 94bc b5cd d03d c534 ec3d fbed 6abd
000000d0: 8fbb f03d 5d95 77bd 562b 65bd e78a ec3c
000000e0: f7c1 db3d 51dd 91bd a03a cb3c c90c fd3d
000000f0: c5c0 e03d 832f 1c3d d8e2 553d ee8f 4e3a
00000100: 9c7e d0bc c1f9 e63d 3e7b a03d bbe2 c63d
00000110: a0fa 00bd e36d f63d 8b92 f13a de14 823d
00000120: aa08 9dbd 55fa 923d 06dd a4bd b58c 92bd
00000130: 50ed 783d 8074 78bd 4db8 c0bd d920 863d
00000140: a706 983c d81f cd3d 0a45 1e3d 0a6c 233d
00000150: bc0a 6ebd 8aa3 c4bd e323 8b3d 3924 4cbc
00000160: ac69 6dbd bc18 cdbd ca72 7cbc bae8 64bd
00000170: e144 c23d 1290 b4bd 60ac b9bd 1db1 ea3b
00000180: 7ae3 2dbd f7c6 e1bd b23a b93d be32 a53d
00000190: 9ff4 ffbd aab1 ba3d e2b3 ecbc 60a1 12bb
000001a0: 8279 b5bd 53af 953d 749a 193d 1597 6abd
000001b0: 6adf 30bd 7faa 9cbd dfba c1bd dfaf 98bd
000001c0: e237 da3d f3ed bebd 6167 6ebd 66eb 4a3c
000001d0: 70bb 973b eb9b e73d 23fb bebd 5ce9 f13d
000001e0: cc27 ddbd dc24 acbd 4f82 fe3d 753c 823d
000001f0: 7e85 4fbd 3b4e 9cbd c72b 69bd 52bb 93bd
00000200: fd99 69bd 43c3 f93d 7a87 b0bd 260f d6bd
00000210: 0fbf ba3d 5b72 85bd 2e5f d93d 270c c5bd
00000220: 7d2c 923d f0c1 b3bd ab65 fcbd fa21 60bd
00000230: aebe de3c 2da8 4e3d cf71 4cbd ce62 463d
00000240: d6f1 9ebd 43a0 78bd e629 723d 9014 b63d
00000250: 38b0 f13d df37 efbd cfc5 acbd 1906 b23d
00000260: ae37 9dbd 0781 b2bd 9040 a1bd 2db5 3f3d
00000270: 3bb4 c5bd 0da9 a4bd b81d 25bb 4f64 e03c
00000280: 87b8 e53c 4bc3 70ba 5811 a43d 6e39 a6bd
00000290: 22b3 8dbb 393d 24bd ce70 5dbc edee cbbd
000002a0: f98d 923d 8503 663c 709e 733d 3f09 a4bc
000002b0: 94e8 8dbd 59de 023d 70a2 a13d 4ece e83d
000002c0: 4624 463d 5d4d 50bd 59e1 e7bd 62c2 aa3d
000002d0: 7217 6e3d da27 ff3d 0f62 e9bd de4b 54bd
000002e0: f724 dabd 0fcb 9c3c 241e c0bc eb05 c43d
000002f0: 301f 93bd 47f4 b33c 49c3 f5bd cbe4 15bd
00000300: 0c64 c4bd f67a 233d c79d fd3d 8b61 4bbc
00000310: 4801 9d3c 7f9d 9bbc e980 0d3b 9284 c3bc
00000320: ac3d 063d f2aa 233d a0d7 ef3d 6284 a83d
00000330: a216 763d 93b9 d0bd b0b1 a7bd 49c7 95bd
00000340: 3be4 c0bc d9cf bc3b f861 d33d bc28 c7bd
00000350: ad87 073d dc5e 43bc af85 893c a0fe ef3c
00000360: b348 543d 13dd 19bc 6884 83bc 840d 733c
00000370: 8e68 b6bd 560b 983d 8d53 ab3d 3255 b0bd
00000380: 9fda a9bb a8c3 cbbd 047a a6bd bed0 b73d
00000390: 11ae d03d 9310 c53d e1a2 413c e8ef fd3b
000003a0: 520a 4a3d 81f7 b1bc 785e 2e3d 73de d13d
000003b0: f1d3 9a3d 4638 92bd 175d eebd ac55 93bd
000003c0: 3345 c2bd a598 8dbd b2e3 bdbd 227d afbd
000003d0: 66e8 163b c652 d93d de1c a6bc 4aad d1bd
000003e0: 16a2 f73d 3a4a 77bd 8b0a f5bd d59f aa3d
000003f0: 8b56 0bbd d2b2 d4bd 9298 08bd cb7f 9dbd
0.06698711 0.059310514 -0.116651095 -0.106387965 -0.08824293 0.11014394 -0.12000291 -0.096396945
0.01701501 -0.09840379 -0.016673466 0.05386999 -0.03220575 -0.0642687 0.086146295 -0.08622365
-0.03406475 -0.100942805 -0.105754994 -0.06643416 0.118509516 0.10346789 0.06408511 -0.08156482
-0.05256737 -0.0936 0.009540463 -0.0035994363 0.110361576 0.08668947 0.08525588 -0.0078029917
0.10816996 -0.0751716 0.110862866 0.0990515 -0.09364619 0.070025146 0.0017641063 0.02081963
-0.0049850196 -0.082852066 0.078614876 0.022351742 -0.11954062 -0.081262134 -0.009717136 -0.09503458
-0.01808037 0.101954855 0.115335025 -0.057355862 0.11754524 -0.06044518 -0.05594953 0.028874828
0.10730355 -0.07122291 0.024808228 0.12355954 0.10974268 0.03813125 0.05221829 0.00078797236
-0.025450997 0.112781055 0.078360066 0.09711214 -0.031489015 0.12032678 0.0018430514 0.06351636
-0.07667668 0.07176653 -0.080499694 -0.07155744 0.060773194 -0.060657978 -0.094101526 0.06549234
0.01855786 0.10015839 0.03864006 0.039897956 -0.058115706 -0.09601505 0.06793954 -0.012459808
-0.057962105 -0.10014483 -0.015408227 -0.055886008 0.09485794 -0.08816542 -0.09066081 0.007162227
-0.042453267 -0.11024278 0.09044398 0.08066319 -0.1249783 0.09115918 -0.028894369 -0.002237402
-0.088610664 0.07308831 0.037500814 -0.05727299 -0.043181814 -0.07649707 -0.09459471 -0.0745542
0.1065519 -0.09322729 -0.05820406 0.012385225 0.0046304986 0.11309036 -0.09325244 0.11812088
-0.10798606 -0.08405468 0.12427198 0.063591875 -0.050664417 -0.07632109 -0.056926515 -0.07213463
-0.05703162 0.12195446 -0.0861959 -0.10452108 0.09118473 -0.06515952 0.10613857 -0.096214585
0.07137392 -0.08777225 -0.12324079 -0.054719903 0.027190533 0.050453354 -0.049913224 0.04843407
-0.0776097 -0.060699712 0.05912199 0.08890641 0.11801189 -0.116805784 -0.084361665 0.08692569
-0.07676636 -0.08716016 -0.078736424 0.046803642 -0.09653517 -0.080400564 -0.0025194716 0.02739158
0.028042091 -0.00091843744 0.080111206 -0.081164226 -0.004324333 -0.04009745 -0.013515664 -0.09957681
0.071559854 0.014038925 0.05947727 -0.02002394 -0.069291264 0.03195033 0.078923106 0.113674745
0.048374437 -0.05085503 -0.113222785 0.08337857 0.058127828 0.12458773 -0.11395656 -0.051830165
-0.10651582 0.019139795 -0.023451872 0.09571441 -0.07183683 0.021967066 -0.12000138 -0.036595147
-0.09589395 0.039912187 0.12383609 -0.012413393 0.01916565 -0.018995998 0.002159173 -0.023866925
0.03277366 0.039957948 0.11711049 0.08228375 0.060080178 -0.101916455 -0.08188188 -0.07313401
-0.023546329 0.005762082 0.103214204 -0.09724566 0.033088375 -0.011924472 0.016787378 0.02929622
0.051827144 -0.009391087 -0.016054347 0.014834765 -0.08906661 0.07424037 0.083655454 -0.0861
-0.0051835324 -0.09949428 -0.081287414 0.08975361 0.101894505 0.09622302 0.0118186185 0.0077495463
0.04932625 -0.021724464 0.04257056 0.10247507 0.07559956 -0.071396396 -0.11638849 -0.07194075
-0.09485855 -0.0691388 -0.09271945 -0.08568789 0.0023026704 0.10611491 -0.020277437 -0.102381304
0.12091462 -0.060373522 -0.119649015 0.08331267 -0.03401808 -0.1038567 -0.033348627 -0.0769039

gru.bias_ih_l1 f4 [192]
00000000: 3252 efbd f855 1ebd 69ff 7f3d 230e b03d
00000010: 5670 4d3d 64ac 2fbd ff7d 8d3d 9d78 cc3d
00000020: 6910 eebd 5a2c 39bd 8362 c0bd 5dc7 dabd
00000030: 61c6 603d 5d28 cb3d 874f a9bc bb1e 05bd
00000040: 86ba 55bb c814 debd a364 b73d 6c2d 41bc
00000050: 97b0 993d 8be3 ea3d bc82 ab3d 8bc8 313d
00000060: 3044 dfbc ab37 24bd 0b45 fe3d d36c c0bc
00000070: 3809 ea3d 2928 c5bd f517 eebd 62bc e53d
00000080: 7d9d 883d 2170 e6bd 09c8 253d 4ce9 9dbd
00000090: 0949 a53c 6284 753c eebf 79bd a2d8 ebba
000000a0: 360e 6dbd 7bcf 9e3d cdeb 9dbd d89b ff3d
000000b0: 5e01 85bd 64d9 d53d f6a2 e63d 8c67 2c3d
000000c0: 8ccf 233d 182f ddbd b4a4 46bc 07b5 853d
000000d0: 8ea3 4bbd 6842 06bd 7ed6 f5bc 2fa1 0dbd
000000e0: 5039 29bd d01b 673d d177 ff3c 6457 3cbd
000000f0: 0473 80bd d654 b5bd 67d9 fbbd 2c50 f3bc
00000100: 05a4 88bc 0930 473d ea94 85bd ae84 323d
00000110: 4495 1fbd e28b 543d ffa8 cf3d 18ec b23d
00000120: e5bb f33d b7ca 1e3d afcf 063c 1094 843d
00000130: 0ba2 e1bd dcb5 d23d b0e3 5cbd ed0e ffbd
00000140: 2089 823d d3fc a6bd 5f0b 9d3c d68e 59bd
00000150: 7d6c f4bc 13c1 b1bb 341d bb3d 2dde fdbd
00000160: 8423 7ebd d0fe 693d 40a0 de3d ebd5 f43d
00000170: b714 d8bd 0af2 5bbd a78f 09bd bfac 13bd
00000180: cd07 ab3c 7c6c 4d3d e528 a6bb ce47 d83c
00000190: 7486 da3d 896a e5bd acd7 693d 8a05 75bd
000001a0: e6cf c53b 1651 b63d f00e 303d 1103 6e3c
000001b0: 16f2 85bd a4d2 0e3d 69bb 8abb 4162 fd3d
000001c0: 1e0c d03d cd2a 06bd 6bd2 953d 0ea9 213d
000001d0: f85f 943d 8cdd 19bd ac85 e2bb 6396 123d
000001e0: bb61 c03c 810a cdbd 7850 043d 2a03 f83d
000001f0: 166a 8bbd fb09 b83c 444a acbc 08fe 99bd
00000200: cf74 f63a eccb bd3d 61fb 88bd 6bb2 54bd
00000210: bb9f 63bd 6275 20bd 4793 b1bd f7ed 7a3d
00000220: 41e9 b23c 81da 843d a011 003d 2638 843d
00000230: 1378 f63d b151 09bd c992 de3d 59d4 cd3d
00000240: 98fe 7dbd 115c dcbc 94c7 31bb 5dca 8d3d
00000250: 186d 0f3e 3597 04bd 1885 b93d 969b 55bb
00000260: 3753 b93c 1598 003e a565 31bd 4dd4 69bc
00000270: c3ba 123c 3e64 e8bc 6f79 453c e60c 2239
00000280: b309 933d 32c4 b83d 7b2b 1fbd 6272 02bc
00000290: 649e 54bd 016b fcbd 5960 f83d cce6 97bd
000002a0: 0cb9 093e b959 b3bd 5832 0e3c 2d0e bbba
000002b0: a4d9 903d f1bd 6c3d 403c b4bd 4974 623d
000002c0: a8ce 98bd 9bb4 ca3d 0270 443d 4c02 c33d
000002d0: ca6d 2ebd 6615 c93d e931 acbd eb14 c93c
000002e0: c7d0 a33c d984 113d 095b b03d a4be 71bd
000002f0: d68e b3bd eeae 7ebd b8c6 aa3d 55a4 7c3d
-0.116855994 -0.038656205 0.062499437 0.08596446 0.05015596 -0.042889014 0.069087975 0.09983943
-0.11624224 -0.045208313 -0.093937896 -0.10682557 0.05487669 0.09919808 -0.020667804 -0.03250001
-0.0032612397 -0.108438075 0.08954742 -0.011790615 0.07504385 0.114691816 0.08374545 0.043404143
-0.027254194 -0.04009215 0.12415513 -0.023489391 0.114275396 -0.096268006 -0.11625663 0.11217572
0.066706635 -0.11251856 0.04047397 -0.077105135 0.020176427 0.014985176 -0.060974054 -0.0017993639
-0.05787488 0.077544175 -0.07710991 0.12480897 -0.064944014 0.104418546 0.11261551 0.042090937
0.039992854 -0.10799998 -0.012124229 0.06528669 -0.049716525 -0.032778174 -0.030009504 -0.034577545
-0.041314423 0.05642301 0.031185063 -0.04598178 -0.062719375 -0.08854072 -0.122973256 -0.029701315
-0.016679773 0.048629794 -0.06522544 0.043583564 -0.03896071 0.051891215 0.10139655 0.087364376
0.119010724 0.038767543 0.008228227 0.06473553 -0.11017235 0.10288593 -0.053928077 -0.12454019
0.06373811 -0.08153691 0.019170461 -0.053114735 -0.029836887 -0.0054246276 0.091364294 -0.12395892
-0.06204559 0.057127774 0.10870409 0.11954864 -0.10550826 -0.053697623 -0.033584263 -0.036053415
0.020877743 0.050152287 -0.005070793 0.026401427 0.10670176 -0.112019606 0.057090446 -0.059819736
0.0060367463 0.08902185 0.042982996 0.014527098 -0.06540315 0.03486885 -0.004233767 0.12372256
0.10158561 -0.03275566 0.07315525 0.039467864 0.07244867 -0.0375648 -0.0069129076 0.03578795
0.023484102 -0.10011769 0.032303303 0.121099785 -0.06807344 0.022465697 -0.021031506 -0.07519156
0.0018803122 0.09267411 -0.06688572 -0.051927965 -0.055572253 -0.039174445 -0.08670669 0.061262097
0.02183974 0.06486989 0.03126681 0.06456022 0.12034621 -0.033525173 0.10867841 0.10050268
-0.062010378 -0.02689937 -0.0027127014 0.06923363 0.1400646 -0.032370765 0.09058589 -0.0032593957
0.022622688 0.12558015 -0.043309826 -0.014271808 0.00895566 -0.028368112 0.012052878 0.00015454329
0.07179584 0.09021796 -0.038859826 -0.007961841 -0.051908866 -0.12325097 0.12127752 -0.07417068
0.13449496 -0.087573476 0.008678995 -0.0014271192 0.07072762 0.05779833 -0.08800554 0.05528668
-0.074612916 0.09897729 0.04795838 0.095219225 -0.04258517 0.098185346 -0.08407957 0.024546107
0.019997014 0.035527084 0.086111136 -0.0590197 -0.08767478 -0.062178545 0.08338684 0.061680157

gru.bias_hh_l1 f4 [192]
00000000: fd03 5c3c 0e99 b03d 011e b03d 1790 f9bd
00000010: ffc6 94bd f8b6 1bbd 3cbb 4cbb 1e65 29bd
00000020: 7843 69bc cce3 e13d 4345 98bb a52c be3d
00000030: f9f1 87bd 55d8 22bd f8c9 e9bb 8c96 b3bb
00000040: e671 d83c 6082 b83d 7bbd d7bd 248f 8e3c
00000050: d9eb 973d 4111 823d f6a7 c6bd 4aca b5bd
00000060: 1775 ad3d f7c3 64bd 98ea 3bbd 5412 91bd
00000070: 3aaf cfbc 0b57 4c3d d8db 143d 7e86 f43d
00000080: e942 8bbb 85ec dcbd ddf4 0a3d dab4 8b3d
00000090: 6fda 2f3d 23c4 a03d e9b5 edbd 34e1 cf3d
000000a0: aa24 fb3d 1f1b 403d bd08 833d ab35 febb
000000b0: 50cd 1fbd 2a16 f13b 5b11 0ebd 04d4 47bd
000000c0: 1d48 17bc eb9b 56bd 6e6d 75bd 3387 223d
000000d0: b6f6 6dbd af30 cc3d 7eb9 863d 85d7 9c3d
000000e0: b89b 473d d0ba efbc a6bc 48bc 2f32 da3d
000000f0: c69a c93d fbf0 6b3d bf95 313d fccc cf3c
00000100: 8a05 dfbd 7b1b a83d d9f8 5e3b 7e29 15bc
00000110: 3e3b d9bd e6ad 073d 0b10 373d 1541 cc3c
00000120: 3f1a fb3d fd8c 29bd d33a f43d 00ee d1bd
00000130: d175 163d 6f9a 443d 1d23 acbd 5963 80bd
00000140: 92ea 8a3d e10a 343d af00 b53c 5a1d 213c
00000150: c000 a8bc cf91 a73d 3aa4 9fbd 37ed ad3d
00000160: edf1 d5bc 9ff1 cabd 4e8e cb3d b165 f3bd
00000170: c565 44bd c53d ef3d c05f e23d 1bcb 9f3d
00000180: 32a2 233c 3d29 f5bc 468f 3d3d 25f4 9b3c
00000190: 06d6 dfbd b984 7a3d 7abd 8d3b d72b f6bd
000001a0: ebeb 16bd 7074 323d 82db 113c 1d8e fe3a
000001b0: ac1d 8ebd 2c38 5bbd 1e83 a43d 0167 f23d
000001c0: 36e9 cc3d c664 e53d 150c 9e3d 1eda 9abb
000001d0: 4e26 d3bd c3b5 003c 5227 75bc 3782 153d
000001e0: c55c 473d 1a6e 713d 1011 7fbd 10d4 9f3d
000001f0: f2d5 a4bd 3672 3b3d 1a8d fcbd 393d 3e3d
00000200: b53e a03d 3e56 8d3d e003 8dbd 6862 ae3b
00000210: b9bc 0cbd 6860 6fbd 2d28 9f3d 7baf 043e
00000220: 7fe1 c93d 6896 7e3d b008 2f3a 1c2d acbc
00000230: 7788 83bd afd3 c23d e0c2 e8bb 9b23 a5bd
00000240: 8044 443c c0ed 703d 6dda 9cbd 45c8 dbbd
00000250: 92e5 9a3d d8fd 933d a622 6dbc 5d98 81bd
00000260: 4c75 f03d 6618 db3c 5e76 213d 6b3d b63d
00000270: 184a e33d 4fca 54bd f909 393d bd05 693d
00000280: abfa d53c c3ff 59bd 3ab9 07bc b3c8 813d
00000290: 4eea b8bd 5ba6 43bc 5551 023d defb 89bd
000002a0: 2923 a83d ba79 293d 9c58 3abd 7b55 adbb
000002b0: fee9 ce3c 6379 653d b36b 24bd b53e 90bd
000002c0: b4e8 cdbd 0bc6 30bd c509 763c 0a91 debd
000002d0: 9b8c 6dbc 850f acbd e559 53bd a1c2 b1bd
000002e0: c7a1 883d 87a8 023e dfe5 e83d 4275 68bd
000002f0: 7ca5 603d 8375 ac3d a80b e83c 2c40 e33c
0.013428685 0.08622943 0.08599473 -0.12185686 -0.07264518 -0.03801629 -0.003123953 -0.0413562
-0.014237277 0.11029777 -0.0046469285 0.09285859 -0.066379495 -0.03975709 -0.0071346723 -0.005480593
0.026421499 0.09009242 -0.105341874 0.01740224 0.07418031 0.06350947 -0.09700005 -0.08876474
0.08469599 -0.05585095 -0.045878023 -0.07083574 -0.02535211 0.0498877 0.03634247 0.11939715
-0.0042499197 -0.107873 0.033924926 0.06821604 0.042932924 0.0784991 -0.11606962 0.10150376
0.122628525 0.046900865 0.06398151 -0.0077578626 -0.03901416 0.0073573785 -0.03468452 -0.04878618
-0.009233502 -0.05239479 -0.059918813 0.039679717 -0.05809661 0.09970223 0.065783486 0.076582946
0.04873249 -0.029263884 -0.012252009 0.10654103 0.09843974 0.057602864 0.0433557 0.025366299
-0.10889728 0.082083665 0.0034022836 -0.009104131 -0.10607003 0.033124827 0.044693034 0.024933377
0.122608654 -0.041394223 0.11925282 -0.10250473 0.036733452 0.04799884 -0.08405135 -0.06268949
0.06783022 0.043955687 0.022095053 0.009833658 -0.02050817 0.08182108 -0.077949956 0.08492511
-0.026116336 -0.09909367 0.09939252 -0.118846305 -0.047948617 0.116817035 0.11053419 0.07802411
0.009987401 -0.02992689 0.046279214 0.019037316 -0.109294936 0.06116173 0.004325566 -0.120200805
-0.036846083 0.043568075 0.008902432 0.0019421015 -0.06939253 -0.053520367 0.08032821 0.11836053
0.10005419 0.11200862 0.07717148 -0.0047257086 -0.103100404 0.007855835 -0.014962988 0.036501136
0.048672456 0.05894289 -0.06227213 0.078041196 -0.08048619 0.045763217 -0.123316005 0.046445105
0.078244604 0.06901215 -0.06885505 0.0053217895 -0.034359667 -0.05844155 0.07771335 0.12957565
0.09857463 0.062155157 0.0006677015 -0.021017604 -0.06422513 0.09513032 -0.007103309 -0.08063432
0.011979222 0.058820486 -0.07658849 -0.10731558 0.07563318 0.07226151 -0.014473593 -0.06327889
0.117411226 0.026745033 0.039419524 0.08898433 0.11098117 -0.05195075 0.045175526 0.056890238
0.026120504 -0.05322243 -0.008283908 0.063371085 -0.09029065 -0.011941518 0.031815846 -0.06737493
0.08209831 0.041375853 -0.04549466 -0.005289731 0.02525806 0.056023967 -0.040141772 -0.070432104
-0.1005415 -0.04315762 0.015016978 -0.10867508 -0.014498855 -0.084013976 -0.051599402 -0.08679701
0.066714816 0.127596 0.113719694 -0.05675245 0.05484532 0.08420851 0.02832587 0.02774056

fc.weight f4 [1, 64]
00000000: f044 e63d 26aa 3d3e 1f10 e43b ea2d 7b3d
00000010: c74b bb3c 0dfb bcbc 5584 86bd 3fd1 0d3e
00000020: 7527 bdbd 3391 213e d34f 96bd ad64 0a3e
00000030: 1942 313e b370 b9bb de84 493e ee3c b93b
00000040: c51b 763c c662 823d 2d49 413c af3b 6fbb
00000050: 7384 2a3e aeae e6bc e90b 083d aee4 223c
00000060: 0971 6ebd c615 2c3d 412c 13bd de02 27be
00000070: 79d4 14bd e6f9 1dbe 8c00 5c3d 8e26 973d
00000080: f41f 103e b541 debc 4557 05be 4826 a3bc
00000090: a7dd 29bd feff bdbd 6788 e23d bd69 653d
000000a0: 320e d73d 674f 25bd 6d41 f0bd 55b0 8f3d
000000b0: 5d28 cb3d b73b c5bd 5c0b 0bbe 6b1e 20bd
000000c0: 9d57 22bc 3d1d eb3d 496a 43bd 901a 91bb
000000d0: 9b8e d5bc 2eba 48bd 5da0 3d3c 8e89 99bc
000000e0: ea35 98bb acaa cf3d e565 bebc 44c8 41bc
000000f0: 05be 59bd 6471 54bc 256b e83b 318c 1e3c
0.112436175 0.18521938 0.0069599296 0.061323084 0.022863282 -0.02306893 -0.06568209 0.13849352
-0.092360415 0.15778045 -0.07339444 0.13514967 0.1731037 -0.0056591867 0.19679591 0.0056530153
0.015021269 0.06366496 0.011797232 -0.003650408 0.16652088 -0.028159466 0.033214483 0.009942217
-0.058213267 0.042012952 -0.035930876 -0.16309687 -0.036335442 -0.1542736 0.05371146 0.073804006
0.14074689 -0.02713094 -0.13021572 -0.019915715 -0.04147115 -0.09277342 0.11061173 0.056009043
0.105007544 -0.040358927 -0.11731229 0.070160545 0.09919808 -0.0963053 -0.13578552 -0.03909151
-0.009908584 0.11480186 -0.047708783 -0.0044282153 -0.026068976 -0.04900568 0.011573878 -0.018742349
-0.004645099 0.10139975 -0.023241946 -0.011827532 -0.053159732 -0.012966488 0.0070928507 0.009676979
