experiments/cnn/v2/cnn_best_model.pth (torch, 36073 bytes, 5 tensors)

conv.0.weight f4 [32, 20, 3]
-1.22e-40 7.849093e-39 -4.5408505e-38 -0.0004760861 -0.0007239809 -0.00081852183 -0.0012904811 -0.0015114854
-0.0013491666 -0.0026492882 -0.0030700623 -0.0026801466 -2.8920957e-07 -5.174672e-07 -4.5210797e-07 -0.008492137
-0.009490155 -0.008783789 -0.0005728522 -0.00070829643 -0.00060242775 -0.00045468073 -0.000652247 -0.000527918
-0.009639867 -0.010626964 -0.009895622 -0.0018348945 -0.0020961114 -0.0018304376 -0.0038547723 -0.004402215
-0.003992975 2.9096302e-26 2.4227585e-25 9.880806e-26 -3.0716e-40 2.65082e-40 1.25692e-40 5.5339e-41
-4.63685e-40 -1.144333e-39 -0.009930629 -0.010906891 -0.010134891 1.7734839e-38 6.5391066e-38 3.8929843e-38
-3.235388e-07 -8.5021475e-07 -1.7748687e-07 -3.7791764e-38 5.61544e-40 -1.7475936e-38 -3.2719059e-13 -3.3804646e-13
-2.790875e-12 -0.0029274533 -0.0032986687 -0.0028862406 -6.87718e-40 3.86439e-40 1.7172e-40 -4.5966333e-14
-7.956853e-14 -9.4827886e-14 -1.1451635e-29 -3.1172305e-27 -7.333853e-28 -2.2822403e-17 8.149333e-17 -2.2115885e-17
-5.94247e-40 6.68332e-40 1.088686e-39 -1.7148027e-38 -1.322635e-39 -2.600376e-38 -2.4333915e-20 1.6730083e-19
-7.274872e-20 -1.3692548e-19 2.3643526e-19 -1.4918144e-19 -2.709723e-14 -1.340323e-13 2.6952233e-14 -5.9792117e-22
-3.674436e-21 3.683316e-21 -9.615478e-12 -1.5274748e-11 1.7059933e-11 -1.5679003e-15 -2.8616486e-14 -1.2944425e-14
2.26027e-40 3.81082e-40 3.69656e-40 -1.353601e-11 -2.1300501e-11 7.904907e-12 9.54507e-40 3.10404e-40
5.82314e-40 2.9915364e-35 -4.0390048e-32 -3.88739e-32 -2.5826609e-12 -9.207617e-12 2.5993326e-12 3.1847736e-38
3.3938e-40 2.8583e-40 -1.07195e-40 2.9655e-40 6.8105e-41 8.56277e-40 7.06526e-40 8.55348e-40
-5.9127e-40 -6.52922e-40 -6.61882e-40 -3.342094e-11 -3.9306548e-11 -1.378709e-11 -5.9753034e-09 -1.06137925e-08
-4.2408645e-09 -5.6364863e-13 -3.5149002e-13 -6.2074613e-13 1.29201e-39 9.76006e-40 1.352577e-39 2.26692e-40
7.33948e-40 9.34597e-40 -7.8237994e-14 -2.176454e-13 -2.0389098e-14 -1.0211796e-13 -3.9580866e-13 -2.7293705e-13
-1.928156e-10 -2.3189976e-10 -9.73551e-11 -1.941333e-08 -2.4055003e-08 -3.9833296e-08 -8.201141e-18 -4.105932e-17
-9.917275e-18 1.04145e-40 3.3295e-40 1.68715e-40 -3.115242e-08 -4.5350127e-08 -2.6067811e-08 -3.8864e-41
1.92466e-40 3.3128e-41 1.3373305e-11 2.4591731e-11 5.5697946e-12 -3.4417e-40 -5.23847e-40 -3.41893e-40
-2.5472177e-08 -5.287762e-08 -4.26488e-08 4.257095e-34 5.00206e-40 4.37277e-40 5.92064e-40 1.07679e-40
-7.0785e-41 -7.136337e-32 3.6864734e-32 -1.0015906e-37 4.715079e-22 4.7832064e-12 3.2213524e-12 -0.089792915
-0.080828294 -0.08408782 -0.06524983 -0.06280274 -0.06384183 -0.06392284 -0.061205454 -0.061901245
-0.073896505 -0.074367076 -0.07637411 1.0759616e-30 -1.0760469e-30 1.979235e-30 -0.0532635 -0.051476877
-0.04962965 -0.052533064 -0.047504235 -0.05425774 -0.05491489 -0.04793297 -0.048129924 -0.077183165
-0.07235325 -0.07247308 -0.065534025 -0.062268812 -0.06359076 -0.0108276 -0.011209171 -0.010936332
1.221965e-37 2.141992e-38 9.5812e-41 -1.2064089e-30 2.7185265e-31 -8.467414e-31 -0.062401082 -0.05971957
-0.05932122 -6.986217e-38 -2.5657e-40 -3.96378e-40 -0.0039783707 0.0007320439 -0.0030540393 1.430465e-39
-6.29242e-40 2.5183e-40 -0.08151295 -0.08378093 -0.09015731 -0.08425861 -0.06401967 -0.052319977
-2.010147e-39 -8.50158e-40 -3.6918307e-38 -0.012399848 -0.012853536 -0.012401075 -0.007043997 -0.007219204
-0.0075094104 -0.012948559 -0.012927407 -0.013049091 -3.9336886e-05 -4.4140823e-05 -4.3418677e-05 2.56928e-40
00000000: 1654 0180 1478 5500 383a 7781 329b f9b9
00000010: 89c9 3dba 1292 56ba 5c25 a9ba 091d c6ba
00000020: 85d6 b0ba ae9f 2dbb 1933 49bb 66a5 2fbb
00000030: a944 9bb4 13e8 0ab5 3fb9 f2b4 9b22 0bbc
00000040: 987c 1bbc e2e9 0fbc 762b 16ba f8ac 39ba
00000050: 3eec 1dba 3762 eeb9 8efb 2aba fa63 0aba
00000060: 88f0 1dbc b81c 2ebc 3f21 22bc d880 f0ba
00000070: ea5e 09bb 4beb efba 59a0 7cbb 7540 90bb
00000080: 81d7 82bb f213 1015 24f6 9516 0ca3 f415
00000090: 3d58 0380 f1e2 0200 615e 0100 439a 0000
000000a0: 910c 0580 ef75 0c80 14b4 22bc d1b2 32bc
000000b0: d00c 26bc 841d c100 ec02 b201 48f4 5301
000000c0: d6b2 adb4 503a 64b5 3893 3eb4 08c2 4d81
000000d0: 5b1d 0600 cd4b be80 2231 b8aa a14d beaa
000000e0: ef63 44ac 84da 3fbb 7a2e 58bb 1527 3dbb
000000f0: 147d 0780 3c35 0400 afde 0100 9303 4fa9
00000100: 222c b3a9 8e88 d5a9 4a44 688f f2f8 7693
00000110: 496b 6892 e07f d2a3 2ce9 bb24 a8fb cba3
00000120: 8578 0680 0a47 0700 d0da 0b00 b9b9 ba80
00000130: f866 0e80 f493 0d81 ccd3 e59e 9383 4520
00000140: e7c5 ab9f 30a7 21a0 1691 8b20 531f 30a0
00000150: f511 f4a8 2ee8 16aa 9ec3 f228 e9b5 349c
00000160: f7d0 8a9d d926 8b1d 4328 29ad ad5b 86ad
00000170: 8e0f 962d 50f5 e1a6 90e0 00a9 a02f 69a8
00000180: 1276 0200 4d26 0400 7306 0400 c520 6ead
00000190: 775c bbad 8910 0b2d c764 0a00 4861 0300
000001a0: 4157 0600 af0e 1f06 95b7 518b 47d8 498b
000001b0: 15bd 35ac 6cfb 21ad 6ae9 362c 4465 2d01
000001c0: 0eb2 0300 c71c 0300 d12a 0180 a93a 0300
000001d0: d9bd 0000 f452 0900 82b1 0700 5d50 0900
000001e0: 3870 0680 151c 0780 0f35 0780 a2fc 12ae
000001f0: 3ddf 2cae 898b 72ad 534f cdb1 f457 36b2
00000200: 0ab7 91b1 2aa7 1eab 0ddf c5aa 79b9 2eab
00000210: 9911 0e00 b5a0 0a00 6fba 0e00 ed77 0200
00000220: f3fd 0700 472d 0a00 222d b0a9 040c 75aa
00000230: 0fa6 b7a8 fff2 e5a9 0ad2 deaa 60a6 99aa
00000240: c400 54af fbf9 7eaf 0d16 d6ae 5dc2 a6b2
00000250: 83a1 ceb2 2c15 2bb3 cb48 17a3 4a5a 3da4
00000260: 02f1 36a3 5022 0100 21a0 0300 4fd6 0100
00000270: 73cc 05b3 fec6 42b3 b9eb dfb2 566c 0080
00000280: 8418 0200 595c 0000 0344 6b2d a84f d82d
00000290: 40f8 c32c 68bf 0380 46b4 0580 0fb9 0380
000002a0: e9cd dab2 8f1b 63b3 da2c 37b3 5c77 0d08
000002b0: 5f72 0500 f3c2 0400 6f72 0600 2a2c 0100
000002c0: 52c5 0080 1845 b98b a369 3f0b 5754 0882
000002d0: 2881 0e1c 4b4b a82c baae 622c 59e5 b7bd
000002e0: 4e89 a5bd 3c36 acbd b4a1 85bd b99e 80bd
000002f0: 81bf 82bd fae9 82bd 92b2 7abd 298c 7dbd
00000300: 0d57 97bd c44d 98bd 086a 9cbd b295 ae0d
00000310: 3d99 ae8d 1a93 200e d42a 5abd 6bd9 52bd
00000320: 7648 4bbd e92c 57bd cd93 42bd 5d3d 5ebd
00000330: 70ee 60bd 5d55 44bd e223 45bd 3512 9ebd
00000340: f12d 94bd c46c 94bd b436 86bd 950d 7fbd
00000350: df3b 82bd 3f66 31bc aca6 37bc 4d2e 33bc
00000360: 4453 2602 063e e900 160b 0100 44c0 c38d
00000370: 4571 b00c 4364 898d 4798 7fbd 829c 74bd
00000380: cffa 72bd d42e be81 36cb 0280 f150 0480
00000390: fe5c 82bb a2e6 3f3a 4726 48bb 8e93 0f00
000003a0: 12da 0680 00be 0200 43f0 a6bd 5695 abbd
000003b0: 65a4 b8bd c78f acbd bf1c 83bd 794d 56bd
000003c0: 79e3 1580 e541 0980 9c00 4981 bb28 4bbc
000003d0: a397 52bc e12d 4bbc 54d1 e6bb 138f ecbb
000003e0: 8011 f6bb 3126 54bc 7acd 53bc dbcb 55bc
000003f0: a9fd 24b8 d923 39b8 731c 36b8 36cc 0200

conv.0.bias f4 [32]
-0.010972403 -8.1757384e-10 -5.168538e-07 -0.06421086 -0.02131624 -3.1111672e-21 -0.5581245 -0.077659294
-3.1555065e-29 -9.894114e-06 -0.11068631 -0.0013470273 -0.15561754 -0.044049487 -2.040213e-11 -4.845872e-13
-0.057471927 -1.2819403e-05 -1.0578272e-22 -0.047440134 -0.0013375132 0.46974862 -0.011933152 0.64984035
0.16374426 -9.73795e-14 -0.0015888698 -0.10906576 -5.432206e-05 -6.222545e-14 -0.0010681624 -9.686528e-13
00000000: 98c5 33bc a5bb 60b0 ecbd 0ab5 fc80 83bd
00000010: 659f aebc ba12 6b9d 3fe1 0ebf d60b 9fbd
00000020: d100 2090 e5fe 25b7 81af e2bd bc8e b0ba
00000030: 345a 1fbe 3c6d 34bd 8375 b3ad 3066 08ab
00000040: af67 6bbd eb12 57b7 55c4 ff9a 9650 42bd
00000050: 7f4f afba e482 f03e 4483 43bc f05b 263f
00000060: 93ac 273e 7647 dba9 a041 d0ba df5d dfbd
00000070: ded7 63b8 881e 8ca9 9501 8cba 6553 88ab

conv.3.weight f4 [64, 32, 3]
4.43239e-40 1.006413e-39 -6.85636e-40 -1.1918232e-37 2.0921361e-38 1.9147348e-38 4.68633e-40 4.41794e-40
5.32327e-40 5.1516454e-16 3.0851486e-38 -3.3881401e-38 6.1126506e-38 -9.634692e-39 4.226434e-39 1.240836e-39
6.42447e-08 -1.2144507e-37 -2.9278548e-08 -7.977089e-07 -6.34784e-40 5.86216e-40 2.5169e-41 1.029816e-39
1.036433e-39 8.67613e-40 -1.085578e-39 -5.9182955e-38 1.068192e-39 8.533639e-39 3.4571973e-38 -3.4597756e-38
-2.0140347e-37 -8.20895e-40 -5.32554e-40 -1.389435e-39 9.08009e-40 7.4648e-40 1.00776e-39 1.45378e-40
-2.72106e-40 -1.087846e-39 1.026457e-39 8.35484e-40 1.57933e-40 -8.27021e-40 2.8906063e-38 -1.194828e-39
5.08299e-40 2.31412e-40 -1.062127e-39 4.6757283e-38 1.363395e-39 -1.01394e-39 -9.28192e-40 -3.48179e-40
-1.50518e-40 4.91288e-40 1.149964e-39 5.58282e-40 -1.82174e-40 9.2194e-40 1.88678e-40 -4.9842096e-05
-0.00036546084 8.16708e-40 4.39233e-40 2.1674e-40 -6.94426e-40 -4.5648754e-05 -0.00074328156 -2.6648395e-38
-2.24784e-40 -2.3356947e-09 -3.884904e-09 -4.03292e-40 -1.380582e-39 -2.97995e-40 1.71198e-40 -6.46511e-40
1.3449e-39 -1.6040625e-37 -3.36267e-40 3.460622e-38 -2.79113e-40 -6.71834e-40 2.77704e-40 -8.08078e-40
3.23617e-40 -7.5689e-40 4.98707e-40 -7.7256e-40 -1.18788e-39 -7.4716e-40 -9.5529e-40 2.2134e-41
1.46022e-40 -2.3071939e-38 3.0916456e-38 1.46162e-40 5.977679e-38 -5.72236e-40 -7.84402e-40 -5.1585e-41
-4.56581e-40 -3.449628e-38 -7.91739e-40 -9.6901e-40 -7.51886e-40 3.97204e-40 -8.13329e-40 1.5914917e-38
-4.646e-41 -5.5760925e-09 1.3443862e-33 2.8058567e-33 1.79363e-40 6.2309e-40 -1.6939e-40 1.281144e-39
-9.58256e-40 9.59398e-40 3.17447e-40 3.3683258e-38 2.7776858e-38 -4.844e-40 1.445315e-39 7.7501816e-38
-1.30021e-40 1.139041e-39 -1.6425e-40 2.91431e-40 7.83773e-40 4.6099e-41 -5.72586e-40 -9.1257e-41
8.48021e-40 -2.48328e-40 -3.54294e-40 -1.140409e-39 1.26548e-40 -2.1064806e-38 1.7150715e-37 -3.355652e-38
1.098775e-39 -9.48351e-40 -4.03626e-40 -4.87297e-40 -4.32026e-40 1.32526e-39 2.1633e-40 3.98952e-40
8.87725e-40 -8.46201e-40 9.80996e-40 -8.50857e-40 -3.38575e-40 -3.58248e-40 1.444478e-39 -1.0033816e-31
2.5574993e-31 -7.9298e-41 -6.10529e-40 -5.5278e-41 1.87551e-40 -1.05086426e-26 4.169072e-25 -1.077208e-39
5.44505e-40 -7.4824095e-34 8.249911e-34 9.57011e-40 6.28346e-40 6.051e-41 1.76247e-40 -6.14594e-40
-2.01413e-40 -1.91677e-40 2.516745e-38 2.6124862e-06 -1.84527e-40 -1.6559e-40 2.81221e-40 -6.85313e-40
4.36611e-40 7.14835e-40 -4.33438e-40 -1.226997e-39 1.176107e-39 -1.54018e-40 9.84486e-40 6.51933e-40
-0.010872833 -0.0107113775 -0.008959239 4.58915e-40 -2.26451e-40 -1.402181e-39 6.31574e-40 -1.669584e-38
1.083228e-39 -0.06462885 -0.069064066 -0.06898462 -9.069154e-07 -7.759843e-07 -1.9716595e-06 -7.29005e-40
-4.5521e-40 -1.219008e-39 -0.016841628 -0.004142874 -3.9009952e-05 0.00071386487 0.0035001351 0.005582178
-1.153054e-39 -1.216931e-39 -7.77997e-40 -2.6045378e-17 3.375561e-15 7.0071038e-15 -0.08686134 -0.080304146
-0.079984106 -4.393153e-23 -7.096831e-11 -6.660698e-11 -2.8005652e-06 -1.8168821e-05 -3.3912576e-05 -1.0549484e-07
6.1341198e-06 1.7077371e-05 -2.0836363e-25 5.595342e-24 -1.6233944e-25 -5.10838e-40 -2.90601e-40 1.104101e-39
-0.0073152357 0.027032522 0.02358247 -4.180982e-22 -1.6020031e-21 -7.084827e-22 -1.29099e-40 -4.56516e-40
7.85438e-40 0.00054906966 -0.0016687508 -0.0022694727 -2.57888e-07 -4.9323864e-07 -5.3767087e-07 0.018281197
00000000: 92d3 0400 78f5 0a00 4677 0780 fa38 2282
00000010: 3ed0 e300 047f d000 5c1a 0500 8bcf 0400
00000020: e9cb 0500 6f7c 1426 b2f8 2701 c877 3881
00000030: f566 a601 9ae9 6880 9405 2e00 f282 0d00
00000040: e6f6 8933 6e4d 2582 3580 fbb2 2322 56b5
00000050: 85e9 0680 2262 0600 2946 0000 b536 0b00
00000060: 2749 0b00 8d72 0900 26d2 0b80 801c a181
00000070: afa1 0b00 50ec 5c00 4c3a 3c01 3c5e 3c81
00000080: 6f11 8982 52f0 0880 8bcc 0580 2e21 0f80
00000090: 29e3 0900 e220 0800 3af9 0a00 4195 0100
000000a0: 85f6 0280 79d8 0b80 582d 0b00 fd18 0900
000000b0: 41b8 0100 6601 0980 2c61 1d01 b202 0d80
000000c0: ee88 0500 1585 0200 c790 0b80 2492 7e01
000000d0: 97d8 0e00 740a 0b80 6c1b 0a80 95ca 0380
000000e0: 95a3 0180 8359 0500 a285 0c00 4314 0600
000000f0: d4fb 0180 fe09 0a00 f50d 0200 8b0d 51b8
00000100: 539b bfb9 a6e4 0800 67c8 0400 2f5c 0200
00000110: c78f 0780 fa76 3fb8 c8d8 42ba 7116 1181
00000120: 9b72 0280 fa81 20b1 fa7b 85b1 3764 0480
00000130: 8008 0f80 b03e 0380 3bdd 0100 360a 0780
00000140: 09a5 0e00 6c55 5a82 60a9 0380 086a 3c01
00000150: 0e0a 0380 cd50 0780 2006 0300 98cc 0880
00000160: 1d86 0300 e73d 0880 316e 0500 9569 0880
00000170: 53ef 0c80 c722 0880 f666 0a80 b33d 0000
00000180: 0d97 0100 2e3b fb80 4053 2801 7197 0100
00000190: 58ba a201 293b 0680 988a 0880 cc8f 0080
000001a0: c3f8 0480 ccd0 3b81 0c9f 0880 358d 0a80
000001b0: f42f 0880 3e53 0400 3bdb 0880 504c ad00
000001c0: 8381 0080 d497 bfb1 dd5f df08 f919 6909
000001d0: fef3 0100 ecc8 0600 31d8 0180 4ff3 0d00
000001e0: 3a6f 0a80 6972 0a00 ea74 0300 9c63 3701
000001f0: 4a3b 1701 4f46 0580 f3bc 0f00 e2fa d201
00000200: 726a 0180 2f67 0c00 ddc9 0180 642c 0300
00000210: d788 0800 8180 0000 233c 0680 63fe 0080
00000220: f03b 0900 3db4 0280 a1db 0380 ff6a 0c80
00000230: c460 0100 1c60 e580 8571 6902 f6b2 3681
00000240: f0f6 0b00 9e53 0a80 2565 0480 634e 0580
00000250: 50b4 0480 496e 0e00 0a5b 0200 1e58 0400
00000260: 9eaa 0900 dd36 0980 9eae 0a00 d843 0980
00000270: cfaf 0380 a6e6 0380 9eba 0f00 133f 028c
00000280: bffd a50c 0ddd 0080 e8a5 0680 189a 0080
00000290: d10a 0200 2625 5094 cb06 0117 d1ba 0b80
000002a0: dced 0500 4da5 7888 3e13 8908 c26b 0a00
000002b0: 93d7 0600 ada8 0000 4eeb 0100 3db1 0680
000002c0: 7531 0280 5116 0280 4e06 0901 2c52 2f36
000002d0: 6302 0280 99cd 0180 ee0f 0300 6076 0780
000002e0: 18c1 0400 abc8 0700 40b8 0480 5e5c 0d80
000002f0: 82ce 0c00 57ad 0180 59b8 0a00 5319 0700
00000300: f823 32bc c67e 2fbc c6c9 12bc 45ff 0400
00000310: 4177 0280 b644 0f80 92e0 0600 36cd b580
00000320: 99cb 0b00 215c 84bd 7671 8dbd cf47 8dbd
00000330: c072 73b5 3c4d 50b5 da50 04b6 2bf0 0780
00000340: f1f4 0480 1946 0d80 74f7 89bc f2c0 87bb
00000350: 9e9e 23b8 a922 3b3a 8662 653b b4ea b63b
00000360: 3f8e 0c80 4f40 0d80 bd78 0880 e939 f0a3
00000370: 1c3c 7327 2075 fc27 5ce4 b1bd 8076 a4bd
00000380: b5ce a3bd 9a70 549a 9b0f 9cae 6578 92ae
00000390: 58f1 3bb6 3f69 98b7 5a3d 0eb8 678c e2b3
000003a0: b0d3 cd36 6041 8f37 89f8 8096 9575 d818
000003b0: 6cf7 4896 0290 0580 142a 0380 c905 0c00
000003c0: a5b4 efbb 4f73 dd3c 0630 c13c 90b9 fc9b
000003d0: 7e16 f29c 3220 569c e067 0180 95f8 0480
000003e0: 7b8d 0800 71ef 0f3a fcb9 daba 6fbb 14bb
000003f0: db73 8ab4 1a67 04b5 7654 10b5 73c2 953c

conv.3.bias f4 [64]
-0.11095418 -0.04308053 -0.16555879 -0.09885124 -0.09992919 -7.065927e-07 -0.051087074 -3.4696911e-06
-0.002943317 -0.016337123 -0.13281852 -0.017257415 0.13935068 -0.023185255 -0.035852626 -1.1009843
-2.7784597e-13 -0.014254212 -0.16092747 -2.6914705e-07 -0.020148251 -3.5070196e-05 -0.022339147 -0.04067217
-0.047611214 -0.006409332 -0.015950931 -0.018585827 -0.0055763135 -0.02720433 -0.32750303 -7.2289263e-10
-1.0552583e-09 -1.1184214e-13 -0.0006885157 -1.0890354e-08 -0.00022255724 -0.0002649106 -7.578652e-10 -0.011779344
-5.9571306e-07 -2.1838444e-14 -2.959622e-14 -0.13652422 -2.311616e-06 -0.12651964 -0.010689461 -6.197604e-11
-0.014308826 -5.9825893e-06 -0.05684552 -0.16257662 -2.0536964e-07 -0.015595695 -8.5763524e-05 -1.4438778e-19
-0.0425799 -0.00024483135 -0.16996886 -0.28442582 -1.1874004e-16 -2.6267752e-16 -8.2162494e-32 -0.0034962571
00000000: f23b e3bd 3675 30bd 3e88 29be 8572 cabd
00000010: ada7 ccbd aeac 3db5 ae40 51bd d7d8 68b6
00000020: aae4 40bb 6ed5 85bc 9401 08be 6c5f 8dbc
00000030: f2b1 0e3e 01ef bdbc 34da 12bd 0eed 8cbf
00000040: d369 9caa 808a 69bc 2cca 24be 4a7f 90b4
00000050: f20d a5bc 5618 13b8 9600 b7bc dd97 26bd
00000060: fa03 43bd 6005 d2bb 87ab 82bc 4e41 98bc
00000070: 82b9 b6bb 9ddb debc 7aae a7be 0cb5 46b0
00000080: 9a08 91b0 9bd8 fba9 827d 34ba 4918 3bb2
00000090: 415e 69b9 b3e3 8ab9 0652 50b0 26fe 40bc
000000a0: 17e9 1fb5 06b4 c4a8 1e4a 05a9 01cd 0bbe
000000b0: 4321 1bb6 5d8e 01be d922 2fbc 6949 88ae
000000c0: 916f 6abc 0dbe c8b6 d9d6 68bd 7c7a 26be
000000d0: 9483 5cb4 1685 7fbc f1db b3b8 8776 2aa0
000000e0: 4368 2ebd b55c 80b9 510c 2ebe 43a0 91be
000000f0: e0e5 08a5 5c6c 97a5 584e d58b 7621 65bb

fc.weight f4 [1, 64]
-0.11653774 0.052716043 0.14201593 0.07204393 0.0020990854 9.779803e-07 -0.06889405 4.0382753e-11
0.0874359 0.15856646 0.00864679 0.6132825 0.16512603 0.25831288 0.05981042 -0.9904031
3.440869e-07 -0.018815136 0.10838838 -2.9911482e-05 0.07820934 -0.00016584573 0.26870352 0.1918329
0.6049167 -0.03808025 0.2490684 0.7240594 0.07849111 -0.029653212 -1.3101705 -2.569553e-12
-0.012559163 4.6123387e-05 0.09805641 0.003453782 -1.0467603e-12 0.0008931915 0.0030395144 0.07972923
0.00039280762 -1.4510059e-14 -1.835065e-14 -0.019545402 -2.7218623e-05 -0.036932454 0.45830578 -5.1919302e-12
0.32157192 -1.3658985e-05 0.3226218 0.037787974 -3.9220865e-07 0.27245083 -0.00056455046 -1.8471473e-08
0.07515348 0.002654349 -0.08168236 -1.4265501 1.8913215e-10 5.814998e-07 3.77437e-40 0.18780589
00000000: 57ab eebd c7ec 573d a06c 113e c58b 933d
00000010: cf90 093b 2643 8335 5318 8dbd f09a 312e
00000020: 9811 b33d 3f5f 223e 44ab 0d3c 1500 1d3f
00000030: cc16 293e 9641 843e c5fb 743d 0f8b 7dbf
00000040: f2ba b834 3322 9abc bafa dd3d 6bea fab7
00000050: 382c a03d e0e6 2db9 8293 893e d86f 443e
00000060: d2db 1a3f 09fa 1bbd c90b 7f3e f55b 393f
00000070: f2bf a03d 4beb f2bc abb3 a7bf f4d0 34ac
00000080: f3c4 4dbc 9c74 4138 cdd1 c83d d958 623b
00000090: 8451 93ab 1125 6a3a 9732 473b 1449 a33d
000000a0: bff1 cd39 ebb1 82a8 b849 a5a8 ae1d a0bc
000000b0: 8c53 e4b7 7c46 17bd 0ea7 ea3e c0ac b6ac
000000c0: 13a5 a43e e528 65b7 af2e a53e 90c7 1a3d
000000d0: bf90 d2b4 ad7e 8b3e 57fe 13ba 33ab 9eb2
000000e0: 11ea 993d 96f4 2d3b 1549 a7bd 3299 b6bf
000000f0: f8f3 4f2f 5d18 1c35 241c 0400 3050 403e
