experiments/cnn/v2/cnn_last_model.pth (torch, 36073 bytes, 5 tensors)

conv.0.weight f4 [32, 20, 3]
00000000: 38a3 61aa da0c 08a9 f81d 7ea9 669e 4db6
00000010: 5f5d d1b6 88cf e5b6 afcc 73b5 30d5 aeb5
00000020: 1156 84b5 32f0 c2b7 d865 f3b7 381d b9b7
00000030: e445 22ac d381 082c f4b6 7c2b 697c 9fb0
00000040: 4fcf 1bb2 9619 0ab2 df19 92b5 a8f5 f4b5
00000050: 9cd4 adb5 a089 2cb5 08df b7b5 729e 2cb5
00000060: b03b a2b9 0b41 bcb9 0ca8 a4b9 c7ae c8b6
00000070: 8ba4 01b7 fb44 bfb6 ae71 a6b8 8b98 ceb8
00000080: 4b0e abb8 cd31 342d d7de 3e2d 432d cf2c
00000090: 3d58 0380 f1e2 0200 615e 0100 4076 5028
000000a0: 20bb 8629 65c5 2cad f8fa a0b0 8949 1cb2
000000b0: be68 0ab2 5c02 09b2 1dbc bc81 0cff 2daf
000000c0: 0d14 542c 7926 dbac 91c1 012d 588b a926
000000d0: 5b1d 0600 992f 3682 e4a2 89ac 1a12 63ac
000000e0: b750 36ac 6f67 f1b6 35f0 42b7 5920 33b7
000000f0: 217a 2213 b143 1d93 fef8 4992 1d18 fcbc
00000100: cf95 19bd e364 1bbd 4b18 dcbd cebd e8bd
00000110: 2d36 e6bd 8196 04be 6ec7 09be 8384 08be
00000120: ce0b b2bd cfa4 d6bd 6ab7 bcbd 3c8e c58c
00000130: b1c0 838e 71ee 9c0e cae0 92bd ad3f 53bd
00000140: e7ee 1bbd 62e7 97bd c308 aebd 493c d8bd
00000150: c9ea f9bc 8bef 0bbd 2c32 febc bb40 24bd
00000160: 9fde 4bbd 26e7 45bd c527 00be 3fa5 04be
00000170: f68a 03be acfd c2bd f080 cabd 8e74 c7bd
00000180: 1276 0200 4d26 0400 7306 0400 285b 4a8d
00000190: bb38 ce8e f4c9 eb8b 19f1 f1bd 4fbc f9bd
000001a0: f317 f8bd 6e76 0080 e081 0380 a867 0480
000001b0: 638d 53bd e172 5ebd d6ff 85bd 13fe 800a
000001c0: 0eb2 0300 c71c 0300 45b3 12ba b4a7 5abb
000001d0: bbb2 6cbb ef6b 19be 5de0 18be 3719 15be
000001e0: 4651 aeb2 d82e 55b3 ee52 7ab3 055c 9532
000001f0: 2ccc 9432 3231 9832 c129 5eb4 8446 9cb3
00000200: 6d28 9bb3 e1ef a9b4 32ca 03b4 579e 3eb4
00000210: 201e 89b2 30de 84b0 b83f 6fb3 0d97 9135
00000220: 1869 58b5 2637 56b5 bf2d 15b5 e905 61b4
00000230: 424e 9db4 6d25 0fb5 a4de a5b4 a304 8fb4
00000240: 2648 28b4 4abe 2ab3 0647 5fb3 9c2c 8d31
00000250: 348c 22b1 2d06 32b1 2fb2 1cb5 3250 38b4
00000260: 3675 60b4 6cf5 03b4 f1e8 49b3 b01b 6bb3
00000270: 803b df24 0d39 0325 f2c0 d124 74ad f72e
00000280: 9e9b e42e 5d81 842e 3586 fdb4 e538 1cb4
00000290: a74b 3db4 d829 672f bccb 0230 b817 0530
000002a0: 89bc 02b3 a01c 32b2 5683 8db4 8683 8b22
000002b0: 5f72 0500 f3c2 0400 d488 5128 a866 9128
000002c0: 793b 42a8 b1c0 34b5 2e3c 53b4 06d7 4d34
000002d0: b4f4 0200 c2c6 0700 0d94 0500 786e b3bc
000002e0: b394 aabc 7014 aabc f650 b6bb 5040 bdbb
000002f0: c893 b0bb a496 0ebc 439d 14bc b6c9 0cbc
00000300: 246f 23bb 6db4 33bb 59bd 2dbb 2abd 0800
00000310: f398 0680 e7bb 0100 f633 4cbb a646 61bb
00000320: d7b9 40bb 1f02 40bb 8d00 43bb c9d4 49bb
00000330: 5046 13bc 9ef2 0abc d9ed 04bc 7905 82bc
00000340: b624 81bc d5c2 75bc 3899 23bc 5761 27bc
00000350: 0479 21bc 22c5 caab ed73 8cac 9d7e 01ac
00000360: b777 72a4 20a3 0681 160b 0100 8ae2 0080
00000370: 4f18 0500 692f 0b00 79e7 79bc 97c0 7cbc
00000380: 259b 70bc 4f15 9e02 36cb 0280 f150 0480
00000390: ef68 3ab8 e37e 2a37 f6b5 2fb8 8e93 0f00
000003a0: 12da 0680 00be 0200 b289 a5b9 cf95 08ba
000003b0: 704a 26ba 952a 62bb a1e2 32bb e264 d8ba
000003c0: 008c 0393 1094 9390 d0ba 6a12 e623 c8af
000003d0: 5d82 1ab0 d9e6 0bb0 f6c3 2aae 4b75 24af
000003e0: 11fb 29af 4c0d ebb0 9504 d7b1 2341 a7b1
000003f0: 6619 8616 2390 af98 341f 4117 36cc 0200
-2.0040642e-13 -3.0209213e-14 -5.6425323e-14 -3.063958e-06 -6.239555e-06 -6.8488916e-06 -9.082241e-07 -1.3026056e-06
-9.859815e-07 -2.3238452e-05 -2.9015282e-05 -2.2067325e-05 -2.3060382e-12 1.939883e-12 8.9782283e-13 -1.1604132e-09
-9.069324e-09 -8.038475e-09 -1.0885377e-06 -1.8250912e-06 -1.2951382e-06 -6.4275264e-07 -1.3699473e-06 -6.430556e-07
-0.00030943519 -0.00035906615 -0.00031405722 -5.9808112e-06 -7.72731e-06 -5.700274e-06 -7.936671e-05 -9.851259e-05
-8.156578e-05 1.0242873e-11 1.084973e-11 5.888319e-12 -3.0716e-40 2.65082e-40 1.25692e-40 1.1571961e-14
5.9832564e-14 -9.8208984e-12 -1.1712862e-09 -9.097115e-09 -8.056473e-09 -7.974986e-09 -6.933022e-38 -1.5824869e-10
3.0138142e-12 -6.2286257e-12 7.375781e-12 1.17645e-15 5.61544e-40 -1.3384908e-37 -3.9118587e-12 -3.2268689e-12
-2.5908561e-12 -7.194401e-06 -1.1619229e-05 -1.0676763e-05 2.0507489e-27 -1.984956e-27 -6.3731323e-28 -0.030773217
-0.037496384 -0.03793801 -0.10746821 -0.11364327 -0.11240802 -0.12948038 -0.13454983 -0.13331799
-0.08693658 -0.104806535 -0.09214671 -3.043826e-31 -3.247955e-30 3.868658e-30 -0.07171781 -0.051574398
-0.038069632 -0.0741718 -0.08497765 -0.105583735 -0.030507462 -0.034163993 -0.031029783 -0.040100794
-0.049772855 -0.048316143 -0.12515171 -0.12953661 -0.12845978 -0.0952104 -0.09887874 -0.09739028
2.26027e-40 3.81082e-40 3.69656e-40 -6.235578e-31 -5.083755e-30 -9.082257e-32 -0.11813564 -0.1219412
-0.12113943 -4.2485e-41 -3.22097e-40 -4.04527e-40 -0.05164851 -0.054308776 -0.065429375 1.2421524e-32
3.3938e-40 2.8583e-40 -0.0005596171 -0.003336412 -0.0036117274 -0.1498258 -0.14929338 -0.145604
-2.0293225e-08 -4.963553e-08 -5.8283085e-08 1.7387729e-08 1.7322314e-08 1.77175e-08 -2.0690551e-07 -7.277143e-08
-7.2251034e-08 -3.1653238e-07 -1.2273884e-07 -1.7752733e-07 -1.5962598e-08 -9.667414e-10 -5.5704476e-08 1.0847303e-06
-8.06192e-07 -7.9801464e-07 -5.5573395e-07 -2.0956908e-07 -2.930047e-07 -5.3326113e-07 -3.0895637e-07 -2.66392e-07
-1.5672467e-07 -3.9754276e-08 -5.198583e-08 4.1087116e-09 -2.36538e-09 -2.590592e-09 -5.837382e-07 -1.716551e-07
-2.0904267e-07 -1.228961e-07 -4.701082e-08 -5.4740383e-08 9.681163e-17 1.1381768e-16 9.0966164e-17 1.1263071e-10
1.0395883e-10 6.0256446e-11 -4.722257e-07 -1.454933e-07 -1.7629519e-07 2.1024193e-10 4.758325e-10 4.8418825e-10
-3.0439455e-08 -1.0367472e-08 -2.6358856e-07 3.781528e-18 5.00206e-40 4.37277e-40 1.16315005e-14 1.6142754e-14
-1.0782059e-14 -6.733563e-07 -1.96728e-07 1.9170338e-07 2.71454e-40 7.1415e-40 5.12288e-40 -0.021903262
-0.020822858 -0.020761698 -0.0055638505 -0.005775489 -0.0053887106 -0.008702908 -0.009070697 -0.0085930135
-0.002493807 -0.0027420775 -0.0026510565 8.02543e-40 -6.05881e-40 1.59242e-40 -0.00311589 -0.0034374385
-0.0029407644 -0.002929814 -0.0029754967 -0.0030796996 -0.008988932 -0.008480696 -0.008113348 -0.01587175
-0.015764575 -0.015000065 -0.009985261 -0.010216079 -0.0098555125 -1.4407679e-12 -3.9919097e-12 -1.8402287e-12
-5.2576788e-17 -2.472895e-38 9.5812e-41 -8.1267e-41 4.67898e-40 1.027198e-39 -0.015252941 -0.015426776
-0.014685427 2.3228244e-37 -2.5657e-40 -3.96378e-40 -4.4443583e-05 1.0162333e-05 -4.1892716e-05 1.430465e-39
-6.29242e-40 2.5183e-40 -0.00031573843 -0.00052103115 -0.00063434895 -0.0034510244 -0.0027295726 -0.0016509558
-1.660355e-27 -5.82094e-29 7.4067645e-28 -3.6405295e-10 -5.621013e-10 -5.089596e-10 -3.8827573e-11 -1.4957384e-10
-1.5459657e-10 -1.710228e-09 -6.2578445e-09 -4.867745e-09 2.1664896e-25 -4.538198e-24 6.2401047e-25 2.56928e-40

conv.0.bias f4 [32]
00000000: 723e d6b9 7b54 06be b6df b1b3 97e1 87bc
00000010: 64cf 0ab4 11d1 6ebd ab6e 45bf e72e 9cbb
00000020: 18e5 5fb7 ab91 24be d4c3 f4bc fac5 ceab
00000030: 3781 0abb 6660 23b9 a127 9abc c27b 07b6
00000040: 8ad3 d9bc 2222 9fa8 0cf0 bdb8 5b04 b0bc
00000050: 8af8 1ab1 e7b2 123f 8c38 e5b8 fdd0 313f
00000060: 8085 443e ae1c 16bd 7380 baaa 5994 aebc
00000070: 03cf afa0 a8cf f9ab d03d a2bd 1b75 d7bd
-0.00040863786 -0.13118164 -8.2828976e-08 -0.016587062 -1.29277e-07 -0.05830485 -0.7712199 -0.0047663334
-1.3345176e-05 -0.16071193 -0.029878534 -1.469213e-12 -0.0021134147 -0.00015580803 -0.018817725 -2.0188604e-06
-0.026590127 -1.7667349e-14 -9.0569345e-05 -0.021486452 -2.2551228e-09 0.57304233 -0.000109301036 0.69459516
0.19191551 -0.036648445 -3.3129367e-13 -0.021310972 -2.9783142e-19 -1.775015e-12 -0.07921946 -0.10520383

conv.3.weight f4 [64, 32, 3]
00000000: 92d3 0400 78f5 0a00 4677 0780 3b25 4c24
00000010: 5c24 8401 39f0 7ab4 5c1a 0500 8bcf 0400
00000020: e9cb 0500 3a8d b834 e652 7203 388a d4b7
00000030: 369c b681 80e2 1881 30ec 9f00 f282 0d00
00000040: 8e26 1b2b 98d4 3136 58e7 0000 7c69 0580
00000050: 85e9 0680 2262 0600 2946 0000 b536 0b00
00000060: 2749 0b00 8d72 0900 26d2 0b80 cb2c b401
00000070: afa1 0b00 58f5 8617 70d8 4081 0cf3 b721
00000080: 140e 6733 52f0 0880 8bcc 0580 2e21 0f80
00000090: 29e3 0900 e220 0800 3af9 0a00 4195 0100
000000a0: 85f6 0280 79d8 0b80 582d 0b00 fd18 0900
000000b0: 41b8 0100 6601 0980 572a 898e b202 0d80
000000c0: ee88 0500 1585 0200 c790 0b80 3242 2c18
000000d0: 97d8 0e00 740a 0b80 6c1b 0a80 95ca 0380
000000e0: 95a3 0180 8359 0500 a285 0c00 4314 0600
000000f0: d4fb 0180 fe09 0a00 f50d 0200 efbd 0200
00000100: 28db 480a a6e4 0800 67c8 0400 2f5c 0200
00000110: c78f 0780 0301 af90 1c5c b996 7097 9b81
00000120: 9b72 0280 5d76 0900 f315 0380 3764 0480
00000130: 8008 0f80 b03e 0380 3bdd 0100 360a 0780
00000140: 09a5 0e00 93db 9e1a 60a9 0380 fe08 c501
00000150: 0e0a 0380 cd50 0780 2006 0300 98cc 0880
00000160: 1d86 0300 e73d 0880 316e 0500 9569 0880
00000170: 53ef 0c80 c722 0880 f666 0a80 b33d 0000
00000180: 0d97 0100 1af3 b502 92a6 6ca4 7197 0100
00000190: 803b ff37 293b 0680 988a 0880 cc8f 0080
000001a0: c3f8 0480 0586 afa7 0c9f 0880 358d 0a80
000001b0: f42f 0880 3e53 0400 3bdb 0880 301c 6e28
000001c0: 8381 0080 2a98 b4b5 6c46 0480 ded9 0600
000001d0: fef3 0100 ecc8 0600 31d8 0180 4ff3 0d00
000001e0: 3a6f 0a80 6972 0a00 ea74 0300 aa36 172c
000001f0: 24b5 a198 4f46 0580 f3bc 0f00 b521 9893
00000200: 726a 0180 2f67 0c00 ddc9 0180 642c 0300
00000210: d788 0800 8180 0000 233c 0680 63fe 0080
00000220: f03b 0900 3db4 0280 a1db 0380 ff6a 0c80
00000230: c460 0100 4c8e b102 f006 a728 c436 3326
00000240: f0f6 0b00 9e53 0a80 2565 0480 634e 0580
00000250: 50b4 0480 496e 0e00 0a5b 0200 1e58 0400
00000260: 9eaa 0900 dd36 0980 9eae 0a00 d843 0980
00000270: cfaf 0380 a6e6 0380 9eba 0f00 a841 0a80
00000280: 9019 0600 0ddd 0080 e8a5 0680 189a 0080
00000290: d10a 0200 fab7 0880 38e6 0900 d1ba 0b80
000002a0: dced 0500 6767 0c80 2f9b 0b00 c26b 0a00
000002b0: 93d7 0600 ada8 0000 4eeb 0100 3db1 0680
000002c0: 7531 0280 5116 0280 0b60 ee8b 887a 1436
000002d0: 6302 0280 99cd 0180 ee0f 0300 6076 0780
000002e0: 18c1 0400 abc8 0700 40b8 0480 5e5c 0d80
000002f0: 82ce 0c00 57ad 0180 59b8 0a00 5319 0700
00000300: ac9d 3033 9b6d f933 2a8a 8833 f687 0ebd
00000310: 30fa 1cbd eb5d 28bd 6a28 2d33 b201 9e33
00000320: 1894 a233 e193 32bb b9ce 16bb dd6a f8ba
00000330: 1afb d290 977e 2791 15f7 558f d98f 0a80
00000340: 967e 9884 c780 5300 03f1 c0bc bc9c 08bd
00000350: 370b 3592 6e78 0882 e5cb 9622 35d8 8022
00000360: 6cfc 0900 3db9 0b80 022f 0a80 41b2 17bc
00000370: 11c5 6dbc 15e0 4abc 2686 babb 1cdd a3bb
00000380: 3327 9fbb a6d5 0380 b194 0000 5836 0080
00000390: 0656 0800 d695 b108 115c 918e 9858 0280
000003a0: 9e26 0c88 81e4 f512 95b3 a718 eb3c 8b23
000003b0: 71db a026 b13b 75b9 486e 7cb9 5514 92b9
000003c0: 4e4c 7eb9 043e 293c 5ba2 a83b 7707 0726
000003d0: 67d4 8126 816a 0f26 452e 0b80 2e6c 0780
000003e0: 7525 8706 705e 89ba ddae ddba b3d7 d6ba
000003f0: 0f7c 0380 4bb7 1906 43af 0b04 40d6 76bc
4.43239e-40 1.006413e-39 -6.85636e-40 4.4266984e-17 4.8541315e-38 -2.3370457e-07 4.68633e-40 4.41794e-40
5.32327e-40 3.4375427e-07 7.121257e-37 -2.5336733e-05 -6.7080393e-38 -2.8080497e-38 1.4686572e-38 1.240836e-39
5.512057e-13 2.6498801e-06 8.299e-41 -4.97018e-40 -6.34784e-40 5.86216e-40 2.5169e-41 1.029816e-39
1.036433e-39 8.67613e-40 -1.085578e-39 6.618583e-38 1.068192e-39 8.721481e-25 -3.5420117e-38 1.2464896e-18
5.3796683e-08 -8.20895e-40 -5.32554e-40 -1.389435e-39 9.08009e-40 7.4648e-40 1.00776e-39 1.45378e-40
-2.72106e-40 -1.087846e-39 1.026457e-39 8.35484e-40 1.57933e-40 -8.27021e-40 -3.381388e-30 -1.194828e-39
5.08299e-40 2.31412e-40 -1.062127e-39 2.22639e-24 1.363395e-39 -1.01394e-39 -9.28192e-40 -3.48179e-40
-1.50518e-40 4.91288e-40 1.149964e-39 5.58282e-40 -1.82174e-40 9.2194e-40 1.88678e-40 2.51806e-40
9.6708684e-33 8.16708e-40 4.39233e-40 2.1674e-40 -6.94426e-40 -6.902689e-29 -2.994649e-25 -5.715531e-38
-2.24784e-40 8.6898e-40 -2.8338e-40 -4.03292e-40 -1.380582e-39 -2.97995e-40 1.71198e-40 -6.46511e-40
1.3449e-39 6.570201e-23 -3.36267e-40 7.2379274e-38 -2.79113e-40 -6.71834e-40 2.77704e-40 -8.08078e-40
3.23617e-40 -7.5689e-40 4.98707e-40 -7.7256e-40 -1.18788e-39 -7.4716e-40 -9.5529e-40 2.2134e-41
1.46022e-40 2.6735093e-37 -5.1315433e-17 1.46162e-40 3.0426076e-05 -5.72236e-40 -7.84402e-40 -5.1585e-41
-4.56581e-40 -4.871756e-15 -7.91739e-40 -9.6901e-40 -7.51886e-40 3.97204e-40 -8.13329e-40 1.3217766e-14
-4.646e-41 -1.3455331e-06 -3.92605e-40 6.29169e-40 1.79363e-40 6.2309e-40 -1.6939e-40 1.281144e-39
-9.58256e-40 9.59398e-40 3.17447e-40 2.1488735e-12 -4.180043e-24 -4.844e-40 1.445315e-39 -3.8403432e-27
-1.30021e-40 1.139041e-39 -1.6425e-40 2.91431e-40 7.83773e-40 4.6099e-41 -5.72586e-40 -9.1257e-41
8.48021e-40 -2.48328e-40 -3.54294e-40 -1.140409e-39 1.26548e-40 2.6089487e-37 1.8543733e-14 6.217732e-16
1.098775e-39 -9.48351e-40 -4.03626e-40 -4.87297e-40 -4.32026e-40 1.32526e-39 2.1633e-40 3.98952e-40
8.87725e-40 -8.46201e-40 9.80996e-40 -8.50857e-40 -3.38575e-40 -3.58248e-40 1.444478e-39 -9.41908e-40
5.60183e-40 -7.9298e-41 -6.10529e-40 -5.5278e-41 1.87551e-40 -8.00682e-40 9.09106e-40 -1.077208e-39
5.44505e-40 -1.13912e-39 1.06586e-39 9.57011e-40 6.28346e-40 6.051e-41 1.76247e-40 -6.14594e-40
-2.01413e-40 -1.91677e-40 -9.1818775e-32 2.2125041e-06 -1.84527e-40 -1.6559e-40 2.81221e-40 -6.85313e-40
4.36611e-40 7.14835e-40 -4.33438e-40 -1.226997e-39 1.176107e-39 -1.54018e-40 9.84486e-40 6.51933e-40
4.1121595e-08 1.1614903e-07 6.3581254e-08 -0.03479763 -0.038324535 -0.041105192 4.0316458e-08 7.357757e-08
7.570651e-08 -0.0027248787 -0.00230114 -0.0018952746 -8.321728e-29 -1.3212986e-28 -1.0549297e-29 -9.69958e-40
-3.585128e-36 7.668543e-39 -0.023552423 -0.0333526 -5.7127353e-28 -1.0026264e-37 4.0873463e-18 3.4923388e-18
9.17071e-40 -1.076641e-39 -9.35218e-40 -0.009258808 -0.014512316 -0.012382527 -0.0056922613 -0.0050007235
-0.004856968 -3.52149e-40 5.334e-41 -1.9495e-41 7.65543e-40 1.0688026e-33 -3.5833916e-30 -2.15452e-40
-4.217511e-34 1.5518004e-27 4.334982e-24 1.509621e-17 1.116171e-15 -0.00023387258 -0.00024073676 -0.0002786244
-0.00024251753 0.010329727 0.0051463074 4.684765e-16 9.008745e-16 4.975743e-16 -1.026789e-39 -6.81656e-40
5.0836394e-35 -0.0010480415 -0.0016913075 -0.0016391188 -3.2001e-40 2.8910764e-35 1.6419848e-36 -0.01506573

conv.3.bias f4 [64]
00000000: 933e 81bc 6e4d f0b2 10b3 24be 0ad3 f9bc
00000010: 2804 31bb 98cc f027 f828 efb5 50d6 acb3
00000020: b66c 6dbc d2a5 b8bb 5efd 08bc 769f e0bb
00000030: 0d99 a0bc faa0 93bd 51cd 6ab9 a3a8 88bf
00000040: dc72 b6ad 0fdd 2cb7 f8ec 71bc beaa d43b
00000050: 75eb 68bb 23ec b6bd acf9 4abc 8e8c 4dbb
00000060: f739 aabd d059 88a2 9cc8 79bc 0ef7 f3bc
00000070: 8fda 0bbc ff0a edb1 e3b6 c3be 59b1 abbd
00000080: ed94 c7bc fed7 92bd 8510 34bc 5053 9cbc
00000090: bbf0 b1a5 e396 06ab aaf2 6dbe 089a 36bc
000000a0: e2ee ad8b 1b9b 9daf 3293 31bd 28a9 56b9
000000b0: 156c c5b4 25c2 b4bc d5f6 2dbd ccb5 3fbc
000000c0: 6908 60bc 363c ab8e 2a9b dbbc b9d2 f0bc
000000d0: 4925 d78e bccd e7bb d244 65a5 507d b0bc
000000e0: d863 72bc fe0f 15a9 b91c 0fbe d2f0 d3be
000000f0: 12c0 9ab9 6a17 93ae 3392 0abd 8d59 18be
-0.015776908 -2.7974888e-08 -0.16083932 -0.03049614 -0.0027010534 6.6835202e-15 -1.7818811e-06 -8.0483574e-08
-0.014491251 -0.0056350017 -0.008361189 -0.0068549467 -0.01960423 -0.07208438 -0.00022392465 -1.0676464
-2.0742012e-11 -1.0303468e-05 -0.01476597 0.0064900806 -0.0035540734 -0.08931758 -0.012388628 -0.0031364295
-0.08311837 -3.6957967e-18 -0.015245583 -0.02978089 -0.008535995 -6.898858e-09 -0.3822547 -0.08383436
-0.024363006 -0.071701035 -0.010990267 -0.019082695 -3.086773e-16 -4.781576e-13 -0.232371 -0.011145122
-6.6996607e-32 -2.8668343e-10 -0.043353267 -0.00020471646 -3.677275e-07 -0.022065232 -0.042471725 -0.011701059
-0.01367388 -4.2212736e-30 -0.026807386 -0.029397355 -5.3037496e-30 -0.007074086 -1.9885901e-16 -0.021544129
-0.014794312 -3.3098517e-14 -0.139758 -0.4139467 -0.00029516272 -6.688945e-11 -0.033830833 -0.14877911

fc.weight f4 [1, 64]
00000000: 4cef 40bc ce83 6234 d411 083e e227 b33a
00000010: 72cd 95b8 5fa9 e2a7 e01d 68b4 8e62 27b1
00000020: 2688 e1b9 4ed2 daba 5f5c 32bb f5d9 1d3f
00000030: 2483 843a 0844 8c3e 697c 483a 2134 6fbf
00000040: 833a 9832 4801 3cba cd14 6f3c f105 44bd
00000050: 1eb5 823a fd9e e83d 8adc 8b3e 901c 8e3e
00000060: af4b 253f 87e2 4fa9 2cfd 7e3e 030b 1f3f
00000070: 314a 75ba 0195 32b8 f32e a6bf 7073 d03d
00000080: 02bb 543e f3d5 b03d 0c42 92bb 29f3 653c
00000090: 1ab4 911c 6da5 4437 1678 a1bd b42c d53a
000000a0: 40e9 bb35 9a2e 6cab 047a 66bc 465f 94b6
000000b0: 68e6 c231 99e0 cdbb 9f37 173f a1eb f93d
000000c0: 16d3 883e 5811 f199 f3ec 9e3e 0d7c ba3a
000000d0: a8cb c905 8c4a a63e 0d0b 36a8 50e8 d23d
000000e0: b594 7dbb 8a02 2438 bab8 89bd cdf3 c0bf
000000f0: 907d 913a c0fb 8538 faea 1d3b b1c3 c03d
-0.011775803 2.109584e-07 0.13288051 0.0013668502 -7.143141e-05 -6.2911233e-15 -2.1617552e-07 -2.435772e-09
-0.00043016783 -0.0016694756 -0.0027215702 0.616607 0.0010109884 0.27395654 0.0007647933 -0.9343892
1.7721737e-08 -0.0007171822 0.014592362 -0.04785723 0.000997219 0.113584496 0.27316695 0.27756166
0.6456861 -4.6159714e-14 0.24901265 0.6212618 -0.00093570637 -4.2577278e-05 -1.2983078 0.10178268
0.20774463 0.086345576 -0.00446344 0.014035025 9.64185e-22 1.1721027e-05 -0.07884233 0.0016263933
1.400047e-06 -8.3908715e-13 -0.014067177 -4.421835e-06 5.6723373e-09 -0.0062828776 0.59069246 0.12203146
0.26723546 -2.4925821e-23 0.31040153 0.0014227644 1.897676e-35 0.3247875 -1.0105426e-14 0.10298216
-0.0038693373 3.910301e-05 -0.06724687 -1.5074402 0.0011100043 6.388826e-05 0.0024096356 0.09412325
