experiments/cnn/v4/cnn_last_model.pth (torch, 40653 bytes, 13 tensors)

conv.0.weight f4 [32, 20, 3]
0	0xbe0abf1b	-0.13549463
1	0xbe59e015	-0.21276887
2	0xbe4a5520	-0.19759035
3	0xbe1f3207	-0.15546428
4	0x3d9877a5	0.074446954
5	0x3d113dc5	0.0354593
6	0x3c6bcae4	0.014391635
7	0x3c0eceb6	0.008716276
8	0x3d1a4797	0.03766593
9	0x3e084654	0.13308078
10	0x3de3eacf	0.111287706
11	0xbdf0739d	-0.117408015
12	0x3c93e735	0.018054584
13	0xbd540b4f	-0.051768597
14	0xbe8252d5	-0.2545382
15	0x3aab0693	0.0013048224
16	0xbc663b9c	-0.014052298
17	0xbbb021ea	-0.0053751366
18	0x3cd59724	0.026073046
19	0x3d1bcd62	0.038037665
20	0xbd228458	-0.039676994
21	0x3eb92561	0.3616133
22	0x3ebb9487	0.36636755
23	0x3e4f90cd	0.20270081
24	0x3c8e3139	0.017357456
25	0xbcda1975	-0.026623467
26	0xbe164c6b	-0.14677589
27	0xbcc6ee91	-0.02428368
28	0xbd1632d5	-0.03666957
29	0xbdd32f60	-0.103117704
30	0xbba68020	-0.0050811917
31	0xbd19aae3	-0.037516486
32	0xbd9e69c9	-0.07735021
33	0xbc56633b	-0.013085182
34	0xbd3739aa	-0.044732727
35	0xbe7cb8a2	-0.24679807
36	0x3d075781	0.033042435
37	0x3bb521b1	0.005527698
38	0xbdc71fdd	-0.09722874
39	0x3c2ff2f0	0.010739073
40	0xbd09e149	-0.033662114
41	0xbdec175a	-0.115278915
42	0xbc6b1f86	-0.0143507775
43	0x38f6cd69	0.00011768455
44	0x3d0bc5d3	0.034124207
45	0x3cd1843f	0.025575755
46	0x3cee0c74	0.029058672
47	0xbd649e2f	-0.055814918
48	0x3c8009c0	0.01562965
49	0xbdadbe69	-0.084835835
50	0x3d486b89	0.04893068
51	0x3d7bdccf	0.061489876
52	0xbb39ab5b	-0.0028330896
53	0x3d1d7425	0.038440842
54	0x3daa4f29	0.0831588
55	0x3e8ede9e	0.27904218
56	0xbda62a73	-0.08113565
57	0xbbbc4634	-0.0057456736
58	0xbe190a68	-0.14945376
59	0xbe492edb	-0.1964678
60	0x3ddb36c6	0.107038066
61	0xbd3a5195	-0.04548796
62	0xbe39ca0b	-0.1814348
63	0xbe7c24cb	-0.2462341
64	0x3da36a9e	0.0797932
65	0x3e9345c2	0.28764158
66	0xbdd1660d	-0.10224543
67	0xbda6d8dc	-0.081468314
68	0xbceaae3b	-0.028647533
69	0x3af0e4f2	0.0018378778
70	0x3c95a648	0.018267766
71	0x3dd13a09	0.102161475
72	0x3dac7457	0.084206276
73	0x3b12e074	0.0022411617
74	0xbd2ee879	-0.042702172
75	0x3d25f9b2	0.04052133
76	0x3b5253fd	0.0032093518
77	0xbc8ca203	-0.017167097
78	0xbd2b31bc	-0.041795477
79	0x3e604a9d	0.21903463
80	0x3eb1e18d	0.34742394
81	0x3edc4d65	0.43027797
82	0x3e8b6144	0.27222645
83	0x3e749cb2	0.238879
84	0xbd762bc8	-0.060100347
85	0x3ce1b415	0.02755169
86	0xbd030516	-0.031987272
87	0xbdc1298f	-0.09431755
88	0x3ccb164f	0.024790911
89	0xbc188fe7	-0.009311653
90	0x3adcea55	0.0016854504
91	0xbcddb880	-0.027065516
92	0xbd12f906	-0.03588202
93	0x3c402259	0.011726939
94	0xbd1ca578	-0.03824374
95	0x3c37158e	0.011174573
96	0xbcd5edcc	-0.026114367
97	0x3cfb43c1	0.030671956
98	0x3ca76412	0.02043346
99	0x3b81334f	0.003942884
100	0xbd30ac47	-0.043133046
101	0xbd7a4ff8	-0.06111142
102	0x3bba93be	0.005693882
103	0x3cfe4abb	0.031041494
104	0x3d86680d	0.06562815
105	0x3d00468e	0.031317286
106	0xbc60a7f7	-0.013711921
107	0x3ced0b1c	0.028935961
108	0xbd528746	-0.051398538
109	0xbc31492a	-0.010820666
110	0x3da330b3	0.07968273
111	0xbbaad593	-0.0052134483
112	0x39efc4bb	0.00045732208
113	0x3a251b17	0.0006298287
114	0x3c34008c	0.0109864585
115	0xbd59ab6c	-0.053141996
116	0xbdda02af	-0.10645043
117	0x3c849175	0.01618264
118	0x3d4e2c40	0.05033517
119	0x3d5bd4a0	0.053669572
120	0x3b9dec26	0.004819411
121	0x3cceaee5	0.02522988
122	0x3d2d7b43	0.04235388
123	0xbc8bf6d8	-0.017085478
124	0x3aa04527	0.001222764
125	0xbd86a19a	-0.06573792
126	0xbc32fb65	-0.010924195
127	0x3d8ac800	0.06776428
128	0xbe0016d7	-0.12508713
129	0xbe4b3b8a	-0.19846931
130	0xbd626ed0	-0.05528146
131	0xbd7e68b4	-0.06211157
132	0xbda6a173	-0.08136263
133	0x3c59764a	0.013272831
134	0x3b9ebf8a	0.0048446106
135	0xbccfb65e	-0.025355514
136	0x3c4b37fb	0.0124034835
137	0xbd597574	-0.053090528
138	0xbe13f776	-0.14449868
139	0xbce6fafc	-0.02819585
140	0x3db066b9	0.08613343
141	0xbec02a58	-0.37532306
142	0xbdce176c	-0.10063061
143	0xbd31d94b	-0.043420117
144	0xbe388f89	-0.18023504
145	0x3d3939ed	0.045221258
146	0xbcada7c1	-0.021198155
147	0xbd808c95	-0.06276814
148	0x3d6faf60	0.05851686
149	0xbcd1d630	-0.025614828
150	0xbe27cbfd	-0.16386409
151	0x3c97288e	0.018451955
152	0xbd533723	-0.051566254
153	0xbe8401fb	-0.2578276
154	0x3b59d68d	0.0033239454
155	0x3d47cb02	0.048777588
156	0xbb06c6d1	-0.002056528
157	0x3c06afa9	0.008220592
158	0xbcf90b9a	-0.03040104
159	0xbe57b7db	-0.21066229
160	0x3bdbae84	0.0067041535
161	0x39806efa	0.00024496746
162	0xbb88f2ac	-0.0041793194
163	0x3be3f102	0.0069562206
164	0xbdc1d0cd	-0.09463654
165	0xbd868c3a	-0.06569715
166	0xbcb9d079	-0.022682415
167	0x3d756ab2	0.059916206
168	0xbe00429d	-0.12525411
169	0x3cdb692c	0.026783548
170	0xbd8794e3	-0.06620195
171	0x3a1102b7	0.00055317156
172	0xbb2acf66	-0.002606356
173	0xbaf85159	-0.0018945142
174	0xbdb81fe8	-0.08990461
175	0xbdac810d	-0.08423052
176	0xbd0e5708	-0.03475097
177	0x3c00bede	0.007858006
178	0x3d856649	0.0651365
179	0xbca2994b	-0.019848486
180	0x3e68a85c	0.22720474
181	0x3dc9e579	0.098582216
182	0x3e32d3aa	0.17463556
183	0x3ea1fb8b	0.31637225
184	0x3eccd6cb	0.40007624
185	0xbe7925f0	-0.24330878
186	0xbe6b9042	-0.23004249
187	0xbcdc2670	-0.026873797
188	0x3d64f972	0.055901952
189	0xbce07d32	-0.027403448
190	0x3c85ea53	0.016347086
191	0xbd768e48	-0.060194284
192	0xbd0aafb5	-0.033858974
193	0xbca7b2e0	-0.020471036
194	0xbd929d5c	-0.0715892
195	0x3d362b11	0.044474665
196	0x3d99a606	0.075023696
197	0xbd698ad8	-0.057017177
198	0x3cb8665b	0.022509744
199	0x3e652b3c	0.22379774
200	0xbe87e403	-0.26541147
201	0x3f16f4aa	0.5896708
202	0x3f25c596	0.6475462
203	0x3e85c8c4	0.26129735
204	0x3d1e77ee	0.038688593
205	0x3e0f2648	0.13979447
206	0x3d4d93e7	0.05018988
207	0x3d94a531	0.0725807
208	0x3cea5fea	0.028610189
209	0xbd081da7	-0.033231404
210	0xbd8aa5cd	-0.06769905
211	0xbaccec41	-0.0015634374
212	0xbcf3cde9	-0.029761272
213	0xbe2f8f09	-0.17144407
214	0xbd9b7be4	-0.0759199
215	0x3d9e0131	0.07715071
216	0xbd09d4f6	-0.03365036
217	0xbd1a215a	-0.037629463
218	0x3d5f7dfd	0.05456351
219	0x3d467852	0.04845459
220	0x3db43f2d	0.08801112
221	0xbd6e6deb	-0.058210295
222	0xbd9b94e6	-0.075967595
223	0xbbcc61c5	-0.006237241
224	0xbbc12929	-0.0058947993
225	0xbe19b5d1	-0.15010764
226	0xbd764b74	-0.06013055
227	0x3ced6508	0.02897884
228	0xbe360b69	-0.1777779
229	0xbc91fceb	-0.017820796
230	0x3bf0a316	0.00734366
231	0x3d9d5b99	0.076834865
232	0x3d26685c	0.04062687
233	0x3ce3501a	0.027748156
234	0x3c94aaf3	0.018147921
235	0xbc15b74c	-0.00913794
236	0xbdc58b77	-0.096457414
237	0xbd995fda	-0.07488985
238	0xb828116c	-4.0070547e-05
239	0x3d32589d	0.04354154
240	0xbd9148c8	-0.0709396
241	0xbe0220b1	-0.12707783
242	0x3e63bfb1	0.22241093
243	0xbe48e829	-0.19619812
244	0xbe7ff1ac	-0.24994534
245	0x3f02bbc6	0.5106777
246	0x3da3e4ea	0.08002646
247	0xbd18a3d4	-0.037265614
248	0xbccc373a	-0.024928678
249	0xbdb0c1d6	-0.08630721
250	0x3d4e1d58	0.050320953
251	0xbdaa96f6	-0.08329575
252	0xbd230769	-0.03980199
253	0xbdc6e258	-0.097111404
254	0xbde38e83	-0.11111166
255	0xbc24aec5	-0.010051434

conv.0.bias f4 [32]
0	0x38a2ffcf	7.77241e-05
1	0x37efdda0	2.8594222e-05
2	0xb80b2352	-3.3173077e-05
3	0x37b081ec	2.1041335e-05
4	0xb61c4240	-2.3284374e-06
5	0xb88ff814	-6.8649795e-05
6	0x3884edae	6.338522e-05
7	0xb890823c	-6.890713e-05
8	0x38ce5043	9.8377954e-05
9	0x368e4428	4.239864e-06
10	0xb9295941	-0.00016150346
11	0x3881dee3	6.192715e-05
12	0x390d3c27	0.00013469216
13	0xb728ddd4	-1.0065229e-05
14	0xb84a0a86	-4.8170354e-05
15	0x3323bb12	3.8121534e-08
16	0xb986a23e	-0.00025679352
17	0xb81974a2	-3.6586665e-05
18	0xb8c596d0	-9.421783e-05
19	0x388fab3c	6.850666e-05
20	0xb897340d	-7.209936e-05
21	0x37a68b9e	1.9853756e-05
22	0xb7d24166	-2.5064404e-05
23	0x37eb207c	2.802931e-05
24	0xb72b1454	-1.0197127e-05
25	0xb88849c8	-6.498728e-05
26	0xb8b0955c	-8.420154e-05
27	0xaa075c6c	-1.2022474e-13
28	0x38374efa	4.3704153e-05
29	0x3706d968	8.037641e-06
30	0x1e4f3cc9	1.0971059e-20
31	0x383560d9	4.324396e-05

conv.1.weight f4 [32]
0	0x3e8e801c	0.27832115
1	0x3ed3af2e	0.4134459
2	0x3e3f1bf1	0.18663003
3	0x3f05997a	0.5218731
4	0x3eab0cca	0.33408195
5	0x3d8e31f1	0.06943119
6	0x3ecaf28f	0.39638183
7	0x3ed191e9	0.40931633
8	0x3ed811e9	0.42201164
9	0x3e4bda15	0.1990741
10	0x3f10edef	0.5661306
11	0x3eaf0497	0.3418319
12	0x3ed540a8	0.4165089
13	0x3ecf1d02	0.4045182
14	0x3eb3844b	0.3506187
15	0x3bbccb1a	0.0057615163
16	0x3ef33691	0.47502568
17	0x3eb1abca	0.34701377
18	0x3ebf442f	0.37356707
19	0x3ee2bff3	0.4428707
20	0x3e94b0f8	0.29041266
21	0x3f12b956	0.5731405
22	0x3e6fe623	0.23427634
23	0x3e7b01b7	0.24512373
24	0x3ce31da9	0.027724104
25	0x3ee038bf	0.43793294
26	0x3f1094d4	0.56477094
27	0x3026adfd	6.06377e-10
28	0x3ecdf550	0.4022622
29	0x3f2ca409	0.674378
30	0xb6f4811b	-7.2867965e-06
31	0x3dac2b23	0.08406665

conv.1.bias f4 [32]
0	0xbe2edf7f	-0.17077444
1	0xbe5ab239	-0.21357049
2	0xbe135737	-0.14388739
3	0xbf05ab27	-0.5221428
4	0xbec8b211	-0.39198354
5	0xbcbd64a0	-0.02311927
6	0x3db2e176	0.087344095
7	0xbda054c3	-0.07828667
8	0xbdd4d204	-0.1039162
9	0xbdebe037	-0.11517375
10	0x3de5a2f2	0.1121272
11	0x3d329d35	0.043606956
12	0xbd95cd7d	-0.073145844
13	0x3cf1f11c	0.029533915
14	0xbeb268ba	-0.34845525
15	0xbabfa1ea	-0.0014620398
16	0xbdbfd5f1	-0.09366978
17	0xbd707c80	-0.058712482
18	0x3bfdcf8d	0.0077456892
19	0xbe2046c3	-0.15651993
20	0x3d9e72cc	0.077367395
21	0x3d2f7b01	0.042841915
22	0xbe65038a	-0.22364631
23	0xbe1033d0	-0.14082265
24	0xbd46aa65	-0.048502345
25	0xbe543e7c	-0.20726961
26	0x3d3159b4	0.04329844
27	0xa216f88a	-2.0460366e-18
28	0xbd5af5bf	-0.053457018
29	0xbe97d971	-0.29658082
30	0xae0a1d0f	-3.1403376e-11
31	0x3bbf266c	0.0058334377

conv.1.running_mean f4 [32]
0	0x3da09bda	0.07842226
1	0x3f450278	0.7695689
2	0xbf8fd798	-1.1237669
3	0x3f6b56cb	0.9192931
4	0xbeb74830	-0.35797262
5	0x3b4a4e3e	0.003086939
6	0x3f9dff46	1.2343528
7	0x3f8e3c32	1.111212
8	0x3e98a2ca	0.29811698
9	0x3dd21183	0.10257246
10	0x3ed8e5ee	0.42362922
11	0x3fbb062c	1.4611259
12	0x3f7962a0	0.97416115
13	0x3f4293cd	0.76006776
14	0x3e84323b	0.25819573
15	0x36a7871b	4.992716e-06
16	0x3f71a21a	0.9438797
17	0x3f8d7b9a	1.1053345
18	0x3f60cec4	0.878155
19	0x3f1af9e5	0.6053756
20	0x3f9c9f2d	1.2236077
21	0x3e7b8102	0.24560931
22	0xbf31fe78	-0.69528913
23	0xbe074ba3	-0.13212447
24	0x3c1d6d19	0.00960853
25	0x3efc0406	0.4922182
26	0xbf559177	-0.83425087
27	0x27c40b8f	5.441346e-15
28	0x3f4d957e	0.8030623
29	0x3e984013	0.29736385
30	0x9c514bfb	-6.92505e-22
31	0xbcde2ae8	-0.027120069

conv.1.running_var f4 [32]
0	0x3e0e2f0d	0.13885136
1	0x3e4f0c0a	0.20219436
2	0x3d9f043c	0.077644795
3	0x3e8cc1d9	0.27491644
4	0x3d2ea869	0.042641077
5	0x3c12696b	0.008936266
6	0x3e4ae872	0.19815233
7	0x3e45c400	0.1931305
8	0x3dd16880	0.1022501
9	0x3d63adc1	0.055585627
10	0x3e0634f9	0.13106145
11	0x3e604cc0	0.21904278
12	0x3e5b56c7	0.21419822
13	0x3e218970	0.15775084
14	0x3e32b3b5	0.17451365
15	0x31953017	4.341938e-09
16	0x3e363e9c	0.17797321
17	0x3e581d4f	0.2110493
18	0x3e34577d	0.17611499
19	0x3e4af9e7	0.19821893
20	0x3e1a67fa	0.15078726
21	0x3e35ffeb	0.17773406
22	0x3d618195	0.05505522
23	0x3dda7323	0.10666492
24	0x38e116f3	0.00010733111
25	0x3e45790a	0.19284454
26	0x3e62a9e0	0.22135115
27	0x00000004	6e-45
28	0x3e488412	0.19581631
29	0x3e17b18d	0.14813824
30	0x00000004	6e-45
31	0x3d91a35e	0.07111238

conv.4.weight f4 [64, 32, 3]
0	0x8004a4c1	-4.26445e-40
1	0x0004b46c	4.32065e-40
2	0x00005726	3.1263e-41
3	0x800b8aaf	-1.059941e-39
4	0x80069589	-6.04656e-40
5	0x8009bcc4	-8.94236e-40
6	0x8006c8e6	-6.23082e-40
7	0x80038657	-3.23699e-40
8	0x8002e652	-2.66294e-40
9	0x00045e66	4.01206e-40
10	0x800836fc	-7.54409e-40
11	0x8009549a	-8.56869e-40
12	0x0001e46d	1.73779e-40
13	0x0004d1b4	4.42569e-40
14	0x0008ec85	8.19531e-40
15	0x00064966	5.77343e-40
16	0x000b8075	1.056272e-39
17	0x80096fc2	-8.6661e-40
18	0x000e5553	1.316306e-39
19	0x800391a7	-3.27757e-40
20	0x80005722	-3.1257e-41
21	0x000ac771	9.89901e-40
22	0x8001864d	-1.40014e-40
23	0x80017c98	-1.36531e-40
24	0x0008a618	7.94267e-40
25	0x0002bcb1	2.51361e-40
26	0x80038a62	-3.25149e-40
27	0x800fa4dd	-1.436674e-39
28	0x800b06cd	-1.01263e-39
29	0x000d5759	1.225196e-39
30	0x00077403	6.84466e-40
31	0x000f1c92	1.387782e-39
32	0x000f2f33	1.394464e-39
33	0x0006ae4a	6.13536e-40
34	0x8007fea7	-7.342e-40
35	0x0002625a	2.18953e-40
36	0x8000b3f4	-6.4555e-41
37	0x800c8291	-1.148864e-39
38	0x800e145b	-1.292999e-39
39	0x00097821	8.69614e-40
40	0x000a648e	9.54427e-40
41	0x80051839	-4.67867e-40
42	0x000052b7	2.9672e-41
43	0x800fb2f5	-1.44173e-39
44	0x0002dafc	2.62228e-40
45	0x000a7897	9.61614e-40
46	0x000e4f63	1.314176e-39
47	0x80098b1d	-8.76424e-40
48	0x000d6cc1	1.232875e-39
49	0x000e8039	1.331695e-39
50	0x0006669b	5.87821e-40
51	0x80053a19	-4.80019e-40
52	0x80053ddd	-4.8137e-40
53	0x800bef91	-1.09613e-39
54	0x8002bce9	-2.51439e-40
55	0x800a98b8	-9.7314e-40
56	0x8006ac49	-6.12817e-40
57	0x00049f37	4.24458e-40
58	0x800b1ea7	-1.021186e-39
59	0x8002b5bc	-2.48865e-40
60	0x0007b141	7.06435e-40
61	0x0005ca30	5.31709e-40
62	0x800166b2	-1.28676e-40
63	0x00056c5b	4.98048e-40
64	0x000b38a4	1.030509e-39
65	0x000bb24f	1.074156e-39
66	0x800e8426	-1.333103e-39
67	0x000600be	5.51279e-40
68	0x80059227	-5.11607e-40
69	0x8007ac4a	-7.04654e-40
70	0x800b5d30	-1.04362e-39
71	0x0002e241	2.64836e-40
72	0x80018853	-1.4074e-40
73	0x00020829	1.86598e-40
74	0x000bbdc9	1.078273e-39
75	0x00064815	5.76871e-40
76	0x80010e39	-9.6938e-41
77	0x80061d77	-5.61583e-40
78	0x00057ade	5.03254e-40
79	0x8006a786	-6.11109e-40
80	0x0005ed49	5.443e-40
81	0x8000562d	-3.0914e-41
82	0x000249bb	2.1012e-40
83	0x800cf080	-1.188301e-39
84	0x00034b2e	3.02476e-40
85	0x800d994e	-1.248857e-39
86	0x80048536	-4.15129e-40
87	0x0009dbd0	9.05373e-40
88	0x000c4f4b	1.130471e-39
89	0x000fa5dd	1.437033e-39
90	0x80056638	-4.95847e-40
91	0x0002d247	2.59104e-40
92	0x8002567f	-2.147e-40
93	0x000e1450	1.292984e-39
94	0x000dd46d	1.270065e-39
95	0x0007de9f	7.2271e-40
96	0x0001d170	1.66968e-40
97	0x8002e1f9	-2.64735e-40
98	0x80036374	-3.11184e-40
99	0x8008ba2f	-8.01474e-40
100	0x0ab391af	1.7291873e-32
101	0x0002ecd7	2.68633e-40
102	0x9cb84f68	-1.2196625e-21
103	0xaff0edc9	-4.3824702e-10
104	0x2d7d30ef	1.439225e-11
105	0x000ad836	9.95917e-40
106	0x00025618	2.14556e-40
107	0x00052f5a	4.76164e-40
108	0x000463bd	4.03121e-40
109	0x244da5bf	4.459268e-17
110	0x9e201d04	-8.47633e-21
111	0x9bb7ffa3	-3.0440012e-22
112	0xaa8e490e	-2.527496e-13
113	0x25c51f79	3.419538e-16
114	0x8718a479	-1.1483543e-34
115	0x145cf0a0	1.11546165e-26
116	0x01a75853	6.147285e-38
117	0x8a0b88b2	-6.718316e-33
118	0x11520ae5	1.6569436e-28
119	0x17552dba	6.8881727e-25
120	0x00034cd6	3.0307e-40
121	0x8fcba90c	-2.008246e-29
122	0x97a2be0c	-1.0516979e-24
123	0x908dfc59	-5.6003497e-29
124	0x94cf3fb7	-2.092679e-26
125	0x80067996	-5.9463e-40
126	0xaadeee47	-3.960046e-13
127	0xaddc4f02	-2.504619e-11
128	0xad048f09	-7.5350915e-12
129	0x0000279e	1.4212e-41
130	0x80044b07	-3.94257e-40
131	0x0008e683	8.17376e-40
132	0x80031744	-2.83853e-40
133	0x13642e39	2.8800435e-27
134	0x801c022d	-2.572174e-39
135	0x19874e0b	1.3990194e-23
136	0x228ac71f	3.7615803e-18
137	0x10d86bb7	8.536294e-29
138	0x0005d950	5.37135e-40
139	0x000d17af	1.202358e-39
140	0x00032c22	2.91338e-40
141	0x0004887c	4.16303e-40
142	0x31092fe4	1.9963347e-09
143	0xa8a3319b	-1.8118148e-14
144	0x86825960	-4.903189e-35
145	0x1df96c64	6.6021824e-21
146	0x04729c05	2.8518604e-36
147	0x8004321c	-3.85318e-40
148	0x0188092e	4.997168e-38
149	0x85673da9	-1.0872893e-35
150	0x0446d07f	2.3370525e-36
151	0x11ffac0a	4.0337933e-28
152	0x86d1e2ab	-7.895012e-35
153	0x0f32c636	8.8142516e-30
154	0x1f41dfb2	4.1054376e-20
155	0x16ebf065	3.8118008e-25
156	0x80032bc9	-2.91214e-40
157	0x8c0256f0	-1.0040998e-31
158	0x1e01aec0	6.8653406e-21
159	0xa0920137	-2.4734166e-19
160	0x98900f03	-3.7238286e-24
161	0x14e588f7	2.3177114e-26
162	0x0002c00d	2.52566e-40
163	0xa0b0f6bb	-2.9978832e-19
164	0x2c2dbd18	2.4689747e-12
165	0x27911379	4.0266697e-15
166	0x9d81e963	-3.438733e-21
167	0x90c72b6f	-7.855858e-29
168	0xa21d660f	-2.1331497e-18
169	0x9a9e3cb3	-6.5445333e-23
170	0x9cc23cb4	-1.2853534e-21
171	0x155a0510	4.4028743e-26
172	0x23295598	9.1796335e-18
173	0x890b21fd	-1.6747498e-33
174	0xa6151592	-5.1723993e-16
175	0xa7748d01	-3.393824e-15
176	0xa38351e4	-1.423773e-17
177	0x800ab89d	-9.84582e-40
178	0x000229c4	1.98654e-40
179	0x80058346	-5.0627e-40
180	0x1649c64d	1.6299223e-25
181	0x1ae095f9	9.288652e-23
182	0x14478556	1.0073228e-26
183	0x290a6e6e	3.0737938e-14
184	0xa82b23a3	-9.500134e-15
185	0xa8efb62f	-2.661334e-14
186	0x8003d2d1	-3.51133e-40
187	0x8000d5e9	-7.6737e-41
188	0x000725f0	6.56458e-40
189	0x800853a0	-7.64683e-40
190	0x9bbfdecf	-3.1742286e-22
191	0x1db7219e	4.8474456e-21
192	0x097ff452	3.0809387e-33
193	0x8a0e4edf	-6.851885e-33
194	0x099eecf2	3.825994e-33
195	0x88c9ad30	-1.2137964e-33
196	0x8a1c6d98	-7.531739e-33
197	0x8ad7cff0	-2.0781964e-32
198	0x08b525d8	1.0902438e-33
199	0x0b407fcd	3.7074002e-32
200	0x86fa4890	-9.414617e-35
201	0x88fcd406	-1.5216545e-33
202	0x8884761c	-7.972228e-34
203	0x891aae02	-1.8618894e-33
204	0x0895fb46	9.026685e-34
205	0x88668877	-6.937352e-34
206	0x05c8a8db	1.8869937e-35
207	0x08b4df7c	1.0885897e-33
208	0x07e0574a	3.3755078e-34
209	0x0904637d	1.5935701e-33
210	0x8b103fe9	-2.7781472e-32
211	0x8aaae770	-1.6457462e-32
212	0x0a406859	9.264089e-33
213	0x890b45f2	-1.6764405e-33
214	0x88c896fe	-1.207256e-33
215	0x0ad2e516	2.0308437e-32
216	0x0a7f191e	1.22825274e-32
217	0x0a3e0973	9.1499444e-33
218	0x89511e9a	-2.5171849e-33
219	0x893dfd8f	-2.286927e-33
220	0x0b367314	3.51385e-32
221	0x09d89615	5.2141245e-33
222	0x0b2f8721	3.3805434e-32
223	0x0b057cf2	2.5708867e-32
224	0x8aa274ac	-1.564392e-32
225	0x8a422072	-9.3468625e-33
226	0x89e5e69d	-5.5346612e-33
227	0x09b4edb5	4.3556962e-33
228	0x0abb5014	1.8037567e-32
229	0x0a1adfb0	7.456901e-33
230	0x878a0d46	-2.0771734e-34
231	0x8afd0905	-2.4366407e-32
232	0x8a92d8e0	-1.4140868e-32
233	0x8a34475d	-8.680107e-33
234	0x0906cf41	1.6227114e-33
235	0x0a0c7528	6.7627894e-33
236	0x871d4547	-1.1831726e-34
237	0x000213d9	1.90791e-40
238	0x0002574a	2.14984e-40
239	0x8000dbfd	-7.8917e-41
240	0x0a8941ef	1.3217422e-32
241	0x08f40d3e	1.4688329e-33
242	0x896079de	-2.702032e-33
243	0x0ad49457	2.0470657e-32
244	0x09b56134	4.3665574e-33
245	0x08bee854	1.1489829e-33
246	0x8a89fc6d	-1.3287572e-32
247	0x8a4bd03c	-9.813259e-33
248	0x0919d66f	1.8517531e-33
249	0x8a3a000e	-8.9555845e-33
250	0x0a6d9946	1.14399625e-32
251	0x8846de7f	-5.9845e-34
252	0x8ac99880	-1.941296e-32
253	0x0a981e04	1.4648358e-32
254	0x0a05ba36	6.4387394e-33
255	0x0b1a9a23	2.977528e-32

conv.4.bias f4 [64]
0	0x1f11a934	3.0844906e-20
1	0x9682ac77	-2.1111473e-25
2	0x2789c21d	3.8235597e-15
3	0xa4013cb8	-2.8023847e-17
4	0x9eb20ede	-1.8852632e-20
5	0xa444f16e	-4.2705224e-17
6	0xb71bc92c	-9.285559e-06
7	0x37873752	1.6119015e-05
8	0x3558e432	8.079834e-07
9	0x986af5b2	-3.0367836e-24
10	0xb06f9862	-8.716424e-10
11	0xb0adc520	-1.2643433e-09
12	0x2ebc3bf8	8.559903e-11
13	0x341f313a	1.4825937e-07
14	0xb078a108	-9.0450714e-10
15	0x9d9483cc	-3.931155e-21
16	0xacd951a8	-6.1765766e-12
17	0x3891881d	6.939492e-05
18	0xa9b4286b	-8.000617e-14
19	0x2b0e3860	5.052677e-13
20	0x2c5065fc	2.961519e-12
21	0xa53d99c0	-1.644523e-16
22	0x35329780	6.653063e-07
23	0x149f601d	1.6092807e-26
24	0xa873a790	-1.3525544e-14
25	0x9980b63e	-1.3308497e-23
26	0x2e02e53e	2.9762186e-11
27	0x9706707e	-4.343972e-25
28	0x2b0657f0	4.77284e-13
29	0x2ea6589b	7.5645455e-11
30	0x27a8148c	4.6651644e-15
31	0x31116b22	2.1161175e-09
32	0x32ae730a	2.030858e-08
33	0xa3a795d4	-1.8169631e-17
34	0xb388f17e	-6.376921e-08
35	0x35c385f9	1.4567623e-06
36	0xad43d685	-1.11321e-11
37	0xb9588864	-0.00020650175
38	0x313204c2	2.5905114e-09
39	0x38cb2b0a	9.687811e-05
40	0xb6ec428d	-7.0410956e-06
41	0x325554b8	1.2417495e-08
42	0xa6e44802	-1.5840196e-15
43	0x2b74792d	8.685438e-13
44	0x3818bc2d	3.6414876e-05
45	0x2bf91548	1.7698421e-12
46	0xa90b2992	-3.0900257e-14
47	0xad499545	-1.1458672e-11
48	0x9eaa0108	-1.7999877e-20
49	0xb871d5c6	-5.765797e-05
50	0xa6a33746	-1.1325379e-15
51	0xb02b7468	-6.237486e-10
52	0xad22ef62	-9.2617875e-12
53	0x2ee93ca8	1.0606388e-10
54	0xb7375860	-1.0928226e-05
55	0xa90a260a	-3.067515e-14
56	0xaddd6ead	-2.5173941e-11
57	0xa03f2809	-1.6191576e-19
58	0x248108ce	5.595975e-17
59	0x38fe8964	0.00012137255
60	0xab5c30bc	-7.8227333e-13
61	0x265d6354	7.680939e-16
62	0x975f4668	-7.214405e-25
63	0x2d2d0b03	9.8363566e-12

conv.5.weight f4 [64]
0	0x00015d24	1.25248e-40
1	0x3b827d38	0.0039822124
2	0x09bd9e37	4.564888e-33
3	0x3cd37bed	0.025815928
4	0x382b3f4c	4.0828527e-05
5	0x36a16028	4.809368e-06
6	0x3ed2f445	0.41201988
7	0x3e4cfe89	0.20018972
8	0x3c6b7b7a	0.014372701
9	0xa5a4cfa7	-2.8590176e-16
10	0x000313bb	2.82584e-40
11	0x950bc76c	-2.8228143e-26
12	0x0000db99	7.8777e-41
13	0x333ec4c1	4.441677e-08
14	0x3a2a4798	0.00064956537
15	0x3cffb58a	0.031214494
16	0x0006963f	6.04911e-40
17	0x3cf3553a	0.029703725
18	0x80028df8	-2.346e-40
19	0x30a1e787	1.1780096e-09
20	0x39f2a275	0.00046278877
21	0x8004ea02	-4.51288e-40
22	0x3e9056a3	0.281911
23	0x00020036	1.83747e-40
24	0x2cbb58ba	5.3247103e-12
25	0x2d43a6c7	1.1121499e-11
26	0x11b67ba7	2.8790744e-28
27	0x800393e1	-3.28555e-40
28	0x3d9cf2c2	0.0766349
29	0x00021e7f	1.94611e-40
30	0x2d05b1d0	7.599657e-12
31	0x000193d6	1.44869e-40
32	0x2b5fadb6	7.946659e-13
33	0x3c28366f	0.010266884
34	0x22676bd3	3.136342e-18
35	0x3c1f6f88	0.009731181
36	0x0005b1c0	5.22942e-40
37	0x3dda4083	0.10656836
38	0x00089e43	7.91458e-40
39	0x37a7a023	1.998252e-05
40	0x0001fa8f	1.81719e-40
41	0x3772f5d7	1.4481563e-05
42	0x3ba224d7	0.0049482393
43	0x80034fd2	-3.0414e-40
44	0xbdff9985	-0.124804534
45	0x3b161e43	0.002290622
46	0x8001a25c	-1.50079e-40
47	0x314a52c3	2.9441913e-09
48	0x3cc81667	0.024424745
49	0x3eb3ef44	0.35143483
50	0x3e3c67c6	0.18398961
51	0x3cbfe94e	0.023426678
52	0x38d63bd9	0.00010215463
53	0x0003908a	3.27357e-40
54	0x0000c901	7.2107e-41
55	0xb5e80e93	-1.7289589e-06
56	0x31340c6c	2.6200508e-09
57	0x800024df	-1.3227e-41
58	0x8003534b	-3.05386e-40
59	0x3edc7bb1	0.4306312
60	0x3a32401a	0.0006799713
61	0x800c7cd2	-1.146803e-39
62	0x27853c82	3.698052e-15
63	0x3d999ee7	0.07501011

conv.5.bias f4 [64]
0	0xa61528e6	-5.1750187e-16
1	0xbbe74dcd	-0.007058835
2	0xb8deb0bb	-0.000106187035
3	0xbe58bf32	-0.21166685
4	0xb6f08664	-7.1682025e-06
5	0xb504a33b	-4.9411364e-07
6	0xbf1c299b	-0.61000985
7	0xbec484d0	-0.38382578
8	0xbd6c13d7	-0.05763611
9	0x8d8af78d	-8.564502e-31
10	0xbd5b3976	-0.053521596
11	0xbaa0012b	-0.0012207379
12	0xb9da6734	-0.00041657093
13	0xa63373ad	-6.225987e-16
14	0xb80a8548	-3.302589e-05
15	0xbd92d004	-0.07168582
16	0xba021d2e	-0.00049634546
17	0xbdf7e53b	-0.12104269
18	0xbdfc9f47	-0.12335067
19	0xa3bda122	-2.0559663e-17
20	0xbd1ad13f	-0.03779721
21	0x9b530f8a	-1.7458532e-22
22	0xbe995f7d	-0.29955664
23	0xbd88ec79	-0.066857286
24	0xaabb980c	-3.3323377e-13
25	0xa7047f04	-1.8387535e-15
26	0x8fb33f00	-1.767503e-29
27	0xb83b7dd5	-4.4701465e-05
28	0xbe661366	-0.22468337
29	0xbcec977e	-0.02888083
30	0x90e25093	-8.9265427e-29
31	0xbbb7fe3f	-0.0056150253
32	0x9d5452ad	-2.8100709e-21
33	0xbc2c010a	-0.010498295
34	0xb90a5bfe	-0.00013194975
35	0xbd182f3e	-0.03715443
36	0xbd8092a8	-0.062779725
37	0xbe57ac77	-0.21061884
38	0xb6ab023f	-5.0964586e-06
39	0xb443711f	-1.8201943e-07
40	0xbaa121b5	-0.0012293371
41	0xb71a4ea3	-9.197424e-06
42	0xbcaaa7c7	-0.020831956
43	0xa58ee994	-2.4791352e-16
44	0x3c8dd457	0.017313166
45	0xbcd5dd77	-0.02610658
46	0xbd42e66e	-0.047583036
47	0xad135344	-8.374471e-12
48	0xbdd64aca	-0.10463484
49	0xbf05250f	-0.5200967
50	0xbef072f1	-0.46962693
51	0xbe3d0996	-0.18460688
52	0xaed14500	-9.5164765e-11
53	0xb4c69248	-3.6986808e-07
54	0xba2b001d	-0.0006523149
55	0xba050962	-0.00050749455
56	0xb1f83a3f	-7.2243718e-09
57	0xb7d6f16c	-2.5623209e-05
58	0xbdb228ef	-0.08699214
59	0xbf2051a6	-0.62624586
60	0xb6881782	-4.0558525e-06
61	0xbca9943e	-0.02070057
62	0x9fb037c4	-7.4631156e-20
63	0xbe12f74c	-0.14352149

conv.5.running_mean f4 [64]
0	0x9cf21807	-1.6020428e-21
1	0xaddf4a25	-2.5385092e-11
2	0xa5569550	-1.861213e-16
3	0xba6a9674	-0.0008948811
4	0x1c8fc5a2	9.514033e-22
5	0x22828aee	3.538367e-18
6	0xbf9309ed	-1.1487404
7	0xbe6daf00	-0.23211288
8	0x3583a752	9.808957e-07
9	0x1643cdc0	1.5816898e-25
10	0x2e5c4917	5.0087125e-11
11	0x2ef0d8fa	1.0952479e-10
12	0xacb60667	-5.173462e-12
13	0xb2097fdc	-8.003521e-09
14	0x2ee90f44	1.0598325e-10
15	0xb961b668	-0.00021525624
16	0x2a8a310f	2.4547766e-13
17	0xb6a3c0e8	-4.880236e-06
18	0x26e32788	1.5762004e-15
19	0xa8dcb681	-2.4504055e-14
20	0xb210c667	-8.427015e-09
21	0x23064fe0	7.281069e-18
22	0xbf1d981d	-0.6156023
23	0x92119dae	-4.594829e-28
24	0x267299f8	8.4169283e-16
25	0x977d1e3a	-8.178686e-25
26	0xab634b4b	-8.075109e-13
27	0x14da0715	2.2015168e-26
28	0x3aa37440	0.0012470558
29	0xac894b16	-3.9021104e-12
30	0xa57eed70	-2.2111435e-16
31	0xaed62063	-9.737346e-11
32	0xb08f549b	-1.0428666e-09
33	0x2c8ffd88	4.092452e-12
34	0x3193c2c4	4.3004054e-09
35	0xb3ac5fec	-8.026822e-08
36	0x2af86151	4.4121176e-13
37	0xbd5b8411	-0.053592745
38	0xaf033fca	-1.1937043e-10
39	0xb6a500fa	-4.917497e-06
40	0x34aeab12	3.2534496e-07
41	0xb13545b6	-2.6378593e-09
42	0x38d4e1d5	0.00010151012
43	0xa93a1412	-4.1317705e-14
44	0xbed60050	-0.41797113
45	0xaa0c6acb	-1.2471549e-13
46	0x270166f3	1.7958155e-15
47	0x29a2ae68	7.2245e-14
48	0xbd2b4a1b	-0.04181872
49	0xbf8baba2	-1.0911753
50	0xbf1d7f83	-0.6152269
51	0xbb8c24c1	-0.0042768423
52	0x2b0ef57d	5.078922e-13
53	0xad3f04b2	-1.0858136e-11
54	0x35061d86	4.996185e-07
55	0x27208cb8	2.2280744e-15
56	0x2bb25219	1.2670447e-12
57	0x1e20753e	8.4945746e-21
58	0xa24ea51e	-2.8005618e-18
59	0xbf8f3ce2	-1.1190455
60	0x291bd63e	3.460274e-14
61	0xa4259842	-3.590764e-17
62	0x153e4a76	3.8428934e-26
63	0xb820441c	-3.8210404e-05

conv.5.running_var f4 [64]
0	0x00000004	6e-45
1	0x1d817eea	3.427724e-21
2	0x00000004	6e-45
3	0x35910b40	1.0806616e-06
4	0x00000004	6e-45
5	0x05e6e069	2.1711531e-35
6	0x3ef8c8a4	0.48590577
7	0x3f41d3d8	0.7571387
8	0x2c5a1216	3.0989703e-12
9	0x00000004	6e-45
10	0x00000004	6e-45
11	0x00000004	6e-45
12	0x00000004	6e-45
13	0x00000004	6e-45
14	0x17eabc4b	1.5169427e-24
15	0x336f871d	5.576941e-08
16	0x00000004	6e-45
17	0x2c782fde	3.5269491e-12
18	0x00000004	6e-45
19	0x00000004	6e-45
20	0x25390a6b	1.6049722e-16
21	0x00000004	6e-45
22	0x3eadc852	0.33941895
23	0x00000004	6e-45
24	0x00000004	6e-45
25	0x00000004	6e-45
26	0x00000004	6e-45
27	0x00000004	6e-45
28	0x3d01606f	0.031586107
29	0x00000004	6e-45
30	0x00000004	6e-45
31	0x00000004	6e-45
32	0x00000004	6e-45
33	0x1b21f97d	1.3398222e-22
34	0x00008dcc	5.0867e-41
35	0x1737e8e6	5.942445e-25
36	0x00000004	6e-45
37	0x3bfd8860	0.0077372044
38	0x00000004	6e-45
39	0x00000004	6e-45
40	0x00000004	6e-45
41	0x10a1f400	6.3879244e-29
42	0x33256976	3.8512972e-08
43	0x00000004	6e-45
44	0x3eaefdc9	0.34177998
45	0x00000004	6e-45
46	0x00000004	6e-45
47	0x08bb03f3	1.1255582e-33
48	0x3b1c0751	0.0023808072
49	0x3edfd14a	0.43714362
50	0x3eada329	0.33913544
51	0x3882c3d5	6.2353596e-05
52	0x00000004	6e-45
53	0x00000004	6e-45
54	0x00000004	6e-45
55	0x00000004	6e-45
56	0x00000004	6e-45
57	0x00000004	6e-45
58	0x00000004	6e-45
59	0x3ef565fd	0.47929373
60	0x03bd8b1c	1.114036e-36
61	0x00000004	6e-45
62	0x00000004	6e-45
63	0x315e743a	3.237132e-09

fc.weight f4 [1, 128]
0	0xb066ecd2	-8.4010054e-10
1	0xb961985c	-0.0002151443
2	0x331a1811	3.5877807e-08
3	0xbcf3c2ae	-0.029755916
4	0xb34fc197	-4.8372012e-08
5	0xaf293062	-1.538765e-10
6	0x3d66498f	0.056222495
7	0x3dd17024	0.10226467
8	0xbc6aaf06	-0.014323955
9	0xadab519a	-1.9476688e-11
10	0x3d5a87cc	0.053352162
11	0xb6565b18	-3.1941508e-06
12	0xb7e9339e	-2.77998e-05
13	0x361e0240	2.3545144e-06
14	0xb7a7ca6c	-2.0002211e-05
15	0xbb0420e5	-0.0020161208
16	0x331f1f7d	3.704871e-08
17	0x3b6f0f1d	0.0036477514
18	0xbdbb93ea	-0.09159072
19	0xaf8e30a0	-2.58642e-10
20	0x3ce1c291	0.027558597
21	0xb028cc99	-6.1408795e-10
22	0x3e98087a	0.29693967
23	0x3d9fa961	0.07795978
24	0xb1281e16	-2.446432e-09
25	0xaf018b18	-1.1781898e-10
26	0x322377ca	9.515086e-09
27	0x37952d5d	1.7783308e-05
28	0xbd4ec2cf	-0.050478753
29	0x3c7ce10d	0.015434516
30	0x30826b0d	9.489171e-10
31	0x3a767fc0	0.00094031915
32	0x320a3676	8.04504e-09
33	0x3956891c	0.00020459708
34	0x35d40cd1	1.5798961e-06
35	0xbc2e2244	-0.010628287
36	0xbd4b8103	-0.049683582
37	0x39ae21c7	0.00033213032
38	0x3b640b1c	0.003479666
39	0xb61dabec	-2.3494895e-06
40	0x3c926c54	0.01787392
41	0xb491b02f	-2.7136545e-07
42	0xbd0b12e3	-0.03395356
43	0xb2d75d26	-2.5071653e-08
44	0x3d2edb10	0.042689383
45	0x3cb9d557	0.022684736
46	0x3ca0a4d8	0.019609854
47	0xb36d7941	-5.5291142e-08
48	0xbc4797df	-0.012182205
49	0x3da30f56	0.079619095
50	0xbe83ed9f	-0.25767228
51	0xbbd4a0f9	-0.006488916
52	0x302b32ba	6.2281524e-10
53	0x3783eb42	1.5725967e-05
54	0x3a82385a	0.0009935007
55	0x39a4540d	0.0003134314
56	0x33e57b0b	1.0686025e-07
57	0xbb0a4701	-0.002109945
58	0x3d9a86c1	0.075452335
59	0x3dc513ca	0.09622915
60	0x31232688	2.3741524e-09
61	0x3b35aca4	0.002772131
62	0xa9b6bb04	-8.1148657e-14
63	0x3c65671d	0.014001635
64	0xb91070bd	-0.00013774908
65	0xbcf39969	-0.029736238
66	0x390c2850	0.00013366458
67	0xbdb1dcde	-0.08684705
68	0xbc457b03	-0.012053254
69	0x3b03bff0	0.0020103417
70	0xbe600544	-0.21877009
71	0xbd7c092d	-0.06153219
72	0xbcb3398f	-0.021878032
73	0x39ef6fa7	0.0004566882
74	0x3d6a4f6f	0.05720466
75	0x3832d0e8	4.2633066e-05
76	0x39275023	0.00015956214
77	0x3bcac7a6	0.0061883507
78	0x3a50830a	0.00079540967
79	0xbd298c24	-0.041393414
80	0xbafd8cb2	-0.0019344299
81	0x3d9ea014	0.07745376
82	0xbdf2e367	-0.1185978
83	0xba500a46	-0.0007936101
84	0xbce11d51	-0.0274798
85	0xb982bfe1	-0.00024938493
86	0xbdaba858	-0.083817184
87	0x3da143ae	0.07874237
88	0x399d183f	0.00029963438
89	0x39589494	0.00020654715
90	0xb96e1e49	-0.00022708731
91	0x378740d6	1.6123446e-05
92	0xbdd96ba8	-0.10616237
93	0x3d48ded6	0.049040638
94	0xb8455bc5	-4.7053927e-05
95	0x3bd7e5c8	0.0065886714
96	0xb9a513c0	-0.00031485967
97	0xbc9aefe5	-0.018913219
98	0xb918bb5a	-0.00014565644
99	0xbcfe1655	-0.031016508
100	0xbda747ec	-0.08168015
101	0x3d2edf39	0.04269335
102	0x3c066430	0.0082025975
103	0x3a2afe80	0.0006522909
104	0xbc826985	-0.015919456
105	0x3c16231b	0.009163643
106	0x3c46ae10	0.012126461
107	0xba676598	-0.00088270893
108	0x3dc24db1	0.09487475
109	0x3d23989a	0.039940454
110	0x3d261504	0.040547386
111	0xb912c287	-0.00013996112
112	0xbdba60bc	-0.09100482
113	0xbe54d217	-0.20783268
114	0xbd8617cc	-0.06547508
115	0xbdc9f4e3	-0.098611616
116	0xbbe0cfe0	-0.006860718
117	0x3b125846	0.0022330447
118	0x3986bd79	0.0002569964
119	0xbaf26834	-0.001849419
120	0xbb2aac1b	-0.0026042524
121	0xbc2123ac	-0.009835165
122	0x3db41ad4	0.087941796
123	0xbe587422	-0.21138051
124	0xbb26d402	-0.0025455956
125	0x3c4e1e8d	0.012580526
126	0x37fde4f1	3.026656e-05
127	0xbc4179d4	-0.011808831
