experiments/cnn/v4/cnn_best_model.pth (torch, 40653 bytes, 13 tensors)

conv.0.weight f4 [32, 20, 3]
000000 76 28 21 be fa 55 3a be 4f c0 28 be 3a 27 6d be
       -0.15738091 -0.1819686 -0.1647961 -0.23159495
000010 10 2d aa 3d ac 17 a8 3d 2b b1 fb bc 85 70 61 bd
       0.08309376 0.0820764 -0.030724129 -0.055038948
000020 27 ad f8 3c e8 75 93 3d 56 9c 72 3d e1 e5 2d be
       0.030356003 0.07200223 0.059231125 -0.16982223
000030 3f 35 b3 3c 69 98 37 bd f1 d4 a0 be 0d 95 9a 3b
       0.021875976 -0.044823084 -0.3141246 0.0047174753
000040 c5 ce 3d bd 50 7d 8e bd 36 02 dd 3d ca 73 01 3e
       -0.04633977 -0.06957495 0.10791437 0.12641826
000050 fd d9 4f bc c0 f3 d8 3e 52 92 bf 3e 0e b2 67 3e
       -0.01268625 0.42373466 0.3741632 0.22626516
000060 1d be d9 bd 73 46 06 be 62 f5 ed bd cc aa 1e be
       -0.10631964 -0.13112812 -0.11619069 -0.15494841
000070 a2 0d 01 be 73 51 2d be d5 fe 49 3d ed 63 fc bc
       -0.12602857 -0.16925602 0.049315292 -0.030809367
000080 0c 9c 0b bd cc 7b f9 3d 40 55 86 3d 11 64 23 be
       -0.034084365 0.121818155 0.06559229 -0.15956141
000090 39 12 f3 bc 08 24 18 bd 3a de be bd 98 c7 b9 3d
       -0.029671775 -0.037143737 -0.0931973 0.090712726
0000a0 26 26 1f 3d e5 23 37 bd 13 d8 07 bd 97 de 79 bd
       0.03885474 -0.044711966 -0.03316505 -0.061003294
0000b0 58 36 c4 bd d5 a2 89 3d 29 0e 88 3d db 63 7b 3d
       -0.09580678 0.06720511 0.06643326 0.061374526
0000c0 51 f2 2e bb 5e cb 11 bd aa 06 92 3b 0d af b1 3c
       -0.0026694725 -0.035594337 0.004456361 0.021689916
0000d0 4e a1 26 ba b0 41 2e 3b ef 4a a2 bc 33 b1 e0 3d
       -0.0006356434 0.0026589446 -0.019811122 0.10971298
0000e0 39 ae 3b be c7 30 b3 3d 4f 9e 9f bd 7f 90 8b bd
       -0.1832818 0.08749538 -0.07793867 -0.0681467
0000f0 2f de 77 3c b8 07 dc bb be 80 5b bc aa f1 0b be
       0.015128656 -0.0067147873 -0.013397394 -0.13666406
000100 cc 6a ad 3d 33 0e 54 3e 81 82 00 bc 6e 9a 6b 3c
       0.084676355 0.20708542 -0.007843615 0.014380081
000110 2a 74 02 3d 1e b6 21 bd a6 d6 1d bd 24 78 11 bd
       0.031849064 -0.03948032 -0.038534783 -0.035514966
000120 9b f0 0e bd 2f ef d1 bc 42 2f df bc 94 f6 c9 3c
       -0.034897428 -0.025626747 -0.027244214 0.02465371
000130 1d 42 b2 bc 3d 0b 26 bd 1f 6e fd bc 65 7f 82 3e
       -0.02176004 -0.04053806 -0.030936299 0.2548782
000140 9a 39 c4 3e 1f 0e 98 3e 93 50 a6 3e 99 71 97 3e
       0.38325197 0.29698274 0.32483348 0.29578856
000150 08 fc 46 3d 6b ba c2 bd bc a1 f5 bc 3d 03 34 bd
       0.0485802 -0.09508213 -0.029984348 -0.0439484
000160 19 bd 0b be 69 7a 06 be a3 80 b7 3d 3c 7a 9c 3c
       -0.13646354 -0.13132633 0.089600824 0.019101255
000170 1a c2 d1 3b 1e 4c 12 3e d1 61 35 3d 1f 4a a2 3c
       0.0064013125 0.14286849 0.044282738 0.019810734
000180 0f b4 98 bd 6a 57 6d bc 20 32 03 bc eb d4 fe 3d
       -0.074562185 -0.014486173 -0.008007556 0.12442955
000190 7c 71 e9 3d e0 ec 85 3d ae 54 3d 3a 47 9c 1f be
       0.113985986 0.06539321 0.0007222396 -0.15586959
0001a0 fb b7 ab bd 87 47 a7 3c cd 29 25 3d 97 a2 28 3d
       -0.08384701 0.02041985 0.040323067 0.041170683
0001b0 60 d5 be 3d a1 49 59 bd 86 ea 1a 3d 8c 5d c1 ba
       0.09318042 -0.053048734 0.037821315 -0.0014752611
0001c0 92 d8 58 bb e9 92 26 bb e3 25 bf 3c d3 c4 f0 bb
       -0.003308807 -0.0025417155 0.023333495 -0.007347682
0001d0 f6 34 b5 bb 17 d1 9c bc 94 31 47 3d a6 9c 0f 3c
       -0.005529995 -0.01914267 0.048631266 0.008765375
0001e0 b7 90 ab bd f2 34 6e bd 3e 29 db 3b a0 95 e9 bd
       -0.083772115 -0.05815596 0.006688266 -0.11405492
0001f0 f3 7d 04 be bb 0e 14 3e 0e 1e 80 3c 87 2f 39 3e
       -0.12938671 0.14458744 0.015639331 0.18084536
000200 49 a0 c8 be b4 4f 48 bd b6 12 7d bc 4d 75 53 bd
       -0.39184788 -0.048904136 -0.015446356 -0.05162554
000210 0d 9d d5 bd c9 d0 a2 3d 31 b0 36 3d fc 07 75 bd
       -0.10430346 0.07949979 0.044601623 -0.059822068
000220 d3 7d 83 3b 06 98 32 be 0b 48 f5 3d 2b c9 97 be
       0.004012802 -0.17440805 0.11976632 -0.29645666
000230 64 9e cd 3d c5 cd e2 be d9 14 71 3d 5e e2 8c 3e
       0.10039976 -0.44297615 0.058857772 0.27516454
000240 ba 3a 03 bd 9f ad 9c bc fd d9 a1 bc a6 92 e6 bc
       -0.032038428 -0.019125758 -0.019757265 -0.0281461
000250 3e 04 ec bb 02 65 c7 3d 1a d8 b0 bd 6c 52 48 bc
       -0.007202654 0.097360626 -0.08634968 -0.012226682
000260 9e 16 89 bd 4b 99 9c bd 16 58 d3 bc 55 95 f7 bc
       -0.06693767 -0.07646426 -0.025798839 -0.030222574
000270 8a 78 45 bd cf 86 b5 3c 5a fa 03 be 3f c1 98 3d
       -0.048210658 0.022159008 -0.1288847 0.07458734
000280 c7 c8 d6 bc 50 b1 f1 bc 88 4f 44 bd 0a 57 1a 3d
       -0.026218785 -0.029503495 -0.04792741 0.037680663
000290 d9 62 94 bd d4 f1 0b be c0 bd f7 bc 58 09 0d be
       -0.07245416 -0.13666469 -0.030241847 -0.13773096
0002a0 d2 26 92 bc 7c 1b 10 3e 81 49 48 be 59 b6 48 b8
       -0.017840777 0.14072984 -0.1955929 -4.785354e-05
0002b0 6a 18 7b 3b 7d 27 ba bb 0d 7a ba bd bb 3d 61 be
       0.0038314112 -0.005680977 -0.091053106 -0.21996205
0002c0 95 92 af bd de 65 17 3b 26 41 7a 3d f8 a5 a4 bd
       -0.0857288 0.002310149 0.061097287 -0.080394685
0002d0 1d 55 8c 3e 86 07 17 3e 26 95 b8 3d 56 48 bd 3e
       0.27408686 0.14748964 0.09012823 0.3696925
0002e0 32 04 a4 3e 5d a8 be bc 32 22 11 be bf 13 bc 3d
       0.3203445 -0.023273641 -0.141732 0.09183454
0002f0 c2 43 b8 3d 37 08 a1 3c 5f a3 88 3d 54 b1 94 bd
       0.08997299 0.019657237 0.066717856 -0.07260385
000300 9d 99 c6 bc d2 78 7f 3d 86 25 e2 bc 5f 58 bd bc
       -0.02424317 0.062371083 -0.027605783 -0.023113428
000310 50 93 45 bd 15 3b ce bd b6 db ad bb ad bb 2d 3e
       -0.04823619 -0.10069863 -0.0053057326 0.16966124
000320 6e ce 57 be 42 84 e9 3e fe 58 0d 3f 20 48 a8 3e
       -0.2107484 0.45608717 0.55213916 0.32867527
000330 51 a0 91 bd c5 0f e6 3c 82 1f c1 bc de fa c1 3d
       -0.07110656 0.028083691 -0.023574594 0.09471677
000340 f0 e6 9d 3d 51 20 af 3c ab 8a d5 bc 0c ca bd 3c
       0.077100635 0.021377714 -0.026067099 0.023167633
000350 90 44 6c 3b 44 2a 4e be 8e 90 02 be 51 7c db bc
       0.0036051609 -0.2013331 -0.12750456 -0.026792677
000360 ed 97 5c bd 64 b4 7f 3d 45 b9 3c bc 8d c7 89 3c
       -0.053855825 0.062427893 -0.011518781 0.016818786
000370 9b 46 55 3c 03 d3 2d bd 63 29 9c bd e9 5d 1b bd
       0.013017322 -0.042437565 -0.076250814 -0.037931357
000380 29 38 bd bd b7 9b db bd 4f 95 16 bd eb 47 f7 3d
       -0.09239227 -0.107230596 -0.036763486 0.12074264
000390 88 ca 22 be fa c2 ee 3b 05 32 22 3c e5 6f 6f 3d
       -0.15897572 0.0072864266 0.009899621 0.05845632
0003a0 e9 d6 af 3c 6e 7e 68 3c 04 ad 8f bd 36 8c 0a bd
       0.021464782 0.014190299 -0.07015422 -0.03382512
0003b0 10 65 06 be 4b 8e fc bc 01 0b c7 bc 1a 78 1b bd
       -0.1312449 -0.03082957 -0.02429724 -0.037956335
0003c0 9e 55 22 be 10 f7 1c be 82 42 48 3e 70 56 5a be
       -0.15852973 -0.15328622 0.1955662 -0.21322036
0003d0 79 eb af be 06 82 2d 3f 07 06 cf 3d 9d 93 0b 3d
       -0.3435934 0.67776525 0.101085715 0.034076322
0003e0 20 64 01 be df d4 08 bd 1e 8b 88 3d 00 21 0d be
       -0.12635851 -0.033406135 0.066671595 -0.1378212
0003f0 71 6d 03 3d e9 a8 bb bc 5f d3 1a bc 05 6e c0 3d
       0.032086793 -0.022907691 -0.009449809 0.093959846

conv.0.bias f4 [32]
000000 66 16 de b8 e2 3b 67 b7 40 dc 41 36 8a 18 f6 39
       -0.00010589957 -1.37826155e-05 2.8887443e-06 0.0004693906
000010 70 23 5e 36 3e 76 3f 36 14 a8 5b b8 b8 ef 9c 37
       3.3101205e-06 2.8530044e-06 -5.2370204e-05 1.8708277e-05
000020 98 ee 20 38 68 0f 8f b8 cb eb 17 b9 b0 ef c8 37
       3.836918e-05 -6.821641e-05 -0.00014488322 2.3953471e-05
000030 a1 01 31 b8 f6 e0 1f b8 02 6a 23 38 58 74 1b 35
       -4.2201606e-05 -3.8118065e-05 3.8960956e-05 5.79113e-07
000040 1a c5 de b7 22 cd 22 b8 10 05 53 37 86 73 bf b8
       -2.6556245e-05 -3.8814855e-05 1.2577759e-05 -9.129108e-05
000050 40 f1 65 35 2c c2 a9 38 f5 2b 49 b9 be f1 8a 38
       8.566021e-07 8.094715e-05 -0.00019185229 6.625381e-05
000060 9a 6a 88 b8 dc 06 5a 38 94 c7 29 38 46 8e c6 01
       -6.5048414e-05 5.198164e-05 4.047861e-05 7.2937865e-38
000070 c5 7a d8 b7 7c 04 f7 b7 48 d0 ed 80 a6 5c 38 b8
       -2.5806376e-05 -2.9446783e-05 -2.183973e-38 -4.3955304e-05

conv.1.weight f4 [32]
000000 b4 14 a2 3e 2a 2d ef 3e 9c 53 c1 3e 48 cd 02 3f
       0.3165642 0.46714145 0.377591 0.51094484
000010 5b bc f8 3e c0 bf c2 3d 26 a6 cd 3e 2d 63 db 3e
       0.48581204 0.0950923 0.40165824 0.42849103
000020 2f 45 bc 3e f1 bb bf 3e 2e d9 05 3f 76 9f af 3e
       0.36771533 0.37448075 0.52284515 0.34301347
000030 96 2e e4 3e 4f 43 d8 3e bb 6b 8e 3e 86 1f e6 3d
       0.44566792 0.42238852 0.27816567 0.11236481
000040 72 72 e8 3e 4f 8e cf 3e 7d a0 f0 3e 95 c3 08 3f
       0.45399815 0.4053826 0.46997443 0.53423434
000050 d9 8b 66 3e 29 54 14 3f 26 12 bd 3e d0 d5 82 3e
       0.22514285 0.5794092 0.3692791 0.2555375
000060 3e dd 39 3e 1e 77 fb 3e a4 e8 11 3f 6f 26 ab 3a
       0.18150803 0.49114317 0.56995606 0.0013057719
000070 be 60 d3 3e 6e 77 18 3f c7 3a f2 bb fc c0 d3 3d
       0.41284746 0.59557235 -0.0073922607 0.10339543

conv.1.bias f4 [32]
000000 c2 68 48 be 43 82 56 be 87 0e c6 be 75 76 02 bf
       -0.19571212 -0.20948128 -0.38682958 -0.50962
000010 e9 f4 fb be b5 34 70 be ca 18 24 3c 95 ed ee bd
       -0.4921029 -0.23457606 0.010015676 -0.11666409
000020 b3 fc 4f be 1d 58 12 be 69 0c dc 3d 04 29 6d 3d
       -0.20311241 -0.14291425 0.107445545 0.057900444
000030 42 94 14 be fe 39 8d 3d 79 20 c1 be ce ab 76 be
       -0.14509681 0.06895827 -0.37720087 -0.24088976
000040 b7 55 b4 bd 16 18 95 bd 3c a6 f1 bc 39 c3 19 be
       -0.08805411 -0.07279985 -0.029498212 -0.15015878
000050 7c a5 7c 3d 08 d9 1a bd 3d 01 c6 be 45 e5 2e be
       0.061681256 -0.037804633 -0.3867282 -0.17079647
000060 74 ed 1e be 3b 9d 52 be 64 ea d7 3d bc 61 0d ba
       -0.15520269 -0.20567791 0.10542753 -0.00053932867
000070 9b bb 0e bd de 81 41 be 18 98 07 bc 2f 6c 59 bd
       -0.034846883 -0.18897197 -0.008276008 -0.053081688

conv.1.running_mean f4 [32]
000000 e9 0e 7b be 82 32 0d 3f 62 b7 64 bf b3 12 25 3f
       -0.24517407 0.55155194 -0.8934232 0.6448166
000010 e3 2d 3d 3e 98 7b 03 bf 70 c2 8f 3e f8 04 86 3f
       0.18474536 -0.51360464 0.28078032 1.0470266
000020 b4 8e b0 be d0 7e 91 3e 81 8b 6f 3e 19 99 7a 3f
       -0.34483874 0.28417063 0.2339306 0.9788986
000030 3b 92 2d 3f e3 c9 61 3f bc 27 86 be 18 fa a6 be
       0.67801255 0.8819868 -0.2620219 -0.3261268
000040 74 f4 9a 3f c4 d9 40 3f 44 95 6b 3f 3b 9e 8b 3f
       1.2105851 0.75332284 0.92024636 1.0907663
000050 9a f9 2c 3f f9 02 c1 3e 8d 83 d0 be 9a 32 25 bf
       0.6756836 0.3769758 -0.40725365 -0.64530337
000060 ee 19 86 be 00 11 97 3f 17 76 8a bf 3d 60 85 36
       -0.26191658 1.1802063 -1.0817288 3.9749125e-06
000070 94 09 52 3f 53 f0 58 3d b2 58 d2 b9 b8 24 f6 be
       0.82045865 0.052963566 -0.00040120404 -0.4807489

conv.1.running_var f4 [32]
000000 cc 15 14 3e cb c3 2e 3e 8f 7e 2a 3d 29 54 5c 3e
       0.1446144 0.17066877 0.041624602 0.2151648
000010 d1 10 85 3d d0 31 57 3d 09 8e 43 3e 21 fe 14 3e
       0.06497348 0.05253774 0.19097151 0.14550067
000020 fb 46 b7 3d bc 1e 2a 3e a1 ee 0f 3e 9b 46 0d 3e
       0.08949085 0.16613287 0.14055873 0.13796465
000030 d8 99 3c 3e 04 5f 43 3e 55 9d ad 3d 6e 1c 87 3c
       0.18418062 0.19079214 0.08477274 0.016493049
000040 ed ed 51 3e e9 f8 11 3e 76 96 3e 3e 0a 35 5c 3e
       0.20500918 0.14255108 0.18612084 0.21504608
000050 57 c1 f5 3d 95 84 8c 3e ec 56 1c 3d 66 a6 fb 3d
       0.11999767 0.27444902 0.038168833 0.12287597
000060 b2 2b 8b 3c 49 c7 3a 3e c9 28 8d 3e df e2 d1 2e
       0.016988609 0.18240084 0.2757018 9.54452e-11
000070 bc 73 29 3e 21 68 0e 3e 24 ba 6a 33 59 14 66 3d
       0.16548055 0.1390691 5.4651665e-08 0.05617175

conv.4.weight f4 [64, 32, 3]
000000 d7 84 04 80 65 01 07 00 1c fd 03 80 aa 0f 05 80
       -4.14996e-40 6.43349e-40 -3.66305e-40 -4.64797e-40
000010 eb 39 03 00 40 2e 03 00 87 34 f9 9e 88 de 48 9b
       2.96284e-40 2.92098e-40 -2.6385625e-20 -1.6615516e-22
000020 5d 0f 06 80 be 4f 04 80 fb 6b 08 00 cb 60 00 80
       -5.56524e-40 -3.95948e-40 7.7342e-40 -3.4723e-41
000030 26 8f 05 80 57 06 06 80 7a b5 0d 00 40 a4 2c 16
       -5.1053e-40 -5.53287e-40 1.258963e-39 1.3945878e-25
000040 ec bd 03 80 48 6f 00 80 dd 46 06 80 94 06 04 80
       -3.43638e-40 -3.992e-41 -5.76434e-40 -3.69702e-40
000050 10 73 02 80 31 ff 05 00 bc ad 03 00 4f a2 02 80
       -2.24948e-40 5.50723e-40 3.3783e-40 -2.41896e-40
000060 84 9d 03 80 5b 68 03 80 dd 29 09 80 33 4e 02 00
       -3.32012e-40 -3.12942e-40 -8.41537e-40 2.11724e-40
000070 05 fd 00 80 d7 67 06 80 e6 06 05 00 ea 71 00 00
       -9.0766e-41 -5.88264e-40 4.61652e-40 4.0865e-41
000080 bc 07 01 00 6e f1 09 80 ca e8 01 80 37 49 07 00
       9.461e-41 -9.13128e-40 -1.75344e-40 6.69113e-40
000090 6c c3 01 00 c1 ff 02 00 57 23 09 00 f6 b3 08 80
       1.6194e-40 2.75418e-40 8.39197e-40 -7.99242e-40
0000a0 f6 26 00 00 45 c1 02 80 2c 63 05 80 9e 48 07 80
       1.3977e-41 -2.53003e-40 -4.94754e-40 -6.68899e-40
0000b0 6f ef 03 80 f4 6b 04 80 83 63 05 80 b4 eb 04 80
       -3.61399e-40 -4.06068e-40 -4.94876e-40 -4.51896e-40
0000c0 c4 ca d4 82 00 b1 05 80 0c 0d 05 80 ce 25 0c 80
       -3.1266982e-37 -5.22673e-40 -4.63858e-40 -1.115588e-39
0000d0 6b 45 01 00 bf 90 01 80 17 d0 0f 80 ce a7 09 00
       1.16738e-40 -1.4376e-40 -1.452181e-39 8.86716e-40
0000e0 68 0b 04 00 60 e8 00 80 29 6a 05 00 9b 8f 02 80
       3.71434e-40 -8.336e-41 4.9726e-40 -2.35187e-40
0000f0 0e af 0c 00 3a 84 04 80 01 3a 02 80 cf 29 07 00
       1.164824e-39 -4.14776e-40 -2.04479e-40 6.57847e-40
000100 20 4d 0e 00 49 30 00 00 af 0c 00 00 01 11 03 80
       1.313364e-39 1.7321e-41 4.55e-42 -2.81606e-40
000110 0a e2 07 80 b7 4f 09 00 45 db 00 87 ed 21 00 00
       -7.23936e-40 8.55116e-40 -9.694087e-35 1.217e-41
000120 75 bc 04 00 69 ea 09 80 21 3e 03 00 45 9b 05 80
       4.34948e-40 -9.1061e-40 2.97794e-40 -5.14878e-40
000130 9c 85 01 80 89 ee 06 80 00 4a 06 00 7a 4a 0f 00
       -1.39766e-40 -6.36583e-40 5.77559e-40 1.40425e-39
000140 d1 9b 03 00 2d 56 00 80 bb 49 02 00 80 f0 0c 80
       3.31403e-40 -3.0914e-41 2.1012e-40 -1.188301e-39
000150 c6 aa 03 80 1a 8b 09 80 f7 56 01 80 7f 94 36 83
       -3.36768e-40 -8.7642e-40 -1.23033e-40 -5.365546e-37
000160 7b 99 01 00 bd ba 06 00 38 66 05 80 47 d2 02 00
       1.46894e-40 6.18002e-40 -4.95847e-40 2.59104e-40
000170 7f 56 02 80 80 f3 02 00 c2 10 85 82 09 1b 0b 00
       -2.147e-40 2.71022e-40 -1.9552212e-37 1.019889e-39
000180 5e 5c 84 34 5c 8e 17 34 5b 67 a2 35 1b 7a 26 37
       2.4654122e-07 1.4114761e-07 1.2100021e-06 9.922801e-06
000190 76 42 da 36 ad b8 f0 2d d1 a4 b6 b9 7e 9b 07 bb
       6.5046434e-06 2.7366854e-11 -0.00034836543 -0.0020692046
0001a0 6c 7a eb 39 0e 8e 35 32 60 72 ad 33 e7 b8 39 34
       0.00044913904 1.0567886e-08 8.076745e-08 1.7296735e-07
0001b0 c7 9e b8 b5 75 7c f1 39 7a b1 dc b8 ad 8c 6b b9
       -1.3755279e-06 0.0004605983 -0.00010523475 -0.00022463752
0001c0 46 46 dd ba ce 29 00 3b 3a 4c 2f 38 42 ca 57 39
       -0.0016881905 0.0019556168 4.1794243e-05 0.00020579345
0001d0 0f 1a 08 38 26 03 bd 38 13 96 61 39 b7 68 99 39
       3.2449196e-05 9.012809e-05 0.00021513579 0.00029260453
0001e0 38 37 0d b6 66 b2 ca b7 b2 50 ac b7 79 33 c7 b8
       -2.1042779e-06 -2.416335e-05 -2.0541574e-05 -9.498647e-05
0001f0 33 c8 91 b7 42 e5 04 37 9d a0 1e ba b2 28 f3 bb
       -1.7378572e-05 7.921191e-06 -0.0006051155 -0.0074206227
000200 05 1a 78 bb f2 a6 70 33 02 97 ba 36 cd f6 9b 30
       -0.0037857306 5.603119e-08 5.5608116e-06 1.1347879e-09
000210 01 4f 66 37 7f ca 8b 39 de b4 6c 37 f7 ae 26 3a
       1.3727463e-05 0.00026663017 1.4108808e-05 0.0006358469
000220 c8 a5 05 3b 9c b4 00 39 6c e7 f0 b4 ee 2f b1 b5
       0.0020393003 0.00012274313 -4.4871865e-07 -1.3201477e-06
000230 ee c1 02 2e c5 57 3e 28 a8 ac 91 3c 3b 6e a9 bb
       2.9730822e-11 1.0566151e-14 0.017782524 -0.005170611
000240 b4 99 41 38 3a 81 48 3a 91 23 3e 38 f6 8c d4 36
       4.6157933e-05 0.0007648651 4.5332654e-05 6.3345024e-06
000250 aa bb 2e 38 b8 9b 1b 38 bb be 58 38 13 bf 3c 39
       4.165961e-05 3.7099904e-05 5.1676045e-05 0.00018000258
000260 5f 87 f8 37 d4 eb 07 39 07 54 4b 3a aa d9 a3 39
       2.962694e-05 0.00012962456 0.00077563565 0.00031251955
000270 8d 61 26 33 02 fb 1b b7 b0 cb b9 39 f7 ea 9b ba
       3.873861e-08 -9.297162e-06 0.0003543771 -0.0011895587
000280 f6 7f 30 b9 55 a2 e0 38 17 91 b7 b3 57 15 43 ba
       -0.00016832337 0.00010711389 -8.547993e-08 -0.00074418396
000290 a1 bc 11 3c 9f 8f 12 3a ee 10 a7 b9 1a 94 37 b9
       0.00889507 0.0005590859 -0.00031865336 -0.00017507412
0002a0 20 03 23 ba 91 40 25 b9 b8 81 0f ba fa b3 41 39
       -0.0006218422 -0.00015759679 -0.00054743467 0.00018472961
0002b0 3b cd f5 3a c8 f5 03 38 14 92 ae ba 45 d0 01 bb
       0.001875318 3.1461735e-05 -0.0013318681 -0.0019807976
0002c0 15 76 8f b8 20 c6 00 08 24 11 c6 2d 9d 80 a5 2f
       -6.840766e-05 3.8751494e-34 2.2517606e-11 3.010471e-10
0002d0 c0 4a 74 39 32 7d 09 3a 35 44 51 39 c9 6c ae 3a
       0.000232975 0.0005244791 0.00019957202 0.0013307567
0002e0 7b 01 1f bb 52 a8 37 bb 3c 05 3f 35 1d 7e ae 31
       -0.0024262357 -0.002802391 7.116066e-07 5.078404e-09
0002f0 44 17 7d a3 c4 dd 67 b6 da 26 39 b9 ae fb 23 39
       -1.3720084e-17 -3.4550767e-06 -0.00017657448 0.0001563865
000300 8c 93 19 06 8c 26 2e 18 26 6c 07 03 7f 76 04 80
       2.8884502e-35 2.2508434e-24 3.9797083e-37 -4.0985e-40
000310 65 f8 14 89 e1 a3 0c 80 bc 06 02 00 86 82 bd 98
       -1.7931647e-33 -1.160815e-39 1.86087e-40 -4.898715e-24
000320 1d 41 05 80 c3 4c f4 8d 68 a0 93 1d f7 dc 6b 16
       -4.82536e-40 -1.5056141e-30 3.9076432e-21 1.9052873e-25
000330 1a 0e 07 80 4d b4 06 00 85 62 08 00 60 ff 01 00
       -6.47907e-40 6.15693e-40 7.70026e-40 1.83447e-40
000340 e8 a3 a7 90 2f 20 b1 12 83 07 c1 13 14 88 d3 98
       -6.6122423e-29 1.1178204e-27 4.8727457e-27 -5.4679625e-24
000350 11 2a f6 99 3d 9d 38 8e 18 dc e3 93 58 c4 88 99
       -2.5452794e-23 -2.2755459e-30 -5.7519885e-27 -1.4141373e-23
000360 f9 74 26 08 b0 11 8b 06 02 f6 1d 18 27 24 05 80
       5.009131e-34 5.231198e-35 2.0415977e-24 -4.72146e-40
000370 15 84 00 80 c8 bc 0f 80 d2 d9 de 03 89 ef 72 04
       -4.7382e-41 -1.445254e-39 1.3097996e-36 2.8556952e-36
000380 80 67 ad 03 ec f7 aa 91 e5 f9 9e 90 7b a7 17 07
       1.0191789e-36 -2.6974064e-28 -6.2705035e-29 1.1409195e-34
000390 56 6e 03 00 d8 95 2f 08 a5 26 94 8f ba 5e f4 96
       3.15088e-40 5.2838287e-34 -1.4608812e-29 -3.9480107e-25
0003a0 47 04 3b 98 3c cb 6f 9e 00 31 02 00 8c 4c 0c 10
       -2.4171343e-24 -1.26945825e-20 2.01249e-40 2.76691e-29
0003b0 33 71 04 80 d9 13 02 00 e0 77 08 85 fd db 00 80
       -4.0795e-40 1.90791e-40 -6.416707e-36 -7.8917e-41
0003c0 b6 19 e5 07 af 32 26 8c 00 00 8f 09 97 1b 09 82
       3.4471202e-34 -1.2803427e-31 3.4425998e-33 -1.0073088e-37
0003d0 92 1c 4f 0a 63 96 8d 91 b5 b7 c3 92 c1 d8 40 93
       9.972061e-33 -2.233856e-28 -1.2351517e-27 -2.4340675e-27
0003e0 62 8b 1e 93 97 3c 03 92 aa 33 33 07 f4 ce 6d 94
       -2.0011125e-27 -4.1410994e-28 1.3481646e-34 -1.20062565e-26
0003f0 fb 0c 03 80 20 3c 01 80 b7 bd 01 00 f2 c0 2b 82
       -2.80163e-40 -1.13404e-40 1.59892e-40 -1.2618468e-37

conv.4.bias f4 [64]
000000 0e c8 d5 01 8a 5d 25 01 da bf f1 34 7a 79 07 36
       7.8530907e-38 3.0372825e-38 4.5029338e-07 2.0187276e-06
000010 bc e9 e6 01 40 e5 f0 80 c4 bb 5d b8 1a 42 d5 a6
       8.482405e-38 -2.2122758e-38 -5.2865376e-05 -1.4797761e-15
000020 30 7f 66 0b 7b 82 99 01 a0 de d3 99 94 d5 58 a8
       4.4392074e-32 5.6390554e-38 -2.1906806e-23 -1.2036721e-14
000030 05 fd b3 b4 2c 5c a1 b6 68 d0 17 33 b0 43 00 b4
       -3.3525444e-07 -4.808904e-06 3.534697e-08 -1.1945554e-07
000040 fe ca 01 a8 96 a9 40 81 a0 2d 53 00 88 c3 3e 30
       -7.204955e-15 -3.5386502e-38 7.638713e-39 6.9399464e-10
000050 a9 f8 8f 01 bc 31 43 8c d1 ad b0 36 e8 48 de 80
       5.2886714e-38 -1.503722e-31 5.2654436e-06 -2.0413634e-38
000060 95 5f 9e 02 40 54 1d 00 2a c3 09 02 ac 1f 95 01
       2.3270875e-37 2.693453e-39 1.012118e-37 5.47794e-38
000070 ee 6b cf b7 b6 4b 0e 19 0e 46 40 82 a8 28 5b 81
       -2.4726582e-05 7.356518e-24 -1.4126037e-37 -4.0253117e-38
000080 68 95 5a ad 80 cb eb 25 5a c5 6a 29 ce 28 e4 1b
       -1.242504e-11 4.0903899e-16 5.2129613e-14 3.7745805e-22
000090 aa 72 45 02 89 c1 40 b7 7f 3f 8c 39 98 b1 16 97
       1.4506181e-37 -1.1489153e-05 0.0002675019 -4.869177e-25
0000a0 50 47 77 a9 9e 63 37 b3 30 34 b3 81 6c 8a 27 31
       -5.490687e-14 -4.269861e-08 -6.58291e-38 2.4380382e-09
0000b0 60 07 00 82 08 ee 0c 00 50 19 9d 82 39 51 c9 02
       -9.406071e-38 1.187415e-39 -2.3083605e-37 2.9580915e-37
0000c0 8a 97 5f 81 6d e0 aa 38 a8 f9 26 36 8c f1 b2 81
       -4.1067355e-38 8.148034e-05 2.4881247e-06 -6.5733476e-38
0000d0 ac 01 e4 81 40 97 87 98 12 9c eb 81 d6 02 8c 34
       -8.375637e-38 -3.5049406e-24 -8.6549316e-38 2.6079096e-07
0000e0 40 58 f8 01 1c 75 33 02 ee cc 56 28 38 35 7b 38
       9.1227445e-38 1.3184452e-37 1.1923823e-14 5.9892627e-05
0000f0 82 20 6c 2c 1e 88 c8 82 a8 e5 e2 80 a8 6b 33 2e
       3.3555663e-12 -2.9465486e-37 -2.0837207e-38 4.0795506e-11

conv.5.weight f4 [64]
000000 70 77 f5 2a 62 e8 71 3d 35 6e 8f 36 cc 40 78 3e
       4.360362e-13 0.05905951 4.274562e-06 0.24243468
000010 5a 2d c2 3c 3e e9 11 3c e1 7c d6 3e f7 0b 51 3e
       0.023703266 0.008905707 0.4189215 0.2041472
000020 3e 7f 8d 3d c6 73 21 b8 89 5d 90 31 e0 d2 f7 37
       0.06909035 -3.8493214e-05 4.2015853e-09 2.954289e-05
000030 a0 2e b6 1b f6 2d 9e 3b 10 4c 1b 3d ec 05 30 3e
       3.0139505e-22 0.0048272563 0.037914336 0.17189759
000040 71 69 4e 2f e5 23 8a 2b f8 8d 02 80 e7 fb 78 3b
       1.8773051e-10 9.815452e-13 -2.346e-40 0.0037991942
000050 bd 20 bf 35 a0 8a 20 15 66 f4 94 3e ca 08 72 30
       1.4240137e-06 3.24211e-26 0.2909271 8.8051577e-10
000060 10 aa 41 3b df 76 34 3b 95 7c 1f 37 e1 93 03 80
       0.0029550828 0.0027536673 9.506145e-06 -3.28555e-40
000070 b6 66 ab 3e 66 44 6b 31 4d 64 0d 3b 6e 04 3b 1a
       0.334768 3.423588e-09 0.0021574677 3.8674272e-23
000080 b1 00 28 3b 2d f2 87 3d c8 cb 02 39 d6 5f 90 1d
       0.0025635178 0.06637988 0.0001247368 3.8215575e-21
000090 0a 35 25 28 38 2b f2 3d 6f 1c 46 33 c9 10 a6 3c
       9.170841e-15 0.118246496 4.6126328e-08 0.020271676
0000a0 33 c2 d8 16 b5 1e a4 3c 0f 2b 33 a6 9d d9 8e a2
       3.501924e-25 0.020034174 -6.2161456e-16 -3.8719584e-18
0000b0 03 63 af 37 ed b7 19 27 64 28 04 27 27 c9 42 3b
       2.0907732e-05 2.1332722e-15 1.8340576e-15 0.0029721947
0000c0 16 5f 69 37 5f b1 b2 3e 32 c9 d1 3e f5 ea 7c 28
       1.3910021e-05 0.34900948 0.40973812 1.4039758e-14
0000d0 75 09 84 3d 6d 1b e7 21 0c 2f 73 33 ee 76 d0 b9
       0.06447116 1.5660428e-18 5.6620635e-08 -0.0003976146
0000e0 af 69 17 3c 5d 86 64 32 77 47 2a 02 77 39 eb 3e
       0.0092415055 1.3301897e-08 1.2510137e-37 0.4594228
0000f0 06 96 c8 3c bd c5 c9 00 70 f2 f8 39 99 90 07 3e
       0.0244856 1.852987e-38 0.00047482876 0.13238753

conv.5.bias f4 [64]
000000 ce 69 c8 a4 31 91 7c be b8 09 7b b6 6d 50 aa be
       -8.6915414e-17 -0.24664761 -3.7407572e-06 -0.33264485
000010 6f 0d a0 bd 7b c3 2b bd 76 4f 1e bf b9 1b d7 be
       -0.07815062 -0.04193447 -0.6184 -0.42013338
000020 eb 38 43 be 96 0b f5 b7 40 f2 18 b4 8a 53 26 b4
       -0.19064681 -2.9211671e-05 -1.4244233e-07 -1.5490346e-07
000030 48 7e 8c 8f 16 96 21 bb e7 ee b7 bd 99 60 b2 be
       -1.3853708e-29 -0.0024656109 -0.08981114 -0.34839323
000040 cc c8 ef ae 1c 28 01 9c f8 d2 ac b5 0e 35 8e ba
       -1.09041304e-10 -4.273436e-22 -1.2876399e-06 -0.0010849552
000050 d4 db d1 aa e1 28 0b bc ab d0 bd be 35 6d 45 b1
       -3.7278394e-13 -0.008493633 -0.37073264 -2.872935e-09
000060 8d 2e 71 bb 40 be c9 ba 51 89 73 b7 e4 77 00 b7
       -0.0036801428 -0.0015391782 -1.45159e-05 -7.657309e-06
000070 27 55 a9 be b6 82 1d af 6b c8 00 b8 dc 6a 2c 9d
       -0.3307278 -1.4325505e-10 -3.0704232e-05 -2.2819255e-21
000080 05 3b 42 b9 12 7a 88 be 82 0b 23 b4 d6 e9 4f b7
       -0.00018523268 -0.26655632 -1.5184744e-07 -1.2392606e-05
000090 30 8d 49 a0 f4 9e ae be f9 ce 2a b1 7e be 24 bd
       -1.7072077e-19 -0.34105647 -2.4855906e-09 -0.04022073
0000a0 89 90 81 9c 0b 40 9d bd ae 9d e9 a2 7a 41 da 95
       -8.573865e-22 -0.07678231 -6.3321726e-18 -8.81528e-26
0000b0 2a 25 0a b5 3b 25 05 a5 02 4b e2 ab 96 5d e9 bb
       -5.1463087e-07 -1.1548525e-16 -1.6079085e-12 -0.007121752
0000c0 a6 86 f1 af d5 b1 00 bf 2b e2 c2 be 4c 14 94 a3
       -4.3933318e-10 -0.5027135 -0.38063177 -1.6054788e-17
0000d0 ea 61 6f bc 01 ee 0c 96 1a 68 48 b4 8b 50 76 bc
       -0.014610747 -1.1384211e-25 -1.8664323e-07 -0.015033851
0000e0 fc 86 88 bc 8e 8a 29 b4 d5 dc 80 bc 42 fe 27 bf
       -0.016665928 -1.5789757e-07 -0.0157303 -0.6562234
0000f0 4d ae 97 bd 45 89 8c a0 5e 07 ed b9 8d c8 bd be
       -0.07406292 -2.380776e-19 -0.00045209652 -0.3706707

conv.5.running_mean f4 [64]
000000 59 a1 78 9c fe 19 63 bb 93 6a a4 b2 99 e4 bb be
       -8.2264854e-22 -0.0034652944 -1.9140577e-08 -0.36697844
000010 f1 f9 9d b7 57 e3 83 36 18 de a9 bf fc 4d 01 bf
       -1.8832246e-05 3.93057e-06 -1.3270903 -0.5050962
000020 e6 41 f9 bc 26 d7 31 31 7e 75 4d 1b 15 c9 28 26
       -0.03042693 2.5879188e-09 1.6995166e-22 5.8559226e-16
000030 1e cf 96 32 2e 8b 97 b6 cf a0 14 bb 7e ba bd be
       1.7556484e-08 -4.5163533e-06 -0.0022678857 -0.37056345
000040 81 e0 cd 25 fb 2f 0d 99 ba c0 2d 80 8c 05 d3 b0
       3.571396e-16 -7.299219e-24 -4.201735e-39 -1.5353847e-09
000050 ba 0f 05 9d b5 28 7d 15 2e 4d 0e bf 05 13 96 a1
       -1.7610534e-21 5.1125055e-26 -0.55586517 -1.016943e-18
000060 8c 27 f4 b2 e8 a4 55 b5 82 7d bc 0d 8d 8b 16 80
       -2.8423322e-08 -7.9588654e-07 1.1616609e-30 -2.070442e-39
000070 9b af 18 3f 88 7f f0 96 16 0e 62 b2 8b 7d 11 84
       0.5964295 -3.8854575e-25 -1.3158134e-08 -1.7102315e-36
000080 04 28 b6 2b 1e 02 06 bd 98 da 18 29 32 d5 cb 9b
       1.2942984e-12 -0.032716863 3.394038e-14 -3.3721307e-22
000090 c2 19 30 80 5f b2 66 bd 1e 79 42 b7 3e 5f c2 b7
       -4.417344e-39 -0.05632245 -1.1591501e-05 -2.3170953e-05
0000a0 0a 9b 70 27 b8 74 6c bd 6b 90 a9 13 54 6c 0f af
       3.3390738e-15 -0.0577285 4.2804005e-27 -1.304426e-10
0000b0 62 ef f7 ae 1f b3 92 8d 1d f7 d8 17 f3 4d 48 37
       -1.12747825e-10 -9.041067e-31 1.4021053e-24 1.1939078e-05
0000c0 21 c6 2c 1a d3 74 90 bf 40 c2 3e bf 6a 49 78 19
       3.5728814e-23 -1.1285652 -0.7451515 1.2836125e-23
0000d0 59 b0 c0 b7 d8 15 70 17 d3 b7 11 00 bc 47 98 b2
       -2.2970302e-05 7.7575753e-25 1.627147e-39 -1.772775e-08
0000e0 49 5d 56 b5 e8 e9 2b 05 a9 cb 3d a6 b3 29 a2 bf
       -7.985696e-07 8.083343e-36 -6.584856e-16 -1.2668976
0000f0 64 d8 4d bc fe 64 af 00 5a f3 b1 b0 7d 42 68 3d
       -0.012563799 1.6107441e-38 -1.294761e-09 0.056704033

conv.5.running_var f4 [64]
000000 79 5d 00 00 95 b1 71 38 3d 00 00 00 83 32 29 3e
       3.3532e-41 5.7624264e-05 8.5e-44 0.16523175
000010 85 5f a1 30 c7 05 55 30 b7 14 2d 3f c6 2b e4 3e
       1.174144e-09 7.749716e-10 0.67609733 0.44564646
000020 3e 1c 60 3c 81 1b 4f 25 b2 00 00 00 04 00 00 00
       0.013678608 1.7963707e-16 2.5e-43 6e-45
000030 04 00 00 00 e3 cb 17 30 40 0c 64 38 f1 ce fc 3d
       6e-45 5.522322e-10 5.4370845e-05 0.123441584
000040 54 00 00 00 04 00 00 00 04 00 00 00 67 74 fd 25
       1.18e-43 6e-45 6e-45 4.396738e-16
000050 a5 b4 01 00 04 00 00 00 72 e5 c8 3e 19 fd 9c 06
       1.56639e-40 6e-45 0.39237553 5.905257e-35
000060 04 e7 20 29 b3 80 8b 2d 04 00 00 00 04 00 00 00
       3.572751e-14 1.5859624e-11 6e-45 6e-45
000070 06 87 18 3f 04 00 00 00 d1 34 9d 27 04 00 00 00
       0.5958103 6e-45 4.3633517e-15 6e-45
000080 04 00 00 00 39 8e c9 3b d0 5d 93 15 e3 0a 00 00
       6e-45 0.0061509875 5.952084e-26 3.905e-42
000090 04 00 00 00 be c1 e2 3c ae 72 24 03 06 80 93 31
       6e-45 0.027680274 4.8326914e-37 4.2928177e-09
0000a0 04 00 00 00 41 31 8d 3b 04 00 00 00 04 00 00 00
       6e-45 0.00430885 6e-45 6e-45
0000b0 07 c5 ce 20 04 00 00 00 04 00 00 00 a8 aa 88 31
       3.502814e-19 6e-45 6e-45 3.9775223e-09
0000c0 32 00 00 00 2c 82 f0 3e 36 59 ba 3f 04 00 00 00
       7e-44 0.46974313 1.4558475 6e-45
0000d0 73 99 82 30 04 00 00 00 04 00 00 00 87 4a 16 25
       9.502358e-10 6e-45 6e-45 1.3035677e-16
0000e0 83 97 8c 2d 04 00 00 00 04 00 00 00 f5 41 20 3f
       1.5983442e-11 6e-45 6e-45 0.6260064
0000f0 2f 85 94 39 04 00 00 00 3a b4 22 24 5e db d6 3e
       0.0002832799 6e-45 3.5280808e-17 0.4196424

fc.weight f4 [1, 128]
000000 d7 8e 82 b9 00 0a df bd 38 5d e3 3b 17 91 a4 bd
       -0.00024901956 -0.10890579 0.006938603 -0.08035486
000010 24 a4 6e bc 73 5b 86 bb 5f 62 8d 3d 64 16 6a be
       -0.014565501 -0.004100257 0.069035284 -0.22860104
000020 0f 17 10 be e3 a7 c3 ba ba b9 88 3b a2 1c 14 39
       -0.14071296 -0.0014927353 0.004172531 0.00014125046
000030 14 a4 ba b8 6c 1a a1 3c d6 dd 4c bd cc 1c 53 be
       -8.899733e-05 0.01966592 -0.050016247 -0.20616454
000040 69 30 58 3b 68 54 44 3b 2e ec ad bb f4 55 1c bb
       0.003298784 0.0029957537 -0.005307696 -0.0023854943
000050 bc 01 3c 3a b5 d5 d0 b7 f7 d6 0b 3e 6f cb f2 3b
       0.00071718893 -2.4895047e-05 0.13656221 0.007409505
000060 89 92 cb ba ee 10 9a bb 84 5b cc 3b af 79 be ba
       -0.0015531342 -0.004701725 0.0062364955 -0.0014532114
000070 aa 00 16 be 07 c8 19 b9 10 36 d5 39 7d 62 34 ba
       -0.14648691 -0.00014665733 0.00040666806 -0.0006881131
000080 cb ed d8 3a 90 93 fd 3b 33 11 f8 3a a1 e6 84 ba
       0.001655036 0.007738538 0.0018926024 -0.0010139534
000090 93 b9 0d b7 fb ee 84 3d a8 36 22 ba 99 ac a9 bb
       -8.447462e-06 0.064908944 -0.0006187954 -0.005178046
0000a0 4c db ff 37 f9 d7 9b bc 2f 52 a3 b8 e9 49 f5 b8
       3.0500487e-05 -0.019023882 -7.7877536e-05 -0.00011696277
0000b0 9d 1e 11 bb 53 08 b8 39 1b 7f d3 3a 49 82 8f bc
       -0.002214349 0.00035101417 0.0016135903 -0.01751818
0000c0 74 62 a2 39 59 ac 32 bc 77 0f 70 be 8b 34 d3 37
       0.000309724 -0.010905349 -0.234434 2.5177627e-05
0000d0 5f 22 17 3b 39 d7 73 39 46 04 58 39 67 30 d6 3c
       0.0023061258 0.00023254463 0.00020600957 0.026146127
0000e0 19 d2 06 3b 5a c6 53 3a cc 27 fc 36 38 ef 11 3d
       0.0020572005 0.0008078568 7.514818e-06 0.035628527
0000f0 18 4c de 3b cf 3a d3 b8 63 87 8a ba d3 11 c4 3d
       0.0067839734 -0.00010072218 -0.0010568913 0.09573712
000100 c0 0e 2f 3a d3 92 81 bd c4 8a 4f 3a f2 1f ae bc
       0.0006677918 -0.063268326 0.0007917101 -0.021255467
000110 04 35 73 bd 22 07 66 3c 3c b8 63 be 77 28 f1 bc
       -0.05937673 0.0140397865 -0.22238249 -0.02943824
000120 b7 62 12 bd da b8 b7 3b 20 5e 9a bb 13 cd ad 3a
       -0.035738673 0.005606753 -0.0047109276 0.001325997
000130 d6 e0 ca 3a 77 d8 9c 3c cc 40 1d 3b 71 59 92 bd
       0.0015478383 0.019146187 0.002399492 -0.07145966
000140 b0 7d ac bc 7b d3 83 b9 9c 42 0b bc 8d 00 c6 bb
       -0.021056026 -0.00025143832 -0.008499768 -0.006042546
000150 73 61 74 3b c2 16 9f b9 8f 48 19 bd 36 4c d8 3b
       0.003728953 -0.000303438 -0.037422713 0.006600882
000160 23 72 20 3b 81 f7 f6 3a a1 e8 e2 ba ae 93 03 bc
       0.0024482093 0.0018842072 -0.001731176 -0.008030815
000170 ad 70 a6 3d d7 32 18 39 59 bc 80 b9 37 8f 25 3a
       0.0812696 0.00014514789 -0.00024554392 0.0006315591
000180 3c 7d cc ba 8b 28 f1 bc 2f 40 cf ba 10 8e 6a b8
       -0.0015601288 -0.029438278 -0.0015811975 -5.5922254e-05
000190 fe 8c 51 3b 07 aa 61 3d cc 71 0d 3c 80 cb e9 3a
       0.0031974907 0.05509379 0.008633088 0.0017837137
0001a0 c3 e9 00 bb 67 9d 2e 3d 9a 2e 2e ba 7f 29 9a 3b
       -0.0019670583 0.04263058 -0.00066445174 0.0047046538
0001b0 ab de c3 3a 97 9d 8d 3a 85 7c a2 ba 24 10 5a ba
       0.001494368 0.0010804412 -0.0012396729 -0.0008318445
0001c0 5c 4c 3e ba 3e 77 5d be b9 b8 ec 3d f8 bb 17 bb
       -0.0007259303 -0.21627519 0.115586706 -0.002315281
0001d0 0c a8 06 bd d0 58 4b ba 04 3d 1e bb ef 51 4c bc
       -0.032875106 -0.00077570695 -0.0024145255 -0.012470706
0001e0 85 7b 8c bc b2 1c 79 ba f0 3e 4b ba 06 4b 75 be
       -0.017148742 -0.0009502872 -0.0007753214 -0.239544
0001f0 74 7e 15 bc d1 6a c5 3a fe 88 91 3a c9 3a 70 bc
       -0.009124387 0.0015061741 0.0011103449 -0.014662453
