experiments/cnn/v3/cnn_best_model.pth (torch, 40653 bytes, 13 tensors)

conv.0.weight f4 [32, 20, 3]
0	0x3cd0d3a2	0.02549154
1	0x3c029deb	0.007972221
2	0xbd5dbcd9	-0.054135177
3	0x3d81cbee	0.063377246
4	0x3c9a71b1	0.01885304
5	0xbe12386c	-0.14279336
6	0x3e6aef94	0.22942954
7	0x3e568dee	0.2095258
8	0xbee683d9	-0.45022467
9	0xbe13a6ea	-0.14419141
10	0xbe10a1dd	-0.14124246
11	0xbd5cfc8d	-0.05395179
12	0xbc691d9f	-0.014228254
13	0xbbc6eb7a	-0.0060705515
14	0xbd38667f	-0.045019623
15	0x3da1b2c3	0.07895424
16	0xbc642bc5	-0.013926451
17	0x3d231283	0.039812576
18	0xbd885244	-0.06656316
19	0xbe43bb93	-0.19114523
20	0x3e639429	0.22224487
21	0xbe7e7a62	-0.24851373
22	0xbe62cbff	-0.22148131
23	0x3d015fb8	0.031585425
24	0x3ca24303	0.019807344
25	0xbd514abf	-0.051096674
26	0x3dff2829	0.12458832
27	0x3a69f848	0.00089252414
28	0x3c37d052	0.011219101
29	0xbaa68ec1	-0.0012707339
30	0x3d5dbfc1	0.05413795
31	0x3c615244	0.013752524
32	0xbdb8d7f8	-0.09025568
33	0x3db65f4c	0.08904895
34	0x3d3abc1a	0.045589544
35	0x3b5e1f91	0.0033893327
36	0x3d703736	0.058646403
37	0xbcc29c58	-0.023756191
38	0xbe59be90	-0.212641
39	0x3ca49aa2	0.020093266
40	0x3cb01ccc	0.021498106
41	0xbcb1f48c	-0.021723054
42	0xbbb788bd	-0.0056010173
43	0xbd20111f	-0.039078828
44	0xbdbcb954	-0.09215036
45	0x3d3fdfd6	0.046844326
46	0x3d24fbea	0.040279306
47	0xbcc69061	-0.024238767
48	0x3d49caf0	0.049265802
49	0x3dec71e7	0.11545163
50	0xbe5de1ab	-0.21668117
51	0xb9b76f6b	-0.00034987493
52	0xb94e1245	-0.00019652497
53	0xb9831b4f	-0.00025006614
54	0xbd342b81	-0.0439868
55	0xbd520834	-0.051277354
56	0x3e34bd6d	0.17650385
57	0x3d53d810	0.051719725
58	0xbcd1e41f	-0.025621472
59	0xbe63c7b9	-0.22244157
60	0xbcd49829	-0.025951462
61	0xbdbf4791	-0.09339822
62	0xbd93be39	-0.072140165
63	0x3e9b3b5f	0.30318734
64	0x3ed719f0	0.42011976
65	0xbedca229	-0.43092468
66	0xbde453e3	-0.111488126
67	0xbe11bf62	-0.14233163
68	0xbe00aed9	-0.12566699
69	0xbbd1ccb2	-0.0064025754
70	0xbcd1b61e	-0.025599536
71	0x3e0e7458	0.13911569
72	0x3d9cb318	0.07651347
73	0x3da1d7c1	0.0790248
74	0xbc30c75b	-0.010789718
75	0x3bc89c6a	0.0061221616
76	0xbd671023	-0.056411874
77	0x3d8be906	0.06831555
78	0x3ef2079d	0.47271433
79	0x3ef5d77a	0.48015958
80	0x3e700354	0.2343877
81	0xbed9388c	-0.42425954
82	0xbecdbf50	-0.40185022
83	0x3efe08ba	0.49616033
84	0x3c7bc861	0.015367598
85	0x3d12c23f	0.03582978
86	0xbd70057c	-0.05859898
87	0xbd789d64	-0.060696974
88	0x3d396fe1	0.04527271
89	0xbc04e53a	-0.0081112925
90	0xbd822641	-0.063549526
91	0x3cfd2a7c	0.030904047
92	0x3ce5994b	0.028027197
93	0xbcf4c445	-0.029878745
94	0xbdba4836	-0.090958044
95	0xbdf20a23	-0.1181834
96	0x3d1772da	0.036974765
97	0x3c5b4678	0.0133835
98	0xbd310fb4	-0.043227866
99	0xbdbcc52c	-0.09217295
100	0xbdc7122d	-0.09720264
101	0xbd254dd1	-0.040357415
102	0x3d264497	0.040592756
103	0x3d6bae29	0.05753914
104	0xbdc77aac	-0.09740195
105	0xbd34511a	-0.044022657
106	0x3c8e19c7	0.017346276
107	0x3dd4f923	0.103990816
108	0xbd5d02e7	-0.053957846
109	0xbca2e3b5	-0.01988397
110	0x3d283ac6	0.041071676
111	0x3bd8e734	0.0066193584
112	0xba99d1e3	-0.0011735525
113	0xbbed98c8	-0.007250879
114	0xbc0c76fe	-0.008573292
115	0x3da00d61	0.07815052
116	0x3cdf5178	0.027260527
117	0xbc119c32	-0.0088873375
118	0xbd32a62b	-0.0436155
119	0xbda97c92	-0.08275713
120	0xbd8849e4	-0.066547185
121	0xbda1b2e6	-0.0789545
122	0x3cf317c9	0.029674428
123	0xbe70cc10	-0.23515344
124	0xbe614177	-0.21997629
125	0x3eb796e3	0.35857305
126	0xbda9f1f6	-0.082981035
127	0x3d850177	0.0649442
128	0xbe9939ef	-0.29927012
129	0xbdeb9df9	-0.1150474
130	0x3cb1dac5	0.021710763
131	0xbdf17a69	-0.11790926
132	0x3d30c1b5	0.043153483
133	0x3cf24053	0.029571688
134	0x3dcb62ad	0.0993093
135	0xbcbbc18e	-0.022919443
136	0x3d9ee760	0.07758975
137	0xbe2e345a	-0.17012158
138	0x3e88e018	0.2673347
139	0x3d9f484f	0.07777464
140	0xbdf7b695	-0.12095372
141	0xbef030ea	-0.46912318
142	0x3db59282	0.08865835
143	0x3ec01291	0.37514165
144	0x3e2c8989	0.1684934
145	0x3c5cf338	0.013485722
146	0x3c73e32d	0.014885706
147	0xbcc5c730	-0.024142832
148	0xbcfdec39	-0.030996429
149	0x3d837089	0.06417949
150	0xbe547b63	-0.20750193
151	0xbc856770	-0.016284674
152	0xbdeb0ce3	-0.11477067
153	0x3c9e3593	0.019312656
154	0xbdaba445	-0.08380941
155	0xbc9e3e44	-0.0193168
156	0x3c982efc	0.018577091
157	0xb97977c4	-0.00023791107
158	0xbe80cc30	-0.25155783
159	0x3c9eb752	0.019374523
160	0xbca74d30	-0.020422548
161	0x3d435584	0.047688976
162	0xbda955c3	-0.08268311
163	0x3e004600	0.12526703
164	0xbd4a6f3a	-0.04942248
165	0xbe3b980b	-0.18319719
166	0xbdc4486d	-0.095841266
167	0xbd6140ee	-0.054993562
168	0xbdf38205	-0.11890034
169	0x3c71be3f	0.014754831
170	0xbe22d86a	-0.15902868
171	0x3b804a55	0.003915111
172	0x3b34562c	0.0027517183
173	0x3d004534	0.031315997
174	0xbd5745c3	-0.052556764
175	0xbd917cbb	-0.071038686
176	0xbd21c88d	-0.0394979
177	0xbcf1b8c1	-0.029507043
178	0x3d81f148	0.06344849
179	0xbe0311d4	-0.1279977
180	0x3e82ae7f	0.25523755
181	0x3e4645b7	0.19362532
182	0x3e28df92	0.16491535
183	0x3ea66c1f	0.32504365
184	0x3ec58206	0.38575763
185	0xbdcd4158	-0.10022229
186	0xbe3ca6d6	-0.18423018
187	0xbb1d6900	-0.0024018884
188	0x3db8a3be	0.09015606
189	0xbd55e345	-0.052218694
190	0x3d6736b1	0.056448642
191	0xbc9e24a2	-0.019304577
192	0xbc0afb9a	-0.008482838
193	0xbd42a6ce	-0.04752236
194	0xbe057ff2	-0.13037089
195	0xbc34d60c	-0.011037361
196	0xbb8df113	-0.004331717
197	0xbdbecf3e	-0.09316872
198	0xbc680397	-0.014161012
199	0x3dfb9b70	0.12285507
200	0xbdfa6517	-0.122263126
201	0x3ec100d7	0.37695953
202	0x3effef53	0.49987277
203	0x3e67c813	0.22634916
204	0x3d11a9e5	0.035562415
205	0x3dfa929c	0.12234995
206	0x3d0bead6	0.034159504
207	0x3d25beff	0.04046535
208	0x3dd6a1cd	0.1048008
209	0x3cb7259e	0.022356804
210	0xbdc0c418	-0.09412402
211	0x3d47ee2a	0.048811115
212	0x3a5d31e8	0.00084379176
213	0xbdce033b	-0.1005921
214	0x3cff1e9a	0.031142522
215	0x3b13a65f	0.0022529585
216	0xbe0d5a8d	-0.13804074
217	0xbdf70441	-0.12061358
218	0xbd6374d5	-0.05553134
219	0x3b2d3034	0.0026426436
220	0x3da4a42d	0.080391265
221	0xbb669b5f	-0.0035187823
222	0xbdcd764b	-0.10032328
223	0xbd57dd23	-0.052701127
224	0xbda9e845	-0.08296255
225	0xbbc11ae3	-0.0058930977
226	0x3dc67433	0.09690132
227	0x3de19ea7	0.11016589
228	0xbde7a786	-0.113112494
229	0x3d52a16a	0.051423468
230	0x3d013834	0.03154774
231	0xbb68905f	-0.0035486443
232	0x3c20c0ec	0.009811621
233	0x3b86b766	0.0041112183
234	0xbce47a1e	-0.027890261
235	0xbd7ca06b	-0.061676424
236	0xbe11340b	-0.14180009
237	0xbdda18ca	-0.106492594
238	0xbd13254b	-0.035924237
239	0xbc987f2e	-0.018615332
240	0xbccdf28d	-0.025140071
241	0x3d1cf4c2	0.038319357
242	0xbdba8059	-0.091065116
243	0xbdf6bcff	-0.12047767
244	0x3dfacd0c	0.12246141
245	0xbecf2b7e	-0.4046287
246	0xbde7be11	-0.11315549
247	0xbdde8152	-0.1086451
248	0x3d939f10	0.07208073
249	0x3d0f4f80	0.034987926
250	0x3ca4006a	0.020019729
251	0xbe4bc36d	-0.19898768
252	0x3ce6d22c	0.02817639
253	0x3d205df0	0.039152086
254	0xbdc57ab4	-0.096425444
255	0x3d0da7de	0.03458392

conv.0.bias f4 [32]
0	0xb880e394	-6.145905e-05
1	0xb4f4b600	-4.5580964e-07
2	0x387a73b1	5.971239e-05
3	0x37fbd3b0	3.0020106e-05
4	0xb5911040	-1.0808071e-06
5	0xb83c5d9c	-4.4909873e-05
6	0x3887267e	6.4444714e-05
7	0x36c439c0	5.847978e-06
8	0xb8a66f96	-7.936281e-05
9	0xb9106104	-0.00013769051
10	0xb7490bc0	-1.1983269e-05
11	0xb88f73e5	-6.8403584e-05
12	0xb838d16d	-4.406406e-05
13	0xb872a8be	-5.785445e-05
14	0x38657dbd	5.4714958e-05
15	0x338481c2	6.170332e-08
16	0xb897ee9a	-7.244684e-05
17	0x38a2be14	7.760167e-05
18	0x38dd6e8b	0.000105586914
19	0x390607e8	0.00012782181
20	0xb7a0eb96	-1.918319e-05
21	0xb602fe00	-1.9519357e-06
22	0x36703d20	3.5798366e-06
23	0x384f14f4	4.937216e-05
24	0xb830c92a	-4.214902e-05
25	0xb8bf83eb	-9.132161e-05
26	0xb848591c	-4.7766705e-05
27	0xb862d26e	-5.4078577e-05
28	0xb8b67aa6	-8.701281e-05
29	0x37b95020	2.209103e-05
30	0x3528cf40	6.2886465e-07
31	0xb81fd287	-3.8104623e-05

conv.1.weight f4 [32]
0	0x3e94da94	0.29073012
1	0x3f023456	0.5086111
2	0x3ec39cb3	0.3820549
3	0x3ecd01af	0.40040347
4	0x3ea8a1a5	0.32935825
5	0x3e94d220	0.29066563
6	0x3ec5ce6c	0.3863405
7	0x3ebb40e0	0.36572933
8	0x3e39d06f	0.18145917
9	0x3e99e0fa	0.30054456
10	0x3f49d1f5	0.78835994
11	0x3e5ea4f4	0.21742612
12	0x3eda8c58	0.426852
13	0x3f27ba5d	0.6551874
14	0x3e9a1799	0.3009613
15	0x3858610b	5.158879e-05
16	0x3ee23023	0.4417735
17	0x3eaeb438	0.3412187
18	0x3ece15ff	0.40251157
19	0x3ed217be	0.4103374
20	0x3e11561b	0.14193003
21	0x3ef99783	0.48748407
22	0x3dc8833a	0.097906545
23	0x3ed235ea	0.41056758
24	0x3dfa754e	0.12229405
25	0x3ed891cc	0.42298734
26	0x3e247566	0.16060409
27	0x3eb98968	0.36237645
28	0x3eae46b5	0.3403832
29	0x3f1e33a2	0.61797535
30	0x3eb75161	0.35804275
31	0x3e85e3c4	0.26150334

conv.1.bias f4 [32]
0	0xbece9c6f	-0.40353724
1	0xbe26026e	-0.16211864
2	0xbeb4bb88	-0.35299325
3	0xbecb616c	-0.39722764
4	0xbe8bf640	-0.2733631
5	0xbe19c629	-0.15016998
6	0xbdda23c1	-0.10651351
7	0xbd808c97	-0.062768154
8	0xbc683fa0	-0.014175326
9	0xbec68138	-0.3877046
10	0xbeb000d2	-0.34375626
11	0xbe22872b	-0.15871875
12	0xbd98d544	-0.07462552
13	0xbda69ada	-0.08135004
14	0xbe259ebe	-0.16173837
15	0xbc15475f	-0.0091112545
16	0xbdb6f653	-0.08933701
17	0xbd67b843	-0.05657221
18	0xbe1464e6	-0.14491615
19	0xbe9b1756	-0.3029124
20	0xbe21f8ae	-0.1581752
21	0xbeda3044	-0.4261495
22	0xbdf1d149	-0.11807496
23	0xbe9dd5d7	-0.3082721
24	0xbd55a50a	-0.052159347
25	0xbdfb2bab	-0.122641884
26	0x3e17ad23	0.1481214
27	0xbd4c97e8	-0.049949557
28	0xb9da88b8	-0.00041682064
29	0xbe24ffaa	-0.16113153
30	0xbd8437a5	-0.06455926
31	0xbe963186	-0.29334658

conv.1.running_mean f4 [32]
0	0xbf09a50e	-0.5376748
1	0x3eaba7d2	0.33526474
2	0xbf227ceb	-0.6347186
3	0x3f1a552d	0.6028622
4	0x3e542fdc	0.20721382
5	0x3e42b8d5	0.1901582
6	0x3f373ff6	0.7158197
7	0x3f4a022b	0.7890956
8	0x3e904b5e	0.281825
9	0xbe253636	-0.16133961
10	0x3ebafed9	0.36522558
11	0xbf9244e6	-1.1427276
12	0x3f224ba2	0.63396657
13	0x3f1e65fc	0.61874366
14	0x3f217b52	0.63078797
15	0x3b4e10e8	0.0031443182
16	0x3f18f6f5	0.59751827
17	0x3f5fa2b1	0.8735762
18	0x3f3409da	0.7032753
19	0x3ec6c513	0.3882223
20	0x3cbfd986	0.023419153
21	0xbf3c5157	-0.73561615
22	0xbee91632	-0.45524746
23	0xbf1318a4	-0.57459474
24	0xbf411da7	-0.7543587
25	0x3f4f8856	0.8106741
26	0x3f83535e	1.0259817
27	0x3f16511c	0.58717513
28	0x3f3884f5	0.72077876
29	0x3eaf6c57	0.34262344
30	0x3f3badc0	0.73311996
31	0xbe6dd151	-0.23224379

conv.1.running_var f4 [32]
0	0x3d4a71ae	0.04942482
1	0x3e1b1c80	0.1514759
2	0x3ce94248	0.028473988
3	0x3e264d33	0.16240387
4	0x3dfdd415	0.12393967
5	0x3e09c096	0.13452372
6	0x3e1d75af	0.15376924
7	0x3def4a1c	0.11684057
8	0x3da18ded	0.07888398
9	0x3db4d38c	0.08829412
10	0x3e6a34b5	0.22871669
11	0x3d2f4fdb	0.042800765
12	0x3e14f904	0.14548117
13	0x3e2160d5	0.15759595
14	0x3ddbe835	0.10737649
15	0x3918e2d6	0.00014580353
16	0x3e083f93	0.13305502
17	0x3e2019c9	0.15634836
18	0x3e0a5421	0.13508655
19	0x3e1f1012	0.15533474
20	0x3d7f4835	0.06232472
21	0x3db28b66	0.087179944
22	0x3ccb70c9	0.024834054
23	0x3de2f3f1	0.110816844
24	0x3cd0e9d2	0.02550212
25	0x3e05dcaf	0.13072465
26	0x3db4dbef	0.088310115
27	0x3dfb0750	0.12257254
28	0x3dddeaf7	0.108358316
29	0x3e0afbd8	0.13572633
30	0x3e053af4	0.1301077
31	0x3d49b201	0.049242023

conv.4.weight f4 [64, 32, 3]
0	0x1ef9c2c6	2.6444457e-20
1	0x2a7c7cf5	2.242545e-13
2	0x9c381258	-6.09042e-22
3	0x80d3ba57	-1.9444136e-38
4	0x001130a2	1.57865e-39
5	0x027bfee6	1.851372e-37
6	0xae80670f	-5.839073e-11
7	0xabbcc628	-1.3413203e-12
8	0x17381f0e	5.9492803e-25
9	0x0b439c5d	3.767327e-32
10	0x0008a557	7.93997e-40
11	0x800397f5	-3.30018e-40
12	0x000924c5	8.3971e-40
13	0x8019a499	-2.354934e-39
14	0x80041f1d	-3.78503e-40
15	0xa8e87bf7	-2.5810935e-14
16	0x96d7aafc	-3.484303e-25
17	0x8b9c818c	-6.0283935e-32
18	0x0c6bf68f	1.8177938e-31
19	0x92bf91fe	-1.20897845e-27
20	0x099f18d3	3.8301202e-33
21	0x9937b177	-9.496717e-24
22	0x09208769	1.9322969e-33
23	0x837a5de4	-7.357618e-37
24	0x15913a27	5.865678e-26
25	0x0de300a1	1.39901065e-30
26	0x1029beb0	3.3476274e-29
27	0x83b064cc	-1.0367492e-36
28	0x004fe32e	7.336501e-39
29	0x800ed088	-1.360504e-39
30	0x24734a62	5.275523e-17
31	0x18f4c5ca	6.3272238e-24
32	0x0d1a2b6a	4.750717e-31
33	0x992b1df3	-8.846541e-24
34	0xa403617f	-2.848868e-17
35	0x0006dc43	6.30028e-40
36	0x8ebcf467	-4.658093e-30
37	0x0c23c26d	1.2615571e-31
38	0x801db778	-2.729046e-39
39	0x1b891514	2.267837e-22
40	0x9a287c76	-3.4842124e-23
41	0x85929c81	-1.3787264e-35
42	0x8364ca1a	-6.723518e-37
43	0x94c7a604	-2.0159347e-26
44	0x021de1a8	1.1599298e-37
45	0x005b14ab	8.364444e-39
46	0x1387e408	3.4303647e-27
47	0x001f5ac8	2.879467e-39
48	0xb1bf2511	-5.5630456e-09
49	0x8eb51d5d	-4.464822e-30
50	0x86dfb940	-8.415548e-35
51	0x872a3415	-1.2804684e-34
52	0x0c02e4d1	1.0083693e-31
53	0x8002722e	-2.24631e-40
54	0x97f0ff8c	-1.5574146e-24
55	0x9cfac541	-1.6594601e-21
56	0x0b998831	5.9138374e-32
57	0x870d4bb7	-1.0629912e-34
58	0x867780e7	-4.655024e-35
59	0x80051047	-4.65017e-40
60	0x800adfb6	-9.98607e-40
61	0x800de8b8	-1.277345e-39
62	0x99065dbc	-6.946567e-24
63	0x8001e58d	-1.74183e-40
64	0x8067bdc8	-9.527137e-39
65	0x8001c764	-1.63363e-40
66	0x0004cc37	4.406e-40
67	0x2971f0c9	5.3721598e-14
68	0x8a0de072	-6.8311165e-33
69	0x0d84e57c	8.190374e-31
70	0x25c8c29f	3.482635e-16
71	0x139a45d1	3.894391e-27
72	0x9ceeceb1	-1.5802947e-21
73	0x21bf43ec	1.2960642e-18
74	0x0cc56e63	3.0419093e-31
75	0x98b80b5e	-4.7574363e-24
76	0x09e9a219	5.6245146e-33
77	0x870f2a1f	-1.0770503e-34
78	0xa4424e16	-4.2133186e-17
79	0x96b99ff6	-2.9989312e-25
80	0x0bc63951	7.6353066e-32
81	0xa919b7cd	-3.4132246e-14
82	0x0b4784fc	3.8426052e-32
83	0x956946c2	-4.7109793e-26
84	0x84f3972b	-5.726785e-36
85	0x86b1e8aa	-6.692187e-35
86	0x0001adbd	1.54161e-40
87	0xac8bce80	-3.9735437e-12
88	0xa28bda8e	-3.790743e-18
89	0x1cdaf14a	1.4488402e-21
90	0x870c59bf	-1.0558803e-34
91	0x8001a338	-1.50387e-40
92	0x00021104	1.89775e-40
93	0x149a383a	1.5572204e-26
94	0xb0f72bd4	-1.7984072e-09
95	0x2859b71d	1.2085626e-14
96	0x376fbf23	1.4290013e-05
97	0x3d37219e	0.044709794
98	0xbbb38b3d	-0.005479245
99	0x3c1897cb	0.009313534
100	0xbb73f0c4	-0.0037222365
101	0xbbd1b359	-0.0063995537
102	0x395309e8	0.00020126218
103	0xbcb4435f	-0.022004781
104	0x3c5dc77b	0.013536329
105	0x3622444c	2.4179635e-06
106	0x398331bd	0.00025023325
107	0x3a02ddbf	0.0004992149
108	0x39390bfb	0.00017647438
109	0x3a5c7c13	0.00084108225
110	0x3a8c47be	0.0010702533
111	0x398634ae	0.0002559772
112	0x3acca660	0.0015613548
113	0x38dfe672	0.000106763924
114	0x3bf492e6	0.0074638007
115	0x3c114922	0.008867534
116	0x3b44f0b6	0.0030050701
117	0x3cec53e4	0.028848596
118	0x3b12bad2	0.0022389186
119	0xb99f0f2d	-0.0003033815
120	0x3a8c7486	0.0010715879
121	0xba8e202a	-0.0010843326
122	0xbb31e971	-0.0027147199
123	0xb4cf894e	-3.8656657e-07
124	0x3a0f4096	0.0005464641
125	0x3979919d	0.00023800736
126	0xbc66ded0	-0.014091209
127	0xbd13791e	-0.03600418
128	0x3c8af618	0.01696305
129	0x3694173c	4.4134486e-06
130	0xbb22a8e1	-0.0024819898
131	0x3b0035c6	0.0019563301
132	0x3bf55628	0.0074870773
133	0x3bcee083	0.006313385
134	0x3b32d5e7	0.002728814
135	0xbc0f5f20	-0.008750707
136	0x3c4c29cf	0.01246114
137	0x3d0266b3	0.031836223
138	0x3912e944	0.00014010543
139	0x3be66d2f	0.0070320587
140	0x3b1814ea	0.0023205825
141	0xac8a7df2	-3.9361786e-12
142	0xb2031c3c	-7.631623e-09
143	0xb2253313	-9.615877e-09
144	0xbacec1b2	-0.0015774278
145	0x3c50f9ca	0.012754867
146	0x37d61214	2.5519206e-05
147	0x3b895ccb	0.00419197
148	0x3bfe9b98	0.007770013
149	0x3aef0d7d	0.0018238273
150	0x3b641dde	0.0034807841
151	0x3c280922	0.010256084
152	0x3c1e16f1	0.009649024
153	0x3b2a6d14	0.0026004957
154	0x3ba2b96f	0.004965953
155	0x3b42d69e	0.0029729973
156	0x32151a8e	8.678979e-09
157	0x3a71a7fe	0.0009218453
158	0x3a86e38e	0.0010291205
159	0xb7b96f5e	-2.2105578e-05
160	0x3cd9979b	0.026561549
161	0x3b33604e	0.0027370634
162	0xae2c286c	-3.9144174e-11
163	0x39891176	0.00026143686
164	0xb8df0a60	-0.00010635401
165	0x3aaebdc9	0.0013331707
166	0x3cb3fdd3	0.021971619
167	0x3bb2293a	0.0054370435
168	0xb6c56957	-5.8833207e-06
169	0xbb87b57a	-0.0041415067
170	0x3c110df4	0.008853424
171	0x3d08355f	0.033254024
172	0xbac39160	-0.0014920644
173	0xbaf835df	-0.0018936953
174	0x3ca6b4cc	0.020349883
175	0x3bbb9cde	0.005725487
176	0x3b737d44	0.0037153522
177	0x3c885f41	0.016646983
178	0x3c204905	0.009783034
179	0x3975a737	0.00023427313
180	0x3c18047a	0.009278411
181	0x3b4568d7	0.0030122304
182	0x3ae93f7d	0.001779541
183	0x3ca91349	0.020639079
184	0x3ab45206	0.0013757355
185	0x3c95badd	0.01827758
186	0x3c7f613c	0.015587147
187	0x3c5ec464	0.013596628
188	0xb9720ed1	-0.00023084438
189	0xb52663ba	-6.198494e-07
190	0xbc5a29ef	-0.013315662
191	0x3d822159	0.06354017
192	0x210e4393	4.8200905e-19
193	0xa6805afc	-8.906446e-16
194	0x9c5666f2	-7.0939714e-22
195	0x97850216	-8.59545e-25
196	0x99b992e9	-1.9187888e-23
197	0x92a4a2dd	-1.0390004e-27
198	0x9ac7def2	-8.266466e-23
199	0xa4abe79a	-7.455178e-17
200	0x0722903c	1.2229912e-34
201	0x965775ae	-1.7404695e-25
202	0xa9af6df4	-7.790635e-14
203	0xa302fe1a	-7.101122e-18
204	0x03fad207	1.4741899e-36
205	0x0a81b672	1.2490876e-32
206	0x92f1591f	-1.5231208e-27
207	0x16171845	1.2205341e-25
208	0x22f26f34	6.5711972e-18
209	0x17801c82	8.279003e-25
210	0x9bb2288f	-2.947384e-22
211	0xa10b5410	-4.720629e-19
212	0xa4928757	-6.354668e-17
213	0xa03dcbca	-1.6076351e-19
214	0xa284a030	-3.5948277e-18
215	0xa62e8bff	-6.0558107e-16
216	0x186fb0ab	3.097922e-24
217	0x9cab2aa0	-1.1326849e-21
218	0x288808a6	1.5102784e-14
219	0x0004a9e7	4.28291e-40
220	0x8e252be8	-2.035896e-30
221	0x84834f87	-3.0870986e-36
222	0xa19d36fc	-1.0653288e-18
223	0xa2266873	-2.255249e-18
224	0xa366c30c	-1.2509628e-17
225	0x9ff76394	-1.0477331e-19
226	0x21ec75bd	1.6023147e-18
227	0x1ef08e00	2.5469718e-20
228	0x9972376d	-1.25223e-23
229	0x99905d58	-1.4926952e-23
230	0x9a7eca31	-5.2689298e-23
231	0x99a7c897	-1.7348413e-23
232	0x9d7b7b43	-3.3283298e-21
233	0x9f33a1f4	-3.803869e-20
234	0x0965ba42	2.765245e-33
235	0x9b2d66d3	-1.4343449e-22
236	0xa9715305	-5.3584758e-14
237	0x0f831b0f	1.292802e-29
238	0x91163033	-1.1847766e-28
239	0x8e3fbf33	-2.3634627e-30
240	0x9dfbfd83	-6.670127e-21
241	0xa4826608	-5.655136e-17
242	0xa2a1ec1e	-4.3889136e-18
243	0x0b3e09e1	3.66001e-32
244	0x9921a727	-8.357261e-24
245	0x9dd1709f	-5.5438287e-21
246	0xa14dde23	-6.9750697e-19
247	0xa54431aa	-1.7017117e-16
248	0x2682c623	9.074267e-16
249	0x1769cac7	7.55423e-25
250	0x9995434a	-1.5433417e-23
251	0x9b766182	-2.038015e-22
252	0x08ba02fd	1.119517e-33
253	0x11d8c643	3.420098e-28
254	0x8e1b04f0	-1.9107602e-30
255	0x8de11b07	-1.3873202e-30

conv.4.bias f4 [64]
0	0x27cebbba	5.738002e-15
1	0xb005f8fe	-4.873896e-10
2	0xab63b51e	-8.089795e-13
3	0xb752ad98	-1.2557393e-05
4	0x2fe9e6c2	4.2546416e-10
5	0x3776301a	1.4673942e-05
6	0x35146b83	5.5290747e-07
7	0x32e691a0	2.6841747e-08
8	0xb39a69fb	-7.1904616e-08
9	0x31a09715	4.673789e-09
10	0x315e3667	3.2336176e-09
11	0xaddc818f	-2.506864e-11
12	0x313292b2	2.5985796e-09
13	0x359a6d26	1.150566e-06
14	0xb436cd9a	-1.7024868e-07
15	0x2ead9b74	7.894743e-11
16	0xb39fede2	-7.447285e-08
17	0x37a593f7	1.9738434e-05
18	0xb7dd959a	-2.6414917e-05
19	0x33ae7154	8.123121e-08
20	0x1ec3e30c	2.0740332e-20
21	0x9b8cf722	-2.3320763e-22
22	0xb544f900	-7.337803e-07
23	0x397c2ba0	0.00024048844
24	0xab206c7e	-5.699398e-13
25	0xb721ff0a	-9.655729e-06
26	0x2538d32d	1.6031005e-16
27	0x34a4bc62	3.0684447e-07
28	0x396d1e47	0.0002261336
29	0x2e6d5976	5.396702e-11
30	0x3919b084	0.00014656974
31	0x25180f04	1.3188986e-16
32	0x34f12beb	4.4921703e-07
33	0x359bb718	1.1601687e-06
34	0xade389f2	-2.5868172e-11
35	0x3234aa41	1.051609e-08
36	0xb8734c60	-5.8006844e-05
37	0x2767f78c	3.2191885e-15
38	0x273619ca	2.5271554e-15
39	0x2e83d7e0	5.9955374e-11
40	0x38b7906e	8.753022e-05
41	0xa7ea900e	-6.510423e-15
42	0xb7bcb9e1	-2.2497903e-05
43	0xb5972fea	-1.1264322e-06
44	0xb6282cdf	-2.506007e-06
45	0x28932b29	1.6338996e-14
46	0xa8e9e66c	-2.5968126e-14
47	0x2f759c9e	2.2338262e-10
48	0xae90a390	-6.5774164e-11
49	0xb1257910	-2.4079476e-09
50	0x37106ee0	8.608884e-06
51	0x180700d2	1.7448755e-24
52	0xb7039fb0	-7.845389e-06
53	0xaa765e58	-2.1881921e-13
54	0xaf0d5656	-1.2854548e-10
55	0x22ecd70c	6.4195618e-18
56	0x366cc41f	3.5280898e-06
57	0x235612be	1.1604932e-17
58	0xb53756d8	-6.8299187e-07
59	0xb8b777b4	-8.7484164e-05
60	0xb2750a24	-1.4263183e-08
61	0x2f7910a9	2.2652337e-10
62	0x2eb765a2	8.33993e-11
63	0xb834ca3f	-4.31037e-05

conv.5.weight f4 [64]
0	0x378f20ba	1.7062168e-05
1	0x3c6b1efc	0.014350649
2	0x3786b88c	1.6059981e-05
3	0x3edcdb4b	0.43136057
4	0x3b723030	0.0036954992
5	0x3c882a4e	0.016621735
6	0x3095ff14	1.0913674e-09
7	0x3d306258	0.043062538
8	0x3de56908	0.11201674
9	0x3c6c06c6	0.014405912
10	0x3609e518	2.054794e-06
11	0x372eb5c9	1.0413533e-05
12	0x3c669d76	0.014075628
13	0x3e585aee	0.21128437
14	0x3c01013b	0.0078738285
15	0x3cd58efd	0.026069159
16	0x34fc6971	4.7015376e-07
17	0x3b52e5b5	0.0032180373
18	0x3cd1ec57	0.025625391
19	0x3a0e755f	0.000543436
20	0x36ae952b	5.2029695e-06
21	0x800586d9	-5.07552e-40
22	0x3ec8a365	0.3918716
23	0xb7f588f0	-2.9270042e-05
24	0x3d831740	0.06400919
25	0x3c76682b	0.015039484
26	0x2a4febcb	1.84671e-13
27	0x13fbb228	6.3536984e-27
28	0x3ee1625c	0.44020355
29	0x289ea744	1.7614064e-14
30	0x3e898411	0.2685857
31	0x31c9c5d6	5.8723613e-09
32	0x3a168e0e	0.00057432137
33	0x3e2fcc39	0.17167749
34	0x1acd69c0	8.495686e-23
35	0x1b3c9209	1.5598182e-22
36	0x3e63587a	0.2220172
37	0x3e127205	0.14301307
38	0x33fbeb9b	1.1730955e-07
39	0x2c645987	3.2450446e-12
40	0x3e992418	0.2991035
41	0xab496bdb	-7.1559224e-13
42	0x3dcebbde	0.100944266
43	0xb19f7536	-4.6408344e-09
44	0x3cdac0df	0.026703296
45	0x2c1f75de	2.2660688e-12
46	0x37127b62	8.731005e-06
47	0xb87934d9	-5.9415444e-05
48	0x14eef767	2.4129442e-26
49	0x3359226c	5.0555556e-08
50	0x3eafa516	0.34305638
51	0x39b85931	0.00035161668
52	0x3ea20aa2	0.31648737
53	0x871a2cbf	-1.1598822e-34
54	0x3116dc83	2.195322e-09
55	0x0aba2bcd	1.7927625e-32
56	0x3e2b2054	0.16711551
57	0x240c9f89	3.0492792e-17
58	0x3ba05f53	0.004894176
59	0x3edc4c12	0.43026787
60	0x3d2524fd	0.040318478
61	0x3bf4acc3	0.007466884
62	0x3a923146	0.0011153601
63	0x3e2debd4	0.16984493

conv.5.bias f4 [64]
0	0xb5d287e4	-1.5685769e-06
1	0xbe2f4145	-0.17114742
2	0xb4815dfe	-2.409651e-07
3	0xbe4f031a	-0.20216027
4	0xbe91dcfa	-0.28488904
5	0xbd322340	-0.04349065
6	0xac85d8ef	-3.804172e-12
7	0xbe381fbc	-0.17980856
8	0xbe99b87e	-0.3002357
9	0xbd33d7b2	-0.043906875
10	0xb606abe8	-2.0067619e-06
11	0xad0a439f	-7.859407e-12
12	0xbd29cfa2	-0.04145778
13	0xbebd7531	-0.37003472
14	0xbd66b061	-0.05632055
15	0xbdc47bc3	-0.09593918
16	0xb294db33	-1.7329148e-08
17	0xbb4df7a5	-0.0031428125
18	0xbdb94f67	-0.09048348
19	0xb9bb1512	-0.00035683118
20	0xb688fe9a	-4.0827554e-06
21	0xb188aff5	-3.978125e-09
22	0xbef30378	-0.47463584
23	0xb71e4c47	-9.435294e-06
24	0xbe823dfa	-0.2543791
25	0xbcf46859	-0.029834913
26	0xa1bc1491	-1.2744819e-18
27	0xbd5c901b	-0.053848367
28	0xbe9fe3e0	-0.31228542
29	0xa4a73c9f	-7.25274e-17
30	0xbea3cca8	-0.31992078
31	0xa992083a	-6.4851295e-14
32	0xb984d47e	-0.0002533532
33	0xbea1da64	-0.3161193
34	0x0008aa22	7.95716e-40
35	0x82de3bf8	-3.2654389e-37
36	0xbf03c7d3	-0.5147678
37	0xbe9be0a9	-0.3044484
38	0xb187ac2f	-3.948592e-09
39	0xaa12d397	-1.3040815e-13
40	0xbec53291	-0.38515142
41	0xa8b66769	-2.0250906e-14
42	0xbe9814a8	-0.2970326
43	0xade05877	-2.5505138e-11
44	0xbd852e50	-0.06502974
45	0xa63aff9f	-6.4878144e-16
46	0xb4053d82	-1.2408967e-07
47	0xb81a9fea	-3.6865393e-05
48	0x989136ef	-3.753709e-24
49	0xb0ae3e83	-1.2677933e-09
50	0xbe74ef3b	-0.23919384
51	0xb9a82b6b	-0.00032075806
52	0xbecbf8c9	-0.39838246
53	0xbcc2465c	-0.02371519
54	0xb28bf8d8	-1.629489e-08
55	0xb7c60268	-2.360456e-05
56	0xbe993a75	-0.29927412
57	0x9d03ecda	-1.7460155e-21
58	0xb9f28c5e	-0.0004626242
59	0xbeff63cd	-0.4988083
60	0xbd7b07bf	-0.061286684
61	0xbc423c6d	-0.011855227
62	0xbc6892a6	-0.01419512
63	0xbe833591	-0.25626805

conv.5.running_mean f4 [64]
0	0xb08215ff	-9.464997e-10
1	0x3d4894c3	0.048969995
2	0x29120722	3.24247e-14
3	0xbf44f45e	-0.76935375
4	0x3dec0bf1	0.11525715
5	0xb9143420	-0.00014133798
6	0xb2ab1d13	-1.9920241e-08
7	0xbd56ddf9	-0.052457783
8	0x3e3c5bf3	0.18394451
9	0xb829d4a2	-4.049077e-05
10	0xaf42b679	-1.7709025e-10
11	0x2b373cae	6.509887e-13
12	0x37e94566	2.780808e-05
13	0xbeb777a2	-0.3583346
14	0x3ab742a3	0.0013981651
15	0x3e5f4072	0.21801928
16	0x3162a796	3.298259e-09
17	0xb459fae0	-2.0300968e-07
18	0xbcc53899	-0.02407484
19	0xb386413c	-6.251727e-08
20	0x9caf9581	-1.1619174e-21
21	0x196865e7	1.2014698e-23
22	0xbf4ce157	-0.8003134
23	0xb7386ac9	-1.09921175e-05
24	0x3bd3e91e	0.0064669987
25	0xb76bcbfc	-1.4054585e-05
26	0xa3270cd3	-9.055804e-18
27	0xb26c1f88	-1.3744177e-08
28	0xbf130530	-0.5742979
29	0x2bc57c78	1.4032239e-12
30	0xbe329637	-0.17440115
31	0x2309051e	7.4278685e-18
32	0x32060798	7.801553e-09
33	0xbc20f319	-0.009823584
34	0x2bbcdb21	1.3419024e-12
35	0xb0337c0b	-6.5296096e-10
36	0x3e729c0a	0.23692337
37	0xbe99c443	-0.30032548
38	0xac8e69f8	-4.0476476e-12
39	0xac322330	-2.5314854e-12
40	0xbf2f43ff	-0.6846313
41	0x257d2d10	2.195952e-16
42	0x3d918726	0.07105856
43	0x336b6346	5.480549e-08
44	0xb9d7c26e	-0.00041152857
45	0xa656ae4e	-7.448239e-16
46	0x2c7bddaf	3.5792304e-12
47	0x30f312f9	1.7685969e-09
48	0x2c4f486a	2.9456667e-12
49	0x30118052	5.2933047e-10
50	0xbee7ca71	-0.45271638
51	0x32d0d7fd	2.4312607e-08
52	0xbf159916	-0.58436716
53	0x28848afb	1.4715217e-14
54	0x2d439bf0	1.1119092e-11
55	0xa0c9b750	-3.417203e-19
56	0xbe23c4ad	-0.15992995
57	0xa131c804	-6.023465e-19
58	0x32274d18	9.7382085e-09
59	0xbf455e5d	-0.7709711
60	0xbda96812	-0.08271803
61	0xb649fc24	-3.00981e-06
62	0x3850dce1	4.9796774e-05
63	0xbd3c6098	-0.045990556

conv.5.running_var f4 [64]
0	0x224469e9	2.6619022e-18
1	0x3b410581	0.0029452743
2	0x1206b5ac	4.250687e-28
3	0x3ee12451	0.4397302
4	0x3d5b53e0	0.053546786
5	0x33d9e601	1.01466874e-07
6	0x0000032d	1.139e-42
7	0x3b8a70e8	0.0042248853
8	0x3d4f9e3d	0.050688017
9	0x33c6b36b	9.2527294e-08
10	0x12e8d1f2	1.4693014e-27
11	0x00000004	6e-45
12	0x32255986	9.624619e-09
13	0x3e4ab710	0.19796395
14	0x366f3504	3.5644634e-06
15	0x3ced51aa	0.028969605
16	0x00000004	6e-45
17	0x2dd96833	2.4716318e-11
18	0x3a15a7dc	0.0005708912
19	0x2a533d8f	1.8761922e-13
20	0x00000004	6e-45
21	0x00000004	6e-45
22	0x3ee41839	0.4454973
23	0x26af88bf	1.2180129e-15
24	0x3a9dc4c5	0.0012036791
25	0x322a666a	9.918589e-09
26	0x058104f2	1.2132918e-35
27	0x00000004	6e-45
28	0x3f211c75	0.62934047
29	0x00000004	6e-45
30	0x3e040351	0.1289189
31	0x08d8fd3b	1.3059561e-33
32	0x24edc104	1.0310935e-16
33	0x3d3ae078	0.045624226
34	0x00000004	6e-45
35	0x00000004	6e-45
36	0x3e38be40	0.18041325
37	0x3d9c3924	0.07628086
38	0x1c33b72d	5.946288e-22
39	0x00000004	6e-45
40	0x3eb248f4	0.34821284
41	0x00000004	6e-45
42	0x3bc2ef92	0.005948969
43	0x00001008	5.751e-42
44	0x34a1c618	3.013272e-07
45	0x01c12692	7.095235e-38
46	0x1a501da7	4.3037345e-23
47	0x251b8998	1.3490726e-16
48	0x00000004	6e-45
49	0x0bf98f59	9.6126997e-32
50	0x3e6637c7	0.22482215
51	0x28ab231c	1.900004e-14
52	0x3e860d8c	0.2618221
53	0x00000004	6e-45
54	0x00000004	6e-45
55	0x00000004	6e-45
56	0x3e0376e1	0.12838317
57	0x00000893	3.076e-42
58	0x00000636	2.228e-42
59	0x3ef12252	0.47096497
60	0x3c41df67	0.011833048
61	0x30f893b0	1.808635e-09
62	0x339a5765	7.187081e-08
63	0x3af31353	0.0018545188

fc.weight f4 [1, 128]
0	0xbb7842f7	-0.003788171
1	0xbe311613	-0.17293577
2	0x3bd8fa7d	0.0066216574
3	0xbe985bb2	-0.29757458
4	0xbe18e793	-0.14932089
5	0xbcb068c3	-0.02153433
6	0xba927f1f	-0.0011176801
7	0xbd275b46	-0.04085853
8	0xbd872321	-0.06598497
9	0xbcd6104d	-0.02613082
10	0x3b5c6daa	0.00336347
11	0xb74cc99f	-1.2206291e-05
12	0xbc8a4c3b	-0.016882053
13	0x3d8bc322	0.06824328
14	0xbccc98a7	-0.024975134
15	0xbe1ce4dd	-0.1532168
16	0x3b45c6c0	0.0030178279
17	0x3c01830c	0.007904779
18	0xbd45af1f	-0.04826271
19	0xbc159119	-0.009128832
20	0x3b2540d0	0.0025215633
21	0x3b74ff88	0.0037383754
22	0x3d87d78b	0.066329084
23	0x3ba9518e	0.005167193
24	0xbdde9e69	-0.10870058
25	0xbca4afc9	-0.020103352
26	0x3ad48aee	0.0016215721
27	0x3cce6b40	0.025197625
28	0xbe730380	-0.23731804
29	0x38e1443a	0.00010741544
30	0xb980f925	-0.0002459969
31	0xbabef6f1	-0.0014569444
32	0xbb20f3c0	-0.0024559349
33	0x3d21348a	0.039356746
34	0x39269f0d	0.00015890245
35	0xb9d08331	-0.00039770597
36	0xbc8a8831	-0.016910644
37	0xbdabaace	-0.08382188
38	0xbb23bdc6	-0.002498494
39	0x3a5c62a7	0.00084070343
40	0x3d7701c2	0.06030441
41	0xbb11fa62	-0.0022274484
42	0x3c66332f	0.014050289
43	0xbaa7c512	-0.001279982
44	0xbca2792a	-0.019833166
45	0x3a0d1154	0.0005381305
46	0x3b4ab863	0.0030932657
47	0xbbade41c	-0.005306734
48	0x3add584c	0.0016887276
49	0xba27956c	-0.000639281
50	0xbe8af2c5	-0.27138343
51	0xbb045d9b	-0.0020197395
52	0x3d90e1df	0.070743315
53	0xbc967d07	-0.018370165
54	0x398b28dc	0.0002654259
55	0xbad9fec7	-0.0016631716
56	0xbde7dbf3	-0.11321249
57	0x3aacdf90	0.0013189185
58	0x3a50dc22	0.00079673727
59	0x3c14f328	0.009091176
60	0xbd087ed6	-0.033324085
61	0xbc25ad0d	-0.010112059
62	0xbc6f8a24	-0.014620338
63	0xbd8f78d6	-0.070054695
64	0x3c09d6b2	0.008413004
65	0xbbed1341	-0.0072349613
66	0xbb002f7c	-0.0019559553
67	0x3e36e136	0.17859349
68	0xbc720ab5	-0.014773061
69	0xbb94ee48	-0.004545007
70	0x3b03ca22	0.0020109494
71	0xbd4b7f1c	-0.049681768
72	0xbad5e4a5	-0.0016318752
73	0xbc6f7de7	-0.01461742
74	0xba52d9cf	-0.000804332
75	0xbbbb0972	-0.005707913
76	0xbc9d396a	-0.019192416
77	0xbd3c97f8	-0.046043366
78	0xbbf8189b	-0.0075712926
79	0x3d03fb47	0.03222206
80	0xb99b4139	-0.00029612498
81	0xbc5a2328	-0.013314046
82	0xbce9c35f	-0.028535543
83	0x38b307cc	8.5368374e-05
84	0xbb3313a8	-0.0027324948
85	0x3c38e5d2	0.011285262
86	0xbe2a502b	-0.16632144
87	0xbb7c87a9	-0.0038533008
88	0xbd8bdacd	-0.06828842
89	0x3c0b6fe2	0.008510562
90	0xba9d738e	-0.0012012587
91	0x3bf54812	0.007485398
92	0x3e292d85	0.1652127
93	0xb8a7b877	-7.99754e-05
94	0xbdf5ee40	-0.12008333
95	0x3ab1428f	0.0013523864
96	0x3a8b462b	0.001062577
97	0x3c77f244	0.015133444
98	0xbabbc2a4	-0.0014324975
99	0xb96161c4	-0.00021494093
100	0x3e1f3029	0.15545715
101	0xbc53a5b9	-0.012917929
102	0x3bab5910	0.005229123
103	0xba617b73	-0.0008601464
104	0xbe2f6146	-0.1712695
105	0xbb2ecbae	-0.0026671696
106	0xbc73a4dc	-0.0148708485
107	0xb9a7ae1b	-0.0003198244
108	0xb8dd9522	-0.00010565879
109	0xba0bdfa0	-0.0005335752
110	0xba866d5b	-0.0010255979
111	0x3c591dce	0.013251735
112	0xbadb5133	-0.0016732573
113	0x3ae2634c	0.0017272024
114	0x3df317e2	0.1186979
115	0xbbefb36f	-0.0073150913
116	0xbe00c9ea	-0.12577024
117	0xbd3e59f1	-0.046472494
118	0x3b59e65f	0.0033248884
119	0x3a50ba6c	0.00079623493
120	0xbb70ee14	-0.0036763
121	0xba7aacee	-0.00095625117
122	0x3ba32d2e	0.004979751
123	0xbe4d5daf	-0.20055269
124	0x3adb763c	0.0016743611
125	0x3b66799d	0.0035167702
126	0x3bbb19b7	0.0057098526
127	0x3b40d48b	0.002942356
