experiments/cnn/v3/cnn_last_model.pth (torch, 40653 bytes, 13 tensors)

conv.0.weight f4 [32, 20, 3]
000000 5f 5f b2 3c 5a 53 a5 3c b7 b4 63 bc cc c5 b4 3d
       0.021773992 0.020181347 -0.013898066 0.08826789
000010 ef 45 77 3c 35 e3 0a be c3 c2 27 3d aa 13 04 3d
       0.015092357 -0.13563235 0.040957224 0.032245316
000020 cb 46 94 be 2d 4d df bd 25 4a db bd 96 ed c5 bc
       -0.2896026 -0.10903392 -0.10707501 -0.024161141
000030 9c d8 7e 3d 1e ef 8e 3d f5 25 97 3d 65 6b 00 3b
       0.062218294 0.06979202 0.073802866 0.0019595262
000040 c3 81 25 b9 fe 54 59 3c 19 c0 f1 3c c2 db 76 bd
       -0.00015783966 0.013264893 0.029510545 -0.06026817
000050 b7 cd 45 3e 7b 4e a3 be 1a 29 9d be aa 9f 6f 3c
       0.19316755 -0.31895813 -0.3069542 0.014625469
000060 2c 1a 73 3c 94 66 ee 3a 85 9b 11 3e 6c 97 8e 3b
       0.014837783 0.001818853 0.14219482 0.004351547
000070 6a 71 86 3c 76 10 80 3d 58 41 1d 3c c7 21 84 b9
       0.016411502 0.0625314 0.009598099 -0.00025202168
000080 b6 91 c6 bb 50 d3 59 3c e2 32 ce b9 8a cf 8f 3d
       -0.0060598506 0.01329501 -0.00039329292 0.07022007
000090 f1 fc 16 bb b2 8d 42 bb 3d 0c 69 bd b1 ad b2 ba
       -0.0023038948 -0.0029686508 -0.056896437 -0.0013632086
0000a0 7f 2c 0e bb 8d 15 f9 3b 20 6c 4b bb e7 85 1a bb
       -0.0021694002 0.007601446 -0.003103979 -0.0023578347
0000b0 e6 b1 11 bd 50 c3 9f 3c 1c ec c5 3b 0f ea 0b 3c
       -0.035570048 0.019502312 0.0060401093 0.008539691
0000c0 6a 0a e7 3d c5 5b e0 3d b1 b0 d0 bd 5b ce c1 26
       0.11281283 0.10955004 -0.10189951 1.3447998e-15
0000d0 f4 4c 97 25 e4 5f 16 28 a5 c5 96 bd 4d 34 d3 bd
       2.624647e-16 8.347466e-15 -0.073619165 -0.1031271
0000e0 8c 2f 0c 3e d5 ca f0 bb d4 13 d5 3b a1 c8 2d be
       0.13690013 -0.007348398 0.006502608 -0.16971065
0000f0 8a cc 0f bd de 75 d6 bd c7 a5 ec bd bf 43 a7 3e
       -0.035107173 -0.104717 -0.11555057 0.32668874
000100 2e 45 d5 3e 56 94 10 bf 8d 42 27 be b9 04 0d be
       0.41654342 -0.5647634 -0.16333981 -0.13771333
000110 2a 8a 15 bd 35 43 99 3c 34 36 d9 3d 29 21 43 3e
       -0.036508717 0.018708805 0.106060416 0.19055618
000120 b7 e8 e7 bc 35 ae af 3c 8d 7a 9f 3d 1c 6f 52 bd
       -0.02830921 0.021445373 0.077870466 -0.051375493
000130 a0 8b 34 3b 82 a8 88 3d 58 4b af 3e 52 bd 00 3f
       0.0027549043 0.06672765 0.3423717 0.5028888
000140 b6 0e 42 3e d9 a4 f1 be 42 94 cb be 00 87 3e 3f
       0.18950924 -0.4719608 -0.3976155 0.74424744
000150 3e da d5 bc 6f bf c0 3d f8 4a a4 bd b7 26 65 3c
       -0.026105043 0.09411513 -0.08022112 0.013986281
000160 14 e7 b9 3c ba 35 46 bc cb 1a 78 be 2b de 6c 3d
       0.022693194 -0.01209777 -0.2422897 0.057829063
000170 0d c2 91 bc 02 e5 36 3d 81 d5 50 3d 31 f3 47 be
       -0.017792726 0.044651993 0.050984863 -0.19526364
000180 ee 0a 52 3d 08 24 88 3d 0c c1 10 bd b2 8e da bd
       0.051279955 0.066474974 -0.035340354 -0.10671748
000190 9d 78 90 3d b1 b8 f8 bd 03 81 c8 bd 15 54 6f bd
       0.07054255 -0.12144602 -0.09790232 -0.058429796
0001a0 b1 64 4c bd 60 d0 a6 bb d5 4a ae bd d2 9d 24 3d
       -0.049900714 -0.005090758 -0.08510367 0.04018957
0001b0 5f 6e 87 bd 5c 4b cc bc 1a c3 39 3d 8a 0a d0 b9
       -0.066128485 -0.024938278 0.04535208 -0.00039680704
0001c0 35 50 93 b8 7a 5a cd 3b e2 37 b0 bd 14 c3 4f 3d
       -7.024446e-05 0.006266889 -0.08604409 0.05072315
0001d0 83 50 93 bc 3c 39 2e 3a d7 82 a2 bc 01 60 09 be
       -0.017982727 0.0006646102 -0.01983778 -0.13415529
0001e0 33 76 01 3e 63 89 eb 3d 56 1b d6 3d 0c 26 d6 bd
       0.12642746 0.11500814 0.10454433 -0.104564756
0001f0 05 8c 10 be 42 cc 39 3d 93 2a 48 3d c4 2e be 3d
       -0.14115913 0.04536081 0.048868727 0.092862636
000200 81 e3 c7 be 80 e9 c7 bd 51 bb 7f bd 85 6a 3b bd
       -0.3904076 -0.097613335 -0.0624345 -0.04575588
000210 4b 0f 88 bc 62 a3 84 3d c2 48 59 3d 1b ea e5 bd
       -0.016608855 0.06476475 0.053047903 -0.11226293
000220 d7 3a 53 3c ad 53 ca bd d3 aa a4 bd 99 d7 a5 bd
       0.0128924465 -0.09879241 -0.08040395 -0.080977626
000230 a7 4c 83 3e b0 f5 d3 be cb 03 99 3c ba 37 78 3e
       0.2564442 -0.41398382 0.018678566 0.24240008
000240 73 ca b0 3a dc 89 e3 3c ce 75 98 bc ad b9 ca bc
       0.0013488069 0.027775697 -0.018610861 -0.02474674
000250 b5 81 ff 3d c0 7c 25 3d 3c 9c 14 be 7f 9e 3e 3d
       0.124759115 0.040402174 -0.14512724 0.046537872
000260 c9 bb d6 bd c7 ac 0d bc 68 a4 01 3c 6f 44 bb 3d
       -0.10485036 -0.00864715 0.007912733 0.09143912
000270 5e 9c 95 bc 17 60 1a 3d 30 c2 d6 bd 68 b6 4f bd
       -0.018263038 0.037689295 -0.10486257 -0.050711066
000280 14 6a 4f bd c6 69 01 bd 2c 90 14 bb c8 d0 f4 3c
       -0.050638273 -0.031595014 -0.002266894 0.02988471
000290 32 a9 f6 bd 7e ba 68 3c 02 2a a9 bc 64 b6 ff 3c
       -0.1204399 0.014204619 -0.020649914 0.0312149
0002a0 60 88 5b 3b 49 5f 9b 3d b6 e2 93 bd 10 b5 55 b4
       0.0033498034 0.075865336 -0.07220976 -1.9903041e-07
0002b0 94 62 6f 38 7b e7 cd 3b 90 bc b9 bd 05 33 f4 bd
       5.707385e-05 0.006283698 -0.090691686 -0.11923794
0002c0 05 4e f7 bd 1c 4b 39 bc a0 dc 25 3d 92 5e f6 bd
       -0.12075428 -0.011309411 0.040493608 -0.120297566
0002d0 58 02 28 3e 04 b4 d6 3d 0a d1 02 3e 67 45 99 3e
       0.16407144 0.10483554 0.12775055 0.29935762
0002e0 da 72 d0 3e 7d c7 85 be 39 54 5c be d5 ac b3 bd
       0.40712625 -0.2612876 -0.21516503 -0.087731995
0002f0 25 a2 45 3d f1 e5 96 bd 9e 02 62 3d b6 88 90 bd
       0.048250336 -0.073680766 0.055178277 -0.070573255
000300 ce 24 85 bc 6f 07 65 bd 1b 85 44 bd 36 32 26 3c
       -0.016252901 -0.055915292 -0.0479785 0.010143807
000310 da fd ac 3d 1e 2f d9 bc b5 b3 64 bd 05 07 03 3e
       0.08446856 -0.026511725 -0.055835444 0.12795646
000320 d8 3b a2 bd 09 40 f6 3e 5e 75 1c 3f 8c f5 00 3e
       -0.079215705 0.4809573 0.6111659 0.12593669
000330 ce bf 83 3c 60 dd 30 3e 7b 40 69 3d c3 c2 58 3d
       0.01608267 0.17271948 0.05694626 0.052920114
000340 31 07 ff 3d 17 60 8e 3d c1 14 0e bd b8 57 94 3d
       0.124525435 0.069519214 -0.03468776 0.072432935
000350 65 97 8c bd 45 bf 7c be 99 0d f1 bd 56 fd e6 3d
       -0.06864814 -0.24682339 -0.11770172 0.11278789
000360 ca 86 2f bd c9 66 75 bd 13 ba 08 3d 5e f9 85 bc
       -0.042853154 -0.059912477 0.03338058 -0.01635426
000370 f6 04 36 3d af 00 71 bd 9d aa 6b bd 30 38 2a 3d
       0.044438325 -0.058838543 -0.057535756 0.04155749
000380 c7 20 81 bc bc 0a ad bd ea 23 aa bc 34 6c 89 3d
       -0.0157627 -0.08449313 -0.020769078 0.06710091
000390 48 40 16 be 2e 24 3e bd ba 51 bf 3d 82 37 5a bd
       -0.14672959 -0.046421222 0.0934176 -0.053275593
0003a0 b3 d7 aa 35 f6 1f 0a ba 17 a3 32 3d 59 f9 7a 3d
       1.2728764e-06 -0.0005269045 0.043612566 0.061272953
0003b0 ad 7c 48 be 92 77 ad bd 2e eb c6 bb 59 ac 2b 3d
       -0.1957881 -0.08470072 -0.006070516 0.04191241
0003c0 db 57 0b be 2f 46 a1 bd 6b 9b ea bd ec 5a df bd
       -0.13607733 -0.078747146 -0.11455425 -0.10906014
0003d0 4c 07 66 3d 92 15 95 be ea f9 b1 3c 9b dd 74 bc
       0.056159303 -0.2911802 0.021725614 -0.014945413
0003e0 50 03 e9 3b 1e c0 ac 38 de a1 71 3c 17 f9 5c be
       0.0071109906 8.237384e-05 0.014748065 -0.21579395
0003f0 e6 a1 ec 3c 7d 4c 2b bd 84 e2 2a be 5e 0f 28 3b
       0.028885793 -0.04182099 -0.16687971 0.0025643925

conv.0.bias f4 [32]
000000 a8 3f d1 34 94 0b 3a b6 56 0e 2b b8 9d 1b 18 39
       3.89756e-07 -2.77229e-06 -4.078293e-05 0.00014506136
000010 8e 3d 2a b8 e0 2f 72 b5 22 aa 6a 38 a8 68 cb 37
       -4.0588486e-05 -9.022169e-07 5.5948396e-05 2.424822e-05
000020 21 b1 87 38 bd 81 81 38 1e 0e 26 38 5c 6b 32 b9
       6.4702945e-05 6.175365e-05 3.959063e-05 -0.00017015397
000030 41 a6 b9 b7 c5 d9 57 b9 68 69 c7 37 9c 3f 68 ac
       -2.2131137e-05 -0.00020585123 2.3771732e-05 -3.3004493e-12
000040 fd ab 87 38 7c 11 df 38 da f7 85 38 04 4e f3 b6
       6.469337e-05 0.00010636725 6.3881e-05 -7.2510466e-06
000050 36 15 97 37 5a df de b8 6a 49 cb 33 86 8c 52 b9
       1.801048e-05 -0.000106273874 9.466278e-08 -0.0002007951
000060 3e 8f 8e b8 58 f6 30 38 1b 0d a8 b8 04 fa 92 37
       -6.7977686e-05 4.2191095e-05 -8.013305e-05 1.7520979e-05
000070 58 70 82 b7 10 8c 3e b7 bd f1 0e 38 80 92 71 ad
       -1.5549522e-05 -1.1357493e-05 3.4080575e-05 -1.37317935e-11

conv.1.weight f4 [32]
000000 b9 0c 2c 3e b1 94 07 3f 93 31 90 3e fd bb d0 3e
       0.16801728 0.5296126 0.28162822 0.40768424
000010 d8 25 8f 3e 18 ab 82 3e ff af a2 3e 88 3c ae 3e
       0.2795856 0.2552116 0.317749 0.34030557
000020 56 23 a1 3e 0a 0c 99 3e 73 f7 46 3f 64 67 29 3c
       0.31472272 0.29891998 0.7772133 0.010339592
000030 8f 7a be 3e 43 ae 1e 3f 33 95 8a 3e 3f 79 ba 31
       0.3720288 0.6198465 0.27066955 5.4270965e-09
000040 94 49 ca 3e b9 80 c0 3e 39 5e d0 3e d2 72 ae 3e
       0.3950926 0.37598208 0.40696886 0.34071976
000050 85 97 19 3e 85 8e f6 3e c0 30 1c 3b 5e 3b 02 3f
       0.14999206 0.4815561 0.0023832768 0.5087184
000060 82 56 0c 3e 9a a1 d1 3e 7f fe 75 3e b4 e8 bf 3e
       0.13704875 0.40943605 0.24022864 0.37482226
000070 84 42 98 3e 85 6d 1e 3f 2b 4f bf 3e 8d a5 3d 3d
       0.29738247 0.61885864 0.37365088 0.04630046

conv.1.bias f4 [32]
000000 47 8d ec be 5f ef 9d be 60 fe 78 be f9 c1 eb be
       -0.46201536 -0.30846688 -0.24315786 -0.46046427
000010 5d 5c 1b be 67 12 57 be ad ab 2c 3d ec 80 87 bd
       -0.15171953 -0.21003114 0.04215591 -0.06616387
000020 64 99 4a 3d a2 a9 d2 be 2e 84 be be b7 dd 03 bd
       0.04946269 -0.41145045 -0.3721022 -0.032193866
000030 2a 83 dc bd b4 b3 35 bc d4 d0 2b bd 44 e5 91 ae
       -0.10767205 -0.011090208 -0.0419472 -6.634562e-11
000040 7b 1a 17 be fd be 6d 3a 7f e6 d6 bd b7 85 5a be
       -0.14756195 0.0009069292 -0.104931824 -0.2134007
000050 28 1a 43 be f2 02 dc be 41 9e e9 b9 a8 73 ab be
       -0.19052947 -0.42970997 -0.00044559131 -0.33486676
000060 bd df e1 bc 58 2f d8 bd 39 dc f9 3d 3d 3d 41 bd
       -0.027572507 -0.10555905 0.12200207 -0.047177542
000070 ef 38 0f bd dd 02 aa 3c cb bc e9 bc 4c 51 81 be
       -0.034966405 0.020753318 -0.028532406 -0.25257337

conv.1.running_mean f4 [32]
000000 e4 d6 ac be f0 1f ba 3d ed f7 57 bf 84 c0 5f 3f
       -0.337577 0.09088123 -0.8436268 0.8740313
000010 cb 87 63 be a6 da f4 3d 98 20 8d 3f 3a 81 36 3f
       -0.2221977 0.119557664 1.1025572 0.71290934
000020 25 c9 62 bf 83 ad 2c 3e ed fa b2 bd 99 65 23 3c
       -0.8858817 0.16863064 -0.087392665 0.009972953
000030 48 8d 1c 3f c1 22 02 3f 6b 21 a0 3f d0 96 a7 2d
       0.6115308 0.5083428 1.2510198 1.9052676e-11
000040 14 9c a5 3f c8 22 37 3f f3 24 83 3f 90 45 08 3f
       1.2938256 0.71537447 1.0245651 0.53231144
000050 54 36 0b bf 7a f7 fa 3b ee 93 36 b6 8a 61 69 bf
       -0.54379773 0.007658896 -2.720622e-06 -0.9116446
000060 32 13 7b bf 76 41 4a 3f 7d 07 9e 3f 34 7c 48 3f
       -0.98076165 0.79006135 1.2346035 0.7831452
000070 bb fa 56 3f 25 90 b8 3e 6e 72 37 3f 6c 2d b5 be
       0.83976334 0.36047474 0.7165898 -0.35386217

conv.1.running_var f4 [32]
000000 64 e9 80 3d f6 61 de 3d 98 93 17 3d 9f f9 48 3e
       0.06294516 0.10858528 0.03700599 0.19626473
000010 6f 0e f3 3d 8c 86 ff 3d 72 07 2f 3e 8c 44 0f 3e
       0.11867987 0.12476835 0.17092684 0.13990992
000020 8e 0f 0a 3e ca b2 01 3e d9 83 56 3e 30 6e 80 38
       0.13482496 0.12665859 0.20948733 6.12404e-05
000030 16 45 35 3e fe 3a 18 3e 96 12 26 3e 85 24 62 1b
       0.17702135 0.14866254 0.16218027 1.8706082e-22
000040 98 b4 69 3e 2e 85 2d 3e 21 e2 2b 3e 6a 57 1f 3e
       0.22822797 0.16945335 0.1678548 0.1556069
000050 48 06 93 3d fd ca 76 3d 70 b2 e1 2c 86 d3 f0 3d
       0.071789324 0.06025218 6.414695e-12 0.11759095
000060 7a 97 15 3d 3d 7b 32 3e 47 cd 26 3e b8 8e 24 3e
       0.036521412 0.17429824 0.16289245 0.16070068
000070 de 85 1b 3e f5 41 1c 3e 8c 8b 3c 3e 2b 93 25 3d
       0.15187785 0.15259536 0.18412608 0.040423553

conv.4.weight f4 [64, 32, 3]
000000 2e 19 09 80 cd 00 02 80 9f 07 05 00 c7 67 d8 1b
       -8.35552e-40 -1.83958e-40 4.61911e-40 3.5801267e-22
000010 ce 30 5f 9c ba b6 8a 9d 78 e0 4e 1e fe 5d 07 1f
       -7.384759e-22 -3.671723e-21 1.0951968e-20 2.866511e-20
000020 9b ed 12 1c 99 ef ab 1c fa 25 dc 9a bc 1e 52 1c
       4.8614446e-22 1.1377765e-21 -9.105122e-23 6.9522895e-22
000030 c2 f3 90 9d 40 95 86 19 eb fc 8a 1c 38 9f ed 9c
       -3.8368522e-21 1.3915557e-23 9.197452e-22 -1.5724501e-21
000040 a6 4a bb 1c bf c8 77 9b 58 1f 51 1e 4e de 85 1e
       1.2393918e-21 -2.0496226e-22 1.107085e-20 1.4173866e-20
000050 a7 7b 9a 9c fd 63 2e 1e 4e 4e 0c 1e 97 40 44 9d
       -1.0222829e-21 9.23216e-21 7.427731e-21 -2.5973776e-21
000060 cc 9b 22 1e da de d3 9d 68 a5 0c 1e d4 9c b3 1b
       8.608427e-21 -5.608166e-21 7.4457435e-21 2.9714414e-22
000070 f9 d2 23 1b 59 a6 05 1b f0 28 03 9d 0f e8 2e 1e
       1.3551213e-22 1.1055252e-22 -1.735887e-21 9.259472e-21
000080 7f b9 02 9e d7 7d 09 00 2c c2 04 80 43 dc 06 00
       -6.920502e-21 8.71662e-40 -4.36998e-40 6.30028e-40
000090 0e a9 38 1e cc 9e 75 1d 00 c3 69 9b ab 2f 97 1e
       9.7758386e-21 3.2507576e-21 -1.9336316e-22 1.6007462e-20
0000a0 0d 67 75 1e 11 f4 5f 9e ca 1f b1 1d 9d 83 bb 1d
       1.29915024e-20 -1.18559935e-20 4.688438e-21 4.9634573e-21
0000b0 64 78 3a 9d 88 9b 04 00 77 96 05 80 21 b1 01 00
       -2.4679136e-21 4.23136e-40 -5.13154e-40 1.55377e-40
0000c0 a3 0c 20 9c bf 66 fd 1d 86 d7 2c 1c 3c d4 f8 1d
       -5.295589e-22 6.707478e-21 5.7188584e-22 6.58645e-21
0000d0 28 da e7 1d e3 62 3c 1e e0 8e 36 1e 9e 6d ac 1d
       6.137076e-21 9.9730864e-21 9.664546e-21 4.5641362e-21
0000e0 60 50 0c 9e 1b 90 12 1d 20 41 35 1d 25 bc 1a 1d
       -7.4281594e-21 1.939744e-21 2.398882e-21 2.0478999e-21
0000f0 f0 45 b6 1b a0 28 9e 1a b4 a9 ac 1c 52 9f 04 9e
       3.015457e-22 6.54129e-23 1.1425872e-21 -7.0209685e-21
000100 98 4b 6a 1b 69 89 85 9c 37 cc 04 00 9e 1b 0d 80
       1.9380452e-22 -8.836721e-22 4.406e-40 -1.203769e-39
000110 f8 99 05 80 96 34 90 1d 63 04 0d 9d d8 cb 0c 1d
       -5.14411e-40 3.8170855e-21 -1.8663462e-21 1.863423e-21
000120 62 cb 64 9d 8e a0 61 1d e3 8d 6d 1c 67 6d 41 1e
       -3.0280695e-21 2.9861507e-21 7.8600106e-22 1.0239959e-20
000130 24 e5 1f 1e 3a c2 bf 9d c6 f8 9c 9d 75 c1 11 1e
       8.464775e-21 -5.0758105e-21 -4.155008e-21 7.716242e-21
000140 dd 39 08 1d b4 d9 e6 9d dc 62 6e 1d 7a 3b ec 9d
       1.8029365e-21 -6.1105593e-21 3.1550147e-21 -6.2530177e-21
000150 cf 2f b7 1d 80 24 9b 9d dd a8 39 1e 91 f2 8b 9e
       4.848913e-21 -4.10659e-21 9.8287386e-21 -1.481752e-20
000160 9e e0 f6 9c ec b4 66 9e 53 66 e9 1d 42 1b 3a 9e
       -1.6336977e-21 -1.2213512e-20 6.1780387e-21 -9.852395e-21
000170 00 41 87 1e ca 44 3e 14 ac ca 76 13 3c 97 16 14
       1.4320564e-20 9.606115e-27 3.114949e-27 7.6028904e-27
000180 f6 f7 09 00 42 4d 90 30 10 a0 b8 a9 ce 64 1a 22
       9.15471e-40 1.0499337e-09 -8.199008e-14 2.0924257e-18
000190 96 1f 31 a1 3f 8c a6 a1 ab 44 05 00 27 e7 53 b6
       -6.0011736e-19 -1.128572e-18 4.83811e-40 -3.1575998e-06
0001a0 54 a1 9d 2f b0 35 07 00 d4 d9 03 00 fa 69 0b 00
       2.8672764e-10 6.62108e-40 3.53648e-40 1.048208e-39
0001b0 07 54 0b 00 1b 08 90 06 04 d8 93 87 01 ed 00 80
       1.040334e-39 5.417869e-35 -2.2245064e-34 -8.5021e-41
0001c0 08 4d ef 8b 03 f8 1b 80 13 8d 04 22 7d 06 34 1f
       -9.2175355e-32 -2.568528e-39 1.796402e-18 3.812185e-20
0001d0 6b a1 98 17 af 2f 1b 27 aa 48 8d 1e 4a b3 61 98
       9.863517e-25 2.153642e-15 1.4959009e-20 -2.9171086e-24
0001e0 18 ca cb 23 23 62 b4 9c 36 58 06 9a 1c fd 05 80
       2.2094894e-17 -1.1936769e-21 -2.7781807e-23 -5.49976e-40
0001f0 c4 56 9d 05 e4 16 00 00 85 bc 76 b2 36 6b 9b b0
       1.4796082e-35 8.212e-42 -1.4361949e-08 -1.1308205e-09
000200 ad ba 05 27 7a f8 03 80 66 e5 85 a7 a0 d1 02 1a
       1.8558655e-15 -3.64643e-40 -3.716363e-15 2.7052704e-23
000210 5e cb f6 22 f4 82 03 1f d1 21 43 1a 9f fd d8 ad
       6.6893757e-18 2.784865e-20 4.035237e-23 -2.4668987e-11
000220 46 9f 21 2c 1f 25 04 31 28 f7 69 80 09 c9 15 1e
       2.296789e-12 1.922963e-09 -9.73139e-39 7.9295674e-21
000230 ea 68 13 10 96 82 08 00 9b 2f 01 80 b6 6e 0c 80
       2.907146e-29 7.8153e-40 -1.08913e-40 -1.141742e-39
000240 d9 2f 22 a4 94 4e a1 20 45 d1 3f 18 3a 5e 8c 21
       -3.516868e-17 2.732646e-19 2.4791826e-24 9.511711e-19
000250 da b4 2c 1d db 8a 8d 12 89 97 63 25 23 5c 20 22
       2.2857509e-21 8.932582e-28 1.9740454e-16 2.173282e-18
000260 6f 89 51 1f f5 f1 23 17 d0 b5 de 1a 36 70 3a 19
       4.4371154e-20 5.2973533e-25 9.211078e-23 9.6386354e-24
000270 50 69 06 80 27 0f 05 00 8b 8f 05 00 48 9e 04 80
       -5.88792e-40 4.64613e-40 5.10671e-40 -4.24123e-40
000280 c9 e2 77 2e b6 3e 98 1d f3 76 03 80 30 80 0e 14
       5.6362724e-11 4.0298907e-21 -3.18177e-40 7.1944484e-27
000290 02 4d ac 8f 4e d9 aa 8b 09 d6 cd 2d dd 5a 11 26
       -1.6990172e-29 -6.580858e-32 2.3400852e-11 5.0430124e-16
0002a0 22 4b 07 00 3d 75 04 a8 48 e8 da 24 c0 31 5b 2b
       6.69801e-40 -7.352894e-15 9.493593e-17 7.787347e-13
0002b0 90 81 bf 9f f7 82 12 9d ae b3 1d 21 91 d2 23 21
       -8.110599e-20 -1.9390646e-21 5.3431473e-19 5.550523e-19
0002c0 97 15 10 11 56 32 12 22 ff 10 84 1e e6 f5 0c 19
       1.136625e-28 1.9813337e-18 1.3983073e-20 7.287489e-24
0002d0 09 8c 1f 1e b5 ff 70 1a aa ec ea 13 e0 fc 06 30
       8.4463485e-21 4.9837395e-23 5.9303273e-27 4.9108273e-10
0002e0 1d 38 2d 2c 41 18 09 2a d2 c8 07 23 1f 61 45 1b
       2.4615928e-12 1.2176459e-13 7.36089e-18 1.632684e-22
0002f0 cc 9c ab 8e c5 ac 03 80 cf 26 97 af b1 47 35 35
       -4.2305745e-30 -3.37485e-40 -2.7494315e-10 6.753208e-07
000300 96 79 60 88 6a 34 2b 8f 2a d1 8f 0f 24 97 00 94
       -6.755047e-34 -8.4410455e-30 1.4181456e-29 -6.492156e-27
000310 b0 88 2d 95 77 a3 95 94 35 0d b1 93 c7 ab dc 94
       -3.50449e-26 -1.510963e-26 -4.4694105e-27 -2.2282077e-26
000320 7c 6b 1f 12 d9 e2 e1 13 19 5a 0e 13 7c 7b 39 13
       5.030404e-28 5.7021674e-27 1.7967341e-27 2.3411165e-27
000330 cd 14 42 92 7f 5e 90 92 80 58 cb 12 13 db 7c 13
       -6.1241245e-28 -9.110973e-28 1.2832918e-27 3.1914884e-27
000340 d0 d9 bd 12 9d 27 85 13 f6 b9 3e 14 60 59 46 14
       1.1981272e-27 3.361298e-27 9.629223e-27 1.00140715e-26
000350 ae 81 d2 94 cd c7 81 14 ea 06 7f 14 bd 32 90 94
       -2.125573e-26 1.3104479e-26 1.28755735e-26 -1.4560297e-26
000360 78 fe ed 13 90 59 b8 14 42 a4 32 14 a3 66 2b 92
       6.0078137e-27 1.8614578e-26 9.0190976e-27 -5.4084595e-28
000370 4f 9b c5 91 68 e5 b7 92 53 8e 49 14 e8 86 78 13
       -3.1176836e-28 -1.1605477e-27 1.0175975e-26 3.1368515e-27
000380 9f 78 a3 14 b2 bf e6 84 f8 44 b0 04 ab cf 5c 87
       1.650637e-26 -5.4248784e-36 4.144074e-36 -1.6611989e-34
000390 09 e6 75 14 37 3a eb 12 03 af 63 13 10 77 83 12
       1.24147054e-26 1.4844936e-27 2.8737716e-27 8.296613e-28
0003a0 42 b4 b0 13 fe 18 96 94 3b 79 8c 13 04 2f 47 14
       4.4606394e-27 -1.5155987e-26 3.546051e-27 1.0056205e-26
0003b0 ad 43 c2 92 e8 cc 03 00 9b 47 02 00 f8 e9 00 00
       -1.2259805e-27 3.49013e-40 2.09358e-40 8.3932e-41
0003c0 d2 84 88 14 32 0c ff 13 28 c6 27 94 66 b1 60 14
       1.3784879e-26 6.4383075e-27 -8.470425e-27 1.13440956e-26
0003d0 3a 8e 44 14 4e ef 9b 94 49 8a 6c 14 f9 d9 26 14
       9.9235204e-27 -1.574539e-26 1.1942227e-26 8.423846e-27
0003e0 e0 db b1 94 0c 9c 8b 13 ef e7 27 13 9c d7 e8 91
       -1.7959158e-26 3.5242407e-27 2.1192715e-27 -3.6736026e-28
0003f0 43 96 c9 91 f0 c3 96 92 5c 03 6e 91 54 10 e7 91
       -3.1804814e-28 -9.514633e-28 -1.8775925e-28 -3.6455437e-28

conv.4.bias f4 [64]
000000 ac 85 82 33 d4 79 c4 26 2c f7 fe b2 38 d7 2d 37
       6.0779115e-08 1.3633254e-15 -2.9681892e-08 1.0361713e-05
000010 f4 c8 8f ac bd 81 99 ad aa 39 48 ab 68 76 8c 2b
       -4.0866147e-12 -1.7451702e-11 -7.11343e-13 9.980463e-13
000020 90 5b a6 38 68 19 8e 31 84 2c a2 32 24 17 b1 ad
       7.932552e-05 4.1356323e-09 1.8879525e-08 -2.0132847e-11
000030 65 6d 49 a7 51 7a 64 b6 1a 7e 3b b0 58 2a 1a ab
       -2.7953656e-15 -3.4045845e-06 -6.8209405e-10 -5.4770554e-13
000040 1c 30 06 26 16 92 4a 2c 88 d8 f5 2f a6 d8 a8 33
       4.655579e-16 2.878702e-12 4.4719095e-10 7.862518e-08
000050 80 26 03 a5 74 81 e3 23 8c 74 ac b8 24 90 b9 ab
       -1.1375483e-16 2.4666215e-17 -8.223308e-05 -1.3185048e-12
000060 d0 5b 38 25 f6 77 3a 31 24 38 27 ac 51 ea 37 a5
       1.5990563e-16 2.7134752e-09 -2.3763292e-12 -1.5952109e-16
000070 18 de 5d 2f 54 bc 80 b9 c5 2f b1 b7 65 48 62 a8
       2.0178736e-10 -0.00024554378 -2.1122289e-05 -1.2561218e-14
000080 19 73 81 37 df de 1f 2e 10 db f5 a5 c0 d6 46 2b
       1.5431595e-05 3.6350364e-11 -4.2649168e-16 7.0641756e-13
000090 50 4e 96 2f 48 95 f2 2f 92 d6 1e ac 36 17 fe b4
       2.7340485e-10 4.4125614e-10 -2.257226e-12 -4.7328075e-07
0000a0 e2 63 ee b8 28 a5 46 23 d2 4d 80 a7 d1 56 c3 2c
       -0.00011367329 1.0768575e-17 -3.561151e-15 5.551872e-12
0000b0 7e 74 7b 2d ba 83 7d 2f 68 37 c6 b5 14 a6 35 ae
       1.4293565e-11 2.3057015e-10 -1.4768275e-06 -4.1302142e-11
0000c0 80 45 8a 33 56 3d 20 b6 66 da 2e 30 4c fa 16 a9
       6.438768e-08 -2.387756e-06 6.3611194e-10 -3.352379e-14
0000d0 b3 73 18 b9 70 93 a6 b6 38 af 06 30 8b 52 17 b6
       -0.00014538951 -4.9643495e-06 4.8997917e-10 -2.25488e-06
0000e0 30 84 96 aa 0c 26 71 30 3b 55 46 a7 3e cc 15 b8
       -2.6737076e-13 8.7729357e-10 -2.7524223e-15 -3.5714584e-05
0000f0 53 e4 41 34 c0 33 72 35 00 7d 84 b3 4c 84 35 b9
       1.805759e-07 9.022733e-07 -6.1694664e-08 -0.0001731079

conv.5.weight f4 [64]
000000 19 4c 39 1d 6f 31 d2 3a 06 7d 1a 15 49 3a c5 3e
       2.4523888e-21 0.0016036461 3.1198678e-26 0.3852103
000010 07 b9 55 3a 03 30 c7 36 7f 17 02 00 57 30 9d 3a
       0.00081528764 5.9362515e-06 1.921e-40 0.0011992556
000020 ba e4 1c 3b ae db 7b 36 d4 ed 7d 83 67 27 43 bc
       0.0023940043 3.7529785e-06 -7.462303e-37 -0.01191125
000030 c2 53 a7 37 0e 16 2e 3d ba 55 a2 37 1c c5 0a 3b
       1.9946954e-05 0.0425015 1.9351824e-05 0.0021174615
000040 60 e6 00 00 2c 71 1f 34 68 c8 af 39 9e 78 48 2a
       8.2643e-41 1.48492e-07 0.00033527915 1.7805416e-13
000050 bd ce 72 09 d9 86 05 80 02 5e b7 3e ab 48 8d 22
       2.9226898e-33 -5.07552e-40 0.3581391 3.8295067e-18
000060 f0 12 ca 3b e3 39 e6 37 e7 d7 02 00 fb 61 05 00
       0.0061668083 2.7445092e-05 2.61122e-40 4.94326e-40
000070 ab be ea 3d 7a 2e 00 00 b7 cf 81 3e 2d 2a 02 80
       0.11462148 1.6673e-41 0.25353786 -1.98801e-40
000080 09 3f 11 29 c6 a6 dd 3d 36 cf 03 80 6d 96 02 00
       3.2251142e-14 0.10822825 -3.4984e-40 2.37634e-40
000090 df a4 ca 3d 52 06 2b bd 95 68 03 00 ee b1 02 00
       0.09894728 -0.041754074 3.13023e-40 2.475e-40
0000a0 73 2f 9b 3e c3 82 03 80 0a 69 25 3c dc 3f 05 80
       0.30309638 -3.22415e-40 0.010095844 -4.82086e-40
0000b0 13 43 2d 37 0d a4 00 80 f0 b2 f4 b0 ee fa 86 a0
       1.03272205e-05 -5.885e-41 -1.7804194e-09 -2.2866534e-19
0000c0 4e 42 02 00 84 1b 02 00 7d 49 cb 3d 14 30 d9 28
       2.07457e-40 1.93542e-40 0.09926126 2.411269e-14
0000d0 15 19 a7 3e c0 03 09 80 8e 4a 01 00 bd 24 04 00
       0.32636324 -8.27865e-40 1.1858e-40 3.80521e-40
0000e0 76 31 8b bc d7 cf 03 00 82 78 6f 30 f9 3a c8 3e
       -0.016991358 3.50065e-40 8.7118945e-10 0.39107493
0000f0 d7 b1 8e 3c bf 40 0f 35 ac 8a 01 33 d2 f8 29 3d
       0.017418785 5.336587e-07 3.0161274e-08 0.04149706

conv.5.bias f4 [64]
000000 84 65 40 bd f2 79 26 bb 96 fb 91 ba 92 57 7f be
       -0.046971813 -0.0025402275 -0.00111376 -0.24935749
000010 c7 2e a6 bc 2e f7 5e b5 d2 e3 a3 ae 18 cb 12 bb
       -0.020285977 -8.306114e-07 -7.452851e-11 -0.0022398885
000020 6a 7d 6f bd 6b 66 fe b4 64 bc 7a bc d8 f5 f5 bd
       -0.058469214 -4.7385706e-07 -0.015303705 -0.120097816
000030 31 e4 5d b5 5d 9d 27 be ae 23 c4 b5 de 61 e5 bb
       -8.266098e-07 -0.16368623 -1.4613522e-06 -0.007000192
000040 11 dc cc bc dd 74 9f a9 4e 28 78 b9 59 dc f9 9e
       -0.02500728 -7.081291e-14 -0.00023666138 -2.6455034e-20
000050 35 06 9d bb 27 85 0d bc 98 8a fd be 21 d2 dd bb
       -0.0047919997 -0.008637703 -0.495198 -0.006769434
000060 e8 14 42 bc d2 c7 e7 b4 a4 bd 46 bd e8 31 ae bc
       -0.011845805 -4.317249e-07 -0.0485207 -0.021264032
000070 eb e1 ee be 03 8d 26 af 21 8b 9e be 07 84 f5 bd
       -0.46656737 -1.514771e-10 -0.30965522 -0.11988073
000080 c2 1a 8b 9d c0 c0 1a be df a6 0a be 76 97 12 ba
       -3.682066e-21 -0.15112591 -0.13540219 -0.00055920274
000090 56 ae 07 bf 8f 71 ff bd 32 68 9b ba 9e 51 80 bc
       -0.5300039 -0.124728315 -0.0011856614 -0.015663918
0000a0 df 11 db be 90 f9 a2 b9 e4 d5 58 bc 49 7a dd bd
       -0.42787072 -0.00031084986 -0.013234589 -0.1081434
0000b0 f7 b1 c5 b6 8f 1c 12 bc eb 6b e2 bd c4 25 cb 92
       -5.8917753e-06 -0.008917942 -0.1105574 -1.2820411e-27
0000c0 98 13 db bc ad f5 54 ba b3 b8 43 be c7 79 31 9e
       -0.026742741 -0.0008123767 -0.19113426 -9.395485e-21
0000d0 ae 75 da be 94 16 51 bc 8a 13 b2 b9 40 15 bf bc
       -0.42667907 -0.012761731 -0.00033965363 -0.023325562
0000e0 5e d2 e5 bd fc b6 60 9f f6 fb eb a1 dc c2 03 bf
       -0.11221765 -4.7585206e-20 -1.5990913e-18 -0.51469207
0000f0 cd 5b 06 bd 17 d2 cd b0 92 68 b7 af d4 e1 08 bd
       -0.03280239 -1.4975424e-09 -3.3361808e-10 -0.03341849

conv.5.running_mean f4 [64]
000000 a8 6e 24 b2 09 b1 18 b4 79 ef 1b 31 8d 11 23 bf
       -9.571217e-09 -1.4220508e-07 2.2691593e-09 -0.63698655
000010 f2 21 b5 b3 4a f2 91 2b 54 c7 1b 29 43 11 78 ac
       -8.434644e-08 1.0370118e-12 3.4589803e-14 -3.5252502e-12
000020 1c 06 3b 37 5a 74 a5 ae 6e 22 d1 b0 a9 be 48 3b
       1.1147491e-05 -7.5239995e-11 -1.5216537e-09 0.003063122
000030 b7 4e 27 25 06 5b da 3c 51 96 59 2e fc b2 80 af
       1.451161e-16 0.026654731 4.9473595e-11 -2.341024e-10
000040 af 57 df a3 c7 e6 1a aa 00 99 27 30 41 c8 8c b1
       -2.4214844e-17 -1.3758015e-13 6.097167e-10 -4.0973025e-09
000050 ac 87 d7 22 84 cd e5 a0 b1 50 55 bf 68 96 8e 29
       5.8419515e-18 -3.8930108e-19 -0.8332625 6.332158e-14
000060 dd 84 81 b3 70 3e f3 ae c4 f0 a4 29 54 dc 15 23
       -6.031198e-08 -1.1061452e-10 7.324829e-14 8.1239625e-18
000070 6e a1 72 be 13 36 45 37 68 f7 8d be 9a 05 30 26
       -0.23694393 1.1754705e-05 -0.27727818 6.106986e-16
000080 9e b5 34 b5 b0 ba 83 b8 64 8b d6 23 06 12 1a a9
       -6.7319513e-07 -6.28134e-05 2.326096e-17 -3.4210502e-14
000090 c9 6c c3 3e 68 1c 9b 3b ad ed 21 2a f7 02 d8 32
       0.38168934 0.004733611 1.4382133e-13 2.5147058e-08
0000a0 05 47 4d bf aa 87 18 a2 80 e4 63 35 e4 82 96 aa
       -0.8018649 -2.0671661e-18 8.48966e-07 -2.6736176e-13
0000b0 58 5e 4a ab 13 09 83 ad 85 08 ad 33 5e 0b 7f 2c
       -7.1895745e-13 -1.4897006e-11 8.05749e-08 3.624399e-12
0000c0 70 df 09 b0 e3 23 ee 33 ef a8 50 be c8 39 e8 25
       -5.0157833e-10 1.10892664e-07 -0.20376943 4.028474e-16
0000d0 d1 35 2f bf 13 2b 76 34 33 42 f4 ad 76 58 a6 33
       -0.6844149 2.2926206e-07 -2.7768987e-11 7.746068e-08
0000e0 f5 a5 06 b9 fe a2 45 ae 0a bf 11 25 ee c4 66 bf
       -0.0001284106 -4.493738e-11 1.2641472e-16 -0.9014424
0000f0 67 bb 2b b2 02 dc bc b3 85 8a 20 31 86 d2 1d 37
       -9.99612e-09 -8.7944514e-08 2.3361804e-09 9.4069455e-06

conv.5.running_var f4 [64]
000000 04 00 00 00 f0 82 eb 2a 04 00 00 00 79 57 c2 3e
       6e-45 4.1835242e-13 6e-45 0.3795736
000010 27 1f d0 2a 7c 01 98 04 04 00 00 00 a1 de f2 1b
       3.6969839e-13 3.573639e-36 6e-45 4.0179412e-22
000020 18 3b ba 32 55 e4 26 15 04 00 00 00 84 51 a5 37
       2.1680123e-08 3.3703555e-26 6e-45 1.9707491e-05
000030 8d 09 05 00 6a 11 8c 3b 44 3d ce 1a ac 8a 2c 21
       4.62604e-40 0.004274537 8.529858e-23 5.84594e-19
000040 04 00 00 00 04 00 00 00 72 97 1a 23 04 00 00 00
       6e-45 6e-45 8.3804265e-18 6e-45
000050 04 00 00 00 04 00 00 00 b7 e1 bb 3e f5 ef d7 06
       6e-45 6e-45 0.36695644 8.1226597e-35
000060 9d a5 cf 29 24 00 00 00 04 00 00 00 04 00 00 00
       9.221376e-14 5e-44 6e-45 6e-45
000070 45 e8 2e 3e 04 00 00 00 b4 03 22 3e 04 00 00 00
       0.17080791 6e-45 0.15821725 6e-45
000080 04 00 00 00 be 12 25 32 04 00 00 00 04 00 00 00
       6e-45 9.6085255e-09 6e-45 6e-45
000090 19 cf 7b 3e f0 54 14 38 04 00 00 00 04 00 00 00
       0.2459072 3.5365054e-05 6e-45 6e-45
0000a0 e1 c1 ab 3e 04 00 00 00 34 4e d8 2b 04 00 00 00
       0.33546355 6e-45 1.5369429e-12 6e-45
0000b0 28 00 00 00 04 00 00 00 72 b3 2d 20 04 00 00 00
       5.6e-44 6e-45 1.4713043e-19 6e-45
0000c0 04 00 00 00 04 00 00 00 9f 2d 0f 3d 04 00 00 00
       6e-45 6e-45 0.034955617 6e-45
0000d0 35 7c a8 3e 04 00 00 00 04 00 00 00 04 00 00 00
       0.32907262 6e-45 6e-45 6e-45
0000e0 c5 e4 32 33 04 00 00 00 04 00 00 00 83 49 01 3f
       4.165192e-08 6e-45 6e-45 0.50502795
0000f0 56 20 64 1f 0e 00 00 00 16 e0 7f 00 e4 fa c5 2a
       4.8307626e-20 2e-44 1.1743495e-38 3.516832e-13

fc.weight f4 [1, 128]
000000 7a df d7 ba 36 8d 2e ba cc bc 9c 39 53 8c 26 bf
       -0.00164698 -0.00066586153 0.00029895303 -0.6505787
000010 8c 51 e7 b8 b9 41 9a b2 71 38 76 3a 61 c3 88 b8
       -0.00011030128 -1.7957847e-08 0.00093925657 -6.5213775e-05
000020 cf 2c 5f b9 c7 f4 e5 b6 bc a1 04 bd 30 98 08 bc
       -0.0002128363 -6.8532277e-06 -0.032380804 -0.008337066
000030 6b 53 ef b2 2c ca ef 3b c6 c6 0f b6 00 dc 1b bb
       -2.7861196e-08 0.007317802 -2.1424362e-06 -0.0023782253
000040 36 0a 9a bb 5f 56 b8 32 ab ad 0b b4 17 7a f5 b1
       -0.0047009243 2.1459696e-08 -1.3008564e-07 -7.1443185e-09
000050 bd 3d 50 3b ea b9 01 3c c2 92 39 3e 5a 18 8b 3c
       0.003177508 0.0079178605 0.1812239 0.016979385
000060 a9 30 a6 b9 a6 c3 9c b3 b2 84 9d bb 67 75 1e bc
       -0.00031698242 -7.299904e-08 -0.0048070783 -0.009671546
000070 6b 70 3c be 3a 38 b8 b7 78 e9 0b 3e d6 0b 82 3d
       -0.18402259 -2.1960692e-05 0.1366328 0.06349914
000080 83 f2 a5 af 3c 47 a5 3b a0 d4 9e bd 28 80 54 3a
       -3.018564e-10 0.005043892 -0.07755399 0.0008106255
000090 eb 44 72 bd 19 e3 dc bc 5c c3 d8 39 15 84 6c bb
       -0.059147757 -0.026963757 0.00041344285 -0.003608947
0000a0 b3 a7 58 3c 37 24 1f 37 89 6b cc 35 2e bb 9e bd
       0.013223576 9.48557e-06 1.5230481e-06 -0.077505454
0000b0 59 e0 0d b7 24 37 a6 3b d6 3a 0a bd ca cc e9 b0
       -8.45649e-06 0.0050724912 -0.033747517 -1.7011186e-09
0000c0 a7 4c db 3b b9 53 4c b8 d2 2f 98 bd 4e ae 28 b1
       0.0066924873 -4.8715363e-05 -0.07430996 -2.4546298e-09
0000d0 63 31 69 3d a3 42 c4 bb 90 49 1d 38 65 28 7a bc
       0.056931864 -0.005989389 3.7500227e-05 -0.01526842
0000e0 b3 ad a6 ba 32 75 8f 35 8f 1f 34 2c ea 0f d9 3d
       -0.0012716561 1.0688439e-06 2.5597057e-12 0.105987385
0000f0 ff 7a 25 bc 97 86 84 b0 22 da d4 b2 d0 1b c1 ba
       -0.010100125 -9.642517e-10 -2.4779244e-08 -0.001473302
000100 3d a7 14 bb 89 0a 73 bb 44 28 8f 38 78 78 3d 3e
       -0.002268269 -0.0037085137 6.8262714e-05 0.18502986
000110 db 5e e9 bb 37 df 74 ba d9 a5 a5 3b 5c b9 96 bc
       -0.0071219034 -0.0009341123 0.005055171 -0.018398933
000120 1f e1 df bb fc 5e 6f bb 8e 2f 71 bc ae d0 7e bd
       -0.0068322564 -0.003652512 -0.014720811 -0.06221073
000130 21 76 98 bb 21 cf b9 39 9f 28 fe ba 91 5d 8f 3c
       -0.004652754 0.00035440273 -0.0019390768 0.01750067
000140 c7 e3 ea bc fa 4a 2c bb c0 e3 06 bc 33 44 0a 37
       -0.028673066 -0.0026289807 -0.008233011 8.24132e-06
000150 48 54 24 3a 8f 0c 57 3c 6c b8 1f be cb 22 c5 3b
       0.00062686624 0.013125553 -0.15597695 0.0060161105
000160 8f 5c 01 bd e7 ed fa 3a be 9b 58 bc 7e e6 bb bc
       -0.03158241 0.0019144387 -0.013220726 -0.022937056
000170 10 97 a2 bd 45 4c b4 ba 08 6d e6 bd 5c ba ac 3d
       -0.07938969 -0.001375564 -0.11251265 0.08433983
000180 c8 b2 c6 38 b3 05 2c 3c 69 e5 14 be 89 4d 0d 3c
       9.474676e-05 0.010499406 -0.14540638 0.008624443
000190 c3 6f 59 bd 87 44 e2 bd d4 b2 05 3c 2d 2c 99 bc
       -0.0530851 -0.11048227 0.008160312 -0.018697822
0001a0 fa b4 43 be e6 3e 63 3b 81 91 04 3c 19 93 eb bd
       -0.19112006 0.0034674942 0.008091331 -0.11502666
0001b0 91 0b c5 b7 fc 9e 3d bb 82 c6 58 bd 67 a2 9b 3a
       -2.3489616e-05 -0.0028933873 -0.052923687 0.0011873961
0001c0 22 7f b4 3c 4d 23 51 bb 93 44 57 bc 90 4c 85 ba
       0.022033278 -0.003191191 -0.013138908 -0.0010169912
0001d0 92 ee 3f be 1d 73 af bc 82 8f 44 b8 32 c9 d1 bc
       -0.18743351 -0.021417195 -4.6863694e-05 -0.025608633
0001e0 e6 9b 53 bd db 70 00 3b c9 b9 12 3a 3b cb 46 be
       -0.05166235 0.0019598517 0.0005597142 -0.19413464
0001f0 4d 68 94 ba a3 e5 2f 3a 94 a8 80 3a 07 eb e3 3a
       -0.0011322588 0.0006709939 0.0009815865 0.0017388769
