results/best_model.pth (torch, 32953 bytes, 5 tensors)

conv.0.weight f4 [32, 12, 3]
00000000: 811a e2bf 345b eabf b83b fbbf bdc6 1c3e
00000010: 2093 15bd 7cc1 093d b15a d7bf f0b4 cabf
00000020: 7c4c c4bf 6152 0bc0 a4f7 ffbf 2925 03c0
00000030: b9aa 3e40 1341 4040 4871 4140 005d 4040
00000040: f8fb 5140 ad21 4840 fb2d a33f b9aa b33f
00000050: 2289 9d3f be91 2ebf 744f 34bf db40 e0be
00000060: 0b20 b9c1 e424 c0c1 c826 b9c1 cba3 0dc0
00000070: 2d41 07c0 796b 03c0 ba25 dfbf ab17 07c0
00000080: fac3 e5bf 4508 6ec5 2f83 77c5 c8c7 71c5
00000090: 7b23 d33c 1652 b73d f46e dcbc 764b 57bd
000000a0: e06b 373d 0c20 39bd d9ae 8f3d 300e 023e
000000b0: e2c4 933d fbe8 95bd eb37 0e3d f237 fdbc
000000c0: 34be ad3d c871 41bd 5af5 dfbd a57a 83bd
000000d0: 77bb 8bbd 9b33 4a3e e469 443d 80e5 c73d
000000e0: bfd2 a93d a001 3bbb 4d90 d03d b89e 15be
000000f0: 2151 ff3b 0a66 32bf ff3d 06bf 4b64 70bd
00000100: 9f61 b6bd 5837 24be e557 0d3e f462 13be
00000110: 23ff 13be 0b1f 01bf 9349 b5c2 2265 b5c2
00000120: 6139 243e dfd8 0cbe bb47 29be ff85 05be
00000130: 789c e5bd f240 8a3d 4c72 743d a5cf 0d3e
00000140: f045 b0bd e3b0 e8bd a21a b53d eef7 89bd
00000150: d229 cf3d 4cff 21bd 2242 c33d 409a 04be
00000160: f840 acbd 0421 503d 2452 103d 460d 2ebd
00000170: 5a75 cb3d a20a e83d 9e86 f7bd 1e3a b6bd
00000180: e145 1c3e 9c5a 66bd 3c04 72bd db22 25be
00000190: b078 c3bd 5c88 2a3d f836 b4bc e3c4 f7bd
000001a0: e01a 803b 9328 e9bd 04cb 10be a3f5 bbbd
000001b0: 48a2 a6ca 9023 afca 7a03 b0ca 4cf0 003d
000001c0: d05e 523d 9a2d 1fbe 48a2 a6ca 9023 afca
000001d0: 7a03 b0ca 6baf a9ca 86db b2ca 740f b2ca
000001e0: 4eef f14a 538e fe4a 2b63 fe4a 2b01 f44a
000001f0: 8f72 004b 2366 004b 151e 2b4a 43be 374a
00000200: 306a 414a d820 3a49 e037 2349 284f 2249
00000210: 8c31 77cc 5058 80cc 0aa4 84cc efa7 f2ca
00000220: 5d88 01cb bee2 04cb 48a2 a6ca 9023 afca
00000230: 7a03 b0ca 9e9f 23d0 8df9 2bd0 6fd5 2cd0
00000240: b29f efbc a2a7 0c3d c34c af3d edc7 093e
00000250: 6b78 1b3e 4c53 07be ca17 2c3d 34a4 92bd
00000260: 84c1 94bc 9bca 00be 316f 1a3e 657c fcbd
00000270: bae6 b63d 66c0 703d 757e 5e3d f821 b8bd
00000280: bf4b 1b3e 3189 163d 1cac ab3c 02e3 16be
00000290: d949 8e3d add6 ccbc a16e 9cbd e693 123e
000002a0: a1b4 fa3c 45fc cabd 8298 babd 18fa 32bc
000002b0: 024a b83d 3ffe 3abd 10b9 c3bd 3ab5 6bbd
000002c0: 69ea ffbd 0bcf 63bf d5ff 51bf 5ffb 86bf
000002d0: 128a 60bf 9a47 60bf 9095 6ebf 4c1d 73bd
000002e0: 0228 b23d 0a60 b33d 7749 35bf c603 59bf
000002f0: f641 61bf 1dbb 7cbf 68a8 89bf 322e 8abf
00000300: cc55 be3f d237 cc3f 5bf9 b83f 7034 b73f
00000310: 43a3 c53f 5e78 c43f 6c0f 323f 36f3 3c3f
00000320: 0dc1 0c3f 11ce cfbe 8cf1 4dbe 7869 7bbe
00000330: 8267 32c1 bc18 3bc1 e70e 3bc1 2f86 96bf
00000340: 8a33 8cbf 1a08 68bf 563e 4fbf 339f 62bf
00000350: 9504 8ebf b039 e6c4 c2df f1c4 c2d9 f1c4
00000360: a417 4c3c 3a85 60bd fe36 8d3d f001 82bd
00000370: 10ee dcbd 8622 f93d 8f14 b3bd 5d9a 38bd
00000380: aac7 29be f8fc c93d 882b ea3d f0cb 783d
00000390: 65ab c8bd 7b2d 16be a49c 0abe 94e8 123e
000003a0: 53a9 c93d e59d 0f3e 4b48 ba3d 08d2 463d
000003b0: 80ec d5ba 3186 03be 35f4 12be 02a2 1fbe
000003c0: 3fc8 e5bd 1ae5 83be 7063 09bd 04da cebd
000003d0: 2f09 14bd 083e f0bd bae5 f6bd deb7 323d
000003e0: d6e2 4abd 8ba5 bac1 c3e5 bbc1 1664 fabd
000003f0: e0e5 f0bc e075 a5bd 2cdb 50bd 5379 22be
-1.7664338 -1.8309083 -1.96276 0.15310188 -0.036517262 0.033631787 -1.6824552 -1.5836468
-1.5335841 -2.176903 -1.9997449 -2.049143 2.97917 3.0039718 3.0225391 3.0056763
3.281004 3.1270554 1.2748407 1.4036475 1.2307475 -0.68191135 -0.70433736 -0.4379948
-23.140646 -24.018013 -23.143936 -2.2131221 -2.113353 -2.0534346 -1.7433388 -2.1108196
-1.7950432 -3808.5168 -3960.199 -3868.4863 0.025773754 0.089512035 -0.026908375 -0.0525622
0.044780612 -0.045196578 0.070157714 0.12700725 0.07215287 -0.07319828 0.034721296 -0.030910466
0.08483544 -0.04722765 -0.10935469 -0.06419877 -0.068228655 0.19746248 0.047952548 0.097605705
0.0829215 -0.0028534904 0.10183773 -0.14611328 0.0077916537 -0.6968695 -0.5243835 -0.058689397
-0.089053385 -0.16036737 0.1380306 -0.14393216 -0.14452796 -0.5043799 -90.6437 -90.697525
0.16037513 -0.13754605 -0.16531269 -0.13039397 -0.11211485 0.067506686 0.059679314 0.13848741
-0.086070895 -0.113618635 0.088429704 -0.06736742 0.101153985 -0.03955011 0.09534098 -0.12949467
-0.08410829 0.050812736 0.035234585 -0.042493127 0.099344924 0.11330153 -0.12086223 -0.08897804
0.15261032 -0.056238756 -0.05908607 -0.16126578 -0.09544504 0.04163395 -0.021998867 -0.120981
0.0039094537 -0.11384692 -0.14139944 -0.09177711 -5.46026e+06 -5.738952e+06 -5.767613e+06 0.031479165
0.05135995 -0.1554474 -5.46026e+06 -5.738952e+06 -5.767613e+06 -5.5602455e+06 -5.860803e+06 -5.834682e+06
7.927719e+06 8.3412895e+06 8.3357655e+06 7.9955415e+06 8.417935e+06 8.414755e+06 2.8035892e+06 3.0104488e+06
3.168908e+06 762381.5 668542.0 664818.5 -6.4800304e+07 -6.728973e+07 -6.954197e+07 -7.9513515e+06
-8.489053e+06 -8.708798e+06 -5.46026e+06 -5.738952e+06 -5.767613e+06 -1.0980588e+10 -1.1541034e+10 -1.1598675e+10
-0.029250953 0.034339555 0.08559563 0.13455172 0.15182655 -0.13215369 0.042014875 -0.071602255
-0.018158682 -0.12577288 0.15081479 -0.12328414 0.08930726 0.058777235 0.054319818 -0.08990854
0.15165614 0.03675193 0.020956092 -0.14735034 0.06947679 -0.02500471 -0.07638288 0.14314231
0.030603709 -0.09911398 -0.0911112 -0.010923885 0.08998491 -0.045652624 -0.09556782 -0.057545878
-0.12495882 -0.889878 -0.82030994 -1.0545462 -0.8771068 -0.87609255 -0.93196964 -0.05935411
0.08699037 0.08758552 -0.70815223 -0.8477138 -0.87991273 -0.9872301 -1.0754519 -1.0795348
1.4869933 1.5954535 1.4451097 1.4312878 1.5440449 1.5349233 0.6955478 0.7380861
0.5498207 -0.40586904 -0.20111674 -0.24551952 -11.15027 -11.693539 -11.691138 -1.17597
-1.0953228 -0.9063736 -0.8095449 -0.8852417 -1.1095148 -1841.8027 -1934.9924 -1934.8049
0.012456808 -0.054814555 0.068952546 -0.06348026 -0.10787594 0.12164788 -0.087441556 -0.045069087
-0.16580072 0.09862703 0.11434084 0.060741365 -0.09798316 -0.14665787 -0.13536316 0.14346534
0.09846749 0.14025076 0.0909582 0.048540145 -0.0016321093 -0.12844159 -0.1435097 -0.15589145
-0.112198345 -0.25760728 -0.033542097 -0.10100177 -0.03614157 -0.117305815 -0.120555356 0.04363238
-0.049532734 -23.330832 -23.487188 -0.12226121 -0.029406488 -0.080791235 -0.05099027 -0.15866594

conv.0.bias f4 [32]
00000000: e7a0 f5bf 7d00 69bc c368 c8bd 9023 afca
00000010: fbf5 233e 7a0e 59bf 0ddc 10be c5c9 1b3e
00000020: bb91 51c0 b09e c5be a3f5 033e faac 3cc0
00000030: 660a 05be 51cb 01c0 c81d ddbf f23f 71c0
00000040: 9d0d 22c0 591e 5bcb 802d f8bb 9857 a3bc
00000050: 78ed ffbc 9c1c 2bc0 edf7 3bc0 2a8a 8bbc
00000060: 3af7 be3d 289e 883d af0f 71c0 0009 fcbb
00000070: 724e 453c a47d 0c3d 0a53 15be 2ac6 cdbf
-1.9189728 -0.014221308 -0.09785607 -5.738952e+06 0.16011803 -0.84787714 -0.14146443 0.15213688
-3.2745197 -0.3859763 0.12886672 -2.9480577 -0.12992248 -2.0280344 -1.7274714 -3.769528
-2.532081 -1.4360153e+07 -0.0075737834 -0.019939229 -0.031241164 -2.6736212 -2.9370072 -0.017033655
0.093244985 0.06670791 -3.7665823 -0.0076915026 0.012042629 0.034299508 -0.14582458 -1.60761

conv.3.weight f4 [64, 32, 3]
00000000: ef5c aec4 a4b6 afc4 b633 aac4 018d cfc1
00000010: fd3f afc1 b028 0c3e 44a4 0abd fe65 a73d
00000020: 6409 a53d 8875 37c0 3866 3fc0 3caa 25cf
00000030: 11ef a9bb c4af a63c a022 583d e1bb e7c3
00000040: f316 ebc3 a064 dac3 d839 17bd 2d6f 32c1
00000050: 8219 36c1 27a9 95bd e4c7 2d3d 102d c1bb
00000060: 2936 36c4 5885 36c4 51c0 2bc4 dcaa 8fc3
00000070: aacd 8fc3 0784 8bc3 ffc9 3c3c 852b 0a3e
00000080: 7ff0 023e dff8 a4c4 9c2f a9c4 0912 a6c4
00000090: 7d4e b6bd f858 d33c a042 f93c ea1e 99c4
000000a0: 9d7e 9ac4 3906 94c4 26e7 e7c4 12a1 ebc4
000000b0: 1780 e1c4 4cd5 c8c4 f9d9 cfc4 0ac4 c9c4
000000c0: 0354 08c4 b8e7 13c4 ce20 15c4 c097 1ec0
000000d0: c4fe 1fc0 0ceb 02d0 0034 363c 348d a83d
000000e0: f292 5bbd e094 73bb 003a 9c3c 980e debc
000000f0: 4a34 1c3e 4acb 3fc1 2c7b 83c1 8750 0bc2
00000100: bfd5 0cc2 e6fb 0ac2 4a90 a1c4 7787 a7c4
00000110: d66a a6c4 fbbd 88c1 cc43 acc1 c7f9 fbc0
00000120: 486f b6bc b247 863d 701d cf3c 8071 b0bd
00000130: 5878 c43c 9439 ad3d c30c 28c4 723f 2ac4
00000140: 7aa3 23c4 c2f3 a73d ba39 69bd a88e 7b3d
00000150: 0dec a23e 4c9d 8d3e 38a1 d03e 7811 073d
00000160: 88cb fabc 706e 113d 529e 543e ca33 943e
00000170: ce01 a03e 8b4b e4c3 253f e9c3 000e e0c3
00000180: 513e adc0 3311 ddc0 8049 b5c0 51b8 2dbf
00000190: afe8 b1bd 1fa8 7a3d 42da 8d3d 15d5 bdbd
000001a0: fc06 053d f68a adcd 75a5 b2cd 8194 accd
000001b0: ddca c13d 69eb efbc fc2c 983d bc68 4ec0
000001c0: fe85 fabf ece6 81bf cc3a a93c 1649 02bf
000001d0: 1e0b 4abd 502a 383c 005e 1bb9 189f d33c
000001e0: 1ce6 6ec0 3a9c 8ac0 ae40 07c0 959d a4bf
000001f0: c4bd 97bf 3a83 17bf 9936 003d f09e c63d
00000200: ed44 033d 611f d2c0 14a8 28c1 c1ef 35c0
00000210: 14c7 f2bc 8056 e43b 472c 9fbd 0bb7 0dc1
00000220: 578a ebc0 4299 6cc0 9a24 51c1 a53c 3dc1
00000230: 4aa4 7cc0 3122 e9bf 87da 52c1 d3a0 03c1
00000240: 50ba e9bf b744 b7c0 c14c 1ac0 d106 8ace
00000250: a10d 8dce 9653 88ce 3cd3 98bd bc4b 813d
00000260: 4c5a 5a3d 0028 24b9 7e7c ca3d a109 26bd
00000270: bd6e 91bc 5a3a 44bf 4414 0a3c c54b 68be
00000280: ac1d 1dbe 35fa 8bbe 8a68 26c1 2aa7 1ac1
00000290: 11be b1bf 247c c8be 328d 0dbf ef2b 26bd
000002a0: 7422 183d a08e d73b 6cbf 923d 6082 14bc
000002b0: 2bec 83bd 88af 933d 89e4 9bc0 5206 a8bf
000002c0: 9a04 31c0 88f8 c33c 395b c7bd 5035 dc3c
000002d0: 02f0 3a3d 1909 91bd 8f67 82bd aa45 96bd
000002e0: 70af af3d e4b1 b13d eb8b 96ba 352d c43d
000002f0: bf1a 55bd 6e87 4fc0 35c6 17c0 ede5 f2bf
00000300: 92af 0d43 efdf f242 50ec fd42 7233 773f
00000310: 82a1 7f3f 9e74 06be 2c1f ac3d b02e b2bd
00000320: 3c64 bb3d 38b2 9dcb 7d1c ad3c 3bf7 9bcb
00000330: ec76 2dbd c0c3 b6bd f341 51bd 79b1 0a42
00000340: 7f8c 0b42 962b 0842 5c4e 783d d0b7 2740
00000350: 7e1d 243a 6cfb 9f3c e42c 89bd 5abd adbd
00000360: ad59 6542 2391 2a42 a227 4f42 ded2 cc41
00000370: 93bd b541 24ee ad41 2c49 11bd b0df 44bd
00000380: dbe7 b1bd 2a66 e842 abc2 e042 4a0b d042
00000390: 800e 973b 79c2 50bd 36ed 0fbd 2d8a cd42
000003a0: 2cd3 8b42 3cd2 b942 4bf4 0643 6740 3343
000003b0: cdf5 1643 138c 2b43 e58c e142 286e 7342
000003c0: 7cef 5342 9206 2a42 c5a9 1c42 230e 7d3d
000003d0: 1e6e 6e3d 9eab 1abd 5e13 c03d 3c50 6f3d
000003e0: 68b6 e73c 7e43 c43d de6b bdbd 10eb 863c
000003f0: 1229 1e3d 4d2c 5640 207d ffbd d90d 3240
-1394.9042 -1405.7075 -1361.616 -25.94385 -21.906244 0.13687396 -0.033848062 0.0817375
0.08058432 -2.8665485 -2.990614 -2.779397e+09 -0.0051859696 0.020347483 0.052767396 -463.4678
-470.1793 -436.78613 -0.0369204 -11.152143 -11.3812275 -0.07307654 0.04242696 -0.0058952644
-728.84625 -730.0835 -687.00494 -287.33484 -287.60675 -279.03146 0.011522769 0.13493164
0.12787054 -1319.7772 -1353.4878 -1328.5636 -0.08901689 0.02579926 0.030427277 -1224.9661
-1235.9567 -1184.1945 -1855.2234 -1885.0334 -1804.0028 -1606.6655 -1662.8116 -1614.1262
-545.3127 -591.6206 -596.5126 -2.478012 -2.4999247 -8.785768e+09 0.011120796 0.08230057
-0.053606935 -0.0037167594 0.019070625 -0.027106568 0.15254322 -11.987131 -16.435143 -34.82864
-35.208736 -34.745995 -1292.509 -1340.2333 -1331.3386 -17.092764 -21.533104 -7.8742404
-0.02226986 0.065566435 0.025282592 -0.086153984 0.023983166 0.08458248 -672.1994 -680.99133
-654.5543 0.0820079 -0.056939818 0.061415344 0.31820717 0.2765907 0.40748 0.032975644
-0.03061463 0.035505712 0.2076352 0.28945762 0.31251377 -456.59018 -466.49332 -448.10938
-5.413857 -6.9083495 -5.665222 -0.6785937 -0.08686959 0.06119549 0.06926395 -0.09269158
0.032477364 -3.6394566e+08 -3.7464848e+08 -3.619267e+08 0.09462521 -0.029287057 0.07430455 -3.2251425
-1.9572141 -1.0148597 0.02065792 -0.5089277 -0.04932701 0.011240557 -0.0001481697 0.025832698
-3.7327948 -4.3315706 -2.1133227 -1.286059 -1.1854787 -0.5918461 0.03130207 0.09698284
0.032048155 -6.5663304 -10.541035 -2.8427584 -0.029635943 0.0069683194 -0.07772117 -8.857188
-7.360637 -3.696854 -13.071436 -11.827306 -3.9475274 -1.8213559 -13.178351 -8.226764
-1.8259983 -5.727138 -2.4109347 -1.1578513e+09 -1.1832403e+09 -1.1435896e+09 -0.07462165 0.06313273
0.05330877 -0.0001565516 0.09887026 -0.040536527 -0.017753 -0.7665154 0.008427683 -0.22685154
-0.1534335 -0.2733933 -10.400522 -9.665812 -1.3886129 -0.39157212 -0.5529357 -0.040569242
0.037142232 0.0065782815 0.07165417 -0.009064287 -0.0644153 0.07211214 -4.8716474 -1.3126929
-2.7659059 0.02392222 -0.09734196 0.02688089 0.045639046 -0.07081813 -0.063674085 -0.07337506
0.08578384 0.08676508 -0.0011485791 0.09578935 -0.05202746 -3.242641 -2.3714726 -1.8976418
141.68582 121.43737 126.96155 0.96562874 0.99855816 -0.13130423 0.08404383 -0.08700311
0.091499776 -2.0669552e+07 0.021131748 -2.0442742e+07 -0.04234974 -0.08924055 -0.051088285 34.673313
34.887203 34.042564 0.060621604 2.620594 0.0006260498 0.019529067 -0.06698015 -0.084833816
57.337574 42.641735 51.788704 25.602962 22.717566 21.74128 -0.035470173 -0.048064888
-0.08686801 116.19954 112.38021 104.02205 0.004609883 -0.050966714 -0.03513833 102.769875
69.912445 92.910614 134.95427 179.25157 150.96016 171.54716 112.775185 60.857574
52.98387 42.506416 39.16579 0.06178106 0.058210485 -0.037761323 0.09378694 0.058426127
0.02828522 0.095831856 -0.0924909 0.016469508 0.038613386 3.346454 -0.124750376 2.7820952

conv.3.bias f4 [64]
00000000: 3134 30c8 8633 edc6 d2c6 26c5 138b 06cc
00000010: 1209 9cc3 7b8d 94c0 ab84 0dc7 464d 07c9
00000020: e227 acbc 2592 edbf 27b0 15da bcd0 8abd
00000030: 5249 b6c6 5f29 c3be dccd 08c0 2893 3cc9
00000040: dd9f 78c9 43cb b6c6 4915 bdca b52c d7c9
00000050: 1032 f7c8 3453 03cb e671 5ec5 8ce4 24ca
00000060: 19b4 82c6 4919 c4db 5f33 42c7 1afc 8bcb
00000070: 4715 bac7 cf7a 18ca 2fea 11ca 3430 4ec8
00000080: fddd 32c6 187b 22c9 aa41 08db 1c9a eaca
00000090: dacb 2bc0 53b4 54bf 1803 62c2 169d 8fc8
000000a0: de38 fac8 d946 d6c8 34cd 01bf a390 0cc8
000000b0: 5db4 fdbe 174d 9bbf 3454 87ca cf68 e9ca
000000c0: de1a 80da f27a dbdb fffc dbe1 7611 90c7
000000d0: ca41 a9c6 bdaa dfc7 8b05 d0c8 0a08 8bca
000000e0: 5241 2dc8 48ba c9c7 ee1e 09ca e131 60c7
000000f0: fc29 e4c6 f264 18c8 6210 17cb f91c 61c9
-180432.77 -30361.762 -2668.4263 -3.5269708e+07 -312.07086 -4.6422706 -36228.668 -554196.4
-0.021015111 -1.8560225 -1.0533363e+16 -0.06778094 -23332.66 -0.381175 -2.1375647 -772402.5
-1.0183658e+06 -23397.63 -6.1958765e+06 -1.7627106e+06 -506256.5 -8.606516e+06 -3559.1187 -2.701603e+06
-16730.049 -1.1039379e+17 -49715.37 -1.8348084e+07 -95274.555 -2.4982278e+06 -2.3906678e+06 -211136.81
-11447.497 -665521.5 -3.8352795e+16 -7.687438e+06 -2.684317 -0.8308765 -56.50302 -294120.7
-512454.94 -438838.78 -0.5070374 -143938.55 -0.4955167 -1.2132901 -4.434458e+06 -7.6483595e+06
-1.8029169e+16 -1.235564e+17 -5.072584e+20 -73762.92 -21664.895 -114517.48 -426028.34 -4.555781e+06
-177413.28 -103284.56 -2.2465875e+06 -57393.88 -29204.992 -156051.78 -9.90013e+06 -922063.56

fc.weight f4 [1, 64]
00000000: b563 b9c6 4385 65ce 7a94 b4c7 4aeb ffcd
00000010: e9f5 52c9 5690 0d46 5e66 6dcc b61f a8cd
00000020: bd20 6140 ee7d b445 d60f 8452 bdb1 14bd
00000030: 7c9b 16ca ed1e b942 1c78 1a46 3507 9fcc
00000040: ac76 c1ca 68b9 96ca 3a1e f9cd 5175 13ce
00000050: 065f b5c9 fef5 dfcd 90c8 ccc5 98e8 3cce
00000060: fb79 f6c6 bea5 f751 7896 93c7 1a06 2fce
00000070: 9891 eccd d6f3 a7cd dbc6 29cc c2d3 37c9
00000080: ee30 33cb 5b48 1bcd b423 e352 4449 c3cd
00000090: 0951 5845 0d91 5445 e4dd 01c8 db09 3ac9
000000a0: f343 35ca 148c 6fcc 073c 0a44 fd27 2dca
000000b0: 3a7d 6744 cd20 d445 2e1c 80ce e53d 76ce
000000c0: 7eb5 1054 5f50 3d54 afcc fae2 6641 20cb
000000d0: 0643 19cb 4732 0fc8 38eb 2bcc 49df 14cc
000000e0: 0f04 e8c9 d936 ffcd 5dd7 8fcd d7a1 9ccd
000000f0: 1cca 51cc 7086 87c7 ef76 4acd d765 cbc9
-23729.854 -9.62679e+08 -92456.95 -5.3670125e+08 -864094.56 9060.084 -6.223295e+07 -3.525813e+08
3.5176232 5775.741 2.8360068e+11 -0.036302317 -2.467551e+06 92.5604 9886.027 -8.337655e+07
-6.339414e+06 -4.938932e+06 -5.2243846e+08 -6.184848e+08 -1.4857928e+06 -4.6968006e+08 -6553.0703 -7.9234e+08
-31548.99 1.329547e+11 -75564.94 -7.341032e+08 -4.9612058e+08 -3.522219e+08 -4.4505964e+07 -752956.1
-1.174347e+07 -1.6282565e+08 4.877783e+11 -4.0954483e+08 3461.0647 3401.0657 -132983.56 -762013.7
-2.9698528e+06 -6.2795856e+07 552.9379 -2.8369912e+06 925.95667 6788.1 -1.0746652e+09 -1.03281286e+09
2.486081e+12 3.252389e+12 -2.3132175e+21 -1.0502502e+07 -1.0044166e+07 -146633.11 -4.506749e+07 -3.9025956e+07
-1.9006739e+06 -5.3522307e+08 -3.01657e+08 -3.284815e+08 -5.4995056e+07 -69388.875 -2.122995e+08 -1.6662349e+06
