results/best_model.pth (torch, 32953 bytes, 5 tensors)

conv.0.weight f4 [32, 12, 3]
00000000: 533c a2bf 840f a8bf 9c75 babf bdc6 1c3e
00000010: 2093 15bd 7cc1 093d 9276 a1bf 2437 92bf
00000020: 35cd 8bbf 7c22 d1bf c5d1 b7bf 5225 c0bf
00000030: 3e2c 0140 c82c 0040 6764 0240 7a66 ff3f
00000040: 3bc8 0e40 5a22 0640 3c14 5a3f ac4d 7a3f
00000050: 52d7 513f 7d64 d1be c8b1 dfbe 60d7 4dbe
00000060: bead 88c1 02c3 8dc1 f88f 88c1 734b d3bf
00000070: bc10 c6bf 3fa3 c6bf 8c47 9fbf b2e3 cbbf
00000080: dffd a4bf 9251 2fc5 316a 36c5 532d 32c5
00000090: e921 1ebf 0bdc 0abf e5a9 28bf 764b 57bd
000000a0: e06b 373d 0c20 39bd d605 f2be 678a d9be
000000b0: caae f6be c5aa 48bf e07d 25bf 46e6 35bf
000000c0: 4336 753f 678a 503f 7a2d 433f 1562 5c3f
000000d0: cbc5 583f 33da 8e3f 5e43 ed3e 35ac fd3e
000000e0: ad17 ea3e 98ec 25be 480f 49bd eaa6 80be
000000f0: 62b1 f2c0 3d9c 03c1 9738 06c1 401e 4bbf
00000100: 26f0 35bf 8c23 48bf 0a65 01bf 0b9f 46bf
00000110: 35c6 46bf 45d1 a1c4 b02e aac4 8a30 aac4
00000120: 6139 243e dfd8 0cbe bb47 29be ff85 05be
00000130: 789c e5bd f240 8a3d 4c72 743d a5cf 0d3e
00000140: f045 b0bd e3b0 e8bd a21a b53d eef7 89bd
00000150: d229 cf3d 4cff 21bd 2242 c33d 409a 04be
00000160: f840 acbd 0421 503d 2452 103d 460d 2ebd
00000170: 5a75 cb3d a20a e83d 9e86 f7bd 1e3a b6bd
00000180: e145 1c3e 9c5a 66bd 3c04 72bd db22 25be
00000190: b078 c3bd 5c88 2a3d f836 b4bc e3c4 f7bd
000001a0: e01a 803b 9328 e9bd 04cb 10be a3f5 bbbd
000001b0: fe29 2cca 6697 31ca 0ce1 32ca 4cf0 003d
000001c0: d05e 523d 9a2d 1fbe fe29 2cca 6697 31ca
000001d0: 0ce1 32ca ae5b 2fca 9592 35ca 9388 34ca
000001e0: 600b 604a 2633 674a b59c 674a 5067 614a
000001f0: 92a6 684a bb2e 694a ef9d 9e49 5e65 a949
00000200: d852 b349 1e01 0749 5ea4 fb48 3b55 f948
00000210: 99d4 00cc f8ca 02cc 34e0 06cc 9219 79ca
00000220: 879c 83ca c996 87ca fe29 2cca 6697 31ca
00000230: 0ce1 32ca ae0d a9cf 0a62 aecf b8a5 afcf
00000240: 0e21 4ebd ad59 593c 915c af3d edc7 093e
00000250: 6b78 1b3e 4c53 07be 9551 ab3c 8fdb bdbd
00000260: e1bb 94bc 12eb 17be 6851 033e bc5d fcbd
00000270: 514d ef3d 2b3b b03d 431d 5e3d b1bc 7bbd
00000280: d73b 383e 9029 163d 3cad 183d ad09 07be
00000290: cc56 8e3d 489e cbbc 6277 9ebd 1e9e 123e
000002a0: 3712 85be 620a c2be 81e2 b9bd 0d41 9dbc
000002b0: 6ba3 a43d 3859 3abd b2e1 eebd 3803 a1bd
000002c0: 9bda ffbd 4113 2dc2 05cc 2cc2 7b70 7ebf
000002d0: 2725 19bf 765f 15bf 6cad 23bf 4c1d 73bd
000002e0: 0228 b23d 0a60 b33d c072 f3be 5cd9 19bf
000002f0: 45a1 20bf 6dcf 2dbf e09b 41bf cfa8 43bf
00000300: 64c8 783f a6e6 863f b28c 663f 6f3f 633f
00000310: 643e 793f 2692 763f 05a8 ef3e 315d ff3e
00000320: f038 9d3e 4056 83be 3f34 52bd 4b68 d5bd
00000330: 2629 f8c0 7ec2 02c1 70f3 02c1 cb0e 5abf
00000340: 3f06 44bf f262 1abf 6dd9 07bf 0eb7 17bf
00000350: 0b21 51bf 121f a0c4 1352 a8c4 134c a8c4
00000360: 3c4c 583c 1d78 5dbd fe36 8d3d f001 82bd
00000370: 10ee dcbd 8622 f93d 568e b1bd e28d 35bd
00000380: aac7 29be e5f6 cb3d e0b2 eb3d f0cb 783d
00000390: 2b9a cebd e70d 19be a49c 0abe 87af 0f3e
000003a0: 8b9f c33d e59d 0f3e 4c50 ba3d be79 433d
000003b0: 80ec d5ba 9d32 02be e0e7 11be 02a2 1fbe
000003c0: 6362 c9bd 1854 7bbe 7063 09bd 26e1 cdbd
000003d0: feb1 11bd 083e f0bd 295f f5bd fbc4 353d
000003e0: d6e2 4abd 79a9 aec1 b2e9 afc1 1664 fabd
000003f0: e0e5 f0bc e075 a5bd 2cdb 50bd 5379 22be
-1.267466 -1.3129735 -1.4567142 0.15310188 -0.036517262 0.033631787 -1.261431 -1.1423078
-1.0921999 -1.6338649 -1.4360892 -1.5011389 2.0183253 2.0027332 2.037378 1.9953148
2.230971 2.0958467 0.85187125 0.9777477 0.8196918 -0.4089698 -0.43690324 -0.2010169
-17.084835 -17.720219 -17.070297 -1.65074 -1.5473857 -1.5518569 -1.2443709 -1.5928862
-1.2889975 -2805.0981 -2918.637 -2850.8328 -0.6177049 -0.5424201 -0.6588424 -0.0525622
0.044780612 -0.045196578 -0.47270077 -0.42488405 -0.48180228 -0.78385574 -0.64645195 -0.71054494
0.9578592 0.81461185 0.76241267 0.8608716 0.8467681 1.1160339 0.4634046 0.49545446
0.45721188 -0.16203535 -0.04908684 -0.25127345 -7.584153 -8.225644 -8.388816 -0.7934303
-0.7106956 -0.7817924 -0.505448 -0.7758643 -0.7764619 -1294.5397 -1361.459 -1361.5168
0.16037513 -0.13754605 -0.16531269 -0.13039397 -0.11211485 0.067506686 0.059679314 0.13848741
-0.086070895 -0.113618635 0.088429704 -0.06736742 0.101153985 -0.03955011 0.09534098 -0.12949467
-0.08410829 0.050812736 0.035234585 -0.042493127 0.099344924 0.11330153 -0.12086223 -0.08897804
0.15261032 -0.056238756 -0.05908607 -0.16126578 -0.09544504 0.04163395 -0.021998867 -0.120981
0.0039094537 -0.11384692 -0.14139944 -0.09177711 -2.8207355e+06 -2.9096575e+06 -2.930755e+06 0.031479165
0.05135995 -0.1554474 -2.8207355e+06 -2.9096575e+06 -2.930755e+06 -2.8730675e+06 -2.9748852e+06 -2.9578608e+06
3.670744e+06 3.7879775e+06 3.7947332e+06 3.693012e+06 3.8117485e+06 3.8204628e+06 1.2993899e+06 1.3876918e+06
1.469019e+06 552977.9 515362.94 510633.84 -3.3772132e+07 -3.428656e+07 -3.535688e+07 -4.0812525e+06
-4.3126435e+06 -4.4429805e+06 -2.8207355e+06 -2.9096575e+06 -2.930755e+06 -5.672492e+09 -5.8513213e+09 -5.8937467e+09
-0.050324492 0.013266009 0.085625775 0.13455172 0.15182655 -0.13215369 0.020912925 -0.09270393
-0.018155994 -0.14835766 0.12824023 -0.12322566 0.11684669 0.086050354 0.054227125 -0.061459247
0.17991577 0.03666073 0.037274584 -0.13187285 0.06950149 -0.024855748 -0.07737614 0.1431813
-0.2599046 -0.37898546 -0.09076405 -0.019196058 0.08038982 -0.045495242 -0.11664142 -0.07861942
-0.124928676 -43.268803 -43.199238 -0.9939038 -0.59822315 -0.58348787 -0.63936496 -0.05935411
0.08699037 0.08758552 -0.47548485 -0.6009729 -0.6274608 -0.6789463 -0.7562847 -0.76429456
0.9718077 1.0539138 0.90058434 0.88768667 0.97360826 0.96316755 0.46807876 0.49875787
0.30707502 -0.2565174 -0.051319357 -0.10420283 -7.755023 -8.172483 -8.184433 -0.8517882
-0.7657203 -0.6030723 -0.5306614 -0.59263694 -0.81691045 -1280.971 -1346.5648 -1346.3773
0.013201769 -0.054069627 0.068952546 -0.06348026 -0.10787594 0.12164788 -0.086697266 -0.044324763
-0.16580072 0.09959201 0.11508727 0.060741365 -0.10087999 -0.1494671 -0.13536316 0.14031802
0.09551915 0.14025076 0.09097347 0.047723524 -0.0016321093 -0.1271462 -0.1424861 -0.15589145
-0.09833219 -0.24543798 -0.033542097 -0.10052709 -0.035570137 -0.117305815 -0.11981041 0.04437731
-0.049532734 -21.83275 -21.989109 -0.12226121 -0.029406488 -0.080791235 -0.05099027 -0.15866594

conv.0.bias f4 [32]
00000000: 3655 b3bf 516a 25bf c368 c8bd 6697 31ca
00000010: ab61 0e3e 5426 0ebf c618 10be c5c9 1b3e
00000020: 4490 17c0 0c0a 64be 3a00 043e 1929 0bc0
00000030: 660a 05be 423e b8bf aa6a aabf 84b7 34c0
00000040: dc73 ebbf a6d1 e6ca 802d f8bb 9857 a3bc
00000050: 0b82 fabc 4e1d f1bf 3e99 0fc0 abee 2c3c
00000060: 3af7 be3d 289e 883d 1131 38c0 0009 fcbb
00000070: 7387 463c a47d 0c3d 084c 15be b6d5 a5bf
-1.4010379 -0.6461535 -0.09785607 -2.9096575e+06 0.13904445 -0.55527234 -0.1407195 0.15213688
-2.3681803 -0.22269458 0.12890711 -2.1743834 -0.12992248 -1.4394 -1.3313801 -2.823701
-1.8394732 -7.563475e+06 -0.0075737834 -0.019939229 -0.030579587 -1.8837068 -2.2437282 0.01055495
0.093244985 0.06670791 -2.8779948 -0.0076915026 0.012117255 0.034299508 -0.14579785 -1.2955844

conv.3.weight f4 [64, 32, 3]
00000000: cc5f 74c4 dd0f 76c4 8d4c 6ec4 c39f f4c1
00000010: 71a6 dbc1 ffb9 14c1 44a4 0abd fe65 a73d
00000020: 6409 a53d 9542 1ac0 c900 21c0 cb1b 72ce
00000030: f0e6 28bc 05f0 96bf 219e babf 8449 a1c3
00000040: 6cd3 a3c3 4139 97c3 d839 17bd 8793 09c1
00000050: ba02 0dc1 27a9 95bd e4c7 2d3d 102d c1bb
00000060: d5c9 05c4 6baf 05c4 043a fbc3 39f9 60c3
00000070: ee27 61c3 ce77 5ac3 9240 933b 437f 023e
00000080: 4f40 f53d fab9 61c4 513e 68c4 f898 63c4
00000090: 7d4e b6bd f858 d33c a042 f93c 64d2 57c4
000000a0: 5265 59c4 25ec 4fc4 4010 9fc4 a063 a1c4
000000b0: 1764 9ac4 d14e 95c4 08e9 9ac4 5b14 96c4
000000c0: d89c d0c3 8e6b e2c3 6b4b e4c3 aa19 fabf
000000d0: 17b1 fbbf 49be 36cf 0034 363c 348d a83d
000000e0: f292 5bbd e094 73bb 003a 9c3c 980e debc
000000f0: 16a2 133e 7f5f 1cc1 22a2 56c1 b162 5fc1
00000100: 0674 62c1 f002 5ec1 80af 5cc4 943a 65c4
00000110: 5bc6 63c4 74f9 4fc1 c967 82c1 50fc bbc0
00000120: 486f b6bc b247 863d 701d cf3c 8071 b0bd
00000130: 5878 c43c 9439 ad3d fe7b 01c4 8e2f 03c4
00000140: 38ae fcc3 c2f3 a73d ba39 69bd a88e 7b3d
00000150: 6922 943e bad6 7c3e bd1d c13e 7811 073d
00000160: 88cb fabc 706e 113d 60e9 3c3e 7c72 883e
00000170: 688d 933e af89 8dc3 a4aa 90c3 2f3a 8bc3
00000180: a0e8 83c0 dcee c9c0 847e adc0 1d82 2dbf
00000190: ea78 12be 73f2 733b 42da 8d3d 15d5 bdbd
000001a0: fc06 053d c836 27cd ac28 2ccd 3347 26cd
000001b0: ba43 c13d bd7e e3bd 2ea5 973d 48ba 30c0
000001c0: 4081 edbf b93e 92bf cc3a a93c 9e0f d5be
000001d0: 2711 4abd 502a 383c 005e 1bb9 189f d33c
000001e0: 4e76 64c0 634d 80c0 6294 10c0 db9e aebf
000001f0: f962 a2bf 3257 44bf 5c3b fd3c 7604 c53d
00000200: 66ea 013d a7c4 bdc0 6ed6 0ec1 73da 4bc0
00000210: 14c7 f2bc 8056 e43b 472c 9fbd d752 f8c0
00000220: 2016 d0c0 3700 73c0 85d2 32c1 c854 21c1
00000230: dd0f 8ec0 f0f0 bdbf 386b 40c1 f9d0 ffc0
00000240: a20d c3bf 041e a8c0 13a9 00c0 5207 fecd
00000250: fad0 01ce 0ee6 facd 3cd3 98bd bc4b 813d
00000260: 4c5a 5a3d 0028 24b9 7e7c ca3d a109 26bd
00000270: 16de 94bc 5789 2ebf 02ef 033c cfc4 c6bd
00000280: 88a4 85bd 2d68 3dbe 68aa 0bc1 b8ef 04c1
00000290: 988d 86bf 4abc a5be 9270 e5be 8d30 26bd
000002a0: 7422 183d a08e d73b 6cbf 923d 6082 14bc
000002b0: 2bec 83bd 88af 933d de9c 94c0 5c67 d7bf
000002c0: 553d 14c0 88f8 c33c 395b c7bd 5035 dc3c
000002d0: 6258 333d 91b3 93bd 4e4e 84bd aa45 96bd
000002e0: 70af af3d e4b1 b13d 4988 1bbb fd01 c13d
000002f0: 2d20 59bd 4341 22c0 dffc f5bf 864c cdbf
00000300: b9e6 b842 f16b a042 4ad6 a542 aa03 d03f
00000310: bd74 c53f f3ac 203f 2c1f ac3d b02e b2bd
00000320: 3c64 bb3d a245 cfca 2fa8 3b3c 4155 d0ca
00000330: 6230 2fbd 183d 653e d04d 52bd f8e6 b141
00000340: 87b4 aa41 23c3 a441 5c4e 783d 99ec 0c40
00000350: 2062 423a 6cfb 9f3c e42c 89bd 5abd adbd
00000360: 1b56 1542 3cf5 d341 3dc6 0e42 1a54 9141
00000370: 4a8f 8041 47d0 7a41 442b 14bd c4c8 45bd
00000380: fa0c b3bd 8e87 9242 6a75 9042 3f97 8042
00000390: 800e 973b 79c2 50bd 36ed 0fbd f81b 8842
000003a0: bf76 3042 d7e6 6b42 5296 a842 e715 dc42
000003b0: 16ff bb42 8d5e ea42 5c77 9842 8b17 1142
000003c0: fcb4 1742 24b8 dc41 d4cb d841 8799 433d
000003d0: def0 333d 9eab 1abd 5e13 c03d 3c50 6f3d
000003e0: 68b6 e73c 7e43 c43d de6b bdbd 10eb 863c
000003f0: 15cb 1b3d 40eb 3d40 900e 01be c3eb 793f
-977.4968 -984.24786 -953.1961 -30.578009 -27.45627 -9.295409 -0.033848062 0.0817375
0.08058432 -2.4103138 -2.515673 -1.0154769e+09 -0.010308966 -1.1791998 -1.4579507 -322.57434
-327.65173 -302.4473 -0.0369204 -8.598517 -8.813166 -0.07307654 0.04242696 -0.0058952644
-535.1536 -534.7409 -502.45325 -224.97353 -225.15598 -218.46799 0.0044937814 0.12743859
0.119751565 -902.9059 -928.9737 -910.39014 -0.08901689 0.02579926 0.030427277 -863.28735
-869.5831 -831.68976 -1272.5078 -1291.1133 -1235.1278 -1194.463 -1239.2822 -1200.6361
-417.22534 -452.84027 -456.5892 -1.9539082 -1.9663419 -3.0659238e+09 0.011120796 0.08230057
-0.053606935 -0.0037167594 0.019070625 -0.027106568 0.144173 -9.773314 -13.414583 -13.961595
-14.153326 -13.875717 -882.7422 -916.9153 -911.0993 -12.998402 -16.300676 -5.87455
-0.02226986 0.065566435 0.025282592 -0.086153984 0.023983166 0.08458248 -517.9374 -524.74304
-505.36108 0.0820079 -0.056939818 0.061415344 0.28932503 0.24691287 0.37718 0.032975644
-0.03061463 0.035505712 0.184484 0.26649845 0.28818822 -283.07565 -289.33313 -278.45456
-4.1221466 -6.3104076 -5.421694 -0.6777666 -0.14303938 0.0037223368 0.06926395 -0.09269158
0.032477364 -1.7533658e+08 -1.8052166e+08 -1.7435525e+08 0.09436746 -0.11108158 0.074045524 -2.7613697
-1.8555069 -1.1425391 0.02065792 -0.41613477 -0.049332764 0.011240557 -0.0001481697 0.025832698
-3.5697207 -4.0094466 -2.2590566 -1.3642229 -1.2686454 -0.7669555 0.030912094 0.096199915
0.03171768 -5.9302554 -8.927351 -3.185208 -0.029635943 0.0069683194 -0.07772117 -7.7601123
-6.502701 -3.796888 -11.176396 -10.083199 -4.4394364 -1.4839153 -12.026176 -7.9942594
-1.5238535 -5.253664 -2.0103195 -5.3273658e+08 -5.444891e+08 -5.261726e+08 -0.07462165 0.06313273
0.05330877 -0.0001565516 0.09887026 -0.040536527 -0.018172305 -0.68178314 0.008052589 -0.09705507
-0.065255225 -0.18496771 -8.729103 -8.308525 -1.0511961 -0.32370216 -0.44812447 -0.040573645
0.037142232 0.0065782815 0.07165417 -0.009064287 -0.0644153 0.07211214 -4.644149 -1.6828418
-2.3162434 0.02392222 -0.09734196 0.02688089 0.04378546 -0.07211984 -0.06460248 -0.07337506
0.08578384 0.08676508 -0.0023732355 0.09424207 -0.0530092 -2.5352333 -1.9217795 -1.6038978
92.45063 80.21082 82.91853 1.6251118 1.5426251 0.627639 0.08404383 -0.08700311
0.091499776 -6.791889e+06 0.011453672 -6.8266565e+06 -0.04277075 0.22386587 -0.05134374 22.237778
21.338148 20.595282 0.060621604 2.2019408 0.00074151345 0.019529067 -0.06698015 -0.084833816
37.334087 26.494743 35.693592 18.166065 16.069965 15.675849 -0.036174074 -0.04828717
-0.087427095 73.264755 72.229324 64.2954 0.004609883 -0.050966714 -0.03513833 68.05463
44.115963 58.97543 84.293594 110.04278 93.998215 117.18467 76.23312 36.27299
37.926743 27.589912 27.099525 0.047753837 0.04393088 -0.037761323 0.09378694 0.058426127
0.02828522 0.095831856 -0.0924909 0.016469508 0.03803547 2.9674835 -0.12603211 0.9762537

conv.3.bias f4 [64]
00000000: 8dd7 a0c7 40bb 8ec6 9004 8ac4 016e 95cb
00000010: 9766 30c3 592b 6ec0 7569 7fc6 bdbc 82c8
00000020: ad58 adbc 569f b9bf 0afe aed8 44d1 8abd
00000030: 7e3d 36c6 f05a adbe 2060 d9bf 4fc2 8dc8
00000040: 3673 efc8 ae75 68c6 0fab 25ca 699a 86c9
00000050: 4b9d b0c8 1cf4 61ca 4cdb dcc4 6ce2 88c9
00000060: 6c31 09c6 e524 8bc3 3fb6 c5c6 f808 05cb
00000070: add3 1dc7 64a5 a8c9 987e 04ca 17c2 bec7
00000080: ea04 c3c5 b27e 96c8 9cde a3d9 b8dc 7fca
00000090: b7ce 02c0 0e6c 28bf 5bdf bac2 70a3 02c8
000000a0: 0a90 8dc8 5f60 80c8 893a c1c6 e4aa fec7
000000b0: 7ae6 bbbe 49f8 69bf 3928 26ca 4206 83ca
000000c0: 1b27 1cd9 314b 7eda ec6b dade 8540 0dc7
000000d0: 3c21 56c6 aed1 4cc7 3071 32c8 2ef4 0cca
000000e0: 7e3f abc7 8246 bac7 661f 9fc9 19d3 02c7
000000f0: d7e4 83c6 dd4f 91c7 f1d1 8dca 3e65 d3c9
-82351.1 -18269.625 -1104.1426 -1.958605e+07 -176.40074 -3.7213957 -16346.364 -267749.9
-0.021160448 -1.450175 -1.5392489e+15 -0.067781955 -11663.373 -0.33858442 -1.698246 -290322.47
-490393.7 -14877.42 -2.7143078e+06 -1.1026691e+06 -361706.34 -3.702023e+06 -1766.853 -1.1213575e+06
-8780.355 -278.28824 -25307.123 -8.718584e+06 -40403.676 -1.3815485e+06 -2.17079e+06 -97668.18
-6240.6143 -308213.56 -5.765648e+15 -4.192046e+06 -2.0438669 -0.6578988 -93.43624 -133773.75
-289920.3 -262914.97 -24733.268 -130389.78 -0.36699277 -0.9139448 -2.7223182e+06 -4.293409e+06
-2.7470683e+15 -1.789433e+16 -7.8694664e+18 -36160.52 -13704.309 -52433.68 -182724.75 -2.3093875e+06
-87678.984 -95373.016 -1.3035328e+06 -33491.098 -16882.42 -74399.73 -4.6471605e+06 -1.7317518e+06

fc.weight f4 [1, 64]
00000000: d306 10c3 d78b e2cd a397 32c7 35b4 90cd
00000010: eea5 d7c8 b3ce d545 4a37 e8cb 6f0e 0ecd
00000020: 5585 5d40 1d0b 8545 3159 0151 9327 13bd
00000030: 97c4 85c9 e4e0 9c42 8031 e345 e5fd ffcb
00000040: 0900 4cca 9b9f 15ca b6e3 69cd 4494 8ccd
00000050: 4cff 72c9 76f3 23cd b92d 4ec5 d43f a2cd
00000060: 7f70 77c6 2af1 6bcd 02c4 13c7 4a1b a7cd
00000070: 5db5 64cd d087 3ccd 6835 42cc a764 c1c8
00000080: ae2a 87ca 8044 68cc bc14 a751 bdf3 44cd
00000090: aa96 2745 6685 2345 da87 82c7 ed9a acc8
000000a0: 1b67 b1c9 4ee9 02cc 21e5 ccc7 b699 fdc9
000000b0: f846 2c44 237d 9c45 7597 f1cd a344 e1cd
000000c0: c6c3 1e53 30d1 f452 16d0 9edf 7359 97ca
000000d0: 5d18 96ca 8ed7 8fc7 c54b abcb 9668 c7cb
000000e0: e9a7 82c9 28c9 7ccd 97e3 11cd 328f 1fcd
000000f0: 9bf4 bccb 6735 02c7 29b2 8dcc 0c61 50ca
-144.02666 -4.7510192e+08 -45719.637 -3.0346614e+08 -441647.44 6841.8374 -3.0437012e+07 -1.4895691e+08
3.461263 4257.389 3.4721698e+10 -0.035926413 -1.0958269e+06 78.43924 7270.1875 -3.3553354e+07
-3.3423382e+06 -2.4514308e+06 -2.4525091e+08 -2.9481587e+08 -995316.75 -1.719151e+08 -3298.8577 -3.402615e+08
-15836.124 -2.4740317e+08 -37828.008 -3.5044794e+08 -2.3981819e+08 -1.9768858e+08 -5.0910624e+07 -396069.22
-4.429143e+06 -6.088755e+07 8.9700925e+10 -2.0651925e+08 2681.4165 2616.3374 -66831.7 -353495.4
-1.4532834e+06 -3.4317624e+07 -104906.26 -2.0774948e+06 689.1089 5007.642 -5.0665437e+08 -4.7242147e+08
6.8188937e+11 5.257408e+11 -2.2887342e+19 -4.9594175e+06 -4.9183185e+06 -73647.11 -2.2452106e+07 -2.6136876e+07
-1.0703331e+06 -2.6506509e+08 -1.5297573e+08 -1.6731011e+08 -2.4766774e+07 -33333.402 -7.428948e+07 -3.414083e+06
