results/gru_best_model.pth (torch, 164149 bytes, 9 tensors)

gru.weight_ih_l0 f4 [192, 12]
000000 cc b8 c3 3d 66 7b d4 3d 20 e5 ef bc 1c 2a eb 3d
       0.095567316 0.10375099 -0.02928406 0.11482641
000010 b0 5c e0 bc 38 a2 ce 3c 10 45 79 bd 28 58 96 3d
       -0.027387947 0.025223836 -0.06085688 0.07341033
000020 cc ac e1 3d 0e cf bb bd a4 83 de 3d b0 a6 bf 3c
       0.110192865 -0.09170352 0.10864952 0.023394912
000030 94 22 bd 3d 50 ae 8a 3c 5c e1 76 3d 60 94 90 bc
       0.09235111 0.016928822 0.060273513 -0.017648876
000040 c6 58 c5 3d 38 5b 97 3c a4 05 6f bd 08 82 02 3d
       0.09636073 0.018476114 -0.05835499 0.03186229
000050 ac e5 6b bd c0 2c 70 bc fc f3 4f bd ae d2 a9 3d
       -0.05759208 -0.014659107 -0.05076979 0.08292137
000060 2a 14 ca bd 8c 09 6c bd 6c 93 10 bd fe ec 99 bd
       -0.09867127 -0.057626292 -0.035296842 -0.07515906
000070 f0 4b 41 3c 8a d8 fc bd 28 32 e7 3d c0 76 d9 bd
       0.01179789 -0.12345989 0.112888634 -0.10618353
000080 96 a3 c5 3d c8 69 aa 3c ac 3f 26 bd f8 31 9e 3d
       0.09650342 0.020802394 -0.040588066 0.077243745
000090 58 97 9f 3c b0 d6 ce 3d 00 e3 5f 3c 98 78 21 bd
       0.019481346 0.10099542 0.013664961 -0.039421648
0000a0 e8 90 09 3d 08 d8 0a bd a4 7a 57 3d fe 8f e4 3d
       0.03358546 -0.03389743 0.052607194 0.11160277
0000b0 b6 fb 93 3d 14 d5 5f bd 9e c7 93 3d 70 38 b7 3c
       0.072257444 -0.054646567 0.07215808 0.022365779
0000c0 7a 01 82 3d 86 08 9c bd a4 6a fd bd 0c d1 45 bd
       0.06347938 -0.07618813 -0.12373856 -0.048295066
0000d0 9c 5b c4 bd d6 0e d2 3d d8 78 13 3d cc 13 54 3d
       -0.095877856 0.10256736 0.036003917 0.051776692
0000e0 fc ec 21 3d 00 82 0e bb 04 59 c8 3d 38 e4 b5 bd
       0.039532647 -0.0021744967 0.097826034 -0.0888142
0000f0 20 f3 00 3c f4 ba ae bd 50 e0 1d 3d e0 52 30 bd
       0.0078704655 -0.08531752 0.038544 -0.043047786
000100 98 e2 1c 3d 78 57 d5 bc 06 53 d4 3d 50 bb 97 bd
       0.038302034 -0.026042685 0.10367398 -0.07408774
000110 8a ad 98 bd e6 af 98 bd e2 41 e6 3d e4 9f 2a 3d
       -0.07454975 -0.07455425 0.11243035 0.04165639
000120 10 56 f6 3d 4e 45 d3 bd 98 eb fd bd fe 48 c8 bd
       0.12028134 -0.10315953 -0.123984516 -0.09779547
000130 5a 35 ac bd 6c 61 4f 3d b8 55 37 3d 76 b7 d4 3d
       -0.084086135 0.050630018 0.044759482 0.10386555
000140 74 34 84 bd aa 84 ae bd f8 d3 87 3d e4 f3 4e bd
       -0.06455317 -0.085213974 0.06632227 -0.05052556
000150 5c 5f 9b 3d f0 fe f2 bc 9a 71 92 3d 60 e7 c6 bd
       0.07586548 -0.02966258 0.07150574 -0.097121
000160 ba 30 81 bd c4 18 1c 3d 38 7b d8 3c f4 89 02 bd
       -0.06308122 0.038109556 0.026425943 -0.031869844
000170 02 98 98 3d fa 07 ae 3d f6 a4 b9 bd 96 ab 88 bd
       0.07450868 0.08497615 -0.09064667 -0.066733524
000180 d2 68 ea 3d f4 c3 2c bd 2c 83 35 bd 48 b4 f7 bd
       0.11445774 -0.042179063 -0.04431455 -0.12094933
000190 84 9a 92 bd 88 cc ff 3c 38 29 87 bc aa d3 b9 bd
       -0.07158378 0.031225458 -0.016499147 -0.09073575
0001a0 40 28 40 3b 6e de ae bd 86 30 d9 bd 3a f8 8c bd
       0.0029320866 -0.08538519 -0.10604958 -0.06883283
0001b0 e6 0d e0 bd 44 01 a3 bd 5e e6 ff 3d 70 68 c1 3c
       -0.10940151 -0.07959226 0.12495111 0.02360937
0001c0 1c c7 1d 3d 66 c4 ee bd 54 22 a8 bd 14 6c 2a bd
       0.038519964 -0.11658554 -0.082096726 -0.041606978
0001d0 c0 1f a0 3c 86 42 e1 bd 64 9b 5c bd 58 42 99 bd
       0.01954639 -0.109990165 -0.05385913 -0.07483357
0001e0 00 9e b5 39 50 84 3e bd f0 ea 0d bc 24 79 ad bd
       0.0003464073 -0.0465129 -0.0086619705 -0.08470371
0001f0 98 b7 af bd d2 59 95 bd 9c 41 2f bd 50 0e ca bd
       -0.085799396 -0.072925225 -0.04278718 -0.09866011
000200 f6 a5 d6 3d 28 3a cb bc f6 42 dc 3d b0 87 1f 3d
       0.10480873 -0.024808004 0.10754959 0.03894776
000210 b0 c7 d8 bd 38 29 b1 3d c8 df 0c bd 50 43 44 bd
       -0.10584962 0.0865044 -0.034393102 -0.047915757
000220 80 7f d4 bd 50 81 fe bd 18 7d 12 3d c0 af df bc
       -0.10375881 -0.12427008 0.03576383 -0.027305484
000230 5c 55 47 3d 00 17 d2 bd d6 0f be 3d f2 ea bb bd
       0.04866539 -0.10258293 0.09280364 -0.09175672
000240 48 d1 b0 bc f0 e1 d5 3c 14 29 84 3d e4 ab ce 3d
       -0.021584168 0.026108712 0.064531475 0.10091379
000250 a0 34 e9 3d f2 fc ca bd 88 da 00 3d 78 39 5c bd
       0.113869905 -0.09911527 0.031458408 -0.053765744
000260 00 6e 60 bc 0c 9d bf bd 08 2e e9 3d 2e e4 bb bd
       -0.013698101 -0.09356126 0.11385733 -0.09174381
000270 cc d1 88 3d e4 ef 33 3d a0 60 26 3d ca 67 8a bd
       0.066806406 0.04392995 0.040619493 -0.067580774
000280 0c b1 e8 3d 40 06 e1 3c 38 ba 83 3c ea 99 e1 bd
       0.11361894 0.0274688 0.016080007 -0.11015685
000290 84 ee 56 3d 00 9f 99 bc 44 8f 6a bd ec e3 db 3d
       0.05247356 -0.018752575 -0.057265535 0.10736832
0002a0 b0 4c e4 3c 86 a3 8d bd 52 92 81 bd 80 9b c3 bb
       0.027868599 -0.06915955 -0.063267365 -0.005969465
0002b0 c4 f0 8e 3d 54 d5 02 bd 32 11 92 bd ac 54 2f bd
       0.06979516 -0.031941727 -0.07132186 -0.04280536
0002c0 4c 40 bf bd 88 98 36 3d 80 27 c6 3d 3c 02 f1 bd
       -0.093384355 0.04457906 0.09675503 -0.11768004
0002d0 20 d3 ed 3c 5c 3f 84 3d 68 ae b9 3c f8 55 36 bd
       0.029031336 0.06457397 0.022666171 -0.04451558
0002e0 00 9e 85 3d 08 88 86 3d 64 73 3f 3d 50 f0 b3 bc
       0.06524277 0.06568915 0.046740904 -0.021965176
0002f0 08 94 07 bd d0 18 5b 3c d0 e4 b4 bc 98 93 18 bd
       -0.033100158 0.013372615 -0.022081763 -0.03725013
000300 10 a3 a3 3d 9c 01 dc 3d 20 bf 4a bc 38 45 e5 bc
       0.07990086 0.107424945 -0.012374669 -0.027987108
000310 80 14 ef 3a a0 90 f4 bb 60 2e f6 3c c8 7a 0f 3d
       0.0018240362 -0.0074635297 0.03005141 0.035029203
000320 84 83 e8 bd 84 f2 3c bd cc 95 d7 3d c0 73 47 3d
       -0.113532096 -0.04612972 0.10526618 0.048694372
000330 a0 b9 cb bb 08 58 9a bd 42 9f 9c bd fa 50 e5 bd
       -0.0062171966 -0.07536322 -0.076475635 -0.11197086
000340 8c e4 26 bd 90 e7 2c 3d 2c 3b a3 3d 98 63 6c 3d
       -0.040745303 0.042213023 0.079702705 0.057712168
000350 28 4a e2 bd e4 f2 99 bd b0 9a a1 bc 38 a4 f7 3d
       -0.110493004 -0.07517031 -0.019727081 0.12091869
000360 18 21 94 3c d0 97 04 bd 7c d2 53 3d e8 02 43 bd
       0.018082187 -0.032371342 0.051714405 -0.047610193
000370 8c b2 a5 bd e4 d9 ba 3d ac ce 68 bd 28 47 cd bc
       -0.08090696 0.091235906 -0.056837723 -0.025058344
000380 7e ab fe bd 52 55 ab 3d 58 f4 c1 3d f4 98 3a 3d
       -0.12435053 0.08365883 0.09470433 0.045556024
000390 90 80 b2 bd 18 a8 fc bd f6 ea cf bd 36 e6 be 3d
       -0.087159276 -0.12336749 -0.10152237 0.09321253
0003a0 6c d0 75 3d d6 6c d7 3d 56 1c 86 3d 4c 95 01 3d
       0.06001322 0.10518806 0.065483734 0.03163652
0003b0 80 71 a0 ba 86 b0 c2 bd 6c 55 db bd 02 73 ef bd
       -0.0012240857 -0.095063254 -0.10709652 -0.11691858
0003c0 e4 97 51 3d 28 60 7b bd 28 15 ce bc 50 54 93 bd
       0.051170245 -0.061371 -0.025156572 -0.07193816
0003d0 d0 98 ba bc 86 2e b4 bd 40 46 a7 bd 00 d6 29 3d
       -0.022777945 -0.08797936 -0.08167696 0.041463852
0003e0 20 2a 18 bd 34 0a 9e 3d 0c 41 24 bd 10 cb bb bd
       -0.03714955 0.0771679 -0.040101096 -0.091695905
0003f0 68 ac b4 bc d0 30 78 bd 60 a4 1c bd fc b5 f3 bd
       -0.022054866 -0.060593426 -0.038242698 -0.11899945

gru.weight_hh_l0 f4 [192, 64]
000000 80 d5 57 3c 98 32 cb bd ae 96 c4 bd 3a 1d d0 bd
       0.013173461 -0.09921759 -0.09599052 -0.101618245
000010 08 bd 0a bd 34 1d e2 3d 94 26 48 3d 50 d4 72 bc
       -0.03387168 0.11040726 0.048864916 -0.014821127
000020 30 c0 d2 3c 10 e2 4b 3d 00 ea 3e 3a a8 7b ce bd
       0.025726408 0.049776137 0.00072827935 -0.10082179
000030 8e b9 9d bd 10 ea ad bd 80 03 50 bb c4 57 ea bd
       -0.077014074 -0.084919095 -0.0031740367 -0.11442521
000040 50 2f ba bc 5c 39 3b bd 12 3b fb 3d 3e 15 d0 3d
       -0.022727638 -0.045709 0.12267126 0.101603016
000050 d4 b2 94 3d 80 b6 e5 3b 8c c5 25 bd 98 98 02 3d
       0.07260671 0.007010281 -0.0404716 0.031883806
000060 c4 e0 b0 bd bc 5e 5a bd e8 b4 cd bc f8 97 f0 bc
       -0.08636621 -0.053313002 -0.025110677 -0.02936934
000070 66 82 f2 bd 30 89 4b 3d b8 cf d2 3d ea 33 8d bd
       -0.11841278 0.04969138 0.102935255 -0.068946674
000080 98 04 0a 3d f0 83 6d bc 20 64 95 bb 80 c1 ee 3b
       0.033695787 -0.014496788 -0.004559055 0.0072862506
000090 5a d8 dd 3d d0 34 89 3c 20 f7 a1 bd 60 2c 38 bd
       0.108322814 0.016748816 -0.079084635 -0.044964194
0000a0 40 20 7a 3d 9c c5 1f 3d 80 37 1f 3b f8 24 87 bc
       0.061065912 0.039006814 0.0024294555 -0.01649712
0000b0 14 35 47 bd 04 b9 35 bd 52 09 87 bd 60 cb a7 3c
       -0.048634604 -0.044365898 -0.065935746 0.020482719
0000c0 88 ca 0f 3d de 07 c4 3d d8 55 e7 bc 20 9d 12 3c
       0.03510526 0.09571813 -0.028239176 0.008948594
0000d0 3a 73 a5 3d 18 b7 5e 3d 48 92 83 3c a0 53 1d 3d
       0.08078618 0.05437383 0.016060963 0.03840983
0000e0 e0 9b d4 3b 3e 98 db bd c0 e7 9d 3b 28 d3 df bc
       0.0064883083 -0.10722397 0.0048188865 -0.027322367
0000f0 76 04 e7 3d 9c 12 e7 3d e8 26 cb 3c 48 d0 e4 3d
       0.11280148 0.11282846 0.024798825 0.11172539
000100 48 d8 83 bd 2a 82 de 3d 86 69 dc 3d a0 8d 9c bb
       -0.06437737 0.108646706 0.107623145 -0.004777625
000110 42 71 cd bd 74 38 25 bd 3c ec 08 bd c0 50 07 3b
       -0.10031368 -0.04033704 -0.033428416 0.0020647496
000120 4c 1a e8 bd f8 c5 bd 3c c0 ef 54 bd d4 17 03 bd
       -0.11333141 0.023165688 -0.051986456 -0.032005146
000130 d6 38 84 bd 80 33 d8 bc ee c0 ed bd 16 b9 87 bd
       -0.06456153 -0.026391745 -0.11609064 -0.06627099
000140 00 ac 3c 3c 2a c0 a7 3d b2 a3 e8 3d 12 a7 c1 bd
       0.011515617 0.08190949 0.113593474 -0.09455694
000150 e8 ff 56 3d 5e 4e 90 bd 9e ed c5 bd 60 5e b4 bb
       0.052490145 -0.07046197 -0.096644625 -0.0055044144
000160 82 da 92 bd a4 7a dc bd c8 3d ef bd 6a 5a ab bd
       -0.07170583 -0.10765579 -0.11681706 -0.083668545
000170 46 5d d2 3d f4 c5 8e 3d 78 ac 4a bd 9a 58 ab bd
       0.10271697 0.0697135 -0.049480885 -0.08366509
000180 08 ed c4 bd 6a 2c 97 bd e8 af 52 bd 38 c0 99 3d
       -0.096155226 -0.07381518 -0.05143729 0.07507366
000190 28 8e 27 3d 80 4f 45 bd 0a 3d b0 3d 24 09 9f bd
       0.040907055 -0.04817152 0.08605392 -0.07765415
0001a0 64 8f d0 bd f8 7c df 3c 9c 28 8d bd 28 a7 11 3d
       -0.101835996 0.02728127 -0.06892511 0.035559803
0001b0 72 e4 d8 3d a8 20 72 bd ce a3 b2 bd 84 b7 40 3d
       0.105904475 -0.059113175 -0.087226495 0.047050014
0001c0 a6 34 e7 bd c2 65 e4 3d 90 cb 71 bd 0c 88 77 3d
       -0.11289339 0.11152221 -0.059032023 0.06043248
0001d0 60 90 cb bd 3c 47 ad bd c0 98 61 3c a0 f7 35 3d
       -0.09939647 -0.084608525 0.013769329 0.044425607
0001e0 4c 80 c6 3d 1c 1a d6 3d 40 91 eb bb 20 a7 83 bc
       0.096924394 0.10454199 -0.007188946 -0.016070902
0001f0 e0 44 a9 3c b0 dd ed bc 60 6e 8b 3b c2 71 f2 bd
       0.020662725 -0.029036373 0.004255101 -0.11838104
000200 fe 26 d2 bd 5c 6d af 3d 66 98 95 bd a6 98 c9 3d
       -0.102613434 0.085657805 -0.07304458 0.098435685
000210 50 c1 60 3c 50 6e f9 3c 34 ac e8 3d 7c 62 8e bd
       0.013717964 0.030448109 0.1136097 -0.06952378
000220 80 a5 a1 bc e8 6b b5 3c ac eb 2e 3d 92 24 f9 bd
       -0.019732237 0.02214618 0.042705223 -0.12165178
000230 6c f9 35 3d 48 f8 96 bd a0 80 86 3c 5c 32 ad 3d
       0.04442732 -0.07371575 0.016418755 0.08456871
000240 10 03 4c bc 80 93 81 bb 60 04 19 bc a6 a0 d5 3d
       -0.012451902 -0.003954351 -0.009339422 0.10431032
000250 0a 7e 91 3d 90 34 ac 3c 90 10 9a bd 78 04 8b bd
       0.07104118 0.021021158 -0.0752269 -0.06787962
000260 04 eb cb 3d f4 2b b8 3d 00 3a 94 3d 8e 9b c7 bd
       0.09956935 0.089927584 0.07237625 -0.097464666
000270 f6 5e c7 3d b0 c5 43 bc 1c 9c bc 3d 42 59 de 3d
       0.09734909 -0.011948988 0.09209463 0.10856868
000280 c0 7b 60 3c 78 0d 55 bd 7e ce f0 3d 20 68 85 bd
       0.013701379 -0.052014798 0.11758135 -0.06514001
000290 30 46 a7 3d d2 79 f5 bd d4 07 21 bd de 31 df bd
       0.08167684 -0.11986126 -0.039314106 -0.10898183
0002a0 c8 ab 65 bd ac 67 59 3d 62 6e b7 bd cc 63 dd bd
       -0.056072026 0.053077385 -0.08956601 -0.1081005
0002b0 8e 0c b7 3d 76 a8 88 3d 80 29 b3 ba 50 78 b4 bd
       0.089379415 0.066727564 -0.0013668984 -0.0881201
0002c0 c0 a5 07 bd 90 c6 25 bd 68 1a 9e 3d e4 77 27 bd
       -0.033117056 -0.040472567 0.0771988 -0.04088582
0002d0 c8 76 13 bd cc 77 b5 bd 4c 25 71 bd 62 9c 8a 3d
       -0.03600195 -0.0886074 -0.05887346 0.06768109
0002e0 e6 ef a4 3d 30 c6 94 3c f8 19 40 bd b8 e2 f5 3d
       0.080535695 0.01816091 -0.046899766 0.12006134
0002f0 f8 1d ca 3c 54 a1 45 bd 30 75 31 bd 48 4f 8f bc
       0.024672493 -0.048249558 -0.04332465 -0.017493859
000300 ec bc 72 3d e4 45 3b 3d 04 97 b9 3d a0 8d b8 bb
       0.0592622 0.04572095 0.09062007 -0.0056321174
000310 5a bc d3 3d c8 f7 4f bd a0 cd 6b bd 8c 14 3d bd
       0.103386596 -0.050773412 -0.057569146 -0.046162173
000320 66 2e f0 bd 74 0c a8 bd e0 a5 e7 bd 60 10 f2 bb
       -0.117276 -0.082055 -0.11310935 -0.007387206
000330 80 75 9a 3a b4 e2 04 bd 3a f2 ae bd 10 44 e8 3d
       0.0011784285 -0.032442763 -0.08542295 0.11341107
000340 6c a5 29 bd bc fe 73 3d f0 47 b2 3d 8a 48 a8 bd
       -0.041417524 0.059569106 0.08705127 -0.08216961
000350 10 06 80 bc aa f5 93 3d ea 27 f8 3d 60 30 81 bc
       -0.01562789 0.07224591 0.12116988 -0.015770137
000360 e8 80 b9 3d fe ec c8 bd 52 55 a6 bd 8e 84 d2 3d
       0.0905779 -0.09810828 -0.08121742 0.10279189
000370 60 e7 41 bc 7e e8 fc 3d c0 ec 14 3c c0 54 54 bd
       -0.011834949 0.12349032 0.009089649 -0.051838636
000380 8e 20 f3 3d 28 de df 3d 10 11 3e 3c 46 30 9b bd
       0.11871444 0.10931045 0.011600748 -0.07577567
000390 20 58 b1 bb bc 3a 76 bd da 8a ba 3d c0 bd bd 3b
       -0.0054121166 -0.060114607 0.09108515 0.005790442
0003a0 f0 92 d7 3c 4a 41 9b 3d 7c 98 29 3d ec cf 9f bd
       0.026315182 0.07580812 0.041405186 -0.0780333
0003b0 58 aa d4 3d b0 45 9d 3d c0 09 9e bd f6 8f c1 3d
       0.10384053 0.076793075 -0.077167034 0.094512865
0003c0 94 41 11 3d c0 92 c9 bc f2 14 b7 bd b0 e7 a9 bc
       0.03546293 -0.024606109 -0.08939542 -0.02074036
0003d0 56 fe fa bd 64 1d 92 3d ae 68 b9 3d 60 67 13 bd
       -0.12255542 0.07134512 0.09053169 -0.035987258
0003e0 20 53 ed 3d d4 96 3d bd c0 5b af 3c a6 67 b2 bd
       0.115881205 -0.04628642 0.021406054 -0.087111756
0003f0 20 2c ad bb 38 f7 4e 3d 3c 89 5c 3d 60 59 89 bb
       -0.005284801 0.050528735 0.053841814 -0.0041915625

gru.bias_ih_l0 f4 [192]
000000 80 41 a6 3c dc 72 91 bd 76 62 95 3d 58 00 12 bd
       0.020294905 -0.07101986 0.072941706 -0.03564486
000010 c8 ec 91 bd 3c b9 15 bd 04 50 3b 3d 70 21 92 bd
       -0.071252406 -0.036553606 0.045730606 -0.07135284
000020 92 f0 ee bd 80 9b e7 bc 8a 90 ad bd da 4a fa 3d
       -0.11666979 -0.02827239 -0.08474834 0.12221308
000030 74 b9 33 bd f0 58 01 3d c0 43 71 bd 00 8c 49 3b
       -0.043878034 0.031578958 -0.058902502 0.0030753613
000040 a8 65 e1 bc 28 52 95 bc 26 17 d4 3d c4 46 57 3d
       -0.027514294 -0.018227652 0.10355978 0.05255772
000050 fc ca 81 bd 54 6c 84 3d 90 cf a4 bd 62 fc c4 3d
       -0.06337544 0.064659745 -0.08047402 0.09618451
000060 7a 18 e2 bd 60 78 f9 bd 62 39 fb 3d 48 da 8b 3d
       -0.11039825 -0.12181163 0.12266804 0.06828743
000070 a0 05 90 3b ae f6 c5 bd 1c da 9d 3d 80 b9 4f bd
       0.004395202 -0.09666191 0.07707617 -0.050714016
000080 3c 4d 0f 3d 50 c4 b2 3c ec 81 a4 3d 68 9b f1 bc
       0.034985766 0.021822125 0.08032593 -0.029493049
000090 ca e1 ff 3d d2 b9 b9 bd 10 f6 67 bd 7e 1d fc 3d
       0.12494238 -0.090686455 -0.056631148 0.12310313
0000a0 16 ed e1 bd c4 0e 1c bd 74 f9 1f 3d 84 cb 4c 3d
       -0.11031549 -0.03810002 0.039056256 0.049998775
0000b0 00 6f 23 bd 52 df c8 bd ae 58 d8 3d 70 7a c4 bd
       -0.03990078 -0.0980822 0.10563789 -0.095936656
0000c0 aa ad f3 3d b0 4c 19 3c e0 50 92 bd e8 ab 8f 3c
       0.11898358 0.009356663 -0.07144332 0.017538026
0000d0 00 b5 89 bb 4a 14 d5 bd 78 1c de 3d e4 81 95 bd
       -0.004202485 -0.104042605 0.10845274 -0.07300165
0000e0 18 0d b7 bc 9c 21 89 bd d0 50 e1 3c 56 9e ab bd
       -0.02234511 -0.066958636 0.027504355 -0.083798096
0000f0 92 70 db 3d 10 df 07 bd 72 e5 ee 3d 00 1e 0e 3a
       0.107148305 -0.033171713 0.11664857 0.00054213405
000100 30 d9 a4 bc ea af e5 bd 5a b6 a0 3d 00 62 52 ba
       -0.020123094 -0.112151936 0.07847281 -0.00080254674
000110 c2 8f cb bd 7c 52 77 3d 40 9f 9b 3c 0c 00 8c bd
       -0.09939529 0.060381398 0.018996835 -0.068359464
000120 28 de 99 bd f0 88 ce bc d0 d2 6f 3d f0 3c 25 3d
       -0.07513076 -0.025211781 0.058550656 0.040341318
000130 f2 28 9e bd 58 85 b3 bd 92 6b d6 3d 78 a2 c7 3c
       -0.077226534 -0.08765668 0.10469736 0.024369463
000140 18 ca 79 3d fa 41 f1 bd 68 af 71 3d 66 36 de 3d
       0.060983747 -0.11780162 0.05900517 0.108502194
000150 40 21 80 bb b0 a3 cf 3d f0 f4 d8 3c 54 01 a1 3b
       -0.0039102137 0.10138643 0.026483983 0.0049134884
000160 bc c1 32 3d b4 40 33 bd d0 2d 59 bc 58 82 c8 bc
       0.04364179 -0.043762878 -0.013255551 -0.024476215
000170 d4 1c 04 3d 60 67 4b 3c 08 fa 6e bd 20 20 83 3d
       0.032254055 0.012414783 -0.058343917 0.06402612
000180 28 9c 8f bd 94 7a a1 3d d0 b9 4d 3c e0 11 03 bc
       -0.07012206 0.07884708 0.012556508 -0.007999867
000190 80 89 05 bc 28 2f e0 3c a0 b2 ab 3b e8 60 df 3d
       -0.008150458 0.027366236 0.0052397996 0.10907155
0001a0 54 0c cd 3d de 86 fe 3d e4 90 9b 3d 80 c6 2d 3b
       0.10012117 0.124280676 0.07595995 0.002651602
0001b0 70 67 46 bd 4c 13 3e bd e0 4c 9b 3d e0 1d 22 bc
       -0.04843849 -0.04640512 0.07583022 -0.009894818
0001c0 fa 9a e5 bd e0 a9 80 3b 88 75 f1 bc 58 40 b9 bd
       -0.112112 0.0039265007 -0.029474989 -0.09045476
0001d0 4d 28 c2 bd aa 08 3b bc 8c 3b 37 3d 24 21 8a 3d
       -0.09480343 -0.01141564 0.044734523 0.06744602
0001e0 0e 5f b7 bd 60 7f d8 bd a8 6a c3 bd e0 2c a4 bb
       -0.08953677 -0.1057117 -0.095418274 -0.0050102323
0001f0 b0 56 27 bc d8 25 6f 3d 8e 63 d0 bd 7c f0 e8 3d
       -0.010213539 0.0583857 -0.101752385 0.11373994
000200 24 38 19 bd ca 7a f2 bd 80 6c a1 bd 58 6d f8 3c
       -0.037407055 -0.118398264 -0.07882023 0.030325577
000210 e8 24 d4 bc 54 5b b9 3d 00 5c 1a ba 82 ca 9b 3d
       -0.025896505 0.090506226 -0.0005888343 0.07606985
000220 20 3f d4 3d 64 95 42 bd 50 4a 28 3c c0 9a 1c bc
       0.10363603 -0.04750575 0.010271624 -0.00955838
000230 10 21 6a bd f0 12 e9 bd d0 98 78 bd 94 c3 82 3d
       -0.057160437 -0.11380565 -0.06069261 0.0638496
000240 20 da c4 bc 62 9c e1 bd 3c 8e 07 3d e8 e5 3a 3d
       -0.024029791 -0.11016156 0.03309463 0.045629412
000250 08 20 bc 3c d2 bc cf 3d 2a 2d c4 bd e4 fe 49 bd
       0.022964492 0.101434365 -0.09578927 -0.04931535
000260 c0 4a ed bb 06 eb a8 bd a4 92 2c 3d d0 8c 00 bd
       -0.007241577 -0.08247952 0.042132035 -0.03138429
000270 70 8e ee 3d c0 5a 29 bd 34 f0 b4 bd ae 7b c4 3d
       0.116482615 -0.04134631 -0.088348776 0.095939025
000280 84 b1 fb 3d 3a 9d bc 3d 1a 18 c6 bd d0 35 7d bd
       0.12289718 0.09209676 -0.09672566 -0.061818898
000290 48 14 71 3d 0c 20 eb 3d 10 87 ae 3d 5c e8 da bd
       0.058857232 0.11480722 0.08521855 -0.1068885
0002a0 50 60 2c bd 60 b9 ec bb 9c 49 7b 3d 56 41 b1 bd
       -0.04208404 -0.007224247 0.061349496 -0.0865504
0002b0 44 5d 4a 3d 20 ae ef bc 58 29 1e 3d f8 67 a3 bc
       0.04940535 -0.029257834 0.038613647 -0.019947037
0002c0 62 b9 f7 3d f0 70 57 bc d8 8c 45 bd 10 4f a6 bc
       0.12095906 -0.013149485 -0.048230022 -0.020301372
0002d0 80 c3 7c bd 66 b4 d3 bd 9e 58 a5 3d ec 43 9b bd
       -0.06170988 -0.10337143 0.08073543 -0.075813144
0002e0 80 e9 5e bd 06 fa 83 bd 80 40 a7 ba 0c d3 8f 3d
       -0.0544219 -0.064441726 -0.0012760311 0.07022676
0002f0 04 12 0a bd 00 1e 3f 3a 10 c0 35 bd 5e 65 c8 3d
       -0.033708587 0.0007290542 -0.04437262 0.09784959

gru.bias_hh_l0 f4 [192]
000000 18 dc 96 bc da db b6 3d 48 3f 0b bd cc 04 11 bd
       -0.018415496 0.08928652 -0.033995897 -0.035404965
000010 4a 84 8d bd 98 30 ab bd d4 14 8b 3d 62 3c f1 bd
       -0.06909998 -0.08358878 0.06791082 -0.11779095
000020 90 f8 cb 3c a0 2e d5 3d 0c 1f be bd 64 77 52 3d
       0.024898797 0.10409284 -0.092832655 0.05138339
000030 28 44 fa 3c a0 66 42 3c 60 1e f3 3d 70 f9 af bd
       0.030550078 0.011865288 0.11871028 -0.08592498
000040 62 6c 96 3d c0 12 7e bd bc 54 98 3d b0 70 21 3c
       0.07344891 -0.0620296 0.07438037 0.009853527
000050 60 01 15 3c 96 fb d9 bd 50 77 69 3c 06 0a bc bd
       0.009094566 -0.10643689 0.014249638 -0.09181599
000060 78 b8 d4 bd d4 51 8f 3d 80 f1 91 3a 18 8f 03 bd
       -0.10386747 0.06998029 0.0011134595 -0.032118887
000070 e8 da a2 bc 04 2e cb 3d c0 31 13 bb 52 de a3 bd
       -0.019879773 0.09920886 -0.0022460073 -0.080013886
000080 6c 59 f7 3d 90 43 8e bd 20 45 b9 3d 4c 97 d5 3d
       0.12077603 -0.0694648 0.09046388 0.10429248
000090 c8 22 bb 3c 7a d0 e7 bd 28 3b 17 bd a8 7b d5 bd
       0.022843733 -0.113190606 -0.03692165 -0.10423976
0000a0 6a 68 e0 bd 00 2e bd bd d8 eb 87 bd 5c 40 ec bd
       -0.109574154 -0.092372894 -0.066367805 -0.11535713
0000b0 d8 93 8c bd 9a 3f ca bd 5e b5 c6 bd ac b6 a7 bd
       -0.068641365 -0.09875412 -0.09702562 -0.08189139
0000c0 9a 60 f6 bd 80 10 13 3b c0 ff 2f 3c 80 cc c4 bc
       -0.12030144 0.0022440255 0.010742128 -0.024023294
0000d0 56 72 fc 3d 7c 0a 78 3d 12 06 a1 3d 7e a6 85 3d
       0.12326495 0.060556874 0.07862486 0.065258965
0000e0 32 2e 87 bd 38 2f 02 3d 10 1d 23 3d 7a 67 bc bd
       -0.06600608 0.031783313 0.039822638 -0.09199424
0000f0 f2 6b df 3d ca 0f 98 bd c0 84 7c bc 1a 03 fa bd
       0.10909261 -0.074248865 -0.015412509 -0.12207623
000100 9c f7 c7 bd 68 4d cd 3d fa b5 bb bd 9c 64 e6 3d
       -0.097640246 0.1002453 -0.09165569 0.112496585
000110 20 76 84 3d d6 b4 ec 3d f8 e0 6f bd 6e ab c8 bd
       0.06467843 0.11557929 -0.058564156 -0.097983226
000120 5c fd d4 3d 5c 70 51 bd 90 74 72 bc 2c 88 ee 3d
       0.10399887 -0.051132545 -0.0147982985 0.116470665
000130 54 fe 67 bd 00 de 2f bd 44 92 92 3d 7e 4e e7 3d
       -0.05663903 -0.042936325 0.07156804 0.11294268
000140 80 3e b8 3b 80 5c a4 3a bc e3 b5 3d 18 27 50 bd
       0.005622685 0.0012539774 0.088813275 -0.050818533
000150 d6 d3 cc 3d 00 24 97 3d 10 74 89 3c fd b4 86 bd
       0.10001342 0.07379913 0.016778976 -0.065774895
000160 48 be e1 3d b8 98 07 bd c8 ad 80 bd 40 ed d9 bc
       0.110226214 -0.03310463 -0.06283146 -0.026602387
000170 00 ad 9f 3c 3a 97 fd bd e0 85 ee 3c 20 e1 96 bc
       0.019491673 -0.1238236 0.029116571 -0.018417895
000180 e4 ed 1a 3d c0 29 76 bb fa dc 86 bd 80 38 f4 bc
       0.037824526 -0.0037561506 -0.06585117 -0.029812098
000190 cc a3 13 bd e2 2f d9 3d 4c 72 e2 bd 80 26 13 3d
       -0.03604488 0.10604836 -0.11056957 0.03592539
0001a0 2a ff e7 3d bc a2 1e 3d fc dc 87 bd 58 97 16 3d
       0.113279656 0.038729414 -0.06633946 0.036765426
0001b0 50 8d 4d 3d a0 73 5c 3d 85 a9 29 3c 7a 3c e0 bd
       0.050183594 0.053821206 0.010355358 -0.10949035
0001c0 a0 48 e5 3c e0 18 d7 bc 54 39 88 3d bc 4d e5 3d
       0.027988732 -0.026256979 0.066515595 0.11196467
0001d0 ad 3b 37 bd f2 45 0b 3b 50 e0 d1 3d 38 5c af bc
       -0.044734646 0.0021251407 0.10247862 -0.021406278
0001e0 10 e7 9a 3c 6c 9b 46 bd 5c 49 00 3d d8 4b 53 bd
       0.018909007 -0.048488066 0.03131996 -0.051586002
0001f0 30 90 e0 bd c8 6b e0 bd b8 df 60 3d 50 c8 99 bc
       -0.109650016 -0.10958058 0.054900855 -0.018772274
000200 d8 b9 b2 3c 84 b3 ab 3d 00 6e d6 3c e6 cd e2 3d
       0.021817133 0.08383849 0.026175499 0.11074428
000210 f0 b0 1c 3d 16 24 e9 bd 24 19 a2 3d a6 62 e5 bd
       0.03825468 -0.11383836 0.079149514 -0.11200456
000220 c0 3e 76 3d b0 4e 1f bc 66 2d f4 bd 80 44 c1 bc
       0.060118437 -0.00972335 -0.119227216 -0.023592234
000230 70 7f df 3d 18 92 69 bd cc 8d 5d bd 56 70 8a 3d
       0.10912979 -0.05702409 -0.054090306 0.06759708
000240 78 84 d0 3c 80 bd 4e 3d 68 5d a1 bd 6c 30 2e bd
       0.025453791 0.05047369 -0.07879144 -0.042526647
000250 20 84 a6 bd 58 2c e9 3c b0 81 d0 3c 9c 35 80 bd
       -0.081306696 0.028463528 0.025452465 -0.06260225
000260 36 a9 8b bd 98 16 6e 3d 00 5a 26 3c 00 75 d1 3c
       -0.06819384 0.058127016 0.010153294 0.025568485
000270 20 a7 ee bc 78 cd e2 bd 8a 6d a4 3d 3c ad ef 3d
       -0.029132426 -0.11074346 0.080287054 0.11702964
000280 9e 20 d9 3d c4 87 bc bd a0 b0 71 bd 22 87 b9 bd
       0.10601924 -0.09205583 -0.059006333 -0.09058978
000290 5a 74 e7 3d c0 86 cd 3d d0 94 66 bd 98 b1 b7 3c
       0.11301489 0.10035467 -0.056294262 0.02242355
0002a0 12 7d b7 3d ae c3 c3 3d dc 9e 6d bd 60 a7 41 bd
       0.08959402 0.09558807 -0.05801283 -0.047278762
0002b0 44 f4 c3 bd 68 5b e6 bd f8 e9 09 bd 18 c5 1f bd
       -0.09568074 -0.11247903 -0.033670396 -0.039006323
0002c0 e2 4e 99 3d 66 a4 c1 3d f8 82 df bc c0 b6 63 3d
       0.07485749 0.09455185 -0.02728413 0.055594206
0002d0 00 9b 4d 3a a4 a3 80 3d 54 fb e1 bd a0 4c b4 bc
       0.0007843226 0.06281212 -0.11034265 -0.022009194
0002e0 84 70 2a bd 18 cf ce 3d 80 ab 72 3d 84 2f 47 3d
       -0.04161121 0.10098094 0.059245586 0.0486293
0002f0 80 7f 7f 3d 12 ce aa bd 78 13 c1 bd 12 47 97 bd
       0.062377453 -0.08340086 -0.094275415 -0.073866025

gru.weight_ih_l1 f4 [192, 64]
000000 83 d9 a4 bc 88 8b 83 bd ec 7e 5b 3d 5c 95 df 3d
       -0.020123249 -0.06423098 0.05358784 0.1091716
000010 fb 2c fb 3d ee 48 af 3d e2 00 4f 3d 34 46 a6 39
       0.12264439 0.08558832 0.05053795 0.00031714293
000020 28 55 86 bd 8d 44 a7 3c 64 85 95 3d b0 fb 69 3c
       -0.06559211 0.02041843 0.07300833 0.014281198
000030 fb 06 61 bc f3 42 3e bc 34 71 e6 bd 80 26 93 3b
       -0.013734574 -0.011612642 -0.112520605 0.0044906735
000040 30 18 a2 3c c0 78 da 3d de 37 35 3d 74 20 f4 3d
       0.019786924 0.106675625 0.044242732 0.119202524
000050 40 09 2a bb 25 78 c2 3d 72 2c 99 bd 34 9a 13 3d
       -0.0025945455 0.09495572 -0.074791804 0.03603573
000060 66 1f f4 3d a8 30 05 3d be f8 8e bd 10 2f 55 3d
       0.11920051 0.032517105 -0.069810376 0.052046835
000070 c0 58 f4 bd e0 61 5e 3d e0 c0 8a bd 4a 3e b4 3d
       -0.1193099 0.05429256 -0.06775069 0.08800943
000080 10 5e 3a 3c e4 49 25 3d a3 e6 63 bd 14 83 2a bc
       0.011374965 0.04035367 -0.055639874 -0.010407228
000090 bd 10 83 bd b3 37 dc 3d 90 73 45 3d 05 9e 89 bd
       -0.06399677 0.10752811 0.048205912 -0.06719593
0000a0 40 a2 44 bd 80 12 74 3d d1 ea 99 bd 38 c6 ca 3c
       -0.048006296 0.059587955 -0.07515491 0.024752721
0000b0 c8 b3 77 bd 10 df 7b bc 28 07 b0 3d a0 ca 98 bc
       -0.060474187 -0.015373006 0.08595115 -0.018651307
0000c0 6c 6c 90 3d d3 aa a6 bd fc 8a c8 3d 4e 76 f1 bd
       0.0705193 -0.08138051 0.09792134 -0.11790143
0000d0 54 d7 f3 bd 0a a3 fe bd ba a9 df bd 20 ce 33 bc
       -0.11906305 -0.12433441 -0.10921045 -0.010974437
0000e0 5d 18 f2 bd 27 d9 dd 3c ea 1f 86 bd 00 9a a4 3c
       -0.11821053 0.027081085 -0.06549056 0.020092964
0000f0 70 11 0c bc 20 2d 3e 3d f0 ab 87 bc 11 25 cf bd
       -0.008549079 0.046429753 -0.016561478 -0.10114492
000100 f0 b2 82 3c c8 26 ef 3c 00 5e 52 bb 20 ac d5 bc
       0.015954465 0.029193297 -0.0032099485 -0.026083052
000110 65 1a 57 bc a4 b8 0d 3c 1a 81 c1 3b bd fd 11 bd
       -0.013128852 0.008649979 0.0059052827 -0.035642374
000120 58 46 af 3d 0a 52 d7 bd c9 a6 b2 3d 3e 36 9f bd
       0.08558339 -0.105136946 0.08723218 -0.07774018
000130 c0 53 b6 3d bb ad b1 bd 0a c2 9f bd 40 6e 89 3c
       0.08902693 -0.086757146 -0.07800682 0.016776204
000140 18 6d ed 3d f0 c7 6f bc 6e 67 a9 bc 65 00 48 3d
       0.115930736 -0.014635071 -0.020679202 0.0488285
000150 f8 29 2e 3d 89 5d 20 bd 20 69 09 3c ef b8 ff 3d
       0.042520493 -0.039151702 0.00838688 0.12486445
000160 00 69 e2 ba 99 73 e5 bd 6c 0e e6 bd 40 a3 8d 3d
       -0.0017273724 -0.11203689 -0.112332195 0.06915903
000170 c2 7c b1 bd 82 b4 e9 bd e1 a6 06 3c 60 7d fb bc
       -0.08666374 -0.11411382 0.008218498 -0.030699432
000180 4c 21 fd 3d 02 2d c7 bd fb ec b3 3d 45 71 17 3d
       0.123598665 -0.097253814 0.08785435 0.036973257
000190 62 ae be 3c 88 55 36 3d a2 c9 8f 3d 76 8c b6 3d
       0.023276512 0.044515163 0.0702088 0.089135095
0001a0 bd b5 c3 bd c0 87 f2 3d 33 4d 31 3d 90 88 9c 3c
       -0.09556148 0.118422985 0.043286514 0.019108087
0001b0 8e 22 65 bd 26 f8 f7 3d 2e 64 85 bd 40 77 bc 3c
       -0.055941157 0.121078774 -0.065132484 0.023006082
0001c0 60 46 57 3d 6f 05 cb bd 8a 12 e7 3d 00 f0 75 ba
       0.05255735 -0.09913146 0.11282833 -0.0009381771
0001d0 b7 37 76 3c 79 b9 ed bd fe 2c 24 3d 7a 3a ca bd
       0.015027932 -0.11607642 0.04008197 -0.09874435
0001e0 0a 51 e0 bc 73 9e 68 3c fc 9c 95 bd ac 50 e5 3d
       -0.027382392 0.0141979335 -0.07305333 0.111970276
0001f0 9c ad d0 bd 88 ba da 3c 64 d2 3d 3d ab cb b4 bd
       -0.10189363 0.026700273 0.046343222 -0.08827909
000200 20 16 0f bc 82 40 f0 bd f2 8d fe bd 67 d8 b7 3d
       -0.008733302 -0.11731054 -0.12429418 0.08976822
000210 e8 fc 8f bc 19 a0 23 bd 1d ac ce bd 13 7b ed 3d
       -0.01757665 -0.039947603 -0.10091422 0.1159574
000220 d3 3d 56 bd 0a fb cb 3d 90 66 f4 bd 0c 40 23 3d
       -0.052305054 0.09959991 -0.11933625 0.039856
000230 e9 d3 3a bd 4a 25 b2 3d ae 4d 5f 3b 84 60 3f bd
       -0.04561225 0.086985186 0.00340734 -0.046722904
000240 a4 a8 53 bd 4c 4e 3e bd ea 0b dc 3d 57 3c 86 b9
       -0.0516745 -0.04646139 0.1074446 -0.00025603428
000250 42 20 f2 bd 04 f6 e6 ba 00 1c b6 bb d5 96 d9 3d
       -0.11822559 -0.0017620926 -0.005557537 0.10624472
000260 94 00 d8 bd aa f1 57 3a 16 6a c7 3d a0 c0 6c 3c
       -0.10546985 0.000823761 0.09737031 0.014450222
000270 40 aa 55 bb 72 c1 e4 bd 39 06 c2 bd 20 67 1b bd
       -0.0032602698 -0.11169709 -0.09473843 -0.037940145
000280 b6 de d4 bd ec aa 3f 3d db 3c 1b 3d 73 e0 d6 bd
       -0.10394041 0.046793863 0.037899833 -0.10492029
000290 6a 14 fe 3d 67 75 6f 3c 3c cb a7 3d 53 87 40 bd
       0.124062374 0.014615393 0.08193061 -0.047004055
0002a0 f0 79 d3 3d 40 04 d7 3d d0 97 e2 bd c4 c6 4e bd
       0.10325992 0.104988575 -0.11064112 -0.050482526
0002b0 c4 6d b8 bd 00 c1 56 ba 86 62 ad bd f4 d6 59 bd
       -0.09005311 -0.00081922114 -0.084660575 -0.05318351
0002c0 8f 90 3d 3d 8b 8b 6b 3d f8 34 c4 3d 54 d3 e8 3d
       0.04628044 0.057506125 0.095804155 0.11368433
0002d0 1e 7d 24 3d c2 8b d9 bc 19 84 d9 3c c0 80 f2 3d
       0.040158384 -0.0265559 0.026552247 0.11840963
0002e0 23 e0 f3 3d 89 ea fe bd 28 15 e7 3d ac ab 1d bd
       0.11907985 -0.12447078 0.11283332 -0.038493797
0002f0 e0 4b 2f bd f0 4f e4 bd 90 83 85 3d 3f 78 17 3d
       -0.04279697 -0.11148059 0.06519234 0.03697991
000300 28 f1 af 3d aa a8 83 bd f0 9f aa 3d 67 c3 f0 bd
       0.08590919 -0.064286545 0.08331287 -0.1175602
000310 0f e8 bc 3d a9 9c b3 3d e2 51 e3 bd fb 63 c9 bd
       0.09223949 0.08770115 -0.11099602 -0.09833523
000320 b6 d4 c1 3c 60 ab 75 3d 78 45 f9 3d 96 21 82 3d
       0.023660999 0.05997789 0.12171453 0.06354062
000330 88 0b b0 bd 0b 25 29 3d 00 93 ea bd f8 ab 81 bd
       -0.085959494 0.041295093 -0.11453819 -0.063316286
000340 d0 0d 9f 3c 3c 79 13 3d fd 97 e0 bd 71 f3 f7 bc
       0.019415766 0.03600429 -0.109664895 -0.03026745
000350 5e 89 cf bd 9b 95 e1 bd 00 ae 46 ba 81 dc ee bb
       -0.101336226 -0.11014863 -0.00075790286 -0.0072894697
000360 e0 6d dd 3c e4 df a3 3d fc fc f7 bd 0e 30 91 bd
       0.027029932 0.08001688 -0.121088 -0.07089244
000370 a0 8f 23 bd 0e ac c1 bd cc c5 e7 3d 6c 4d f1 3d
       -0.039931893 -0.09456645 0.11317024 0.11782345
000380 b2 5a f9 bd 5c 20 de bd 78 07 8b bd 9d 66 1b bd
       -0.12175502 -0.10846016 -0.06788534 -0.037939657
000390 1e 43 14 3c 18 6b fb bd 6f 99 84 bc f4 15 cd bd
       0.009049205 -0.12276286 -0.016186444 -0.10013953
0003a0 f1 f5 ef 3d 08 99 98 bd d3 07 a9 3c cc e9 fd 3d
       0.117168315 -0.074510634 0.020633614 0.12398109
0003b0 77 3f cc bd c0 ff b2 3b 9e 2e e5 3d 00 f7 b8 3a
       -0.099730425 0.0054626167 0.11190532 0.0014111698
0003c0 4c e5 bd bd f0 92 6c bd f4 82 dc bd 66 a1 83 bd
       -0.092722505 -0.057757318 -0.10767165 -0.06427269
0003d0 20 9a a6 bd 28 77 6e 3d 9f 2d 92 3d 88 94 f2 bc
       -0.08134866 0.058219105 0.07137608 -0.02961184
0003e0 cc c4 c6 3d 8b 43 9b bd 94 28 38 3d d6 c2 e2 bd
       0.09705505 -0.07581242 0.044960573 -0.11072318
0003f0 f4 3f 95 3d e2 e0 fd bd 66 b6 95 3d 1d 7c fa bb
       0.07287589 -0.123964086 0.0731018 -0.00764419

gru.weight_hh_l1 f4 [192, 64]
000000 df 76 83 3d 51 3a 0a 3d 59 b7 8d bd 61 15 cc bd
       0.06419157 0.03374702 -0.069197364 -0.09965015
000010 ee 51 2f bd 24 b0 d7 bd c2 1a dd bd 0f 13 95 3d
       -0.042802744 -0.10531643 -0.10796119 0.07279026
000020 1d e7 05 bc 61 4a 82 bb 52 63 c2 bd 11 54 86 3d
       -0.0081727775 -0.003976152 -0.094916 0.06559003
000030 bf 5f c8 3d a5 d8 9e 3d ae 36 99 bd b5 98 4c 3c
       0.09783887 0.077561654 -0.074811324 0.01248758
000040 97 07 75 bd ef e2 6d 3d 12 b5 88 3d 30 97 85 bd
       -0.05982169 0.05807775 0.066751614 -0.06522977
000050 28 8d b5 bd 27 4c b5 bd 5c a3 5a 3d ee 18 fb 3c
       -0.08864814 -0.088524155 0.053378448 0.030651536
000060 c4 91 b2 3d eb cd 92 bc 9c 83 c7 3d a1 cc eb 3d
       0.08719209 -0.017920455 0.09741899 0.11513639
000070 07 ae c5 bd db 85 ae bc 56 9a 69 3c ea 38 a0 3d
       -0.09652334 -0.021304062 0.014257988 0.078233555
000080 26 26 e4 bd 90 5f 5f 3d ba 42 22 3c 8d c0 bc 3d
       -0.11140089 0.054534495 0.009903604 0.09216414
000090 74 c1 dd bd c2 e1 cf 3d d3 3f bc 3d e8 94 07 bb
       -0.10827914 0.10150482 0.09191861 -0.002068812
0000a0 b1 e2 0b bd 98 36 7f 3d a9 4a 19 bd b2 05 de bc
       -0.034151737 0.062307924 -0.037424717 -0.027102325
0000b0 00 49 95 bd aa c1 ed 3d 04 b4 b0 3d 11 d1 a1 3c
       -0.07289314 0.11609204 0.08628085 0.019753011
0000c0 bc c3 1d 3c 67 90 a4 bd 23 1e cc 3d 8a c6 58 3d
       0.009629186 -0.08035355 0.099666856 0.052923717
0000d0 96 19 25 3d 6b b7 41 3d aa 1b e3 bd e7 f4 32 bd
       0.040307604 0.04729406 -0.11089261 -0.04369059
0000e0 25 ce ac 3d 2f 11 1f bd 40 41 d6 3d cf 58 b6 bd
       0.084377564 -0.038834747 0.10461664 -0.08903658
0000f0 c0 44 c2 3d 71 46 fd 3d 5a ec db bd 0f b2 d0 3d
       0.09485769 0.12366951 -0.1073844 0.10190212
000100 17 35 0d 3d 94 b5 79 3d cc 31 1d bd 13 85 b7 3d
       0.03447446 0.060964182 -0.038377568 0.08960929
000110 dd 9c e3 3c 91 fa bc bd 60 79 df 3d f5 fa 1e 3a
       0.02778476 -0.09227479 0.10911822 0.0006064617
000120 c7 cf f6 bc 32 95 02 3d 94 90 77 3c 94 41 ea bd
       -0.030128373 0.031880565 0.015110154 -0.11438289
000130 bb 4b fd 3d ef d5 5c bc 90 d4 15 3d e3 a7 bc bc
       0.1236796 -0.01347874 0.03657967 -0.023029273
000140 89 2a ed bd 66 2e db bd cc 0b 13 bd 23 4f 24 bd
       -0.115803786 -0.10702209 -0.035899922 -0.040114533
000150 10 7e cc 3d 33 db 8b 3c ab 48 f6 3d 7f 87 d0 3d
       0.09984982 0.017072296 0.12025579 0.10182094
000160 ac 51 5f 3c 11 b8 40 bd 2e 7b 2a 3b 11 04 34 bd
       0.013630312 -0.04705054 0.0026013362 -0.04394919
000170 3c b0 fe bd 6f 14 0b 3d 3c 9a 4d 3d 44 7b 1c bd
       -0.12435958 0.033955034 0.050195917 -0.038203493
000180 7d ac e7 3d 7b 89 56 3c 08 05 c4 bb a9 5c 00 bd
       0.113121964 0.013094301 -0.005982045 -0.031338368
000190 29 7e f5 3d 7c 0b 89 3d 6c 16 b6 bd 5c 07 c1 bd
       0.11986954 0.066916436 -0.088909954 -0.09425232
0001a0 55 8d ce bd 1e 61 e7 3d f9 e4 d3 3d 21 3a 81 3d
       -0.10085551 0.112978205 0.103464074 0.06309915
0001b0 13 5c 7b 3d 9f 2e ac bd 95 e3 ba 3d 46 bc 0c bc
       0.061367106 -0.0840733 0.09125439 -0.00858981
0001c0 82 c7 7e bb c4 a4 75 3c f6 c5 14 bd ec f3 eb 3d
       -0.003887624 0.0149928965 -0.036321603 0.11521134
0001d0 d9 c7 7e 3c 05 37 a5 3d dd 87 9e bd 48 2e dc bd
       0.015550577 0.08067135 -0.077407576 -0.10751015
0001e0 e0 13 2c bd 6c fd 1e 3d 06 81 b1 bd 8e b5 89 bd
       -0.04201114 0.0388159 -0.086671874 -0.06724082
0001f0 44 2d 21 3d 15 c8 f9 3d 7a 9b dc 3d ea 98 eb 3d
       0.03934981 0.12196366 0.10771842 0.115037754
000200 ac a1 ce bc 4a 31 b3 bd b3 27 39 3d 94 7a 92 bd
       -0.025223576 -0.087496355 0.045203876 -0.07152286
000210 db de f2 3d 4d 4f ff 3c 71 63 e1 bd 34 b4 a0 3a
       0.118589126 0.031165743 -0.11005295 0.0012260736
000220 fb 73 a5 bd f1 62 3c 3d 36 55 81 bd 21 d5 8a bb
       -0.08078762 0.045992795 -0.06315081 -0.0042368327
000230 a8 11 bb 3d 88 21 bc bd 13 15 b2 3d b6 9a 9f 3d
       0.09134227 -0.09186083 0.08695426 0.07793181
000240 d7 ce f6 3b da 01 d4 3d 2f 6b ab bd ad 90 c7 bd
       0.0075319814 0.10351916 -0.08370053 -0.097443916
000250 30 16 39 bd e2 aa d7 3d 0c fd 93 bd df 29 39 3d
       -0.045187175 0.1053064 -0.07225999 0.045205947
000260 cc 6e b3 bd ca 0f 0d 3c b4 90 d9 3d 25 a8 b6 3d
       -0.08761367 0.008609721 0.10623303 0.0891879
000270 78 8e 67 3d 74 c5 58 bd bc e4 79 3d 12 5e d9 3d
       0.056532353 -0.05292268 0.061009154 0.106136456
000280 06 98 e8 bd b2 47 01 3d 42 6d 82 bd cc 92 78 3d
       -0.11357121 0.031562515 -0.063684955 0.06068687
000290 a1 a1 f8 bb 58 42 df bc ef 06 b4 bd 79 10 b0 bd
       -0.007587627 -0.027253315 -0.08790385 -0.08596892
0002a0 f0 d0 83 3c 2a ac 1c 3d 1a 2f 58 bb d4 f7 cd 3d
       0.01609084 0.038250126 -0.003298706 0.10057035
0002b0 4d 78 14 bc 9b d8 b2 bd 7e 05 34 3d af 5c ab bd
       -0.009061885 -0.087327205 0.04395055 -0.08367287
0002c0 b1 b5 d7 3d 01 2a 93 3c 98 dc 80 3b 39 51 35 3d
       0.10532702 0.017964365 0.003932547 0.044266913
0002d0 cf a4 7b 3d a8 10 be bd 6e 8a 4b bd 8d 42 2a bd
       0.06143647 -0.09280521 -0.049692564 -0.041567374
0002e0 f4 d9 22 bb 5d d9 6c 3d a8 5e 72 bd ae 10 2a 3d
       -0.0024849148 0.05782448 -0.059172302 0.041519813
0002f0 b4 33 73 3c 97 05 ca bd df 91 85 3d 50 4f 54 3b
       0.01484387 -0.098643474 0.06521963 0.0032395907
000300 6b c7 a6 bd 25 d2 e1 3c e2 30 6e bd 7f ea 52 3b
       -0.08143505 0.027566025 -0.058152087 0.0032183228
000310 74 cc cd bd b6 80 cc 3d eb 1b 70 bc 06 57 ef 3d
       -0.10048762 0.09985487 -0.014655094 0.1168652
000320 10 00 be 3d d3 2c e5 bd 9d 8c fe bd 72 1a 9f 3d
       0.09277356 -0.1119019 -0.124291636 0.07768716
000330 39 b0 1d bd a8 d1 9a 3d 63 b9 d9 3c c1 9e 53 3d
       -0.038498137 0.0755952 0.026577657 0.05166507
000340 ac 60 ad 3d ba 26 4b 3d d3 96 de 3d c2 64 52 bc
       0.08465704 0.04959748 0.10868611 -0.012841405
000350 08 c3 c8 3d 83 a0 d4 bd 56 28 f6 bd 17 ab b6 bd
       0.09802824 -0.10382178 -0.12019412 -0.089193515
000360 c2 15 48 3d ba ca f4 bd 95 7f 4f 3d 22 cd 35 3d
       0.048848875 -0.119527295 0.05065878 0.044385083
000370 2e fb b4 bd 0d 58 cf bd 3b 5d 01 bd 6e dc 8c bd
       -0.08836971 -0.10124216 -0.031583052 -0.06877981
000380 14 aa 4a bd be b7 9b bc 7c 78 01 3d 1f 1d 8d bd
       -0.049478605 -0.019008514 0.031609043 -0.0689032
000390 ed f5 ad bd e1 c8 dd bd ae 08 36 3d 18 ba 52 bd
       -0.08494172 -0.1082933 0.04444187 -0.051447004
0003a0 73 39 cc 3d a0 26 14 bc 0a 19 db 3a 8f 24 e4 bc
       0.09971895 -0.009042412 0.0016715836 -0.027849464
0003b0 a8 ad a9 bd bd 19 91 3d 89 e7 c5 3d a0 10 b0 bd
       -0.082850754 0.07084987 0.096633025 -0.08596921
0003c0 79 c4 5f 3d 86 9e 34 bc d7 c2 e9 bd 5b fb 1f bc
       0.05463073 -0.011024123 -0.11414116 -0.009764518
0003d0 e6 70 1e bd 61 53 24 bd af d9 b9 bd 4f 7f 7a bc
       -0.038681887 -0.04011858 -0.09074723 -0.015289142
0003e0 00 5e fd 3d 8b c6 66 3c 87 b9 fb bd 70 30 da 3b
       0.12371445 0.014085422 -0.12291246 0.006658606
0003f0 75 ad d1 bd 48 59 52 3d db 83 e3 3d d2 b5 6e 3d
       -0.102381624 0.051354676 0.11109134 0.058278866

gru.bias_ih_l1 f4 [192]
000000 cd e5 64 3d fa 41 97 3d 56 5c 77 3d 1f 9b 00 3c
       0.055883218 0.07385631 0.060390793 0.007849484
000010 13 ab c8 bd ac b5 3c 3d a5 c5 bd bc 0d 2d 31 3c
       -0.09798255 0.046071693 -0.023165533 0.010813964
000020 b2 7f 9a 3d b5 75 f2 bd 86 be fc bd 38 61 b8 ba
       0.07543887 -0.11838857 -0.12341027 -0.0014067059
000030 c4 d4 46 bb 1a 4f 74 3d 6e 33 5d 3b 6d 89 c3 bc
       -0.003033922 0.05964575 0.0033752578 -0.02386924
000040 a8 90 0f bb dc 39 b0 3d d1 1d d5 bd bd 9d 17 3d
       -0.002190629 0.08604786 -0.10406078 0.037015665
000050 97 2f 95 bd 73 8e 8d 3d 14 e5 fc 3a 14 d5 ec bd
       -0.07284468 0.06911936 0.0019294345 -0.11564079
000060 95 aa 48 3d d5 2a 82 bd 4d d6 a3 3b e5 31 9e bb
       0.048990805 -0.06355826 0.004999912 -0.0048277252
000070 b0 71 f8 3c 98 3b c6 3d 07 bc 96 3d 01 0c f9 3d
       0.030327648 0.09679335 0.07360082 0.12160493
000080 9c 17 4f bd 0d 25 19 bd 53 23 22 bc b9 6d 27 3d
       -0.050559625 -0.03738885 -0.009896117 0.040876124
000090 6f 98 16 bd c9 51 c2 3d 9a 15 de 3d e1 53 c5 3d
       -0.036766466 0.094882555 0.10843964 0.09635139
0000a0 3a 29 7c 3d 67 c0 23 ba 46 70 eb 3d d4 df e6 bc
       0.061562754 -0.0006246627 0.11496024 -0.028182901
0000b0 56 f9 76 3d d7 7d ad bd 08 49 48 3d bb af e0 bd
       0.06029638 -0.08471268 0.048897773 -0.10971018
0000c0 e3 2f 47 bd 67 d0 8c bd c4 32 09 bd 1c 21 89 bd
       -0.048629653 -0.06875687 -0.03349568 -0.06695768
0000d0 96 56 02 bc f9 34 92 3d 06 bd b9 3d 4b f3 f2 3d
       -0.007955214 0.0713901 0.090692565 0.11862811
0000e0 41 65 c7 bc ce 07 d4 bc 89 25 dc bb a6 89 37 3d
       -0.024340274 -0.025882628 -0.0067183417 0.044809006
0000f0 73 2c 74 bb df 0d 37 bd 4a b9 08 3d e2 18 98 bd
       -0.003725794 -0.044690963 0.03337983 -0.07426621
000100 32 54 79 3d 8e 96 07 3d b5 35 a3 3d 59 df a0 bd
       0.06087131 0.033102565 0.07969228 -0.078551
000110 a7 ca a1 bd 6c d5 f5 bd a5 61 d3 3d ed 06 ab bd
       -0.07899981 -0.120035976 0.103213586 -0.0835093
000120 7f bf 31 3d fe cf df 3d 16 9a c3 3d e7 8b a6 3d
       0.043395516 0.10928343 0.09550874 0.08132153
000130 43 c9 60 3b 99 7d a6 bd 80 89 f3 bd a4 c0 89 bd
       0.0034299649 -0.081294246 -0.118914604 -0.067261964
000140 6e bc e4 3b fb c7 57 3d c1 25 ac bd b2 76 af bd
       0.0069804704 0.05268095 -0.084056385 -0.08567561
000150 95 59 b8 3d dd 1c 08 3c 8a c1 8a bd c4 cf e9 3d
       0.090014614 0.008307663 -0.06775196 0.11416581
000160 dc 4c be 3c dc 4e 72 bd 21 9b c6 3b 39 29 f4 bd
       0.023230009 -0.059157237 0.0060609733 -0.11921925
000170 5d bd 86 bd 4d 16 db 3d f9 03 29 3d e0 23 a0 bd
       -0.06579087 0.10697613 0.041263554 -0.078193426
000180 d6 12 21 3d 78 89 49 bd 45 e5 b5 bd 76 cb dc bd
       0.039324604 -0.049203366 -0.0888162 -0.107809946
000190 c6 a9 c1 3d f9 24 86 3d 25 79 b4 bd fa 43 d8 bd
       0.0945621 0.06550021 -0.08812169 -0.105598405
0001a0 51 06 d5 3c f1 d0 b6 bd fd 6f 52 3d 57 d1 cf bd
       0.026003988 -0.08926571 0.05137633 -0.1014735
0001b0 16 70 f6 3c 8c 78 39 3d ac a3 c3 bc 99 d7 b7 3c
       0.030082744 0.045280978 -0.023881756 0.022441672
0001c0 44 b5 92 bd 4f 70 d9 bd d4 81 35 3d b4 b1 b8 bc
       -0.0716348 -0.10617124 0.044313267 -0.022545673
0001d0 39 1b b7 3c 8a 38 ec bb 86 37 d6 bd 83 53 e6 bb
       0.022351848 -0.0072088884 -0.10459809 -0.0070289983
0001e0 4d 73 93 3d 78 76 ea bb 5d af 5e bd 6e 99 a2 bd
       0.07199726 -0.007155236 -0.05436646 -0.07939421
0001f0 81 28 b4 3d 5a 60 ea bd e1 86 ef bb 4d f7 92 bd
       0.08796788 -0.11444159 -0.00730978 -0.07176075
000200 5f 83 47 bb b7 6c 97 3c c1 83 9e 3c 86 20 a7 bd
       -0.0030443294 0.018484456 0.019349935 -0.081605
000210 26 13 09 bd 13 67 af bd 59 7f d3 3d fd 5f 1e 3d
       -0.033465527 -0.08564582 0.10327024 0.03866576
000220 14 b7 47 bc a7 c2 d0 3c 81 4b 38 bd 22 57 9e 3d
       -0.012189645 0.025483442 -0.04499388 0.07731463
000230 79 e6 4d bd b0 ed c6 3c cc ad ad bd da 66 b6 3d
       -0.050268624 0.02428326 -0.08480415 0.08906336
000240 71 1a f3 3b 1f dc f6 bc a6 10 2d bd 82 58 27 bc
       0.0074189235 -0.030134259 -0.042252205 -0.010213973
000250 17 d1 a4 bc 46 25 44 bd 3c c1 37 3d 13 70 01 3e
       -0.020119233 -0.04788711 0.044862017 0.12640409
000260 9a 3f 94 3c ab 72 fe 3c a1 f5 5a 3d 87 86 ff bd
       0.018096734 0.031060537 0.053456906 -0.12476831
000270 03 d1 04 3e b4 1d 34 3d ef be 96 3d 80 09 63 bd
       0.12970357 0.04397364 0.073606364 -0.05542898
000280 a2 c0 04 be c3 e5 51 bd 64 26 80 3d 61 af 9e bd
       -0.12964109 -0.05124451 0.062573224 -0.077482946
000290 d4 33 57 bc 92 2f 8c bc a3 08 a9 bc f9 c3 b7 bd
       -0.013134915 -0.017112527 -0.020634001 -0.08972926
0002a0 92 75 83 3d f5 06 09 3d ea 1d 01 3e 02 18 ca 3d
       0.06418909 0.0334539 0.12609068 0.098678604
0002b0 f4 a6 24 3c 06 2d ad bd 46 8a 5f 3c c3 11 d2 bb
       0.01004957 -0.08455853 0.013643807 -0.006410809
0002c0 15 e4 e8 bd 0c a1 74 3d 05 1d 00 be 97 d2 05 3e
       -0.11371628 0.0597239 -0.1251107 0.13068615
0002d0 4f 0d ad bc cb 7d bf bc 7f ae 68 3d 86 78 68 3d
       -0.02112451 -0.023375412 0.056807037 0.056755565
0002e0 cc 98 4b bc 9b 70 7f bd 8d 71 8d 3d f2 47 4c bd
       -0.012426566 -0.06236325 0.06906424 -0.0498733
0002f0 db d5 c2 bb 09 7f ee 3c 72 52 e4 bd 9d ed e3 bd
       -0.0059459037 0.02911331 -0.11148538 -0.111293055

gru.bias_hh_l1 f4 [192]
000000 9f 29 e6 bd 1a eb d2 bd 19 47 ca bd e2 1a da 3d
       -0.11238407 -0.10298748 -0.09876842 0.10649659
000010 b7 a5 66 3d 02 b5 f5 bd 0d c7 9d bd 21 c1 f6 3c
       0.05631038 -0.11997415 -0.077039815 0.030121388
000020 76 8f 83 3c 01 7e dc 3d e0 13 96 3d eb 8e 42 bd
       0.016059618 0.10766221 0.073280096 -0.04749958
000030 b8 a5 37 bd 3b 87 9b bd 66 12 c2 bd aa d9 93 3d
       -0.044835776 -0.075941525 -0.094761655 0.072192505
000040 a3 29 55 bd 7d b5 b8 bc 4d 8d ce 3d 33 61 1c bd
       -0.05204166 -0.022547478 0.10085545 -0.038178634
000050 15 3c ca bd 38 64 8c bc 42 26 7b bd 48 2e 89 3d
       -0.09874741 -0.017137632 -0.061315782 0.066982806
000060 be d6 95 3c c6 81 53 bd dd 8e d3 3c 46 d5 1f bd
       0.018290874 -0.051637433 0.025824958 -0.039021753
000070 4b cf 2f 3b fa d8 e1 3d ad 7e cc bc 33 f9 cf bd
       0.0026826437 0.11027713 -0.024962747 -0.10154953
000080 9b 9c d5 bc b4 73 84 3d 2e 75 9c 3d 01 d0 cf bd
       -0.026075652 0.06467381 0.07639538 -0.101470955
000090 79 ce 4d 3d 27 3c b3 bd b0 96 cb 3d a3 9b e9 bd
       0.050245736 -0.087517075 0.09940851 -0.114066385
0000a0 3e b8 4c 3d 36 2c fb 3d f6 49 aa bd 6d f0 30 bd
       0.049980395 0.12264292 -0.08314888 -0.043198038
0000b0 2a 95 39 3c 54 8a 49 3d 34 7f 12 3d b2 15 0c 3d
       0.011327067 0.049204186 0.03576584 0.034200378
0000c0 f3 97 79 bd b0 18 bb 3d ff 33 db 3d 1e 5b cf 3d
       -0.060935926 0.09135568 0.10703277 0.10124801
0000d0 12 b9 b5 3d 40 72 08 3c 18 99 f7 bd ab e7 93 bd
       0.0887319 0.008328021 -0.12089747 -0.072219215
0000e0 27 b5 be 3c e2 f9 9a 3b b4 62 61 bd 61 25 d9 bd
       0.02327974 0.0047294954 -0.05502577 -0.106028326
0000f0 dd 8d d0 bc 74 a4 80 bd ca 5f da 3d 28 21 88 3d
       -0.02545827 -0.06281367 0.106628016 0.06646949
000100 e9 b2 7f bc 77 59 23 3c 58 86 bf 3c da 6b 76 bd
       -0.01560662 0.009970061 0.02337949 -0.06016145
000110 c3 4e b7 bd a9 95 25 bc 6f 02 c3 3d 8f 68 8f bd
       -0.089505695 -0.010106483 0.095219485 -0.07002365
000120 82 58 90 3d 25 ae 4b bd 88 d3 cd 3d b7 f0 9e bd
       0.070481315 -0.049726624 0.10050112 -0.077607565
000130 64 76 af 3d 75 17 1d bd f0 cf 8c bd 98 a2 f4 3c
       0.08567503 -0.03835245 -0.068755984 0.029862687
000140 57 45 4e 3d d2 4b d2 bc 49 23 c4 3d 30 51 fa bd
       0.050359096 -0.02567092 0.095770426 -0.122225165
000150 09 56 da 3d 6e 06 e6 bd da ec 2e 3d 24 5f 1e 3d
       0.10660941 -0.11231695 0.042706348 0.038664952
000160 fc 0f ac 3c 19 02 bf bd ea 60 be 3d 49 1d 90 bd
       0.021003716 -0.09326572 0.09295829 -0.07036836
000170 7f 9a d0 bd a3 ba 69 3c 2d 3c e5 3d 3e d7 80 3d
       -0.10185718 0.014265689 0.11193118 0.06291054
000180 5f b1 8d 3d 10 8d 5c bd 55 50 a9 3d 60 2d cb bd
       0.069185965 -0.053845465 0.08267275 -0.09920764
000190 7b 04 e7 bc ad 33 e9 bc 1f eb 85 3d 46 cd 8c 3c
       -0.028200379 -0.028467024 0.065389864 0.017187726
0001a0 8e c3 aa bd 8f f4 2b 3d a3 b1 cb 3d d3 1c 43 bd
       -0.0833808 0.041981276 0.09945991 -0.04763491
0001b0 1f a8 d8 3d 90 09 29 3d fc e5 ce bd dd 3e e8 3d
       0.105789416 0.041268885 -0.1010246 0.11340115
0001c0 96 d9 26 3d 83 82 d2 bd 13 a2 83 bd 00 38 a6 bd
       0.04073485 -0.102787994 -0.064273976 -0.0811615
0001d0 42 20 cf 3d 2d 5b 7b 3c 8e 71 d9 bd a3 79 b5 bb
       0.101135746 0.015341562 -0.10617362 -0.005538182
0001e0 c7 ae be bd 22 62 35 3d 7a 57 a8 3d 6d 5a 84 bc
       -0.0931068 0.04428304 0.0821981 -0.0161564
0001f0 c9 84 b8 bd a4 91 ce 3d d2 dc 5a bd 20 4e 9b 3c
       -0.09009702 0.100863725 -0.053433247 0.018958151
000200 68 c6 9d bd 20 7a af bd 08 b6 ce 3d 0c ec 9d 3d
       -0.077038586 -0.08568215 0.100933135 0.07711038
000210 8b 4c a5 3d 84 76 d2 3d 4f 07 de 3d c7 54 94 3c
       0.0807124 0.10276511 0.10841238 0.018106831
000220 b1 9a 37 3c 73 3c aa bd 6d 37 47 bd 70 8d 82 3d
       0.011206315 -0.08312311 -0.048636843 0.06374633
000230 c4 16 09 bd 31 e9 d2 3d 5e 6c 2e 3d a8 43 90 3d
       -0.033468977 0.10298384 0.042583816 0.070441544
000240 e9 7b 9a 3c b4 19 a2 bd 70 e9 01 bd f0 e4 cb 3d
       0.018857913 -0.07915059 -0.031716764 0.09955776
000250 31 0c 49 3c ff 0f 2e bd 8a 72 71 3d da 06 76 bd
       0.012270973 -0.042495724 0.058947124 -0.060065128
000260 0a 6d 84 bc e1 7b f8 bd 60 b0 48 3d d2 39 29 3d
       -0.016165275 -0.12133003 0.04899633 0.041314907
000270 10 16 16 3d 99 5b 8d 3d 37 f7 d8 3d 58 4a 95 3d
       0.036642134 0.069022365 0.105940275 0.072895706
000280 70 de 83 3c 09 b7 37 3d bb a0 ce bd 6b 26 ec bd
       0.016097277 0.04485229 -0.10089251 -0.11530765
000290 5e 03 94 3d 12 64 94 3b f2 ca b9 bd 82 4f ea bb
       0.07227205 0.004528531 -0.09071912 -0.0071505914
0002a0 30 e0 a1 3d c5 a7 d9 3d 81 c1 8a 3c a8 ad dc 3c
       0.079040885 0.106277026 0.016937973 0.026938275
0002b0 0b 58 db bd 4f e5 73 bd 89 d3 ee 3a 7d aa b1 bc
       -0.10710152 -0.059544858 0.0018221001 -0.02168774
0002c0 cc 02 35 3d dd f2 03 3e 46 de 3f 3d ad 2a 23 3d
       0.04419212 0.12885614 0.046842836 0.03983562
0002d0 f6 e2 0a 39 2d 10 e8 3d a2 50 ab bd d4 2d d4 3d
       0.00013245255 0.1133121 -0.08364989 0.103603035
0002e0 d6 fa dc 3d db fd 56 3c 5c a1 d8 bd 78 88 16 bd
       0.10790031 0.013122047 -0.10577652 -0.03675124
0002f0 62 ac f7 3d 40 d2 4d 3d 81 41 d9 3d 68 95 e5 3d
       0.12093426 0.05024934 0.10608197 0.112101376
