results/gru_last_model.pth (torch, 164149 bytes, 9 tensors)

gru.weight_ih_l0 f4 [192, 12]
00000000: ccb8 c33d 667b d43d 20e5 efbc 1c2a eb3d
00000010: b05c e0bc 38a2 ce3c 1045 79bd 2858 963d
00000020: ccac e13d 0ecf bbbd a483 de3d b0a6 bf3c
00000030: 9422 bd3d 50ae 8a3c 5ce1 763d 6094 90bc
00000040: c658 c53d 385b 973c a405 6fbd 0882 023d
00000050: ace5 6bbd c02c 70bc fcf3 4fbd aed2 a93d
00000060: 2a14 cabd 8c09 6cbd 6c93 10bd feec 99bd
00000070: f04b 413c 8ad8 fcbd 2832 e73d c076 d9bd
00000080: 96a3 c53d c869 aa3c ac3f 26bd f831 9e3d
00000090: 5897 9f3c b0d6 ce3d 00e3 5f3c 9878 21bd
000000a0: e890 093d 08d8 0abd a47a 573d fe8f e43d
000000b0: b6fb 933d 14d5 5fbd 9ec7 933d 7038 b73c
000000c0: 7a01 823d 8608 9cbd a46a fdbd 0cd1 45bd
000000d0: 9c5b c4bd d60e d23d d878 133d cc13 543d
000000e0: fcec 213d 0082 0ebb 0459 c83d 38e4 b5bd
000000f0: 20f3 003c f4ba aebd 50e0 1d3d e052 30bd
00000100: 98e2 1c3d 7857 d5bc 0653 d43d 50bb 97bd
00000110: 8aad 98bd e6af 98bd e241 e63d e49f 2a3d
00000120: 1056 f63d 4e45 d3bd 98eb fdbd fe48 c8bd
00000130: 5a35 acbd 6c61 4f3d b855 373d 76b7 d43d
00000140: 7434 84bd aa84 aebd f8d3 873d e4f3 4ebd
00000150: 5c5f 9b3d f0fe f2bc 9a71 923d 60e7 c6bd
00000160: ba30 81bd c418 1c3d 387b d83c f489 02bd
00000170: 0298 983d fa07 ae3d f6a4 b9bd 96ab 88bd
00000180: d268 ea3d f4c3 2cbd 2c83 35bd 48b4 f7bd
00000190: 849a 92bd 88cc ff3c 3829 87bc aad3 b9bd
000001a0: 4028 403b 6ede aebd 8630 d9bd 3af8 8cbd
000001b0: e60d e0bd 4401 a3bd 5ee6 ff3d 7068 c13c
000001c0: 1cc7 1d3d 66c4 eebd 5422 a8bd 146c 2abd
000001d0: c01f a03c 8642 e1bd 649b 5cbd 5842 99bd
000001e0: 009e b539 5084 3ebd f0ea 0dbc 2479 adbd
000001f0: 98b7 afbd d259 95bd 9c41 2fbd 500e cabd
00000200: f6a5 d63d 283a cbbc f642 dc3d b087 1f3d
00000210: b0c7 d8bd 3829 b13d c8df 0cbd 5043 44bd
00000220: 807f d4bd 5081 febd 187d 123d c0af dfbc
00000230: 5c55 473d 0017 d2bd d60f be3d f2ea bbbd
00000240: 48d1 b0bc f0e1 d53c 1429 843d e4ab ce3d
00000250: a034 e93d f2fc cabd 88da 003d 7839 5cbd
00000260: 006e 60bc 0c9d bfbd 082e e93d 2ee4 bbbd
00000270: ccd1 883d e4ef 333d a060 263d ca67 8abd
00000280: 0cb1 e83d 4006 e13c 38ba 833c ea99 e1bd
00000290: 84ee 563d 009f 99bc 448f 6abd ece3 db3d
000002a0: b04c e43c 86a3 8dbd 5292 81bd 809b c3bb
000002b0: c4f0 8e3d 54d5 02bd 3211 92bd ac54 2fbd
000002c0: 4c40 bfbd 8898 363d 8027 c63d 3c02 f1bd
000002d0: 20d3 ed3c 5c3f 843d 68ae b93c f855 36bd
000002e0: 009e 853d 0888 863d 6473 3f3d 50f0 b3bc
000002f0: 0894 07bd d018 5b3c d0e4 b4bc 9893 18bd
00000300: 10a3 a33d 9c01 dc3d 20bf 4abc 3845 e5bc
00000310: 8014 ef3a a090 f4bb 602e f63c c87a 0f3d
00000320: 8483 e8bd 84f2 3cbd cc95 d73d c073 473d
00000330: a0b9 cbbb 0858 9abd 429f 9cbd fa50 e5bd
00000340: 8ce4 26bd 90e7 2c3d 2c3b a33d 9863 6c3d
00000350: 284a e2bd e4f2 99bd b09a a1bc 38a4 f73d
00000360: 1821 943c d097 04bd 7cd2 533d e802 43bd
00000370: 8cb2 a5bd e4d9 ba3d acce 68bd 2847 cdbc
00000380: 7eab febd 5255 ab3d 58f4 c13d f498 3a3d
00000390: 9080 b2bd 18a8 fcbd f6ea cfbd 36e6 be3d
000003a0: 6cd0 753d d66c d73d 561c 863d 4c95 013d
000003b0: 8071 a0ba 86b0 c2bd 6c55 dbbd 0273 efbd
000003c0: e497 513d 2860 7bbd 2815 cebc 5054 93bd
000003d0: d098 babc 862e b4bd 4046 a7bd 00d6 293d
000003e0: 202a 18bd 340a 9e3d 0c41 24bd 10cb bbbd
000003f0: 68ac b4bc d030 78bd 60a4 1cbd fcb5 f3bd
0.095567316 0.10375099 -0.02928406 0.11482641 -0.027387947 0.025223836 -0.06085688 0.07341033
0.110192865 -0.09170352 0.10864952 0.023394912 0.09235111 0.016928822 0.060273513 -0.017648876
0.09636073 0.018476114 -0.05835499 0.03186229 -0.05759208 -0.014659107 -0.05076979 0.08292137
-0.09867127 -0.057626292 -0.035296842 -0.07515906 0.01179789 -0.12345989 0.112888634 -0.10618353
0.09650342 0.020802394 -0.040588066 0.077243745 0.019481346 0.10099542 0.013664961 -0.039421648
0.03358546 -0.03389743 0.052607194 0.11160277 0.072257444 -0.054646567 0.07215808 0.022365779
0.06347938 -0.07618813 -0.12373856 -0.048295066 -0.095877856 0.10256736 0.036003917 0.051776692
0.039532647 -0.0021744967 0.097826034 -0.0888142 0.0078704655 -0.08531752 0.038544 -0.043047786
0.038302034 -0.026042685 0.10367398 -0.07408774 -0.07454975 -0.07455425 0.11243035 0.04165639
0.12028134 -0.10315953 -0.123984516 -0.09779547 -0.084086135 0.050630018 0.044759482 0.10386555
-0.06455317 -0.085213974 0.06632227 -0.05052556 0.07586548 -0.02966258 0.07150574 -0.097121
-0.06308122 0.038109556 0.026425943 -0.031869844 0.07450868 0.08497615 -0.09064667 -0.066733524
0.11445774 -0.042179063 -0.04431455 -0.12094933 -0.07158378 0.031225458 -0.016499147 -0.09073575
0.0029320866 -0.08538519 -0.10604958 -0.06883283 -0.10940151 -0.07959226 0.12495111 0.02360937
0.038519964 -0.11658554 -0.082096726 -0.041606978 0.01954639 -0.109990165 -0.05385913 -0.07483357
0.0003464073 -0.0465129 -0.0086619705 -0.08470371 -0.085799396 -0.072925225 -0.04278718 -0.09866011
0.10480873 -0.024808004 0.10754959 0.03894776 -0.10584962 0.0865044 -0.034393102 -0.047915757
-0.10375881 -0.12427008 0.03576383 -0.027305484 0.04866539 -0.10258293 0.09280364 -0.09175672
-0.021584168 0.026108712 0.064531475 0.10091379 0.113869905 -0.09911527 0.031458408 -0.053765744
-0.013698101 -0.09356126 0.11385733 -0.09174381 0.066806406 0.04392995 0.040619493 -0.067580774
0.11361894 0.0274688 0.016080007 -0.11015685 0.05247356 -0.018752575 -0.057265535 0.10736832
0.027868599 -0.06915955 -0.063267365 -0.005969465 0.06979516 -0.031941727 -0.07132186 -0.04280536
-0.093384355 0.04457906 0.09675503 -0.11768004 0.029031336 0.06457397 0.022666171 -0.04451558
0.06524277 0.06568915 0.046740904 -0.021965176 -0.033100158 0.013372615 -0.022081763 -0.03725013
0.07990086 0.107424945 -0.012374669 -0.027987108 0.0018240362 -0.0074635297 0.03005141 0.035029203
-0.113532096 -0.04612972 0.10526618 0.048694372 -0.0062171966 -0.07536322 -0.076475635 -0.11197086
-0.040745303 0.042213023 0.079702705 0.057712168 -0.110493004 -0.07517031 -0.019727081 0.12091869
0.018082187 -0.032371342 0.051714405 -0.047610193 -0.08090696 0.091235906 -0.056837723 -0.025058344
-0.12435053 0.08365883 0.09470433 0.045556024 -0.087159276 -0.12336749 -0.10152237 0.09321253
0.06001322 0.10518806 0.065483734 0.03163652 -0.0012240857 -0.095063254 -0.10709652 -0.11691858
0.051170245 -0.061371 -0.025156572 -0.07193816 -0.022777945 -0.08797936 -0.08167696 0.041463852
-0.03714955 0.0771679 -0.040101096 -0.091695905 -0.022054866 -0.060593426 -0.038242698 -0.11899945

gru.weight_hh_l0 f4 [192, 64]
00000000: 80d5 573c 9832 cbbd ae96 c4bd 3a1d d0bd
00000010: 08bd 0abd 341d e23d 9426 483d 50d4 72bc
00000020: 30c0 d23c 10e2 4b3d 00ea 3e3a a87b cebd
00000030: 8eb9 9dbd 10ea adbd 8003 50bb c457 eabd
00000040: 502f babc 5c39 3bbd 123b fb3d 3e15 d03d
00000050: d4b2 943d 80b6 e53b 8cc5 25bd 9898 023d
00000060: c4e0 b0bd bc5e 5abd e8b4 cdbc f897 f0bc
00000070: 6682 f2bd 3089 4b3d b8cf d23d ea33 8dbd
00000080: 9804 0a3d f083 6dbc 2064 95bb 80c1 ee3b
00000090: 5ad8 dd3d d034 893c 20f7 a1bd 602c 38bd
000000a0: 4020 7a3d 9cc5 1f3d 8037 1f3b f824 87bc
000000b0: 1435 47bd 04b9 35bd 5209 87bd 60cb a73c
000000c0: 88ca 0f3d de07 c43d d855 e7bc 209d 123c
000000d0: 3a73 a53d 18b7 5e3d 4892 833c a053 1d3d
000000e0: e09b d43b 3e98 dbbd c0e7 9d3b 28d3 dfbc
000000f0: 7604 e73d 9c12 e73d e826 cb3c 48d0 e43d
00000100: 48d8 83bd 2a82 de3d 8669 dc3d a08d 9cbb
00000110: 4271 cdbd 7438 25bd 3cec 08bd c050 073b
00000120: 4c1a e8bd f8c5 bd3c c0ef 54bd d417 03bd
00000130: d638 84bd 8033 d8bc eec0 edbd 16b9 87bd
00000140: 00ac 3c3c 2ac0 a73d b2a3 e83d 12a7 c1bd
00000150: e8ff 563d 5e4e 90bd 9eed c5bd 605e b4bb
00000160: 82da 92bd a47a dcbd c83d efbd 6a5a abbd
00000170: 465d d23d f4c5 8e3d 78ac 4abd 9a58 abbd
00000180: 08ed c4bd 6a2c 97bd e8af 52bd 38c0 993d
00000190: 288e 273d 804f 45bd 0a3d b03d 2409 9fbd
000001a0: 648f d0bd f87c df3c 9c28 8dbd 28a7 113d
000001b0: 72e4 d83d a820 72bd cea3 b2bd 84b7 403d
000001c0: a634 e7bd c265 e43d 90cb 71bd 0c88 773d
000001d0: 6090 cbbd 3c47 adbd c098 613c a0f7 353d
000001e0: 4c80 c63d 1c1a d63d 4091 ebbb 20a7 83bc
000001f0: e044 a93c b0dd edbc 606e 8b3b c271 f2bd
00000200: fe26 d2bd 5c6d af3d 6698 95bd a698 c93d
00000210: 50c1 603c 506e f93c 34ac e83d 7c62 8ebd
00000220: 80a5 a1bc e86b b53c aceb 2e3d 9224 f9bd
00000230: 6cf9 353d 48f8 96bd a080 863c 5c32 ad3d
00000240: 1003 4cbc 8093 81bb 6004 19bc a6a0 d53d
00000250: 0a7e 913d 9034 ac3c 9010 9abd 7804 8bbd
00000260: 04eb cb3d f42b b83d 003a 943d 8e9b c7bd
00000270: f65e c73d b0c5 43bc 1c9c bc3d 4259 de3d
00000280: c07b 603c 780d 55bd 7ece f03d 2068 85bd
00000290: 3046 a73d d279 f5bd d407 21bd de31 dfbd
000002a0: c8ab 65bd ac67 593d 626e b7bd cc63 ddbd
000002b0: 8e0c b73d 76a8 883d 8029 b3ba 5078 b4bd
000002c0: c0a5 07bd 90c6 25bd 681a 9e3d e477 27bd
000002d0: c876 13bd cc77 b5bd 4c25 71bd 629c 8a3d
000002e0: e6ef a43d 30c6 943c f819 40bd b8e2 f53d
000002f0: f81d ca3c 54a1 45bd 3075 31bd 484f 8fbc
00000300: ecbc 723d e445 3b3d 0497 b93d a08d b8bb
00000310: 5abc d33d c8f7 4fbd a0cd 6bbd 8c14 3dbd
00000320: 662e f0bd 740c a8bd e0a5 e7bd 6010 f2bb
00000330: 8075 9a3a b4e2 04bd 3af2 aebd 1044 e83d
00000340: 6ca5 29bd bcfe 733d f047 b23d 8a48 a8bd
00000350: 1006 80bc aaf5 933d ea27 f83d 6030 81bc
00000360: e880 b93d feec c8bd 5255 a6bd 8e84 d23d
00000370: 60e7 41bc 7ee8 fc3d c0ec 143c c054 54bd
00000380: 8e20 f33d 28de df3d 1011 3e3c 4630 9bbd
00000390: 2058 b1bb bc3a 76bd da8a ba3d c0bd bd3b
000003a0: f092 d73c 4a41 9b3d 7c98 293d eccf 9fbd
000003b0: 58aa d43d b045 9d3d c009 9ebd f68f c13d
000003c0: 9441 113d c092 c9bc f214 b7bd b0e7 a9bc
000003d0: 56fe fabd 641d 923d ae68 b93d 6067 13bd
000003e0: 2053 ed3d d496 3dbd c05b af3c a667 b2bd
000003f0: 202c adbb 38f7 4e3d 3c89 5c3d 6059 89bb
0.013173461 -0.09921759 -0.09599052 -0.101618245 -0.03387168 0.11040726 0.048864916 -0.014821127
0.025726408 0.049776137 0.00072827935 -0.10082179 -0.077014074 -0.084919095 -0.0031740367 -0.11442521
-0.022727638 -0.045709 0.12267126 0.101603016 0.07260671 0.007010281 -0.0404716 0.031883806
-0.08636621 -0.053313002 -0.025110677 -0.02936934 -0.11841278 0.04969138 0.102935255 -0.068946674
0.033695787 -0.014496788 -0.004559055 0.0072862506 0.108322814 0.016748816 -0.079084635 -0.044964194
0.061065912 0.039006814 0.0024294555 -0.01649712 -0.048634604 -0.044365898 -0.065935746 0.020482719
0.03510526 0.09571813 -0.028239176 0.008948594 0.08078618 0.05437383 0.016060963 0.03840983
0.0064883083 -0.10722397 0.0048188865 -0.027322367 0.11280148 0.11282846 0.024798825 0.11172539
-0.06437737 0.108646706 0.107623145 -0.004777625 -0.10031368 -0.04033704 -0.033428416 0.0020647496
-0.11333141 0.023165688 -0.051986456 -0.032005146 -0.06456153 -0.026391745 -0.11609064 -0.06627099
0.011515617 0.08190949 0.113593474 -0.09455694 0.052490145 -0.07046197 -0.096644625 -0.0055044144
-0.07170583 -0.10765579 -0.11681706 -0.083668545 0.10271697 0.0697135 -0.049480885 -0.08366509
-0.096155226 -0.07381518 -0.05143729 0.07507366 0.040907055 -0.04817152 0.08605392 -0.07765415
-0.101835996 0.02728127 -0.06892511 0.035559803 0.105904475 -0.059113175 -0.087226495 0.047050014
-0.11289339 0.11152221 -0.059032023 0.06043248 -0.09939647 -0.084608525 0.013769329 0.044425607
0.096924394 0.10454199 -0.007188946 -0.016070902 0.020662725 -0.029036373 0.004255101 -0.11838104
-0.102613434 0.085657805 -0.07304458 0.098435685 0.013717964 0.030448109 0.1136097 -0.06952378
-0.019732237 0.02214618 0.042705223 -0.12165178 0.04442732 -0.07371575 0.016418755 0.08456871
-0.012451902 -0.003954351 -0.009339422 0.10431032 0.07104118 0.021021158 -0.0752269 -0.06787962
0.09956935 0.089927584 0.07237625 -0.097464666 0.09734909 -0.011948988 0.09209463 0.10856868
0.013701379 -0.052014798 0.11758135 -0.06514001 0.08167684 -0.11986126 -0.039314106 -0.10898183
-0.056072026 0.053077385 -0.08956601 -0.1081005 0.089379415 0.066727564 -0.0013668984 -0.0881201
-0.033117056 -0.040472567 0.0771988 -0.04088582 -0.03600195 -0.0886074 -0.05887346 0.06768109
0.080535695 0.01816091 -0.046899766 0.12006134 0.024672493 -0.048249558 -0.04332465 -0.017493859
0.0592622 0.04572095 0.09062007 -0.0056321174 0.103386596 -0.050773412 -0.057569146 -0.046162173
-0.117276 -0.082055 -0.11310935 -0.007387206 0.0011784285 -0.032442763 -0.08542295 0.11341107
-0.041417524 0.059569106 0.08705127 -0.08216961 -0.01562789 0.07224591 0.12116988 -0.015770137
0.0905779 -0.09810828 -0.08121742 0.10279189 -0.011834949 0.12349032 0.009089649 -0.051838636
0.11871444 0.10931045 0.011600748 -0.07577567 -0.0054121166 -0.060114607 0.09108515 0.005790442
0.026315182 0.07580812 0.041405186 -0.0780333 0.10384053 0.076793075 -0.077167034 0.094512865
0.03546293 -0.024606109 -0.08939542 -0.02074036 -0.12255542 0.07134512 0.09053169 -0.035987258
0.115881205 -0.04628642 0.021406054 -0.087111756 -0.005284801 0.050528735 0.053841814 -0.0041915625

gru.bias_ih_l0 f4 [192]
00000000: 8041 a63c dc72 91bd 7662 953d 5800 12bd
00000010: c8ec 91bd 3cb9 15bd 0450 3b3d 7021 92bd
00000020: 92f0 eebd 809b e7bc 8a90 adbd da4a fa3d
00000030: 74b9 33bd f058 013d c043 71bd 008c 493b
00000040: a865 e1bc 2852 95bc 2617 d43d c446 573d
00000050: fcca 81bd 546c 843d 90cf a4bd 62fc c43d
00000060: 7a18 e2bd 6078 f9bd 6239 fb3d 48da 8b3d
00000070: a005 903b aef6 c5bd 1cda 9d3d 80b9 4fbd
00000080: 3c4d 0f3d 50c4 b23c ec81 a43d 689b f1bc
00000090: cae1 ff3d d2b9 b9bd 10f6 67bd 7e1d fc3d
000000a0: 16ed e1bd c40e 1cbd 74f9 1f3d 84cb 4c3d
000000b0: 006f 23bd 52df c8bd ae58 d83d 707a c4bd
000000c0: aaad f33d b04c 193c e050 92bd e8ab 8f3c
000000d0: 00b5 89bb 4a14 d5bd 781c de3d e481 95bd
000000e0: 180d b7bc 9c21 89bd d050 e13c 569e abbd
000000f0: 9270 db3d 10df 07bd 72e5 ee3d 001e 0e3a
00000100: 30d9 a4bc eaaf e5bd 5ab6 a03d 0062 52ba
00000110: c28f cbbd 7c52 773d 409f 9b3c 0c00 8cbd
00000120: 28de 99bd f088 cebc d0d2 6f3d f03c 253d
00000130: f228 9ebd 5885 b3bd 926b d63d 78a2 c73c
00000140: 18ca 793d fa41 f1bd 68af 713d 6636 de3d
00000150: 4021 80bb b0a3 cf3d f0f4 d83c 5401 a13b
00000160: bcc1 323d b440 33bd d02d 59bc 5882 c8bc
00000170: d41c 043d 6067 4b3c 08fa 6ebd 2020 833d
00000180: 289c 8fbd 947a a13d d0b9 4d3c e011 03bc
00000190: 8089 05bc 282f e03c a0b2 ab3b e860 df3d
000001a0: 540c cd3d de86 fe3d e490 9b3d 80c6 2d3b
000001b0: 7067 46bd 4c13 3ebd e04c 9b3d e01d 22bc
000001c0: fa9a e5bd e0a9 803b 8875 f1bc 5840 b9bd
000001d0: 2728 c2bd 0709 3bbc 8c3b 373d 2421 8a3d
000001e0: 0e5f b7bd 607f d8bd a86a c3bd e02c a4bb
000001f0: b056 27bc d825 6f3d 8e63 d0bd 7cf0 e83d
00000200: 2438 19bd ca7a f2bd 806c a1bd 586d f83c
00000210: e824 d4bc 545b b93d 005c 1aba 82ca 9b3d
00000220: 203f d43d 6495 42bd 504a 283c c09a 1cbc
00000230: 1021 6abd f012 e9bd d098 78bd 94c3 823d
00000240: 20da c4bc 629c e1bd 3c8e 073d e8e5 3a3d
00000250: 0820 bc3c d2bc cf3d 2a2d c4bd e4fe 49bd
00000260: c04a edbb 06eb a8bd a492 2c3d d08c 00bd
00000270: 708e ee3d c05a 29bd 34f0 b4bd ae7b c43d
00000280: 84b1 fb3d 3a9d bc3d 1a18 c6bd d035 7dbd
00000290: 4814 713d 0c20 eb3d 1087 ae3d 5ce8 dabd
000002a0: 5060 2cbd 60b9 ecbb 9c49 7b3d 5641 b1bd
000002b0: 445d 4a3d 20ae efbc 5829 1e3d f867 a3bc
000002c0: 62b9 f73d f070 57bc d88c 45bd 104f a6bc
000002d0: 80c3 7cbd 66b4 d3bd 9e58 a53d ec43 9bbd
000002e0: 80e9 5ebd 06fa 83bd 8040 a7ba 0cd3 8f3d
000002f0: 0412 0abd 001e 3f3a 10c0 35bd 5e65 c83d
0.020294905 -0.07101986 0.072941706 -0.03564486 -0.071252406 -0.036553606 0.045730606 -0.07135284
-0.11666979 -0.02827239 -0.08474834 0.12221308 -0.043878034 0.031578958 -0.058902502 0.0030753613
-0.027514294 -0.018227652 0.10355978 0.05255772 -0.06337544 0.064659745 -0.08047402 0.09618451
-0.11039825 -0.12181163 0.12266804 0.06828743 0.004395202 -0.09666191 0.07707617 -0.050714016
0.034985766 0.021822125 0.08032593 -0.029493049 0.12494238 -0.090686455 -0.056631148 0.12310313
-0.11031549 -0.03810002 0.039056256 0.049998775 -0.03990078 -0.0980822 0.10563789 -0.095936656
0.11898358 0.009356663 -0.07144332 0.017538026 -0.004202485 -0.104042605 0.10845274 -0.07300165
-0.02234511 -0.066958636 0.027504355 -0.083798096 0.107148305 -0.033171713 0.11664857 0.00054213405
-0.020123094 -0.112151936 0.07847281 -0.00080254674 -0.09939529 0.060381398 0.018996835 -0.068359464
-0.07513076 -0.025211781 0.058550656 0.040341318 -0.077226534 -0.08765668 0.10469736 0.024369463
0.060983747 -0.11780162 0.05900517 0.108502194 -0.0039102137 0.10138643 0.026483983 0.0049134884
0.04364179 -0.043762878 -0.013255551 -0.024476215 0.032254055 0.012414783 -0.058343917 0.06402612
-0.07012206 0.07884708 0.012556508 -0.007999867 -0.008150458 0.027366236 0.0052397996 0.10907155
0.10012117 0.124280676 0.07595995 0.002651602 -0.04843849 -0.04640512 0.07583022 -0.009894818
-0.112112 0.0039265007 -0.029474989 -0.09045476 -0.09480315 -0.0114157265 0.044734523 0.06744602
-0.08953677 -0.1057117 -0.095418274 -0.0050102323 -0.010213539 0.0583857 -0.101752385 0.11373994
-0.037407055 -0.118398264 -0.07882023 0.030325577 -0.025896505 0.090506226 -0.0005888343 0.07606985
0.10363603 -0.04750575 0.010271624 -0.00955838 -0.057160437 -0.11380565 -0.06069261 0.0638496
-0.024029791 -0.11016156 0.03309463 0.045629412 0.022964492 0.101434365 -0.09578927 -0.04931535
-0.007241577 -0.08247952 0.042132035 -0.03138429 0.116482615 -0.04134631 -0.088348776 0.095939025
0.12289718 0.09209676 -0.09672566 -0.061818898 0.058857232 0.11480722 0.08521855 -0.1068885
-0.04208404 -0.007224247 0.061349496 -0.0865504 0.04940535 -0.029257834 0.038613647 -0.019947037
0.12095906 -0.013149485 -0.048230022 -0.020301372 -0.06170988 -0.10337143 0.08073543 -0.075813144
-0.0544219 -0.064441726 -0.0012760311 0.07022676 -0.033708587 0.0007290542 -0.04437262 0.09784959

gru.bias_hh_l0 f4 [192]
00000000: 18dc 96bc dadb b63d 483f 0bbd cc04 11bd
00000010: 4a84 8dbd 9830 abbd d414 8b3d 623c f1bd
00000020: 90f8 cb3c a02e d53d 0c1f bebd 6477 523d
00000030: 2844 fa3c a066 423c 601e f33d 70f9 afbd
00000040: 626c 963d c012 7ebd bc54 983d b070 213c
00000050: 6001 153c 96fb d9bd 5077 693c 060a bcbd
00000060: 78b8 d4bd d451 8f3d 80f1 913a 188f 03bd
00000070: e8da a2bc 042e cb3d c031 13bb 52de a3bd
00000080: 6c59 f73d 9043 8ebd 2045 b93d 4c97 d53d
00000090: c822 bb3c 7ad0 e7bd 283b 17bd a87b d5bd
000000a0: 6a68 e0bd 002e bdbd d8eb 87bd 5c40 ecbd
000000b0: d893 8cbd 9a3f cabd 5eb5 c6bd acb6 a7bd
000000c0: 9a60 f6bd 8010 133b c0ff 2f3c 80cc c4bc
000000d0: 5672 fc3d 7c0a 783d 1206 a13d 7ea6 853d
000000e0: 322e 87bd 382f 023d 101d 233d 7a67 bcbd
000000f0: f26b df3d ca0f 98bd c084 7cbc 1a03 fabd
00000100: 9cf7 c7bd 684d cd3d fab5 bbbd 9c64 e63d
00000110: 2076 843d d6b4 ec3d f8e0 6fbd 6eab c8bd
00000120: 5cfd d43d 5c70 51bd 9074 72bc 2c88 ee3d
00000130: 54fe 67bd 00de 2fbd 4492 923d 7e4e e73d
00000140: 803e b83b 805c a43a bce3 b53d 1827 50bd
00000150: d6d3 cc3d 0024 973d 1074 893c fdb4 86bd
00000160: 48be e13d b898 07bd c8ad 80bd 40ed d9bc
00000170: 00ad 9f3c 3a97 fdbd e085 ee3c 20e1 96bc
00000180: e4ed 1a3d c029 76bb fadc 86bd 8038 f4bc
00000190: cca3 13bd e22f d93d 4c72 e2bd 8026 133d
000001a0: 2aff e73d bca2 1e3d fcdc 87bd 5897 163d
000001b0: 508d 4d3d a073 5c3d d3a9 293c 7a3c e0bd
000001c0: a048 e53c e018 d7bc 5439 883d bc4d e53d
000001d0: bb3b 37bd 4c45 0b3b 50e0 d13d 385c afbc
000001e0: 10e7 9a3c 6c9b 46bd 5c49 003d d84b 53bd
000001f0: 3090 e0bd c86b e0bd b8df 603d 50c8 99bc
00000200: d8b9 b23c 84b3 ab3d 006e d63c e6cd e23d
00000210: f0b0 1c3d 1624 e9bd 2419 a23d a662 e5bd
00000220: c03e 763d b04e 1fbc 662d f4bd 8044 c1bc
00000230: 707f df3d 1892 69bd cc8d 5dbd 5670 8a3d
00000240: 7884 d03c 80bd 4e3d 685d a1bd 6c30 2ebd
00000250: 2084 a6bd 582c e93c b081 d03c 9c35 80bd
00000260: 36a9 8bbd 9816 6e3d 005a 263c 0075 d13c
00000270: 20a7 eebc 78cd e2bd 8a6d a43d 3cad ef3d
00000280: 9e20 d93d c487 bcbd a0b0 71bd 2287 b9bd
00000290: 5a74 e73d c086 cd3d d094 66bd 98b1 b73c
000002a0: 127d b73d aec3 c33d dc9e 6dbd 60a7 41bd
000002b0: 44f4 c3bd 685b e6bd f8e9 09bd 18c5 1fbd
000002c0: e24e 993d 66a4 c13d f882 dfbc c0b6 633d
000002d0: 009b 4d3a a4a3 803d 54fb e1bd a04c b4bc
000002e0: 8470 2abd 18cf ce3d 80ab 723d 842f 473d
000002f0: 807f 7f3d 12ce aabd 7813 c1bd 1247 97bd
-0.018415496 0.08928652 -0.033995897 -0.035404965 -0.06909998 -0.08358878 0.06791082 -0.11779095
0.024898797 0.10409284 -0.092832655 0.05138339 0.030550078 0.011865288 0.11871028 -0.08592498
0.07344891 -0.0620296 0.07438037 0.009853527 0.009094566 -0.10643689 0.014249638 -0.09181599
-0.10386747 0.06998029 0.0011134595 -0.032118887 -0.019879773 0.09920886 -0.0022460073 -0.080013886
0.12077603 -0.0694648 0.09046388 0.10429248 0.022843733 -0.113190606 -0.03692165 -0.10423976
-0.109574154 -0.092372894 -0.066367805 -0.11535713 -0.068641365 -0.09875412 -0.09702562 -0.08189139
-0.12030144 0.0022440255 0.010742128 -0.024023294 0.12326495 0.060556874 0.07862486 0.065258965
-0.06600608 0.031783313 0.039822638 -0.09199424 0.10909261 -0.074248865 -0.015412509 -0.12207623
-0.097640246 0.1002453 -0.09165569 0.112496585 0.06467843 0.11557929 -0.058564156 -0.097983226
0.10399887 -0.051132545 -0.0147982985 0.116470665 -0.05663903 -0.042936325 0.07156804 0.11294268
0.005622685 0.0012539774 0.088813275 -0.050818533 0.10001342 0.07379913 0.016778976 -0.065774895
0.110226214 -0.03310463 -0.06283146 -0.026602387 0.019491673 -0.1238236 0.029116571 -0.018417895
0.037824526 -0.0037561506 -0.06585117 -0.029812098 -0.03604488 0.10604836 -0.11056957 0.03592539
0.113279656 0.038729414 -0.06633946 0.036765426 0.050183594 0.053821206 0.010355431 -0.10949035
0.027988732 -0.026256979 0.066515595 0.11196467 -0.044734698 0.002125102 0.10247862 -0.021406278
0.018909007 -0.048488066 0.03131996 -0.051586002 -0.109650016 -0.10958058 0.054900855 -0.018772274
0.021817133 0.08383849 0.026175499 0.11074428 0.03825468 -0.11383836 0.079149514 -0.11200456
0.060118437 -0.00972335 -0.119227216 -0.023592234 0.10912979 -0.05702409 -0.054090306 0.06759708
0.025453791 0.05047369 -0.07879144 -0.042526647 -0.081306696 0.028463528 0.025452465 -0.06260225
-0.06819384 0.058127016 0.010153294 0.025568485 -0.029132426 -0.11074346 0.080287054 0.11702964
0.10601924 -0.09205583 -0.059006333 -0.09058978 0.11301489 0.10035467 -0.056294262 0.02242355
0.08959402 0.09558807 -0.05801283 -0.047278762 -0.09568074 -0.11247903 -0.033670396 -0.039006323
0.07485749 0.09455185 -0.02728413 0.055594206 0.0007843226 0.06281212 -0.11034265 -0.022009194
-0.04161121 0.10098094 0.059245586 0.0486293 0.062377453 -0.08340086 -0.094275415 -0.073866025

gru.weight_ih_l1 f4 [192, 64]
00000000: 9a8d cebc 888b 83bd ec7e 5b3d f1c5 d53d
00000010: e6e5 023e 113c a53d e9d9 623d 1875 b13b
00000020: d97a 90bd f2fb cf3c 37d0 8b3d b0fb 693c
00000030: fb06 61bc 25ee debb 4b76 dcbd 8026 933b
00000040: 3018 a23c c078 da3d 6bd4 493d 95cd ea3d
00000050: 4009 2abb dae8 cc3d 722c 99bd 349a 133d
00000060: 661f f43d 3e26 e13c bef8 8ebd 102f 553d
00000070: c058 f4bd e061 5e3d 244a 95bd 4a3e b43d
00000080: 105e 3a3c e449 253d 3a87 77bd 099a 7bbc
00000090: cd4e 8dbd 298b d13d b913 593d 3480 7dbd
000000a0: a50a 31bd 8012 743d 460b a4bd 38c6 ca3c
000000b0: e935 86bd 10df 7bbc 2807 b03d a0ca 98bc
000000c0: 7edc 853d 4eb7 b0bd fc8a c83d 4e76 f1bd
000000d0: 54d7 f3bd fafd f4bd 9bba d5bd 20ce 33bc
000000e0: 1750 fcbd 7022 043d ea1f 86bd 009a a43c
000000f0: 7011 0cbc 202d 3e3d f0ab 87bc 7a67 c5bd
00000100: 2318 803c c826 ef3c 005e 52bb b85c d8bc
00000110: 548b 52bc 42cf 073c b049 ca3b b6b4 10bd
00000120: b5b1 ae3d c8a2 d6bd 6cff b13d 3e36 9fbd
00000130: c053 b63d 710c b1bd 7a27 9fbd 406e 893c
00000140: 186d ed3d f0c7 6fbc 29da a6bc 3da7 463d
00000150: f829 2e3d c71a 1fbd 2069 093c efb8 ff3d
00000160: 0069 e2ba 7309 e6bd 6c0e e6bd 40a3 8d3d
00000170: c27c b1bd 82b4 e9bd c138 013c 607d fbbc
00000180: 4c21 fd3d 022d c7bd d437 b33d 1101 163d
00000190: d826 bc3c e4c8 343d 5a67 903d fb5a b73d
000001a0: 4c15 c3bd c087 f23d e80c 303d 9088 9c3c
000001b0: 1c60 66bd 26f8 f73d 2e64 85bd 4077 bc3c
000001c0: b0ec 553d 44ae cbbd 8a12 e73d 00f0 75ba
000001d0: b737 763c 053b edbd e689 253d 7a3a cabd
000001e0: 6594 e2bc ef73 6e3c fc9c 95bd ac50 e53d
000001f0: 9cad d0bd 88ba da3c 64d2 3d3d de3f b4bd
00000200: 8028 48bc 8240 f0bd f28d febd 3d1b b13d
00000210: 272d 68bc bc91 31bd b487 c7bd 53ec f33d
00000220: 3450 64bd effc d23d 6e7f fbbd 0c40 233d
00000230: e9d3 3abd 4a05 b93d 6f32 df3b 8460 3fbd
00000240: a4a8 53bd 4c4e 3ebd e223 e33d 7ec6 6cbb
00000250: 4220 f2bd 705b e83a 001c b6bb d596 d93d
00000260: 9400 d8bd ae15 21bb 166a c73d a0c0 6c3c
00000270: 40aa 55bb 72c1 e4bd ed2b c9bd 2067 1bbd
00000280: b6de d4bd ecaa 3f3d 94bd 0d3d e0f1 ddbd
00000290: 9300 f73d 2044 393c d06f ae3d 98e9 31bd
000002a0: b965 da3d 4004 d73d b0c2 e9bd c4c6 4ebd
000002b0: de2f bfbd 00c1 56ba 8662 adbd f4d6 59bd
000002c0: a002 303d 3cf4 5c3d f834 c43d 54d3 e83d
000002d0: 1e7d 243d 8770 bebc a5e1 f33c c080 f23d
000002e0: 3ffc ec3d a1cb f7bd 2815 e73d acab 1dbd
000002f0: e04b 2fbd f04f e4bd 9083 853d 64aa 253d
00000300: bd89 a53d aaa8 83bd f09f aa3d d9d9 fabd
00000310: a418 c73d a0cd a93d c9ef d8bd e9bf bfbd
00000320: f1be 9a3c 60eb 843d 5e70 ef3d 9621 823d
00000330: 880b b0bd 006b 3d3d c0dc e0bd f8ab 81bd
00000340: d00d 9f3c 3c79 133d 8974 d6bd c56f 0fbd
00000350: 5e89 cfbd 6136 d7bd 00ae 46ba 81dc eebb
00000360: e06d dd3c 89a6 993d fcfc f7bd 0e30 91bd
00000370: a08f 23bd 0eac c1bd 78d6 dd3d 6c4d f13d
00000380: b25a f9bd 5c20 debd 3c48 95bd ed6b 30bd
00000390: 092a 893b 92c6 02be 6363 3abc d0e6 c2bd
000003a0: a620 fa3d 0899 98bd 7331 803c cce9 fd3d
000003b0: d15c d6bd c0ff b23b 9e2e e53d 00f7 b83a
000003c0: 87e5 c7bd 4957 80bd f482 dcbd 66a1 83bd
000003d0: 209a a6bd 9c2f 813d 1ce5 9b3d 8894 f2bc
000003e0: df51 bc3d 2bfa 90bd 9428 383d d6c2 e2bd
000003f0: f43f 953d e2e0 fdbd 66b6 953d d592 2fbb
-0.025214005 -0.06423098 0.05358784 0.10438145 0.12783012 0.080680974 0.055383597 0.00541557
-0.07054681 0.025388692 0.06826823 0.014281198 -0.013734574 -0.0068032914 -0.1076475 0.0044906735
0.019786924 0.106675625 0.049274843 0.11464993 -0.0025945455 0.100053504 -0.074791804 0.03603573
0.11920051 0.027484056 -0.069810376 0.052046835 -0.1193099 0.05429256 -0.07289532 0.08800943
0.011374965 0.04035367 -0.060431696 -0.015356549 -0.06899796 0.10231621 0.052997325 -0.061889842
-0.043223042 0.059587955 -0.08009963 0.024752721 -0.06553251 -0.015373006 0.08595115 -0.018651307
0.06536196 -0.086287126 0.09792134 -0.11790143 -0.11906305 -0.11962505 -0.10435983 -0.010974437
-0.123199634 0.032259405 -0.06549056 0.020092964 -0.008549079 0.046429753 -0.016561478 -0.09638877
0.01563651 0.029193297 -0.0032099485 -0.0264114 -0.012850601 0.00828916 0.006173335 -0.03532859
0.08529989 -0.10480267 0.08691296 -0.07774018 0.08902693 -0.08644951 -0.077712014 0.016776204
0.115930736 -0.014635071 -0.020367699 0.048499335 0.042520493 -0.038843896 0.00838688 0.12486445
-0.0017273724 -0.11232271 -0.112332195 0.06915903 -0.08666374 -0.11411382 0.007887066 -0.030699432
0.123598665 -0.097253814 0.08750883 0.03662211 0.02296774 0.044136897 0.07050963 0.089529
-0.095255464 0.118422985 0.04298106 0.019108087 -0.056244 0.121078774 -0.065132484 0.023006082
0.052227676 -0.09945348 0.11282833 -0.0009381771 0.015027932 -0.11583523 0.040414713 -0.09874435
-0.02765865 0.014554008 -0.07305333 0.111970276 -0.10189363 0.026700273 0.046343222 -0.08801244
-0.012216687 -0.11731054 -0.12429418 0.086477734 -0.014170921 -0.043351874 -0.0974268 0.1191031
-0.05574055 0.103021495 -0.12280165 0.039856 -0.04561225 0.09034212 0.006811432 -0.046722904
-0.0516745 -0.04646139 0.110908285 -0.0036129053 -0.11822559 0.0017727446 -0.005557537 0.10624472
-0.10546985 -0.0024579572 0.09737031 0.014450222 -0.0032602698 -0.11169709 -0.09822831 -0.037940145
-0.10394041 0.046793863 0.034604624 -0.108371496 0.120606564 0.011307746 0.0851742 -0.043435663
0.10663933 0.104988575 -0.11414087 -0.050482526 -0.09335302 -0.00081922114 -0.084660575 -0.05318351
0.042971253 0.053943858 0.095804155 0.11368433 0.040158384 -0.023247017 0.029770682 0.11840963
0.115715496 -0.12099386 0.11283332 -0.038493797 -0.04279697 -0.11148059 0.06519234 0.0404457
0.08082912 -0.064286545 0.08331287 -0.122485824 0.09721497 0.08291173 -0.105926104 -0.09362776
0.018889876 0.06490207 0.11691354 0.06354062 -0.085959494 0.04624462 -0.10979605 -0.063316286
0.019415766 0.03600429 -0.10471446 -0.0350187 -0.101336226 -0.10508419 -0.00075790286 -0.0072894697
0.027029932 0.07502467 -0.121088 -0.07089244 -0.039931893 -0.09456645 0.10831922 0.11782345
-0.12175502 -0.10846016 -0.07289168 -0.043071676 0.004185919 -0.12771061 -0.011376235 -0.0951668
0.122132584 -0.074510634 0.01564858 0.12398109 -0.10466922 0.0054626167 0.11190532 0.0014111698
-0.09760576 -0.06266648 -0.10767165 -0.06427269 -0.08134866 0.06307909 0.076120585 -0.02961184
0.09195303 -0.07078966 0.044960573 -0.11072318 0.07287589 -0.123964086 0.0731018 -0.00267904

gru.weight_hh_l1 f4 [192, 64]
00000000: 7f00 853d 373b 0b3d 7c3a 8ebd f684 cabd
00000010: c960 31bd 9f7b d6bd c5d8 ddbd b4bb 953d
00000020: 1f59 06bc d385 7cbb bd64 c1bd 59ea 843d
00000030: 18ea c73d 76f4 9e3d 8d08 99bd 2c8a 543c
00000040: 80d0 75bd 5c62 6b3d d617 893d 0bfb 84bd
00000050: edb6 b5bd 6b36 b4bd 0dfa 593d 6301 f93c
00000060: 22bc b13d 9b06 92bc cc39 c93d 9e5b eb3d
00000070: b5c5 c4bd 9bd6 aabc 6ba9 6c3c e494 a03d
00000080: 91ec e3bd c301 5d3d d4c4 283c 6418 bc3d
00000090: 197f dcbd 8671 cf3d 1028 bd3d a8bd c5ba
000000a0: f5c5 0cbd 0796 7f3d 0207 19bd 537c ddbc
000000b0: 9097 95bd df1e ee3d 18c1 b03d a57b a03c
000000c0: f021 183c af05 a3bd 6aae cc3d 2d78 583d
000000d0: 408f 233d cc0b 443d cc3f e3bd 94ec 2fbd
000000e0: 4216 ac3d 6edd 20bd f4a1 d63d 08af b7bd
000000f0: e0d7 c23d 0a53 fe3d 07ad dcbd ceb7 d13d
00000100: c6ef 0d3d 72c0 7a3d b748 1ebd 57f4 b73d
00000110: 2b42 e33c 35c7 bcbd 3cb7 de3d 8555 9f39
00000120: 174c f8bc 557e 023d 22e0 783c 23c8 eabd
00000130: 1a6d fd3d dc18 5fbc f131 163d 78f5 bbbc
00000140: feba edbd 5cc0 dbbd 955e 12bd d3e2 24bd
00000150: acbc cc3d f2b2 8a3c bc5c f53d 8905 d13d
00000160: 2051 5d3c 9815 41bd fbce 2b3b c14f 34bd
00000170: 6a23 febd 8067 0c3d f910 4e3d 96c0 1abd
00000180: 6160 e83d e2d5 523c 4ed1 bcbb 893b 00bd
00000190: 3ebf f53d 9535 893d a17b b5bd 00cf c0bd
000001a0: 5267 cebd ef3b e73d 6d86 d33d 8afd 803d
000001b0: 1249 7c3d 6d71 acbd 6de5 ba3d b5f3 0dbc
000001c0: 84d3 7cbb 5bbc 773c 4df1 13bd 65b5 eb3d
000001d0: e913 813c a0a3 a53d b51d 9fbd 1485 dbbd
000001e0: 1c30 2ebd cba7 1d3d 0965 b0bd 62ff 89bd
000001f0: 79a2 213d e27e f93d 5445 dc3d f474 eb3d
00000200: 6101 cdbc a450 b2bd 4340 363d 42b3 91bd
00000210: d3c1 f23d e255 003d 8468 e2bd 055c 073a
00000220: 0e36 a6bd cef4 3b3d ed02 81bd 4eb5 9fbb
00000230: 9287 bb3d 91bc bcbd 19ce b23d c69a 9f3d
00000240: 36c2 de3b a70c d33d 8dd6 aabd 59af c7bd
00000250: 05b3 37bd 6249 d73d b5dd 95bd 7ca4 3b3d
00000260: c897 b3bd bcbf 0b3c 75e8 d93d b0d1 b63d
00000270: b0a9 6a3d a291 57bd 8e52 7c3d 1747 db3d
00000280: cef3 e6bd b8c3 fd3c b829 81bd d6b1 793d
00000290: fc76 e8bb b0ce dcbc 30b2 b2bd 2df6 aebd
000002a0: 714a 853c 3ff8 1c3d 9372 7cbb d145 cd3d
000002b0: 576e 0dbc ba3f b3bd 29e2 343d 9708 acbd
000002c0: 6348 d83d 76b2 963c 25d6 863b 2ce8 343d
000002d0: b704 7e3d 3484 bdbd ecc5 4dbd 37a9 26bd
000002e0: 48ba 65bb fb48 693d e6a1 6dbd ddfd 273d
000002f0: c9fc 743c b2a9 cabd b615 853d 3b76 5a3b
00000300: fa76 a8bd 4244 e03c 210c 6dbd 30fb 173b
00000310: 9c80 ccbd b8d5 ca3d 0ba6 69bc 848e ee3d
00000320: 2c37 be3d 9a5d e5bd e5cc ffbd fefa a03d
00000330: 4d90 1cbd 50ba 9a3d 8002 d73c bb36 513d
00000340: 0185 ad3d 2408 4d3d bb43 de3d 9d2e 55bc
00000350: f72f c93d 713b d6bd d95a f5bd 80bb b5bd
00000360: 792c 4a3d 351f f5bd a770 4b3d 17d0 363d
00000370: 8498 b6bd a133 d0bd de8c 03bd 0630 8dbd
00000380: 5a36 4bbd d076 95bc dbee fd3c 4473 8cbd
00000390: 8ae7 afbd 1872 ddbd 5a25 343d 3b97 56bd
000003a0: 1b9f cc3d c7a8 19bc 92f8 d43a 15b1 e4bc
000003b0: 9864 a9bd d3d8 903d 6be8 c53d 8099 afbd
000003c0: 3fc7 613d e5b1 45bc ab88 eabd 1ba0 21bc
000003d0: e26f 1cbd c59c 27bd 64cb b9bd 13e4 84bc
000003e0: b673 fe3d e2f4 713c 5654 fcbd 2304 f83b
000003f0: 9481 d2bd 2938 503d 4361 e43d 1a99 6c3d
0.06494235 0.03399202 -0.06944749 -0.098886415 -0.043305192 -0.104727976 -0.10832361 0.07311192
-0.008199959 -0.0038531914 -0.094430424 0.06490011 0.09761447 0.07761471 -0.07472334 0.012972396
-0.060013294 0.05746685 0.066939995 -0.06493195 -0.08872781 -0.08799442 0.053216983 0.030396169
0.086784616 -0.017825415 0.09825477 0.11492084 -0.09608022 -0.020854285 0.014444689 0.07840899
-0.11129106 0.05395676 0.010300834 0.0918434 -0.107664295 0.10129075 0.09236157 -0.0015086429
-0.034368474 0.062398937 -0.0373602 -0.027036821 -0.07304299 0.11626982 0.0863058 0.019590208
0.009285435 -0.079600684 0.09994204 0.052848984 0.039931536 0.047862813 -0.11096153 -0.042950228
0.08402683 -0.03927367 0.10480109 -0.089689314 0.09513831 0.12418182 -0.1077519 0.10240136
0.034652494 0.061218686 -0.038643565 0.08982151 0.027741512 -0.09217683 0.10874793 0.0003039056
-0.03030972 0.03185876 0.015190156 -0.11463954 0.12374325 -0.013616767 0.03666872 -0.022944197
-0.116079316 -0.10730049 -0.03573473 -0.04025538 0.09996924 0.01693103 0.11980578 0.10206134
0.013508111 -0.047139734 0.00262159 -0.04402137 -0.124090984 0.034278393 0.050309155 -0.03778132
0.11346508 0.012868376 -0.0057622558 -0.031306777 0.11999367 0.06699673 -0.08861471 -0.09414482
-0.100783005 0.11290728 0.10328374 0.06298359 0.061593123 -0.08420072 0.09125791 -0.008664061
-0.0038578222 0.015120591 -0.036118794 0.11509208 0.015756564 0.080878496 -0.07769338 -0.10718742
-0.04252635 0.038490098 -0.08613021 -0.067381635 0.039461587 0.12182404 0.10755411 0.114969164
-0.025025072 -0.08706787 0.04449488 -0.07114269 0.11853375 0.031331904 -0.11055091 0.0005163553
-0.08115779 0.04588776 -0.06299386 -0.004873908 0.09156717 -0.09215654 0.08730716 0.077931926
0.006798054 0.103051476 -0.083417036 -0.09750242 -0.04484846 0.105120435 -0.07317678 0.04581116
-0.08769184 0.0085296 0.10640041 0.089267135 0.057290733 -0.05262912 0.061602168 0.10706919
-0.11276971 0.030977115 -0.06306785 0.060960613 -0.007094262 -0.026954025 -0.08725393 -0.08543048
0.016270848 0.038322683 -0.003852044 0.10023082 -0.008632264 -0.08752389 0.044160996 -0.08400076
0.10560682 0.018395644 0.0041148835 0.04416673 0.062016215 -0.09253731 -0.05023758 -0.04068872
-0.003505366 0.056954365 -0.058015727 0.041013587 0.014952847 -0.09895648 0.06498282 0.003333463
-0.08225818 0.027376298 -0.057872895 0.002319049 -0.09985468 0.09904045 -0.014260779 0.116482764
0.09287867 -0.11199494 -0.124902524 0.07860373 -0.038223553 0.075550675 0.02624631 0.051077586
0.08472634 0.05005659 0.10852762 -0.013011602 0.09823602 -0.10460556 -0.119802184 -0.088736534
0.04935882 -0.11968843 0.04966798 0.044632044 -0.08915809 -0.101660974 -0.032116763 -0.06893925
-0.04961238 -0.01824513 0.030997684 -0.06857923 -0.085890844 -0.10812777 0.043980934 -0.05239032
0.099912845 -0.009378619 0.0016248396 -0.02791647 -0.0827114 0.07072606 0.09663471 -0.085742
0.055121657 -0.012066339 -0.114518486 -0.009864832 -0.038192637 -0.04092099 -0.09071997 -0.016222036
0.12424414 0.014767857 -0.12320773 0.0075688525 -0.10278621 0.05083481 0.11151364 0.057763197

gru.bias_ih_l1 f4 [192]
00000000: 9edf 503d 06a2 963d 7a98 693d b57a 403b
00000010: 6348 d0bd 3c38 303d ee2f c6bc d04d a63b
00000020: 5ab2 983d 275a f2bd 5133 01be f25f edbb
00000030: a836 94bb ed0d 763d 984f 0d3b 201d d6bc
00000040: 2e70 9fbb 569a a93d a3ba d0bd 195b 123d
00000050: 6a99 96bd e8da 813d 37d0 acbb 24cf f2bd
00000060: 5171 463d c1d9 81bd d01b 28ba e468 c4bb
00000070: dc86 cd3c 74a5 bf3d 236b 913d 904f f43d
00000080: ae69 52bd 1f39 20bd 74dc 5dbc a6e5 203d
00000090: 361a 34bd 0058 c13d d7d2 d73d 18d0 b53d
000000a0: eda8 7e3d 6250 20bb cc49 e83d 63c0 e6bc
000000b0: 5506 6c3d c989 afbd d586 473d f34c e1bd
000000c0: b95d 4ebd e8dc 99bd 85b0 0bbd 5440 88bd
000000d0: 9c8a 3cbc 4981 8f3d 4259 b93d eeaa e43d
000000e0: 4701 01bd bb97 f6bc 29d8 56bc cb48 1c3d
000000f0: a0fa a1bb 701d 48bd 3f33 033d 592f 9cbd
00000100: 9f63 7b3d e279 083d 6da5 a33d 13c8 a0bd
00000110: ec52 a1bd 914f f5bd d330 d43d c1f2 a8bd
00000120: 4dc5 313d 53c8 df3d 8267 c43d e0bc a73d
00000130: 1461 673b 71bf a6bd 349d f2bd bc30 89bd
00000140: 6fff ed3b 5567 593d 0ea4 abbd f12e afbd
00000150: 0ad0 b83d ad84 033c 22f2 8abd ab20 eb3d
00000160: cc1b c23c e88f 72bd 0bdf ce3b 6b47 f4bd
00000170: af2f 86bd 8964 dc3d 7d32 2a3d 65f1 9fbd
00000180: 28d5 213d c835 46bd b7bb b5bd 113b dcbd
00000190: 32f2 c23d b551 863d 83b2 b4bd edb9 d7bd
000001a0: 0eda d73c 3885 b6bd 5043 533d 5317 cfbd
000001b0: 4eb5 f73c eb7b 393d e55c c4bc 2cd8 b73c
000001c0: 77c6 90bd 8929 d7bd af0a 353d ed5b babc
000001d0: 8c33 ba3c 4941 d4bb c6bc d5bd 2c09 e5bb
000001e0: 24ec 943d f32a e1bb 7f57 5dbd 12a8 a1bd
000001f0: d362 b53d e344 eabd caa0 e5bb 56b7 92bd
00000200: 0b92 203b bc14 e53c 3f53 ca3b 7358 acbd
00000210: 3c9a dabc a792 b9bd 2dc5 ad3d f550 9a3c
00000220: 408f a2bc 78ae 7f3c d512 39bd 32e6 963d
00000230: 53d8 23bd 6ad5 5e3c 1079 a0bd 4f0c a53d
00000240: 7923 28bc 0836 c1bc c13a d5bc b9c5 72bc
00000250: 7926 17bc ab43 8fbd 8389 093d 7666 153e
00000260: a9f6 b33c 4646 c53c c8c5 203d ec4f f7bd
00000270: 4da0 0c3e 3fe9 323d af7d 953d 017f 0bbd
00000280: 2884 e3bd 0ec5 36bd d61d 913d 1829 8cbd
00000290: 81dd 39bc c432 a6bb e6be 28bc 6f99 b8bd
000002a0: 191a 943d 9a62 043d 5614 e83d 4198 ba3d
000002b0: 905b b23c c5b7 b4bd e395 a93c eb2c 02bc
000002c0: 4924 dfbd 31a7 563d 543b 08be 238e f93d
000002d0: 7741 61ba 8d22 bbbc 56ee 203d 832e 823d
000002e0: 710f 03bd 1cce a0bd 0627 be3d 7b86 4dbd
000002f0: 9601 28bc d552 6b3c bef7 d8bd 3d93 e8bd
0.050994508 0.07355122 0.05703018 0.0029370014 -0.10170057 0.04302238 -0.024192777 0.005075194
0.07455893 -0.118336014 -0.12617232 -0.0072441036 -0.004523117 0.060071874 0.0021562334 -0.026136935
-0.004865668 0.0828139 -0.10191848 0.03573141 -0.0735348 0.06340581 -0.0052738446 -0.11855915
0.04844791 -0.063403614 -0.0006412836 -0.0059939492 0.02508872 0.093577296 0.07100513 0.11929238
-0.051370315 -0.039116975 -0.01354133 0.03928151 -0.04397031 0.09440613 0.105382614 0.08877581
0.06217282 -0.0024461974 0.11342201 -0.028167909 0.057623226 -0.08571202 0.04871257 -0.11001005
-0.05038235 -0.07512838 -0.03410389 -0.066528946 -0.011507656 0.07007081 0.09050228 0.11165415
-0.03149536 -0.030101648 -0.01311306 0.03815536 -0.004943207 -0.0488562 0.032031294 -0.07626218
0.061374303 0.03331936 0.07990537 -0.07850661 -0.07877144 -0.11978067 0.10360875 -0.08249427
0.04340105 0.10926881 0.09590055 0.08190322 0.0035305666 -0.08141983 -0.1184639 -0.066987485
0.007263116 0.05307706 -0.083809 -0.08553875 0.09024055 0.008027238 -0.067844644 0.1148084
0.023694895 -0.05921927 0.00631321 -0.119276844 -0.06552064 0.10761363 0.041552056 -0.07809714
0.039509922 -0.048391134 -0.088736944 -0.107534535 0.09518851 0.06558553 -0.08823111 -0.105335094
0.026349094 -0.08912128 0.051577866 -0.101118706 0.03023782 0.045284193 -0.023970077 0.022441946
-0.07069104 -0.10505969 0.04419964 -0.022748912 0.022729658 -0.006477509 -0.10436396 -0.0069896188
0.07271603 -0.006871575 -0.05403852 -0.07893385 0.0885674 -0.1143892 -0.007007693 -0.07163875
0.002450111 0.027963988 0.0061744745 -0.08415308 -0.026684873 -0.09061175 0.08484874 0.018837431
-0.019843698 0.015605561 -0.045183975 0.07368125 -0.040001225 0.013600687 -0.07835591 0.08058988
-0.010262364 -0.023585334 -0.026028993 -0.014817649 -0.009225481 -0.069953285 0.033578407 0.14589867
0.021968203 0.02408136 0.03925112 -0.12075791 0.13733025 0.043679472 0.07299363 -0.034056667
-0.11109191 -0.04462152 0.07085769 -0.068437755 -0.011344315 -0.0050719697 -0.01029942 -0.0901364
0.0723154 0.032320596 0.11332004 0.091110714 0.021772176 -0.08824114 0.020701354 -0.00794528
-0.10895593 0.05240554 -0.13303882 0.121853136 -0.0008592824 -0.022843624 0.039289795 0.06356528
-0.031997148 -0.07851812 0.09284787 -0.05017708 -0.010254284 0.01436301 -0.10594128 -0.113562085

gru.bias_hh_l1 f4 [192]
00000000: c42c f0bd 0e8b d3bd dd28 d1bd 4f0b d03d
00000010: 1e6b 573d aff3 fbbd c6e1 9fbd 0bbe c73c
00000020: c8b4 783c 8f99 dc3d a56b 903d f377 5abd
00000030: 3dbf 3dbd bca7 9abd 7b91 c4bd 9234 8f3d
00000040: 9a1e 60bd 8833 d3bc 7bf0 d23d d7a3 21bd
00000050: e8a5 cbbd 9132 bbbc c353 8cbd 3834 833d
00000060: 2464 913c 5fdf 52bd 6858 a53c 379c 24bd
00000070: 3987 27bb d642 db3d 20c2 e1bc a4b5 d4bd
00000080: db40 dcbc a6e9 803d f9fd 943d 2d14 d3bd
00000090: b24c 303d f035 b4bd ed53 c53d 6c1f f9bd
000000a0: f137 4f3d 2a71 f73d 7070 adbd 98e0 30bd
000000b0: 40c9 0d3c 4d72 453d 01bd 113d 5bdb 0a3d
000000c0: e062 80bd 2f0c ae3d 22f5 d93d e63b d03d
000000d0: 9f72 ae3d bdac e53b dcfc f7bd 0830 a2bd
000000e0: db17 843c 73d2 053a 0d94 7bbd a8c5 e6bd
000000f0: 0187 dabc 2f2c 89bd d79c d73d b20a 843d
00000100: 3475 77bc 00e7 263c ff44 c13c 1e3d 76bd
00000110: 08d7 b6bd 6666 21bc 9dd1 c33d 6354 8dbd
00000120: 645b 903d 6abd 4bbd f4a0 ce3d bebf 9dbd
00000130: 1cab af3d 149b 1dbd a4e3 8bbd cbe1 f63c
00000140: b26d 4f3d e80c cfbc fca4 c43d 6f09 fabd
00000150: 7ecc da3d 6d99 e6bd 988b 2e3d c100 213d
00000160: ecde af3c 9222 bfbd 2ce5 be3d 7b3b 90bd
00000170: d10c d0bd 402b 743c 81d3 e53d b909 813d
00000180: 9412 8e3d 6039 59bd e379 a93d fb9c cabd
00000190: a4e2 e1bc b880 e8bc c1b1 853d 60f5 8e3c
000001a0: a00e aabd 148c 2c3d 411b cc3d 6ea8 41bd
000001b0: 66f9 d83d ef0c 293d 4614 cfbd 173f e83d
000001c0: 21b7 2a3d bd3b d0bd a0dd 83bd a4a2 a6bd
000001d0: 61e6 cf3d 6aab 833c cef6 d8bd 492f b4bb
000001e0: f035 bdbd ad8b 363d 7b03 a93d ae94 80bc
000001f0: 774a b7bd 1bad ce3d 16a0 59bd 884e 9c3c
00000200: 5c3c 95bd 40a2 a2bd 89ef c23d 729d a43d
00000210: cfab aa3d 826f ce3d 29c1 c43d a878 743b
00000220: 4b6d d03b 87e8 b3bd 9b3a 38bd 0ea7 8c3d
00000230: f502 debc 1696 cb3d 3c0d 3a3d b021 863d
00000240: 4492 533c be2d 9cbd c6a6 b2bc 5720 c33d
00000250: 89e0 a63c 39d6 42bd 6785 643d 760a 5ebd
00000260: 57a4 3fbc 4722 febd 76bf 573d f470 283d
00000270: 5c30 243d f7ce 893d d628 dd3d 1d6c a73d
00000280: 1f24 ce3c f343 323d 5122 cabd 34f2 e3bd
00000290: 409b 953d d59e 063c f657 a8bd fff5 22bc
000002a0: 6e87 a13d 3ea4 d73d 1bdb 0b3c be3d c83c
000002b0: 7d6e d0bd 32fc 76bd baef dd3b 232b d7bc
000002c0: 6bea 3d3d 1649 013e 20bc 243d 46b4 0e3d
000002d0: 71ec 123c dfdf db3d 190a b6bd a7d1 da3d
000002e0: 9fd0 c93d a5fb 8b3b d283 c0bd 813c 0bbd
000002f0: a8b9 f03d 2bab 303d 6413 dd3d 1fe2 dd3d
-0.11727288 -0.10329257 -0.10212872 0.10158407 0.05259239 -0.12302338 -0.07806735 0.024382612
0.01517982 0.107714765 0.070517816 -0.05333705 -0.046324957 -0.07551524 -0.09598061 0.06992449
-0.054716684 -0.025781408 0.10299774 -0.03946289 -0.099437535 -0.02285126 -0.06851914 0.06406444
0.017747946 -0.051482555 0.020183757 -0.04018804 -0.0025562777 0.10706107 -0.027558386 -0.10386208
-0.026886394 0.06294565 0.07275004 -0.103065826 0.043041892 -0.0879935 0.09635148 -0.12164196
0.05059046 0.12082131 -0.084687114 -0.04318294 0.008653939 0.04820471 0.03558064 0.0339006
-0.06268859 0.084984176 0.106424585 0.10167675 0.08517956 0.0070091174 -0.12108776 -0.079193175
0.016124656 0.0005104907 -0.06142049 -0.11268169 -0.026675703 -0.066978805 0.10527962 0.064473525
-0.015103627 0.010186911 0.02359247 -0.06011688 -0.08927733 -0.009851074 0.09561465 -0.06900861
0.070486814 -0.049741186 0.10089293 -0.077025875 0.085775584 -0.038477972 -0.068305284 0.030136963
0.050641723 -0.025274709 0.09601781 -0.122088306 0.10683535 -0.112597324 0.042613596 0.03930736
0.021468602 -0.09332766 0.09321055 -0.07042595 -0.101586945 0.01490289 0.11221982 0.063006826
0.06937137 -0.053033233 0.08275201 -0.09893223 -0.027573891 -0.02838169 0.065280445 0.017450988
-0.08303571 0.042125776 0.09966136 -0.047279768 0.10594444 0.0412721 -0.10111289 0.113401584
0.04167855 -0.10167644 -0.06438756 -0.0813649 0.10151363 0.016072948 -0.10593949 -0.005498801
-0.092388034 0.0445668 0.08252617 -0.015695896 -0.0894975 0.10091611 -0.053131185 0.019080415
-0.07286903 -0.07941103 0.09518344 0.08037843 0.08333551 0.10079862 0.09607155 0.0037303362
0.006360685 -0.087845854 -0.044977766 0.06867801 -0.02710102 0.09940736 0.045422778 0.06549394
0.01291329 -0.07625912 -0.02180804 0.09527653 0.020370739 -0.04756758 0.055791285 -0.054209195
-0.0116968965 -0.12408882 0.052672826 0.041123345 0.04008518 0.067289285 0.107988045 0.08174918
0.025163708 0.043521833 -0.098698266 -0.11130181 0.07305002 0.008216579 -0.08219902 -0.009946345
0.07887159 0.105293736 0.0085361255 0.024443503 -0.10177324 -0.060299106 0.0067729624 -0.026265686
0.046366137 0.12625536 0.040218472 0.03483989 0.008967505 0.107360594 -0.08888645 0.10684519
0.098542444 0.0042719417 -0.09400143 -0.033993248 0.11754161 0.04313199 0.10794714 0.10834145

fc.weight f4 [1, 64]
00000000: 6301 99bb 44f4 ab3c d3ca 89bd 5e2e aa3b
00000010: 4964 bf3c 1751 48bc fed9 a5bc b500 83bd
00000020: 0de7 8bbc a9d5 1dbd 179e c93c 548b 73bd
00000030: b2f6 153d ad8c e0bc 9f50 163d 0488 36bd
00000040: ddb7 a6bd d1ed 113d 2666 183d 5b15 d23c
00000050: ac65 1d3d b36e 2bbd c355 88bd cbbf 8a3d
00000060: abaf d43c 6a45 103b 5f5e 303b a214 173d
00000070: 74d2 e63d ebb2 33bd 4c01 703d 8e52 a63d
00000080: 631a 893d b704 a8bc 32cf 773d 4150 2b3d
00000090: 3c3b 783d 1d06 c13c 2eeb 3a3d daea 843d
000000a0: 1a80 e83c 84fd 933c 94d4 8ebd 37a7 95bc
000000b0: 1298 0c3d b0e4 92bb 10f5 3d3d 5fec 1dbd
000000c0: 40dc 243d e967 dc3c 527f 17bd fe50 c3bb
000000d0: d0d9 943d 51f6 a0ba 8a0c 46bd e543 ae3d
000000e0: 40c4 94bd 3fb6 bbbd 3efe b33d 162f 80bd
000000f0: ece4 3ebc 159d fabc 7da4 903c c30a f23c
-0.0046693548 0.020990498 -0.06728139 0.0051935157 0.02336325 -0.012226365 -0.020245548 -0.06396619
-0.017077947 -0.03853384 0.024611516 -0.059459046 0.03661222 -0.02741083 0.03669798 -0.04456331
-0.08140538 0.03562719 0.03720679 0.025644949 0.03842704 -0.041853618 -0.06656983 0.06774863
0.025962671 0.002201403 0.0026911718 0.03688491 0.112706095 -0.0438718 0.058594987 0.08121215
0.06694486 -0.02051006 0.06050033 0.041824583 0.060603365 0.023562485 0.04563444 0.06490107
0.028381396 0.018065222 -0.0697414 -0.01826821 0.034324713 -0.004482828 0.046376288 -0.0385555
0.04024911 0.026905017 -0.036986656 -0.0059605828 0.07268107 -0.0012280439 -0.048351802 0.085090436
-0.07263994 -0.0916562 0.08788727 -0.06258981 -0.011651259 -0.03059248 0.01765656 0.029546147
