results/gru_last_model.pth (torch, 164149 bytes, 9 tensors)

gru.weight_ih_l0 f4 [192, 12]
0.095567316 0.10375099 -0.02928406 0.11482641 -0.027387947 0.025223836 -0.06085688 0.07341033
0.110192865 -0.09170352 0.10864952 0.023394912 0.09235111 0.016928822 0.060273513 -0.017648876
0.09636073 0.018476114 -0.05835499 0.03186229 -0.05759208 -0.014659107 -0.05076979 0.08292137
-0.09867127 -0.057626292 -0.035296842 -0.07515906 0.01179789 -0.12345989 0.112888634 -0.10618353
0.09650342 0.020802394 -0.040588066 0.077243745 0.019481346 0.10099542 0.013664961 -0.039421648
0.03358546 -0.03389743 0.052607194 0.11160277 0.072257444 -0.054646567 0.07215808 0.022365779
0.06347938 -0.07618813 -0.12373856 -0.048295066 -0.095877856 0.10256736 0.036003917 0.051776692
0.039532647 -0.0021744967 0.097826034 -0.0888142 0.0078704655 -0.08531752 0.038544 -0.043047786
0.038302034 -0.026042685 0.10367398 -0.07408774 -0.07454975 -0.07455425 0.11243035 0.04165639
0.12028134 -0.10315953 -0.123984516 -0.09779547 -0.084086135 0.050630018 0.044759482 0.10386555
-0.06455317 -0.085213974 0.06632227 -0.05052556 0.07586548 -0.02966258 0.07150574 -0.097121
-0.06308122 0.038109556 0.026425943 -0.031869844 0.07450868 0.08497615 -0.09064667 -0.066733524
0.11445774 -0.042179063 -0.04431455 -0.12094933 -0.07158378 0.031225458 -0.016499147 -0.09073575
0.0029320866 -0.08538519 -0.10604958 -0.06883283 -0.10940151 -0.07959226 0.12495111 0.02360937
0.038519964 -0.11658554 -0.082096726 -0.041606978 0.01954639 -0.109990165 -0.05385913 -0.07483357
0.0003464073 -0.0465129 -0.0086619705 -0.08470371 -0.085799396 -0.072925225 -0.04278718 -0.09866011
0.10480873 -0.024808004 0.10754959 0.03894776 -0.10584962 0.0865044 -0.034393102 -0.047915757
-0.10375881 -0.12427008 0.03576383 -0.027305484 0.04866539 -0.10258293 0.09280364 -0.09175672
-0.021584168 0.026108712 0.064531475 0.10091379 0.113869905 -0.09911527 0.031458408 -0.053765744
-0.013698101 -0.09356126 0.11385733 -0.09174381 0.066806406 0.04392995 0.040619493 -0.067580774
0.11361894 0.0274688 0.016080007 -0.11015685 0.05247356 -0.018752575 -0.057265535 0.10736832
0.027868599 -0.06915955 -0.063267365 -0.005969465 0.06979516 -0.031941727 -0.07132186 -0.04280536
-0.093384355 0.04457906 0.09675503 -0.11768004 0.029031336 0.06457397 0.022666171 -0.04451558
0.06524277 0.06568915 0.046740904 -0.021965176 -0.033100158 0.013372615 -0.022081763 -0.03725013
0.07990086 0.107424945 -0.012374669 -0.027987108 0.0018240362 -0.0074635297 0.03005141 0.035029203
-0.113532096 -0.04612972 0.10526618 0.048694372 -0.0062171966 -0.07536322 -0.076475635 -0.11197086
-0.040745303 0.042213023 0.079702705 0.057712168 -0.110493004 -0.07517031 -0.019727081 0.12091869
0.018082187 -0.032371342 0.051714405 -0.047610193 -0.08090696 0.091235906 -0.056837723 -0.025058344
-0.12435053 0.08365883 0.09470433 0.045556024 -0.087159276 -0.12336749 -0.10152237 0.09321253
0.06001322 0.10518806 0.065483734 0.03163652 -0.0012240857 -0.095063254 -0.10709652 -0.11691858
0.051170245 -0.061371 -0.025156572 -0.07193816 -0.022777945 -0.08797936 -0.08167696 0.041463852
-0.03714955 0.0771679 -0.040101096 -0.091695905 -0.022054866 -0.060593426 -0.038242698 -0.11899945
00000000: ccb8 c33d 667b d43d 20e5 efbc 1c2a eb3d
00000010: b05c e0bc 38a2 ce3c 1045 79bd 2858 963d
00000020: ccac e13d 0ecf bbbd a483 de3d b0a6 bf3c
00000030: 9422 bd3d 50ae 8a3c 5ce1 763d 6094 90bc
00000040: c658 c53d 385b 973c a405 6fbd 0882 023d
00000050: ace5 6bbd c02c 70bc fcf3 4fbd aed2 a93d
00000060: 2a14 cabd 8c09 6cbd 6c93 10bd feec 99bd
00000070: f04b 413c 8ad8 fcbd 2832 e73d c076 d9bd
00000080: 96a3 c53d c869 aa3c ac3f 26bd f831 9e3d
00000090: 5897 9f3c b0d6 ce3d 00e3 5f3c 9878 21bd
000000a0: e890 093d 08d8 0abd a47a 573d fe8f e43d
000000b0: b6fb 933d 14d5 5fbd 9ec7 933d 7038 b73c
000000c0: 7a01 823d 8608 9cbd a46a fdbd 0cd1 45bd
000000d0: 9c5b c4bd d60e d23d d878 133d cc13 543d
000000e0: fcec 213d 0082 0ebb 0459 c83d 38e4 b5bd
000000f0: 20f3 003c f4ba aebd 50e0 1d3d e052 30bd
00000100: 98e2 1c3d 7857 d5bc 0653 d43d 50bb 97bd
00000110: 8aad 98bd e6af 98bd e241 e63d e49f 2a3d
00000120: 1056 f63d 4e45 d3bd 98eb fdbd fe48 c8bd
00000130: 5a35 acbd 6c61 4f3d b855 373d 76b7 d43d
00000140: 7434 84bd aa84 aebd f8d3 873d e4f3 4ebd
00000150: 5c5f 9b3d f0fe f2bc 9a71 923d 60e7 c6bd
00000160: ba30 81bd c418 1c3d 387b d83c f489 02bd
00000170: 0298 983d fa07 ae3d f6a4 b9bd 96ab 88bd
00000180: d268 ea3d f4c3 2cbd 2c83 35bd 48b4 f7bd
00000190: 849a 92bd 88cc ff3c 3829 87bc aad3 b9bd
000001a0: 4028 403b 6ede aebd 8630 d9bd 3af8 8cbd
000001b0: e60d e0bd 4401 a3bd 5ee6 ff3d 7068 c13c
000001c0: 1cc7 1d3d 66c4 eebd 5422 a8bd 146c 2abd
000001d0: c01f a03c 8642 e1bd 649b 5cbd 5842 99bd
000001e0: 009e b539 5084 3ebd f0ea 0dbc 2479 adbd
000001f0: 98b7 afbd d259 95bd 9c41 2fbd 500e cabd
00000200: f6a5 d63d 283a cbbc f642 dc3d b087 1f3d
00000210: b0c7 d8bd 3829 b13d c8df 0cbd 5043 44bd
00000220: 807f d4bd 5081 febd 187d 123d c0af dfbc
00000230: 5c55 473d 0017 d2bd d60f be3d f2ea bbbd
00000240: 48d1 b0bc f0e1 d53c 1429 843d e4ab ce3d
00000250: a034 e93d f2fc cabd 88da 003d 7839 5cbd
00000260: 006e 60bc 0c9d bfbd 082e e93d 2ee4 bbbd
00000270: ccd1 883d e4ef 333d a060 263d ca67 8abd
00000280: 0cb1 e83d 4006 e13c 38ba 833c ea99 e1bd
00000290: 84ee 563d 009f 99bc 448f 6abd ece3 db3d
000002a0: b04c e43c 86a3 8dbd 5292 81bd 809b c3bb
000002b0: c4f0 8e3d 54d5 02bd 3211 92bd ac54 2fbd
000002c0: 4c40 bfbd 8898 363d 8027 c63d 3c02 f1bd
000002d0: 20d3 ed3c 5c3f 843d 68ae b93c f855 36bd
000002e0: 009e 853d 0888 863d 6473 3f3d 50f0 b3bc
000002f0: 0894 07bd d018 5b3c d0e4 b4bc 9893 18bd
00000300: 10a3 a33d 9c01 dc3d 20bf 4abc 3845 e5bc
00000310: 8014 ef3a a090 f4bb 602e f63c c87a 0f3d
00000320: 8483 e8bd 84f2 3cbd cc95 d73d c073 473d
00000330: a0b9 cbbb 0858 9abd 429f 9cbd fa50 e5bd
00000340: 8ce4 26bd 90e7 2c3d 2c3b a33d 9863 6c3d
00000350: 284a e2bd e4f2 99bd b09a a1bc 38a4 f73d
00000360: 1821 943c d097 04bd 7cd2 533d e802 43bd
00000370: 8cb2 a5bd e4d9 ba3d acce 68bd 2847 cdbc
00000380: 7eab febd 5255 ab3d 58f4 c13d f498 3a3d
00000390: 9080 b2bd 18a8 fcbd f6ea cfbd 36e6 be3d
000003a0: 6cd0 753d d66c d73d 561c 863d 4c95 013d
000003b0: 8071 a0ba 86b0 c2bd 6c55 dbbd 0273 efbd
000003c0: e497 513d 2860 7bbd 2815 cebc 5054 93bd
000003d0: d098 babc 862e b4bd 4046 a7bd 00d6 293d
000003e0: 202a 18bd 340a 9e3d 0c41 24bd 10cb bbbd
000003f0: 68ac b4bc d030 78bd 60a4 1cbd fcb5 f3bd

gru.weight_hh_l0 f4 [192, 64]
0.013173461 -0.09921759 -0.09599052 -0.101618245 -0.03387168 0.11040726 0.048864916 -0.014821127
0.025726408 0.049776137 0.00072827935 -0.10082179 -0.077014074 -0.084919095 -0.0031740367 -0.11442521
-0.022727638 -0.045709 0.12267126 0.101603016 0.07260671 0.007010281 -0.0404716 0.031883806
-0.08636621 -0.053313002 -0.025110677 -0.02936934 -0.11841278 0.04969138 0.102935255 -0.068946674
0.033695787 -0.014496788 -0.004559055 0.0072862506 0.108322814 0.016748816 -0.079084635 -0.044964194
0.061065912 0.039006814 0.0024294555 -0.01649712 -0.048634604 -0.044365898 -0.065935746 0.020482719
0.03510526 0.09571813 -0.028239176 0.008948594 0.08078618 0.05437383 0.016060963 0.03840983
0.0064883083 -0.10722397 0.0048188865 -0.027322367 0.11280148 0.11282846 0.024798825 0.11172539
-0.06437737 0.108646706 0.107623145 -0.004777625 -0.10031368 -0.04033704 -0.033428416 0.0020647496
-0.11333141 0.023165688 -0.051986456 -0.032005146 -0.06456153 -0.026391745 -0.11609064 -0.06627099
0.011515617 0.08190949 0.113593474 -0.09455694 0.052490145 -0.07046197 -0.096644625 -0.0055044144
-0.07170583 -0.10765579 -0.11681706 -0.083668545 0.10271697 0.0697135 -0.049480885 -0.08366509
-0.096155226 -0.07381518 -0.05143729 0.07507366 0.040907055 -0.04817152 0.08605392 -0.07765415
-0.101835996 0.02728127 -0.06892511 0.035559803 0.105904475 -0.059113175 -0.087226495 0.047050014
-0.11289339 0.11152221 -0.059032023 0.06043248 -0.09939647 -0.084608525 0.013769329 0.044425607
0.096924394 0.10454199 -0.007188946 -0.016070902 0.020662725 -0.029036373 0.004255101 -0.11838104
-0.102613434 0.085657805 -0.07304458 0.098435685 0.013717964 0.030448109 0.1136097 -0.06952378
-0.019732237 0.02214618 0.042705223 -0.12165178 0.04442732 -0.07371575 0.016418755 0.08456871
-0.012451902 -0.003954351 -0.009339422 0.10431032 0.07104118 0.021021158 -0.0752269 -0.06787962
0.09956935 0.089927584 0.07237625 -0.097464666 0.09734909 -0.011948988 0.09209463 0.10856868
0.013701379 -0.052014798 0.11758135 -0.06514001 0.08167684 -0.11986126 -0.039314106 -0.10898183
-0.056072026 0.053077385 -0.08956601 -0.1081005 0.089379415 0.066727564 -0.0013668984 -0.0881201
-0.033117056 -0.040472567 0.0771988 -0.04088582 -0.03600195 -0.0886074 -0.05887346 0.06768109
0.080535695 0.01816091 -0.046899766 0.12006134 0.024672493 -0.048249558 -0.04332465 -0.017493859
0.0592622 0.04572095 0.09062007 -0.0056321174 0.103386596 -0.050773412 -0.057569146 -0.046162173
-0.117276 -0.082055 -0.11310935 -0.007387206 0.0011784285 -0.032442763 -0.08542295 0.11341107
-0.041417524 0.059569106 0.08705127 -0.08216961 -0.01562789 0.07224591 0.12116988 -0.015770137
0.0905779 -0.09810828 -0.08121742 0.10279189 -0.011834949 0.12349032 0.009089649 -0.051838636
0.11871444 0.10931045 0.011600748 -0.07577567 -0.0054121166 -0.060114607 0.09108515 0.005790442
0.026315182 0.07580812 0.041405186 -0.0780333 0.10384053 0.076793075 -0.077167034 0.094512865
0.03546293 -0.024606109 -0.08939542 -0.02074036 -0.12255542 0.07134512 0.09053169 -0.035987258
0.115881205 -0.04628642 0.021406054 -0.087111756 -0.005284801 0.050528735 0.053841814 -0.0041915625
00000000: 80d5 573c 9832 cbbd ae96 c4bd 3a1d d0bd
00000010: 08bd 0abd 341d e23d 9426 483d 50d4 72bc
00000020: 30c0 d23c 10e2 4b3d 00ea 3e3a a87b cebd
00000030: 8eb9 9dbd 10ea adbd 8003 50bb c457 eabd
00000040: 502f babc 5c39 3bbd 123b fb3d 3e15 d03d
00000050: d4b2 943d 80b6 e53b 8cc5 25bd 9898 023d
00000060: c4e0 b0bd bc5e 5abd e8b4 cdbc f897 f0bc
00000070: 6682 f2bd 3089 4b3d b8cf d23d ea33 8dbd
00000080: 9804 0a3d f083 6dbc 2064 95bb 80c1 ee3b
00000090: 5ad8 dd3d d034 893c 20f7 a1bd 602c 38bd
000000a0: 4020 7a3d 9cc5 1f3d 8037 1f3b f824 87bc
000000b0: 1435 47bd 04b9 35bd 5209 87bd 60cb a73c
000000c0: 88ca 0f3d de07 c43d d855 e7bc 209d 123c
000000d0: 3a73 a53d 18b7 5e3d 4892 833c a053 1d3d
000000e0: e09b d43b 3e98 dbbd c0e7 9d3b 28d3 dfbc
000000f0: 7604 e73d 9c12 e73d e826 cb3c 48d0 e43d
00000100: 48d8 83bd 2a82 de3d 8669 dc3d a08d 9cbb
00000110: 4271 cdbd 7438 25bd 3cec 08bd c050 073b
00000120: 4c1a e8bd f8c5 bd3c c0ef 54bd d417 03bd
00000130: d638 84bd 8033 d8bc eec0 edbd 16b9 87bd
00000140: 00ac 3c3c 2ac0 a73d b2a3 e83d 12a7 c1bd
00000150: e8ff 563d 5e4e 90bd 9eed c5bd 605e b4bb
00000160: 82da 92bd a47a dcbd c83d efbd 6a5a abbd
00000170: 465d d23d f4c5 8e3d 78ac 4abd 9a58 abbd
00000180: 08ed c4bd 6a2c 97bd e8af 52bd 38c0 993d
00000190: 288e 273d 804f 45bd 0a3d b03d 2409 9fbd
000001a0: 648f d0bd f87c df3c 9c28 8dbd 28a7 113d
000001b0: 72e4 d83d a820 72bd cea3 b2bd 84b7 403d
000001c0: a634 e7bd c265 e43d 90cb 71bd 0c88 773d
000001d0: 6090 cbbd 3c47 adbd c098 613c a0f7 353d
000001e0: 4c80 c63d 1c1a d63d 4091 ebbb 20a7 83bc
000001f0: e044 a93c b0dd edbc 606e 8b3b c271 f2bd
00000200: fe26 d2bd 5c6d af3d 6698 95bd a698 c93d
00000210: 50c1 603c 506e f93c 34ac e83d 7c62 8ebd
00000220: 80a5 a1bc e86b b53c aceb 2e3d 9224 f9bd
00000230: 6cf9 353d 48f8 96bd a080 863c 5c32 ad3d
00000240: 1003 4cbc 8093 81bb 6004 19bc a6a0 d53d
00000250: 0a7e 913d 9034 ac3c 9010 9abd 7804 8bbd
00000260: 04eb cb3d f42b b83d 003a 943d 8e9b c7bd
00000270: f65e c73d b0c5 43bc 1c9c bc3d 4259 de3d
00000280: c07b 603c 780d 55bd 7ece f03d 2068 85bd
00000290: 3046 a73d d279 f5bd d407 21bd de31 dfbd
000002a0: c8ab 65bd ac67 593d 626e b7bd cc63 ddbd
000002b0: 8e0c b73d 76a8 883d 8029 b3ba 5078 b4bd
000002c0: c0a5 07bd 90c6 25bd 681a 9e3d e477 27bd
000002d0: c876 13bd cc77 b5bd 4c25 71bd 629c 8a3d
000002e0: e6ef a43d 30c6 943c f819 40bd b8e2 f53d
000002f0: f81d ca3c 54a1 45bd 3075 31bd 484f 8fbc
00000300: ecbc 723d e445 3b3d 0497 b93d a08d b8bb
00000310: 5abc d33d c8f7 4fbd a0cd 6bbd 8c14 3dbd
00000320: 662e f0bd 740c a8bd e0a5 e7bd 6010 f2bb
00000330: 8075 9a3a b4e2 04bd 3af2 aebd 1044 e83d
00000340: 6ca5 29bd bcfe 733d f047 b23d 8a48 a8bd
00000350: 1006 80bc aaf5 933d ea27 f83d 6030 81bc
00000360: e880 b93d feec c8bd 5255 a6bd 8e84 d23d
00000370: 60e7 41bc 7ee8 fc3d c0ec 143c c054 54bd
00000380: 8e20 f33d 28de df3d 1011 3e3c 4630 9bbd
00000390: 2058 b1bb bc3a 76bd da8a ba3d c0bd bd3b
000003a0: f092 d73c 4a41 9b3d 7c98 293d eccf 9fbd
000003b0: 58aa d43d b045 9d3d c009 9ebd f68f c13d
000003c0: 9441 113d c092 c9bc f214 b7bd b0e7 a9bc
000003d0: 56fe fabd 641d 923d ae68 b93d 6067 13bd
000003e0: 2053 ed3d d496 3dbd c05b af3c a667 b2bd
000003f0: 202c adbb 38f7 4e3d 3c89 5c3d 6059 89bb

gru.bias_ih_l0 f4 [192]
0.020294905 -0.07101986 0.072941706 -0.03564486 -0.071252406 -0.036553606 0.045730606 -0.07135284
-0.11666979 -0.02827239 -0.08474834 0.12221308 -0.043878034 0.031578958 -0.058902502 0.0030753613
-0.027514294 -0.018227652 0.10355978 0.05255772 -0.06337544 0.064659745 -0.08047402 0.09618451
-0.11039825 -0.12181163 0.12266804 0.06828743 0.004395202 -0.09666191 0.07707617 -0.050714016
0.034985766 0.021822125 0.08032593 -0.029493049 0.12494238 -0.090686455 -0.056631148 0.12310313
-0.11031549 -0.03810002 0.039056256 0.049998775 -0.03990078 -0.0980822 0.10563789 -0.095936656
0.11898358 0.009356663 -0.07144332 0.017538026 -0.004202485 -0.104042605 0.10845274 -0.07300165
-0.02234511 -0.066958636 0.027504355 -0.083798096 0.107148305 -0.033171713 0.11664857 0.00054213405
-0.020123094 -0.112151936 0.07847281 -0.00080254674 -0.09939529 0.060381398 0.018996835 -0.068359464
-0.07513076 -0.025211781 0.058550656 0.040341318 -0.077226534 -0.08765668 0.10469736 0.024369463
0.060983747 -0.11780162 0.05900517 0.108502194 -0.0039102137 0.10138643 0.026483983 0.0049134884
0.04364179 -0.043762878 -0.013255551 -0.024476215 0.032254055 0.012414783 -0.058343917 0.06402612
-0.07012206 0.07884708 0.012556508 -0.007999867 -0.008150458 0.027366236 0.0052397996 0.10907155
0.10012117 0.124280676 0.07595995 0.002651602 -0.04843849 -0.04640512 0.07583022 -0.009894818
-0.112112 0.0039265007 -0.029474989 -0.09045476 -0.09480315 -0.011415708 0.044734523 0.06744602
-0.08953677 -0.1057117 -0.095418274 -0.0050102323 -0.010213539 0.0583857 -0.101752385 0.11373994
-0.037407055 -0.118398264 -0.07882023 0.030325577 -0.025896505 0.090506226 -0.0005888343 0.07606985
0.10363603 -0.04750575 0.010271624 -0.00955838 -0.057160437 -0.11380565 -0.06069261 0.0638496
-0.024029791 -0.11016156 0.03309463 0.045629412 0.022964492 0.101434365 -0.09578927 -0.04931535
-0.007241577 -0.08247952 0.042132035 -0.03138429 0.116482615 -0.04134631 -0.088348776 0.095939025
0.12289718 0.09209676 -0.09672566 -0.061818898 0.058857232 0.11480722 0.08521855 -0.1068885
-0.04208404 -0.007224247 0.061349496 -0.0865504 0.04940535 -0.029257834 0.038613647 -0.019947037
0.12095906 -0.013149485 -0.048230022 -0.020301372 -0.06170988 -0.10337143 0.08073543 -0.075813144
-0.0544219 -0.064441726 -0.0012760311 0.07022676 -0.033708587 0.0007290542 -0.04437262 0.09784959
00000000: 8041 a63c dc72 91bd 7662 953d 5800 12bd
00000010: c8ec 91bd 3cb9 15bd 0450 3b3d 7021 92bd
00000020: 92f0 eebd 809b e7bc 8a90 adbd da4a fa3d
00000030: 74b9 33bd f058 013d c043 71bd 008c 493b
00000040: a865 e1bc 2852 95bc 2617 d43d c446 573d
00000050: fcca 81bd 546c 843d 90cf a4bd 62fc c43d
00000060: 7a18 e2bd 6078 f9bd 6239 fb3d 48da 8b3d
00000070: a005 903b aef6 c5bd 1cda 9d3d 80b9 4fbd
00000080: 3c4d 0f3d 50c4 b23c ec81 a43d 689b f1bc
00000090: cae1 ff3d d2b9 b9bd 10f6 67bd 7e1d fc3d
000000a0: 16ed e1bd c40e 1cbd 74f9 1f3d 84cb 4c3d
000000b0: 006f 23bd 52df c8bd ae58 d83d 707a c4bd
000000c0: aaad f33d b04c 193c e050 92bd e8ab 8f3c
000000d0: 00b5 89bb 4a14 d5bd 781c de3d e481 95bd
000000e0: 180d b7bc 9c21 89bd d050 e13c 569e abbd
000000f0: 9270 db3d 10df 07bd 72e5 ee3d 001e 0e3a
00000100: 30d9 a4bc eaaf e5bd 5ab6 a03d 0062 52ba
00000110: c28f cbbd 7c52 773d 409f 9b3c 0c00 8cbd
00000120: 28de 99bd f088 cebc d0d2 6f3d f03c 253d
00000130: f228 9ebd 5885 b3bd 926b d63d 78a2 c73c
00000140: 18ca 793d fa41 f1bd 68af 713d 6636 de3d
00000150: 4021 80bb b0a3 cf3d f0f4 d83c 5401 a13b
00000160: bcc1 323d b440 33bd d02d 59bc 5882 c8bc
00000170: d41c 043d 6067 4b3c 08fa 6ebd 2020 833d
00000180: 289c 8fbd 947a a13d d0b9 4d3c e011 03bc
00000190: 8089 05bc 282f e03c a0b2 ab3b e860 df3d
000001a0: 540c cd3d de86 fe3d e490 9b3d 80c6 2d3b
000001b0: 7067 46bd 4c13 3ebd e04c 9b3d e01d 22bc
000001c0: fa9a e5bd e0a9 803b 8875 f1bc 5840 b9bd
000001d0: 2728 c2bd f308 3bbc 8c3b 373d 2421 8a3d
000001e0: 0e5f b7bd 607f d8bd a86a c3bd e02c a4bb
000001f0: b056 27bc d825 6f3d 8e63 d0bd 7cf0 e83d
00000200: 2438 19bd ca7a f2bd 806c a1bd 586d f83c
00000210: e824 d4bc 545b b93d 005c 1aba 82ca 9b3d
00000220: 203f d43d 6495 42bd 504a 283c c09a 1cbc
00000230: 1021 6abd f012 e9bd d098 78bd 94c3 823d
00000240: 20da c4bc 629c e1bd 3c8e 073d e8e5 3a3d
00000250: 0820 bc3c d2bc cf3d 2a2d c4bd e4fe 49bd
00000260: c04a edbb 06eb a8bd a492 2c3d d08c 00bd
00000270: 708e ee3d c05a 29bd 34f0 b4bd ae7b c43d
00000280: 84b1 fb3d 3a9d bc3d 1a18 c6bd d035 7dbd
00000290: 4814 713d 0c20 eb3d 1087 ae3d 5ce8 dabd
000002a0: 5060 2cbd 60b9 ecbb 9c49 7b3d 5641 b1bd
000002b0: 445d 4a3d 20ae efbc 5829 1e3d f867 a3bc
000002c0: 62b9 f73d f070 57bc d88c 45bd 104f a6bc
000002d0: 80c3 7cbd 66b4 d3bd 9e58 a53d ec43 9bbd
000002e0: 80e9 5ebd 06fa 83bd 8040 a7ba 0cd3 8f3d
000002f0: 0412 0abd 001e 3f3a 10c0 35bd 5e65 c83d

gru.bias_hh_l0 f4 [192]
-0.018415496 0.08928652 -0.033995897 -0.035404965 -0.06909998 -0.08358878 0.06791082 -0.11779095
0.024898797 0.10409284 -0.092832655 0.05138339 0.030550078 0.011865288 0.11871028 -0.08592498
0.07344891 -0.0620296 0.07438037 0.009853527 0.009094566 -0.10643689 0.014249638 -0.09181599
-0.10386747 0.06998029 0.0011134595 -0.032118887 -0.019879773 0.09920886 -0.0022460073 -0.080013886
0.12077603 -0.0694648 0.09046388 0.10429248 0.022843733 -0.113190606 -0.03692165 -0.10423976
-0.109574154 -0.092372894 -0.066367805 -0.11535713 -0.068641365 -0.09875412 -0.09702562 -0.08189139
-0.12030144 0.0022440255 0.010742128 -0.024023294 0.12326495 0.060556874 0.07862486 0.065258965
-0.06600608 0.031783313 0.039822638 -0.09199424 0.10909261 -0.074248865 -0.015412509 -0.12207623
-0.097640246 0.1002453 -0.09165569 0.112496585 0.06467843 0.11557929 -0.058564156 -0.097983226
0.10399887 -0.051132545 -0.0147982985 0.116470665 -0.05663903 -0.042936325 0.07156804 0.11294268
0.005622685 0.0012539774 0.088813275 -0.050818533 0.10001342 0.07379913 0.016778976 -0.065774895
0.110226214 -0.03310463 -0.06283146 -0.026602387 0.019491673 -0.1238236 0.029116571 -0.018417895
0.037824526 -0.0037561506 -0.06585117 -0.029812098 -0.03604488 0.10604836 -0.11056957 0.03592539
0.113279656 0.038729414 -0.06633946 0.036765426 0.050183594 0.053821206 0.010355412 -0.10949035
0.027988732 -0.026256979 0.066515595 0.11196467 -0.044734698 0.0021251228 0.10247862 -0.021406278
0.018909007 -0.048488066 0.03131996 -0.051586002 -0.109650016 -0.10958058 0.054900855 -0.018772274
0.021817133 0.08383849 0.026175499 0.11074428 0.03825468 -0.11383836 0.079149514 -0.11200456
0.060118437 -0.00972335 -0.119227216 -0.023592234 0.10912979 -0.05702409 -0.054090306 0.06759708
0.025453791 0.05047369 -0.07879144 -0.042526647 -0.081306696 0.028463528 0.025452465 -0.06260225
-0.06819384 0.058127016 0.010153294 0.025568485 -0.029132426 -0.11074346 0.080287054 0.11702964
0.10601924 -0.09205583 -0.059006333 -0.09058978 0.11301489 0.10035467 -0.056294262 0.02242355
0.08959402 0.09558807 -0.05801283 -0.047278762 -0.09568074 -0.11247903 -0.033670396 -0.039006323
0.07485749 0.09455185 -0.02728413 0.055594206 0.0007843226 0.06281212 -0.11034265 -0.022009194
-0.04161121 0.10098094 0.059245586 0.0486293 0.062377453 -0.08340086 -0.094275415 -0.073866025
00000000: 18dc 96bc dadb b63d 483f 0bbd cc04 11bd
00000010: 4a84 8dbd 9830 abbd d414 8b3d 623c f1bd
00000020: 90f8 cb3c a02e d53d 0c1f bebd 6477 523d
00000030: 2844 fa3c a066 423c 601e f33d 70f9 afbd
00000040: 626c 963d c012 7ebd bc54 983d b070 213c
00000050: 6001 153c 96fb d9bd 5077 693c 060a bcbd
00000060: 78b8 d4bd d451 8f3d 80f1 913a 188f 03bd
00000070: e8da a2bc 042e cb3d c031 13bb 52de a3bd
00000080: 6c59 f73d 9043 8ebd 2045 b93d 4c97 d53d
00000090: c822 bb3c 7ad0 e7bd 283b 17bd a87b d5bd
000000a0: 6a68 e0bd 002e bdbd d8eb 87bd 5c40 ecbd
000000b0: d893 8cbd 9a3f cabd 5eb5 c6bd acb6 a7bd
000000c0: 9a60 f6bd 8010 133b c0ff 2f3c 80cc c4bc
000000d0: 5672 fc3d 7c0a 783d 1206 a13d 7ea6 853d
000000e0: 322e 87bd 382f 023d 101d 233d 7a67 bcbd
000000f0: f26b df3d ca0f 98bd c084 7cbc 1a03 fabd
00000100: 9cf7 c7bd 684d cd3d fab5 bbbd 9c64 e63d
00000110: 2076 843d d6b4 ec3d f8e0 6fbd 6eab c8bd
00000120: 5cfd d43d 5c70 51bd 9074 72bc 2c88 ee3d
00000130: 54fe 67bd 00de 2fbd 4492 923d 7e4e e73d
00000140: 803e b83b 805c a43a bce3 b53d 1827 50bd
00000150: d6d3 cc3d 0024 973d 1074 893c fdb4 86bd
00000160: 48be e13d b898 07bd c8ad 80bd 40ed d9bc
00000170: 00ad 9f3c 3a97 fdbd e085 ee3c 20e1 96bc
00000180: e4ed 1a3d c029 76bb fadc 86bd 8038 f4bc
00000190: cca3 13bd e22f d93d 4c72 e2bd 8026 133d
000001a0: 2aff e73d bca2 1e3d fcdc 87bd 5897 163d
000001b0: 508d 4d3d a073 5c3d bfa9 293c 7a3c e0bd
000001c0: a048 e53c e018 d7bc 5439 883d bc4d e53d
000001d0: bb3b 37bd a545 0b3b 50e0 d13d 385c afbc
000001e0: 10e7 9a3c 6c9b 46bd 5c49 003d d84b 53bd
000001f0: 3090 e0bd c86b e0bd b8df 603d 50c8 99bc
00000200: d8b9 b23c 84b3 ab3d 006e d63c e6cd e23d
00000210: f0b0 1c3d 1624 e9bd 2419 a23d a662 e5bd
00000220: c03e 763d b04e 1fbc 662d f4bd 8044 c1bc
00000230: 707f df3d 1892 69bd cc8d 5dbd 5670 8a3d
00000240: 7884 d03c 80bd 4e3d 685d a1bd 6c30 2ebd
00000250: 2084 a6bd 582c e93c b081 d03c 9c35 80bd
00000260: 36a9 8bbd 9816 6e3d 005a 263c 0075 d13c
00000270: 20a7 eebc 78cd e2bd 8a6d a43d 3cad ef3d
00000280: 9e20 d93d c487 bcbd a0b0 71bd 2287 b9bd
00000290: 5a74 e73d c086 cd3d d094 66bd 98b1 b73c
000002a0: 127d b73d aec3 c33d dc9e 6dbd 60a7 41bd
000002b0: 44f4 c3bd 685b e6bd f8e9 09bd 18c5 1fbd
000002c0: e24e 993d 66a4 c13d f882 dfbc c0b6 633d
000002d0: 009b 4d3a a4a3 803d 54fb e1bd a04c b4bc
000002e0: 8470 2abd 18cf ce3d 80ab 723d 842f 473d
000002f0: 807f 7f3d 12ce aabd 7813 c1bd 1247 97bd

gru.weight_ih_l1 f4 [192, 64]
-0.02556401 -0.06423098 0.05358784 0.10404299 0.12820706 0.080375716 0.05584412 0.0057626734
-0.07092704 0.025768317 0.06786628 0.014281198 -0.013734574 -0.0065429513 -0.10735585 0.0044906735
0.019786924 0.106675625 0.04966874 0.114269584 -0.0025945455 0.10035738 -0.074791804 0.03603573
0.11920051 0.027116623 -0.069810376 0.052046835 -0.1193099 0.05429256 -0.0731994 0.08800943
0.011374965 0.04035367 -0.06083878 -0.01566428 -0.06937441 0.10192885 0.053414125 -0.06149862
-0.04286231 0.059587955 -0.08044819 0.024752721 -0.06585244 -0.015373006 0.08595115 -0.018651307
0.065060824 -0.086650044 0.09792134 -0.11790143 -0.11906305 -0.11926513 -0.104026705 -0.010974437
-0.12357 0.032664537 -0.06549056 0.020092964 -0.008549079 0.046429753 -0.016561478 -0.09602108
0.015820568 0.029193297 -0.0032099485 -0.02616506 -0.0130306175 0.008521126 0.0060152407 -0.03553938
0.085496746 -0.10502219 0.087095626 -0.07774018 0.08902693 -0.08664634 -0.07792166 0.016776204
0.115930736 -0.014635071 -0.020551922 0.04872003 0.042520493 -0.03906137 0.00838688 0.12486445
-0.0017273724 -0.112142645 -0.112332195 0.06915903 -0.08666374 -0.11411382 0.008083678 -0.030699432
0.123598665 -0.097253814 0.08772737 0.036868628 0.023199597 0.04438267 0.070340835 0.08929148
-0.09547697 0.118422985 0.04317614 0.019108087 -0.056062967 0.121078774 -0.065132484 0.023006082
0.052428037 -0.099236 0.11282833 -0.0009381771 0.015027932 -0.11601476 0.040163014 -0.09874435
-0.027497672 0.014314204 -0.07305333 0.111970276 -0.10189363 0.026700273 0.046343222 -0.088190965
-0.008752919 -0.11731054 -0.12429418 0.08981917 -0.017619524 -0.040004354 -0.10088694 0.11593869
-0.052312505 0.09960176 -0.11937563 0.039856 -0.04561225 0.08697019 0.003398185 -0.046722904
-0.0516745 -0.04646139 0.10745678 -0.00025330437 -0.11822559 -0.0017576887 -0.005557537 0.10624472
-0.10546985 0.00083991315 0.09737031 0.014450222 -0.0032602698 -0.11169709 -0.09481486 -0.037940145
-0.10394041 0.046793863 0.037937872 -0.10493621 0.12408647 0.014630488 0.0819119 -0.046953
0.10320646 0.104988575 -0.110652804 -0.050482526 -0.09003118 -0.00081922114 -0.084660575 -0.05318351
0.046217166 0.057500463 0.095804155 0.11368433 0.040158384 -0.026600089 0.026542684 0.11840963
0.11906881 -0.12442714 0.11283332 -0.038493797 -0.04279697 -0.11148059 0.06519234 0.03699557
0.08107707 -0.064286545 0.08331287 -0.12224095 0.096944325 0.0831356 -0.10626019 -0.093915254
0.019142557 0.06460916 0.11716099 0.06354062 -0.085959494 0.045988966 -0.11003492 -0.063316286
0.019415766 0.03600429 -0.10497732 -0.03475008 -0.101336226 -0.10535939 -0.00075790286 -0.0072894697
0.027029932 0.07532615 -0.121088 -0.07089244 -0.039931893 -0.09456645 0.108574204 0.11782345
-0.12175502 -0.10846016 -0.072626084 -0.042834908 0.004418274 -0.12743124 -0.011681327 -0.09537933
0.121915214 -0.074510634 0.015910186 0.12398109 -0.104433976 0.0054626167 0.11190532 0.0014111698
-0.09735931 -0.062441625 -0.10767165 -0.06427269 -0.08134866 0.06279786 0.07588507 -0.02961184
0.09228626 -0.07105114 0.044960573 -0.11072318 0.07287589 -0.123964086 0.0731018 -0.0029751472
00000000: 9d6b d1bc 888b 83bd ec7e 5b3d 7e14 d53d
00000010: b648 033e 069c a43d cebc 643d cfd4 bc3b
00000020: 3242 91bd 1418 d33c 7afd 8a3d b0fb 693c
00000030: fb06 61bc 4166 d6bb 62dd dbbd 8026 933b
00000040: 3018 a23c c078 da3d 7371 4b3d 2c06 ea3d
00000050: 4009 2abb 2c88 cd3d 722c 99bd 349a 133d
00000060: 661f f43d ae23 de3c bef8 8ebd 102f 553d
00000070: c058 f4bd e061 5e3d 91e9 95bd 4a3e b43d
00000080: 105e 3a3c e449 253d 1632 79bd 6052 80bc
00000090: 2c14 8ebd 13c0 d03d c5c8 5a3d fae5 7bbd
000000a0: 6490 2fbd 8012 743d 05c2 a4bd 38c6 ca3c
000000b0: a5dd 86bd 10df 7bbc 2807 b03d a0ca 98bc
000000c0: 9c3e 853d 9475 b1bd fc8a c83d 4e76 f1bd
000000d0: 54d7 f3bd 4741 f4bd f40b d5bd 20ce 33bc
000000e0: 4512 fdbd 40cb 053d ea1f 86bd 009a a43c
000000f0: 7011 0cbc 202d 3e3d f0ab 87bc b3a6 c4bd
00000100: 239a 813c c826 ef3c 005e 52bb 1c58 d6bc
00000110: 5f7e 55bc 319c 0b3c 7f1b c53b be91 11bd
00000120: eb18 af3d e015 d7bd 315f b23d 3e36 9fbd
00000130: c053 b63d a373 b1bd 6495 9fbd 406e 893c
00000140: 186d ed3d f0c7 6fbc 815c a8bc a78e 473d
00000150: f829 2e3d d1fe 1fbd 2069 093c efb8 ff3d
00000160: 0069 e2ba 0bab e5bd 6c0e e6bd 40a3 8d3d
00000170: c27c b1bd 82b4 e9bd 6771 043c 607d fbbc
00000180: 4c21 fd3d 022d c7bd 68aa b33d 8f03 173d
00000190: 150d be3c 9aca 353d db0e 903d 74de b63d
000001a0: 6e89 c3bd c087 f23d 77d9 303d 9088 9c3c
000001b0: 48a2 65bd 26f8 f73d 2e64 85bd 4077 bc3c
000001c0: c8be 563d 3e3c cbbd 8a12 e73d 00f0 75ba
000001d0: b737 763c 2699 edbd f981 243d 7a3a cabd
000001e0: cc42 e1bc 2086 6a3c fc9c 95bd ac50 e53d
000001f0: 9cad d0bd 88ba da3c 64d2 3d3d 779d b4bd
00000200: 6768 0fbc 8240 f0bd f28d febd 1df3 b73d
00000210: d256 90bc 9bdb 23bd d09d cebd 4471 ed3d
00000220: a345 56bd 02fc cb3d 367b f4bd 0c40 233d
00000230: e9d3 3abd 6d1d b23d 15b4 5e3b 8460 3fbd
00000240: a4a8 53bd 4c4e 3ebd 4d12 dc3d f0cd 84b9
00000250: 4220 f2bd 3f62 e6ba 001c b6bb d596 d93d
00000260: 9400 d8bd 9e2d 5c3a 166a c73d a0c0 6c3c
00000270: 40aa 55bb 72c1 e4bd 4b2e c2bd 2067 1bbd
00000280: b6de d4bd ecaa 3f3d be64 1b3d cce8 d6bd
00000290: 0c21 fe3d b7b4 6f3c 6dc1 a73d ca51 40bd
000002a0: e95d d33d 4004 d73d f09d e2bd c4c6 4ebd
000002b0: 4462 b8bd 00c1 56ba 8662 adbd f4d6 59bd
000002c0: 364e 3d3d 9b85 6b3d f834 c43d 54d3 e83d
000002d0: 1e7d 243d 6ee8 d9bc 0b70 d93c c080 f23d
000002e0: 59da f33d a8d3 febd 2815 e73d acab 1dbd
000002f0: e04b 2fbd f04f e4bd 9083 853d ab88 173d
00000300: bc0b a63d aaa8 83bd f09f aa3d 7759 fabd
00000310: bf8a c63d ff42 aa3d f19e d9bd a456 c0bd
00000320: dad0 9c3c cf51 843d 1af2 ef3d 9621 823d
00000330: 880b b0bd ed5e 3c3d fd59 e1bd f8ab 81bd
00000340: d00d 9f3c 3c79 133d 59fe d6bd 1a56 0ebd
00000350: 5e89 cfbd aac6 d7bd 00ae 46ba 81dc eebb
00000360: e06d dd3c 9944 9a3d fcfc f7bd 0e30 91bd
00000370: a08f 23bd 0eac c1bd 275c de3d 6c4d f13d
00000380: b25a f9bd 5c20 debd fcbc 94bd a873 2fbd
00000390: 2bc7 903b 567d 02be 0963 3fbc 3d56 c3bd
000003a0: afae f93d 0899 98bd 1456 823c cce9 fd3d
000003b0: 7be1 d5bd c0ff b23b 9e2e e53d 00f7 b83a
000003c0: 5164 c7bd cac2 7fbd f482 dcbd 66a1 83bd
000003d0: 209a a6bd 2a9c 803d a269 9b3d 8894 f2bc
000003e0: 9400 bd3d 4383 91bd 9428 383d d6c2 e2bd
000003f0: f43f 953d e2e0 fdbd 66b6 953d b0fa 42bb

gru.weight_hh_l1 f4 [192, 64]
0.06476309 0.033839997 -0.06920316 -0.099110626 -0.043196883 -0.104836755 -0.108134 0.073207185
-0.008102714 -0.0038595488 -0.09456042 0.06521584 0.09762384 0.0776694 -0.074843004 0.012864318
-0.059769426 0.05771936 0.06684424 -0.06492068 -0.088806756 -0.08803903 0.053543612 0.030307697
0.08690208 -0.01783625 0.09811637 0.11496249 -0.09634317 -0.02107706 0.014290678 0.07816785
-0.11150736 0.054243032 0.010068507 0.091839276 -0.10787132 0.10127283 0.09212352 -0.0017238893
-0.034395166 0.062382214 -0.03724201 -0.02696663 -0.07309868 0.11629984 0.08631222 0.019673772
0.00930582 -0.07983939 0.09979875 0.052893803 0.03989909 0.047638137 -0.11081563 -0.043295946
0.08439732 -0.038998555 0.104432 -0.089490294 0.095025405 0.12417414 -0.107587904 0.10235235
0.034487955 0.061051093 -0.03836484 0.089604236 0.02785938 -0.0923002 0.10891996 0.00045341684
-0.030204125 0.031874634 0.015065568 -0.1143019 0.123750776 -0.013546743 0.036531575 -0.023037558
-0.1158085 -0.10707759 -0.03585207 -0.040211592 0.09986674 0.016890457 0.12017963 0.10193683
0.013609936 -0.047122058 0.0024810752 -0.044000346 -0.12442464 0.034092814 0.050106995 -0.038088262
0.113194786 0.013143639 -0.00602131 -0.031342663 0.119747154 0.06694251 -0.08887508 -0.09438373
-0.100848086 0.11286522 0.10344408 0.06305903 0.06149305 -0.084179275 0.09122934 -0.0085558435
-0.0038707773 0.014871223 -0.03623852 0.11511239 0.015653593 0.08067439 -0.077521615 -0.10757568
-0.042116307 0.038795464 -0.08653491 -0.06714233 0.039356023 0.12184532 0.10770684 0.11490704
-0.025334919 -0.08746824 0.045206238 -0.07162828 0.1187268 0.031055469 -0.11013602 0.001079482
-0.080825984 0.045992546 -0.063267946 -0.0040905997 0.09145556 -0.0919162 0.08690332 0.07783501
0.0075444058 0.10352308 -0.08367176 -0.09750981 -0.045133173 0.10512828 -0.07227179 0.04535806
-0.087565646 0.008543147 0.10604305 0.089208156 0.056435723 -0.052888785 0.060939446 0.10621658
-0.1134988 0.03163161 -0.06375158 0.06076859 -0.0077408096 -0.02718366 -0.08791237 -0.0861428
0.016138582 0.038139675 -0.0033494094 0.10051076 -0.008948413 -0.087433726 0.043936197 -0.0836336
0.10543428 0.01777184 0.003969161 0.044212665 0.061589174 -0.0929053 -0.049776416 -0.041674387
-0.0025093833 0.057868805 -0.059073005 0.041658353 0.014811559 -0.0988035 0.06522972 0.0030822267
-0.082167394 0.027446399 -0.05807644 0.0024133325 -0.09987671 0.09907329 -0.014350949 0.116312124
0.092784435 -0.11205508 -0.124839514 0.07838384 -0.038171455 0.07548328 0.026374256 0.05107844
0.08445172 0.04997947 0.108622335 -0.0130442185 0.098358184 -0.104632184 -0.12004556 -0.08854094
0.049343396 -0.11966511 0.049725622 0.0446911 -0.0889226 -0.10161159 -0.031907633 -0.06871648
-0.049398545 -0.018385718 0.031205067 -0.06848261 -0.085706495 -0.10802835 0.044140927 -0.052198663
0.09998394 -0.009353784 0.0014725836 -0.02799225 -0.08262659 0.070698954 0.096698545 -0.085851535
0.05520406 -0.011925055 -0.114509024 -0.009877135 -0.038036168 -0.040804293 -0.09085628 -0.015972778
0.12396938 0.014515791 -0.12293089 0.0074089165 -0.10276236 0.050750412 0.11148493 0.057827506
00000000: 83a2 843d cf9b 0a3d 63ba 8dbd 83fa cabd
00000010: 37ef 30bd a7b4 d6bd 5c75 ddbd a6ed 953d
00000020: 3fc1 04bc 7cf0 7cbb e5a8 c1bd e28f 853d
00000030: 02ef c73d 2211 9f3d 4a47 99bd dcc4 523c
00000040: c9d0 74bd 236b 6c3d a2e5 883d 22f5 84bd
00000050: 51e0 b5bd cf4d b4bd 8c50 5b3d d947 f83c
00000060: b8f9 b13d 541d 92bc 3cf1 c83d 7471 eb3d
00000070: 914f c5bd cca9 acbc 7323 6a3c 7716 a03d
00000080: f95d e4bd f12d 5e3d 61f6 243c 3b16 bc3d
00000090: a3eb dcbd 2168 cf3d 42ab bc3d 20f4 e1ba
000000a0: f2e1 0cbd 7e84 7f3d 148b 18bd 1fe9 dcbc
000000b0: c3b4 95bd 9c2e ee3d 76c4 b03d e42a a13c
000000c0: 7077 183c d682 a3bd 4963 cc3d 2ca7 583d
000000d0: 3a6d 233d 3520 433d 4ef3 e2bd 1757 31bd
000000e0: 81d8 ac3d f3bc 1fbd 72e0 d53d b046 b7bd
000000f0: ae9c c23d 034f fe3d 0c57 dcbd 1c9e d13d
00000100: 3e43 0d3d b610 7a3d 7324 1dbd 6d82 b73d
00000110: 5b39 e43c e307 bdbd 6e11 df3d 94b8 ed39
00000120: a46e f7bc fa8e 023d 92d5 763c 1d17 eabd
00000130: 0c71 fd3d 29f3 5dbc 22a2 153d 43b9 bcbc
00000140: 022d edbd 7f4b dbbd 9fd9 12bd e9b4 24bd
00000150: ef86 cc3d db5d 8a3c bd20 f63d 42c4 d03d
00000160: 36fc 5e3c 0f03 41bd 8999 223b b539 34bd
00000170: 58d2 febd e8a4 0b3d fe3c 4d3d 7002 1cbd
00000180: abd2 e73d 6b58 573c 694e c5bb 2a61 00bd
00000190: ff3d f53d 2819 893d 2304 b6bd 424c c1bd
000001a0: 7189 cebd e125 e73d 7dda d33d 1825 813d
000001b0: 23e0 7b3d 2f66 acbd 73d6 ba3d cf2d 0cbc
000001c0: deac 7dbb 6ea6 733c d86e 14bd 0bc0 eb3d
000001d0: f73b 803c 9d38 a53d a7c3 9ebd a350 dcbd
000001e0: 2682 2cbd fee7 1e3d 3739 b1bd eb81 89bd
000001f0: c833 213d 0a8a f93d 6795 dc3d 6254 eb3d
00000200: 2d8b cfbc 8c22 b3bd 2d2a 393d d9b1 92bd
00000210: 0927 f33d 0a68 fe3c fe8e e1bd 687d 8d3a
00000220: 1888 a5bd ae62 3c3d a092 81bd 700a 86bb
00000230: 0d4d bb3d 903e bcbd 5efa b13d f667 9f3d
00000240: 1037 f73b e903 d43d 1a5c abbd 39b3 c7bd
00000250: 90dd 38bd 7f4d d73d 3b03 94bd 60c9 393d
00000260: 9e55 b3bd 8ef8 0b3c 192d d93d c4b2 b63d
00000270: 2529 673d e9a1 58bd a49b 793d 1488 d93d
00000280: 0f72 e8bd 2690 013d 3090 82bd 7ce8 783d
00000290: 9ea6 fdbb 44b0 debc 670b b4bd a36b b0bd
000002a0: 0f35 843c 5938 1c3d c481 5bbb 96d8 cd3d
000002b0: 5d9c 12bc 7410 b3bd 71f6 333d 1848 abbd
000002c0: eeed d73d 4096 913c bc0f 823b 5718 353d
000002d0: ee44 7c3d 2245 bebd 5be2 4bbd c3b2 2abd
000002e0: 7774 24bb d707 6d3d 89f6 71bd f3a1 2a3d
000002f0: 2eac 723c 7d59 cabd 2997 853d 2fff 493b
00000300: 6147 a8bd 45d7 e03c 90e1 6dbd 0029 1e3b
00000310: 298c ccbd f0e6 ca3d 3e20 6bbc 0d35 ee3d
00000320: c405 be3d 227d e5bd dcab ffbd b587 a03d
00000330: ac59 1cbd fa96 9a3d d30e d83c a037 513d
00000340: 06f5 ac3d 46b7 4c3d 6375 de3d 6bb7 55bc
00000350: 0470 c93d 6649 d6bd 72da f5bd f454 b5bd
00000360: 4d1c 4a3d fb12 f5bd 18ad 4b3d 040e 373d
00000370: 0d1d b6bd bd19 d0bd 94b1 02bd 3abb 8cbd
00000380: 2156 4abd a59d 96bc c5a1 ff3c 9c40 8cbd
00000390: e386 afbd f83d ddbd 1ecd 343d 44ce 55bd
000003a0: 61c4 cc3d 9d40 19bc b503 c13a 0150 e5bc
000003b0: 2138 a9bd 9dca 903d e309 c63d eed2 afbd
000003c0: a71d 623d 4e61 43bc b583 eabd b5d3 21bc
000003d0: d0cb 1bbd 6722 27bd db12 babd 58d9 82bc
000003e0: a9e3 fd3d a4d3 6d3c 31c3 fbbd 7fc6 f23b
000003f0: 1275 d2bd aadf 4f3d 3652 e43d 89dc 6c3d

gru.bias_ih_l1 f4 [192]
0.05065112 0.07375548 0.060398553 0.003196869 -0.10151167 0.042287067 -0.024215588 0.007117722
0.07519117 -0.118405096 -0.12562513 -0.0040208553 -0.004397207 0.06039035 0.0029758029 -0.025929382
-0.0009793908 0.0840087 -0.103427365 0.03564807 -0.07277265 0.0635086 0.0002815355 -0.11709942
0.048564985 -0.06364145 -0.00048550917 -0.005771819 0.028630216 0.09465096 0.07267349 0.12214602
-0.050648395 -0.03714135 -0.0108491555 0.039407585 -0.042787835 0.09387229 0.10758141 0.09164419
0.06217609 -0.0025654947 0.11523962 -0.028040782 0.058445875 -0.085896775 0.048916508 -0.10960103
-0.05008392 -0.07408732 -0.03379902 -0.066530444 -0.009736483 0.0685929 0.090967566 0.114986025
-0.025342647 -0.026964042 -0.0077958796 0.039986555 -0.004850758 -0.048409466 0.032705173 -0.076937005
0.06136929 0.03333313 0.07975345 -0.07853813 -0.07872719 -0.11984537 0.103600696 -0.08279258
0.043359887 0.10922727 0.09588008 0.081501864 0.0034238272 -0.08133421 -0.11881202 -0.06681885
0.006819786 0.0527584 -0.08402651 -0.08559982 0.09021977 0.007995998 -0.068064675 0.1142673
0.023729572 -0.059212342 0.006390573 -0.1193465 -0.06570254 0.10744771 0.041509934 -0.07792105
0.039651528 -0.048694022 -0.08888312 -0.10766574 0.09459315 0.06543855 -0.08821198 -0.10555374
0.026223492 -0.08913807 0.05141004 -0.101209484 0.030300463 0.045259126 -0.023787431 0.02241981
-0.070806 -0.105259165 0.04428476 -0.022782562 0.023047833 -0.006605445 -0.104507245 -0.006867298
0.07219941 -0.006922228 -0.054330233 -0.07930562 0.08846467 -0.11452315 -0.007224455 -0.0715322
-0.010546087 0.012379573 0.02949178 -0.09856341 -0.022888618 -0.10024629 0.10128102 0.026489323
-0.013996001 0.022889104 -0.054938734 0.097046815 -0.041640155 0.019457664 -0.089279965 0.07936601
0.009693523 -0.01652698 -0.042609416 -0.020650055 -0.016224692 -0.072145216 0.055886485 0.13961528
0.02533723 0.028727036 0.029885702 -0.12553082 0.11173989 0.04212552 0.060081076 -0.05654597
-0.13454549 -0.027368715 0.049749557 -0.07783963 -0.032103196 -0.015223574 -0.029442636 -0.110817224
0.0693799 0.026919052 0.12384166 0.099008635 0.014509728 -0.08476661 0.012182424 0.0024995883
-0.10871235 0.035597757 -0.13328622 0.12460223 -0.009615545 -0.037561636 0.054808207 0.033565544
-0.006579675 -0.05186916 0.06522036 -0.03006785 -0.012603154 0.015738461 -0.09957112 -0.124130525
00000000: 8c77 4f3d 1d0d 973d 7964 773d 9082 513b
00000010: 5ae5 cfbd 3435 2d3d c55f c6bc c83b e93b
00000020: d4fd 993d 5f7e f2bd e0a3 00be 61c1 83bb
00000030: 7216 90bb df5b 773d b005 433b db69 d4bc
00000040: e75e 80ba c10c ac3d bad1 d3bd b603 123d
00000050: d409 95bd cc10 823d 0e9b 9339 d2d1 efbd
00000060: 14ec 463d 7356 82bd f08b feb9 8721 bdbb
00000070: ea89 ea3c 5dd8 c13d d7d5 943d b127 fa3d
00000080: b174 4fbd 8721 18bd a8c0 31bc d969 213d
00000090: 4c42 2fbd 1d40 c03d a453 dc3d f3af bb3d
000000a0: 5bac 7e3d dc21 28bb c002 ec3d c8b5 e5bc
000000b0: f164 6f3d a6ea afbd ad5c 483d 8176 e0bd
000000c0: cc24 4dbd 18bb 97bd d770 0abd 1d41 88bd
000000d0: c585 1fbc 6f7a 8c3d 344d ba3d cb7d eb3d
000000e0: 629b cfbc b2e3 dcbc 9474 ffbb f1c8 233d
000000f0: 1bf3 9ebb 0149 46bd dcf5 053d 2691 9dbd
00000100: 5d5e 7b3d 5288 083d c755 a33d 99d8 a0bd
00000110: b93b a1bd 7d71 f5bd 9a2c d43d 288f a9bd
00000120: 239a 313d 8cb2 df3d c65c c43d 73ea a63d
00000130: 4a62 603b 8d92 a6bd b753 f3bd 52d8 88bd
00000140: 8378 df3b 3119 583d 1716 acbd f54e afbd
00000150: 25c5 b83d a501 033c 7e65 8bbd f904 ea3d
00000160: 8564 c23c a488 72bd 0368 d13b f06b f4bd
00000170: 0e8f 86bd 8c0d dc3d 5206 2a3d 1295 9fbd
00000180: a469 223d 6273 47bd 5a08 b6bd db7f dcbd
00000190: 0eba c13d a604 863d 7ca8 b4bd 8f2c d8bd
000001a0: a6d2 d63c 058e b6bd 5693 523d eb46 cfbd
000001b0: ad38 f83c a261 393d dcdd c2bc c0a9 b73c
000001c0: bc02 91bd 1e92 d7bd f063 353d 7fa2 babc
000001d0: cfce bc3c 7d72 d8bb e507 d6bd 1207 e1bb
000001e0: 49dd 933d dbd3 e2bb 6189 5ebd fc6a a2bd
000001f0: f72c b53d 1d8b eabd 1fbb ecbb 797f 92bd
00000200: 7fc9 2cbc b1d3 4a3c bf98 f13c 9ddb c9bd
00000210: e980 bbbc ed4d cdbd 6c6c cf3d 2300 d93c
00000220: 7c4f 65bc ee81 bb3c 7007 61bd 7bc0 c63d
00000230: de8e 2abd ae65 9f3c 6ad8 b6bd a68a a23d
00000240: 95d1 1e3c 9763 87bc 3687 2ebd 4e2a a9bc
00000250: a5e9 84bc dfc0 93bd 3ae9 643d 4ff7 0e3e
00000260: 0690 cf3c f654 eb3c dcd2 f43c 278b 00be
00000270: e2d7 e43d cf8b 2c3d 9317 763d bf9c 67bd
00000280: 4bc6 09be 5b34 e0bc 31c6 4b3d 626a 9fbd
00000290: a47e 03bd 4c6c 79bc af31 f1bc 24f4 e2bd
000002a0: 0d17 8e3d 5885 dc3c b2a0 fd3d 0ac5 ca3d
000002b0: 36ba 6d3c 1e9a adbd ca98 473c 22d0 233b
000002c0: 95a4 debd f4ce 113d 2f7c 08be 742f ff3d
000002d0: 858a 1dbc 3bda 19bd 927e 603d 067c 093d
000002e0: 509a d7bb c274 54bd 4192 853d da50 f6bc
000002f0: 767d 4ebc f2ed 803c f2eb cbbd 2538 febd

gru.bias_hh_l1 f4 [192]
-0.117616296 -0.10308831 -0.098760374 0.101844005 0.052781362 -0.12375866 -0.07809016 0.026425118
0.01581204 0.10764568 0.07106513 -0.050113805 -0.04619902 -0.075196885 -0.095161065 0.070132144
-0.05083044 -0.024586558 0.10148886 -0.03954623 -0.098675385 -0.022748346 -0.0629637 0.065524176
0.017865064 -0.05172034 0.020339534 -0.03996585 0.0009852186 0.10813474 -0.02589009 -0.10100844
-0.026164442 0.06492126 0.07544226 -0.102939576 0.044224367 -0.088527344 0.098550275 -0.11877359
0.05059373 0.12070197 -0.0828695 -0.043055896 0.009476594 0.048020057 0.035784576 0.034309573
-0.062390167 0.08602523 0.10672943 0.10167525 0.086950734 0.00553109 -0.12062247 -0.0758613
0.022277366 0.0036480674 -0.056103308 -0.11085067 -0.026583245 -0.06653215 0.1059535 0.063798696
-0.015108629 0.010200695 0.023440596 -0.060148466 -0.08923308 -0.009915829 0.095606595 -0.069306925
0.07044565 -0.049782675 0.10087246 -0.07742723 0.08566883 -0.038392436 -0.0686534 0.030305697
0.050198406 -0.025593393 0.0958003 -0.12214937 0.10681457 -0.11262856 0.042393677 0.038766418
0.021503279 -0.09332064 0.09328787 -0.070495605 -0.10176885 0.01473712 0.11217759 0.06318292
0.06951293 -0.05333612 0.08260584 -0.09906343 -0.02816917 -0.028528705 0.06529957 0.017232358
-0.083161384 0.04210898 0.09949351 -0.047370628 0.106007084 0.041247033 -0.10093021 0.11337929
0.041563716 -0.101875916 -0.06430233 -0.08139848 0.101831816 0.015945032 -0.106082775 -0.0053764805
-0.09290465 0.044516068 0.08223435 -0.016067734 -0.08960023 0.10078216 -0.05334804 0.019186743
-0.07927548 -0.08928455 0.104801655 0.06873928 0.08506217 0.098835364 0.10596245 0.00861463
0.009874921 -0.08430615 -0.05001219 0.07839176 -0.028168932 0.10150174 0.041050553 0.06400761
0.020076614 -0.07133655 -0.032319013 0.09294637 0.016808257 -0.048722718 0.06398256 -0.058376674
-0.010075554 -0.12197943 0.048564445 0.038805537 0.024630709 0.06743605 0.099952154 0.07314388
0.015857888 0.05465714 -0.1044282 -0.11657719 0.06348362 0.002909659 -0.09245887 -0.013206657
0.07720511 0.1032016 0.014859744 0.027230477 -0.104913816 -0.059376083 0.0010737036 -0.01995394
0.04710809 0.121309645 0.040891685 0.036310427 0.0057342527 0.10243194 -0.083183035 0.09341294
0.11035819 0.019317286 -0.109886974 -0.026096128 0.11664813 0.04415335 0.11042042 0.10612005
00000000: d0e0 f0bd f71f d3bd e142 cabd 9793 d03d
00000010: 4531 583d 2e75 fdbd bced 9fbd 7d79 d83c
00000020: 4088 813c 5775 dc3d 988a 913d 2244 4dbd
00000030: 2f3b 3dbd d300 9abd cee3 c2bd 71a1 8f3d
00000040: 9433 50bd c069 c9bc 64d9 cf3d 3afb 21bd
00000050: 5216 cabd bd5a babc 1df3 80bd 8a31 863d
00000060: c159 923c b5d8 53bd 189f a63c 3bb3 23bd
00000070: 7322 813a bf75 dd3d 7417 d4bc 83dd cebd
00000080: d056 d6bc 70f5 843d 7981 9a3d fcd1 d2bd
00000090: 9c24 353d d34d b5bd bad4 c93d 913f f3bd
000000a0: 5f3b 4f3d 9832 f73d 7cb7 a9bd 615b 30bd
000000b0: b743 1b3c aeb0 443d d992 123d 3288 0c3d
000000c0: d58c 7fbd ff2d b03d f694 da3d 1d3b d03d
000000d0: 3a13 b23d 253e b53b ea08 f7bd 2b5d 9bbd
000000e0: 067f b63c 6a14 6f3b 95cc 65bd ad05 e3bd
000000f0: 1bc5 d9bc 0242 88bd 26fe d83d e4a8 823d
00000100: 2f8a 77bc d120 273c 7e06 c03c 3d5e 76bd
00000110: d5bf b6bd 0076 22bc 64cd c33d caf0 8dbd
00000120: cf45 903d ebe8 4bbd 3896 ce3d 2b92 9ebd
00000130: 2473 af3d 6341 1dbd 279a 8cbd a743 f83c
00000140: d89c 4d3d 3ca9 d1bc f332 c43d 7329 fabd
00000150: 99c1 da3d cda9 e6bd fea4 2d3d 89c9 1e3d
00000160: a527 b03c e41e bfbd b60d bf3d 0060 90bd
00000170: 306c d0bd f673 713c 5dbd e53d 0c66 813d
00000180: cc5c 8e3d fa76 5abd 402d a93d c5e1 cabd
00000190: 08c3 e6bc 08b5 e9bc c8bb 853d e02a 8d3c
000001a0: 8450 aabd 777a 2c3d 41c3 cb3d b407 42bd
000001b0: 3e1a d93d a6f2 283d 7fb4 cebd 6733 e83d
000001c0: b73e 2a3d 52a4 d0bd f1b0 83bd 3fb4 a6bd
000001d0: 338d d03d 289f 823c ed41 d9bd 302d b0bb
000001e0: cb44 bebd 7b56 363d 7c6a a83d 7ba0 83bc
000001f0: 5380 b7bd e166 ce3d 7983 5abd 842d 9d3c
00000200: 2f5b a2bd d1da b6bd 40a2 d63d 2ec7 8c3d
00000210: 1335 ae3d 326a ca3d d702 d93d 6124 0d3c
00000220: 6cca 213c b4a8 acbd 95d9 4cbd dc8b a03d
00000230: 88c2 e6bc 25e0 cf3d a024 283d 6c16 833d
00000240: b677 a43c e618 92bd f160 04bd ab5a be3d
00000250: 78b1 893c 7991 47bd 4a09 833d 611c 6fbd
00000260: f013 25bc 5ad0 f9bd 83eb 463d 8ef2 1e3d
00000270: 57c6 c93c e91b 8a3d b7b3 cc3d 75cc 953d
00000280: 67e8 813c 2ae0 5f3d 74de d5bd 06c0 eebd
00000290: b303 823d faaf 3e3b 135b bdbd bc60 58bc
000002a0: b61d 9e3d 5c5b d33d 4976 733c 7312 df3c
000002b0: 0edd d6bd 5634 73bd 84bb 8c3a 7276 a3bc
000002c0: 6af4 403d 3171 f83d 0a7e 273d 3eba 143d
000002d0: 66e6 bb3b d6c7 d13d de5b aabd 494f bf3d
000002e0: 7a03 e23d 493f 9e3c 6c0c e1bd 8cc7 d5bc
000002f0: 37e5 ee3d 25da 343d 1a24 e23d 7855 d93d

fc.weight f4 [1, 64]
-0.057703096 -0.049993593 0.058626033 -0.076493084 0.03891074 -0.043381117 0.058216408 0.022050753
0.033674255 -0.006761652 -0.041312326 0.07501528 0.0136021525 0.010739677 -0.026582068 -0.047888808
0.047324173 0.0892909 -0.013033845 -0.0125656435 -0.0075144786 -0.040769916 0.09638708 -0.0033349209
0.03431889 -0.0070298095 -0.051702414 0.026982086 -0.057163615 -0.07279207 -0.030584112 -0.05716469
-0.042342275 0.08704386 -0.05934047 0.01715405 -0.05283775 0.0056302217 -0.065977626 -0.057208803
0.013134477 -0.0007696129 0.012644442 0.019098135 -0.002785706 0.007651119 0.0060546855 0.02029858
0.016740268 -0.06579401 -0.05405198 0.0004036988 0.010823864 -0.05319883 0.03904282 -0.08569501
0.09483112 0.06737713 -0.091258906 0.051272944 -0.03633547 -0.017262833 0.059027042 -0.013083934
00000000: 155a 6cbd 15c6 4cbd da21 703d 68a8 9cbd
00000010: de60 1f3d 66b0 31bd 5474 6e3d c8a3 b43c
00000020: 04ee 093d d990 ddbb 1d37 29bd 9ca1 993d
00000030: 90db 5e3c 78f5 2f3c a3c2 d9bc 0e27 44bd
00000040: fed6 413d 26de b63d e98b 55bc 21e0 4dbc
00000050: 043c f6bb 5bfe 26bd 9766 c53d b08e 5abb
00000060: f791 0c3d 515a e6bb e9c5 53bd 8909 dd3c
00000070: 6524 6abd 0214 95bd 888b fabc 8625 6abd
00000080: 186f 2dbd 0d44 b23d fe0e 73bd a686 8c3c
00000090: 666c 58bd b97d b83b 471f 87bd c753 6abd
000000a0: fd31 573c d9bf 49ba a22a 4f3c b173 9c3c
000000b0: 6490 36bb 3db6 fa3b 6266 c63b 3549 a63c
000000c0: e322 893c 03bf 86bd 9c65 5dbd 89a7 d339
000000d0: 9356 313c 04e7 59bd 5deb 1f3d de80 afbd
000000e0: d136 c23d 05fd 893d f3e5 babd 9403 523d
000000f0: 80d4 14bd c96a 8dbc 57c6 713d ff5d 56bc
