results/lstm_best_model.pth (torch, 217413 bytes, 9 tensors)

lstm.weight_ih_l0 f4 [256, 12]
00000000: ccb8 c33d 667b d43d 20e5 efbc 1c2a eb3d
00000010: b05c e0bc 38a2 ce3c 1045 79bd 2858 963d
00000020: ccac e13d 0ecf bbbd a483 de3d b0a6 bf3c
00000030: 9422 bd3d 50ae 8a3c 5ce1 763d 6094 90bc
00000040: c658 c53d 385b 973c a405 6fbd 0882 023d
00000050: ace5 6bbd c02c 70bc fcf3 4fbd aed2 a93d
00000060: 2a14 cabd 8c09 6cbd 6c93 10bd feec 99bd
00000070: f04b 413c 8ad8 fcbd 2832 e73d c076 d9bd
00000080: 96a3 c53d c869 aa3c ac3f 26bd f831 9e3d
00000090: 5897 9f3c b0d6 ce3d 00e3 5f3c 9878 21bd
000000a0: e890 093d 08d8 0abd a47a 573d fe8f e43d
000000b0: b6fb 933d 14d5 5fbd 9ec7 933d 7038 b73c
000000c0: 7a01 823d 8608 9cbd a46a fdbd 0cd1 45bd
000000d0: 9c5b c4bd d60e d23d d878 133d cc13 543d
000000e0: fcec 213d 0082 0ebb 0459 c83d 38e4 b5bd
000000f0: 20f3 003c f4ba aebd 50e0 1d3d e052 30bd
00000100: 98e2 1c3d 7857 d5bc 0653 d43d 50bb 97bd
00000110: 8aad 98bd e6af 98bd e241 e63d e49f 2a3d
00000120: 1056 f63d 4e45 d3bd 98eb fdbd fe48 c8bd
00000130: 5a35 acbd 6c61 4f3d b855 373d 76b7 d43d
00000140: 7434 84bd aa84 aebd f8d3 873d e4f3 4ebd
00000150: 5c5f 9b3d f0fe f2bc 9a71 923d 60e7 c6bd
00000160: ba30 81bd c418 1c3d 387b d83c f489 02bd
00000170: 0298 983d fa07 ae3d f6a4 b9bd 96ab 88bd
00000180: d268 ea3d f4c3 2cbd 2c83 35bd 48b4 f7bd
00000190: 849a 92bd 88cc ff3c 3829 87bc aad3 b9bd
000001a0: 4028 403b 6ede aebd 8630 d9bd 3af8 8cbd
000001b0: e60d e0bd 4401 a3bd 5ee6 ff3d 7068 c13c
000001c0: 1cc7 1d3d 66c4 eebd 5422 a8bd 146c 2abd
000001d0: c01f a03c 8642 e1bd 649b 5cbd 5842 99bd
000001e0: 009e b539 5084 3ebd f0ea 0dbc 2479 adbd
000001f0: 98b7 afbd d259 95bd 9c41 2fbd 500e cabd
00000200: f6a5 d63d 283a cbbc f642 dc3d b087 1f3d
00000210: b0c7 d8bd 3829 b13d c8df 0cbd 5043 44bd
00000220: 807f d4bd 5081 febd 187d 123d c0af dfbc
00000230: 5c55 473d 0017 d2bd d60f be3d f2ea bbbd
00000240: 48d1 b0bc f0e1 d53c 1429 843d e4ab ce3d
00000250: a034 e93d f2fc cabd 88da 003d 7839 5cbd
00000260: 006e 60bc 0c9d bfbd 082e e93d 2ee4 bbbd
00000270: ccd1 883d e4ef 333d a060 263d ca67 8abd
00000280: 0cb1 e83d 4006 e13c 38ba 833c ea99 e1bd
00000290: 84ee 563d 009f 99bc 448f 6abd ece3 db3d
000002a0: b04c e43c 86a3 8dbd 5292 81bd 809b c3bb
000002b0: c4f0 8e3d 54d5 02bd 3211 92bd ac54 2fbd
000002c0: 4c40 bfbd 8898 363d 8027 c63d 3c02 f1bd
000002d0: 20d3 ed3c 5c3f 843d 68ae b93c f855 36bd
000002e0: 009e 853d 0888 863d 6473 3f3d 50f0 b3bc
000002f0: 0894 07bd d018 5b3c d0e4 b4bc 9893 18bd
00000300: 10a3 a33d 9c01 dc3d 20bf 4abc 3845 e5bc
00000310: 8014 ef3a a090 f4bb 602e f63c c87a 0f3d
00000320: 8483 e8bd 84f2 3cbd cc95 d73d c073 473d
00000330: a0b9 cbbb 0858 9abd 429f 9cbd fa50 e5bd
00000340: 8ce4 26bd 90e7 2c3d 2c3b a33d 9863 6c3d
00000350: 284a e2bd e4f2 99bd b09a a1bc 38a4 f73d
00000360: 1821 943c d097 04bd 7cd2 533d e802 43bd
00000370: 8cb2 a5bd e4d9 ba3d acce 68bd 2847 cdbc
00000380: 7eab febd 5255 ab3d 58f4 c13d f498 3a3d
00000390: 9080 b2bd 18a8 fcbd f6ea cfbd 36e6 be3d
000003a0: 6cd0 753d d66c d73d 561c 863d 4c95 013d
000003b0: 8071 a0ba 86b0 c2bd 6c55 dbbd 0273 efbd
000003c0: e497 513d 2860 7bbd 2815 cebc 5054 93bd
000003d0: d098 babc 862e b4bd 4046 a7bd 00d6 293d
000003e0: 202a 18bd 340a 9e3d 0c41 24bd 10cb bbbd
000003f0: 68ac b4bc d030 78bd 60a4 1cbd fcb5 f3bd
0.095567316 0.10375099 -0.02928406 0.11482641 -0.027387947 0.025223836 -0.06085688 0.07341033
0.110192865 -0.09170352 0.10864952 0.023394912 0.09235111 0.016928822 0.060273513 -0.017648876
0.09636073 0.018476114 -0.05835499 0.03186229 -0.05759208 -0.014659107 -0.05076979 0.08292137
-0.09867127 -0.057626292 -0.035296842 -0.07515906 0.01179789 -0.12345989 0.112888634 -0.10618353
0.09650342 0.020802394 -0.040588066 0.077243745 0.019481346 0.10099542 0.013664961 -0.039421648
0.03358546 -0.03389743 0.052607194 0.11160277 0.072257444 -0.054646567 0.07215808 0.022365779
0.06347938 -0.07618813 -0.12373856 -0.048295066 -0.095877856 0.10256736 0.036003917 0.051776692
0.039532647 -0.0021744967 0.097826034 -0.0888142 0.0078704655 -0.08531752 0.038544 -0.043047786
0.038302034 -0.026042685 0.10367398 -0.07408774 -0.07454975 -0.07455425 0.11243035 0.04165639
0.12028134 -0.10315953 -0.123984516 -0.09779547 -0.084086135 0.050630018 0.044759482 0.10386555
-0.06455317 -0.085213974 0.06632227 -0.05052556 0.07586548 -0.02966258 0.07150574 -0.097121
-0.06308122 0.038109556 0.026425943 -0.031869844 0.07450868 0.08497615 -0.09064667 -0.066733524
0.11445774 -0.042179063 -0.04431455 -0.12094933 -0.07158378 0.031225458 -0.016499147 -0.09073575
0.0029320866 -0.08538519 -0.10604958 -0.06883283 -0.10940151 -0.07959226 0.12495111 0.02360937
0.038519964 -0.11658554 -0.082096726 -0.041606978 0.01954639 -0.109990165 -0.05385913 -0.07483357
0.0003464073 -0.0465129 -0.0086619705 -0.08470371 -0.085799396 -0.072925225 -0.04278718 -0.09866011
0.10480873 -0.024808004 0.10754959 0.03894776 -0.10584962 0.0865044 -0.034393102 -0.047915757
-0.10375881 -0.12427008 0.03576383 -0.027305484 0.04866539 -0.10258293 0.09280364 -0.09175672
-0.021584168 0.026108712 0.064531475 0.10091379 0.113869905 -0.09911527 0.031458408 -0.053765744
-0.013698101 -0.09356126 0.11385733 -0.09174381 0.066806406 0.04392995 0.040619493 -0.067580774
0.11361894 0.0274688 0.016080007 -0.11015685 0.05247356 -0.018752575 -0.057265535 0.10736832
0.027868599 -0.06915955 -0.063267365 -0.005969465 0.06979516 -0.031941727 -0.07132186 -0.04280536
-0.093384355 0.04457906 0.09675503 -0.11768004 0.029031336 0.06457397 0.022666171 -0.04451558
0.06524277 0.06568915 0.046740904 -0.021965176 -0.033100158 0.013372615 -0.022081763 -0.03725013
0.07990086 0.107424945 -0.012374669 -0.027987108 0.0018240362 -0.0074635297 0.03005141 0.035029203
-0.113532096 -0.04612972 0.10526618 0.048694372 -0.0062171966 -0.07536322 -0.076475635 -0.11197086
-0.040745303 0.042213023 0.079702705 0.057712168 -0.110493004 -0.07517031 -0.019727081 0.12091869
0.018082187 -0.032371342 0.051714405 -0.047610193 -0.08090696 0.091235906 -0.056837723 -0.025058344
-0.12435053 0.08365883 0.09470433 0.045556024 -0.087159276 -0.12336749 -0.10152237 0.09321253
0.06001322 0.10518806 0.065483734 0.03163652 -0.0012240857 -0.095063254 -0.10709652 -0.11691858
0.051170245 -0.061371 -0.025156572 -0.07193816 -0.022777945 -0.08797936 -0.08167696 0.041463852
-0.03714955 0.0771679 -0.040101096 -0.091695905 -0.022054866 -0.060593426 -0.038242698 -0.11899945

lstm.weight_hh_l0 f4 [256, 64]
00000000: d8c8 00bd 6050 383c 880a 09bd 2aa7 fabd
00000010: 701b 54bc 98d0 793d 4047 6ebc 881d 7cbd
00000020: c0c8 813b f0dd ba3c 24db 0ebd 2086 c6bd
00000030: ae40 89bd 20f2 a6bc a464 383d 6ea7 e33d
00000040: c008 183b 4c51 373d 864b 933d 2c42 5fbd
00000050: e8e3 29bd 6ace a93d 004b b73d 58a5 f23c
00000060: 12d5 c5bd 584d 913d 2e95 d3bd b8e8 7f3d
00000070: a0b7 723c 3062 253d 1489 f9bd ac01 34bd
00000080: d471 593d 280a c53d ac94 12bd b649 e43d
00000090: c083 e4bc ce67 9abd e0b7 5dbd c0e1 fe3b
000000a0: b8ff b5bc 5ccf 773d 0ead 8dbd 20a6 11bd
000000b0: 08b3 fdbd 52f5 d03d c8ad c0bc d2ce c9bd
000000c0: 20a6 c5bb 0040 6fb9 6432 0e3d 60ca 60bc
000000d0: 480a a13d f4a6 30bd 3c3f 19bd 482b f3bc
000000e0: 90d0 b63c c61c cd3d a078 bcbb 4cf9 c43d
000000f0: 9219 c93d 5049 85bd f0f6 2fbc b8b1 71bd
00000100: 8cfa 543d dc00 34bd 802f 1c3d c0b6 f43b
00000110: 1e0e a8bd 781b acbd a40a fabd a033 8fbd
00000120: 8807 0f3d 608d f93b c289 c03d c01a e1bd
00000130: 8062 6fbb d88a e5bd 00d0 3f3a 548a 3a3d
00000140: a2a4 e5bd 4816 e23d c805 1fbd 44d3 e23d
00000150: 28e1 abbc 8c3b 913d 3eb9 e83d d867 3abd
00000160: b8eb f8bc 9047 863d 662b dbbd 9888 973d
00000170: 08cc a0bd 70c3 ed3d 06c6 a7bd a0b1 52bd
00000180: 0206 bf3d 04eb 5ebd 446e db3d 0c22 b03d
00000190: a8fc e93d de22 f8bd 00a1 b73a 5c67 28bd
000001a0: a8eb f33c 084b c1bd 98f2 513d 000b c2bb
000001b0: 4004 72bd 6c4c e6bd cce7 853d a44b 39bd
000001c0: 76e5 bc3d 6849 b63c 48b8 1b3d e84d 9bbc
000001d0: 38d9 8dbc 6cee 2dbd aeab ddbd 3ef2 a03d
000001e0: b436 a1bd d834 953d 4cb0 2cbd 4660 a03d
000001f0: ce65 db3d 3892 9cbd c062 d33d c0a8 473b
00000200: fc90 c3bd 2001 513d 0ef5 903d c0aa e13d
00000210: 0cb1 f3bd 8a28 e73d 5013 c23d ccd7 fb3d
00000220: 8685 8b3d d0e3 78bd 6034 c23d 76f6 e93d
00000230: fcc5 43bd 2862 a7bc 0854 c83d 5613 ce3d
00000240: 341c a93d 3e21 c43d d88e 83bd c8a7 b0bc
00000250: 6c8c 4cbd 8e0d 853d 8831 ff3c 7cbf c5bd
00000260: 58a0 80bc aac1 d0bd 08ed f0bd 7260 e93d
00000270: fcc5 80bd 5485 643d d805 e4bc f85b cfbc
00000280: 0050 a9b8 56a9 c73d f8a7 8dbc cad4 d33d
00000290: a0c9 953d 449e af3d 3e2d e8bd a868 6fbd
000002a0: c691 d0bd 687c d9bc c817 d4bc a814 d03c
000002b0: 565e e53d e4d6 653d ba23 b2bd 788c a0bd
000002c0: 984e c13d c0dd 4b3c 78a4 103d a4e5 85bd
000002d0: 80c0 79bc d8c4 113d 62fe a7bd d214 a73d
000002e0: f426 7f3d c64a 95bd 20f6 51bd 50be f0bc
000002f0: 785c 9f3c d4cf 3bbd 20e5 f43d e294 f6bd
00000300: eab0 90bd f262 9bbd 4c6f 0a3d 1050 913c
00000310: c4e5 11bd 3a7c da3d 28fe dcbd 5874 343d
00000320: 4add 8cbd 702c e9bc 3287 f6bd 161b bfbd
00000330: f833 d9bd 4c5f 5f3d 6442 40bd eee9 853d
00000340: 2abd 8abd 00b6 fdbc 80e7 773c 3a82 d63d
00000350: b0fd 09bd a668 943d 143f 0d3d 2ab3 9b3d
00000360: a2b7 a13d 1cc7 4f3d 6864 1abd 84b3 0fbd
00000370: 8052 473d e887 8b3d 209e dabb 9653 803d
00000380: b603 9abd e64b 903d f051 7bbc 082c b0bd
00000390: ccc5 78bd ba81 c3bd 008f ce3c d4d2 97bd
000003a0: 3c9e 12bd 4051 00bc 7e33 9cbd 005a 523b
000003b0: 60f5 81bc 042c 223d b4ef b83d 108a 9abd
000003c0: 90f7 8b3d 0090 2dbb 6c51 92bd f832 68bd
000003d0: cc52 023d e835 d53c 404d 84bb 9ce5 7ebd
000003e0: 8619 813d 88ee 973c 94dd f8bd d8f7 b4bc
000003f0: 78e9 0abd ac79 5abd ac00 8ebd e4ae cfbd
-0.03144154 0.011249632 -0.03345731 -0.12238915 -0.012945995 0.060989946 -0.0145433545 -0.0615516
0.003960699 0.022810906 -0.034876958 -0.09693551 -0.0670179 -0.020379126 0.045017853 0.11115919
0.0023198575 0.044755265 0.07192139 -0.054506466 -0.041477114 0.082913235 0.08949852 0.029619858
-0.096597806 0.0709483 -0.10331188 0.062477797 0.014814287 0.040376842 -0.12184349 -0.043946907
0.05308707 0.09621078 -0.035786316 0.11146872 -0.027894855 -0.075393304 -0.054130435 0.0077783763
-0.022216663 0.060500488 -0.06917773 -0.03555882 -0.12387663 0.10203041 -0.023520365 -0.09853901
-0.0060317665 -0.00022816658 0.034716025 -0.013720125 0.07863289 -0.04312797 -0.03741382 -0.029683724
0.022316247 0.10015254 -0.0057516843 0.09617862 0.0981933 -0.06508124 -0.010740027 -0.059007376
0.051996753 -0.043946132 0.038131237 0.0074680746 -0.08205818 -0.08403677 -0.12209061 -0.069922686
0.03491929 0.00761573 0.09401275 -0.1099143 -0.0036527216 -0.11208123 0.0007317066 0.045542076
-0.11213042 0.11039406 -0.038823873 0.11075452 -0.020981386 0.07091436 0.11363457 -0.04550919
-0.030385837 0.06556618 -0.10701637 0.073991 -0.07851416 0.11609542 -0.08192067 -0.051438928
0.09327318 -0.054423347 0.10714391 0.08600244 0.114251435 -0.121160254 0.0014009774 -0.041114196
0.029775456 -0.09438139 0.051256746 -0.0059217215 -0.059086084 -0.11245045 0.06538352 -0.045238152
0.09223454 0.0222518 0.03801754 -0.018958047 -0.017315492 -0.042463705 -0.10823761 0.07858704
-0.07871762 0.0728547 -0.042160317 0.07830863 0.10712777 -0.076450765 0.103215694 0.0030465573
-0.09549138 0.051026464 0.070779905 0.11018896 -0.118990034 0.11287029 0.0947634 0.12297019
0.06812577 -0.060764134 0.09482646 0.11423962 -0.047796234 -0.020432547 0.09781653 0.10062282
0.082573324 0.09576653 -0.0642373 -0.02156438 -0.049938604 0.06496726 0.031151548 -0.09655663
-0.015701458 -0.101931885 -0.1176396 0.113953486 -0.062877625 0.055791214 -0.027834818 -0.025312409
-8.073449e-05 0.09749095 -0.017292008 0.10343321 0.073138475 0.08575109 -0.11336754 -0.058449417
-0.10184054 -0.02654858 -0.025890246 0.025400475 0.11199634 0.05611314 -0.086982206 -0.07839292
0.09438819 0.012443006 0.0353131 -0.06537941 -0.0152436495 0.035588115 -0.082028165 0.08158268
0.062293008 -0.072896525 -0.051260114 -0.029387623 0.019453272 -0.045852497 0.119577646 -0.12040116
-0.07064994 -0.07587232 0.033797547 0.017738372 -0.035619512 0.106682256 -0.10790664 0.044056267
-0.06878145 -0.028463572 -0.12037505 -0.09331338 -0.106056154 0.05453424 -0.046938315 0.06538759
-0.067743614 -0.030970573 0.0151308775 0.104740575 -0.0336892 0.072465226 0.034483984 0.07602532
0.07896353 0.050726995 -0.03769341 -0.03508331 0.048662663 0.068130314 -0.006671682 0.06265943
-0.07520239 0.070457265 -0.01533936 -0.08602148 -0.06073551 -0.09546228 0.025214672 -0.07413259
-0.035795435 -0.0078318715 -0.07627009 0.0032097101 -0.015864074 0.039592758 0.09030095 -0.075458646
0.06834328 -0.0026483536 -0.07144436 -0.056689233 0.031817243 0.026026681 -0.004037529 -0.06223069
0.06303696 0.018546358 -0.12151638 -0.022090837 -0.03391406 -0.05333869 -0.06933722 -0.101407796

lstm.bias_ih_l0 f4 [256]
00000000: 140c 223d 8047 8e3a 8a57 a9bd 3a89 b9bd
00000010: a8c7 99bc 2891 383d 4000 f13b e063 6e3c
00000020: 2a7a 89bd 0429 66bd 1802 8dbc 905b 553d
00000030: f6e0 eabd 48a4 593d 22cc 8f3d 62f3 fcbd
00000040: 58e3 563d 5075 9a3c 90d7 4b3d 701d 8ebd
00000050: fc51 a13d fcd4 93bd 0cbe 5ebd f8cb 243d
00000060: c88d dcbc 4a6c b23d d02b 6dbc 6a96 c7bd
00000070: aa56 d5bd c0db d23b 507e c7bd e8d9 e43d
00000080: 9e8a de3d 7c1d 9a3d ae55 c3bd 0866 ebbc
00000090: 6ae1 bc3d 688a d03c e01f 213c 20e8 1ebc
000000a0: 6882 8cbd 60e2 22bd 8c39 953d a875 c7bc
000000b0: 702d 09bd c453 7c3d f471 76bd f8eb 97bc
000000c0: c4a9 d43d c893 923c ac38 693d f898 7cbd
000000d0: 0c83 773d 36b1 8abd 9699 fa3d b8c0 0dbd
000000e0: 6edc babd 1866 ddbc 0092 bc3d 20dc c83d
000000f0: f0d0 103c 1010 b23d 20d4 2abd c044 4abc
00000100: 9049 bc3d 00e3 b1ba b01b d83c 1043 983d
00000110: b068 1e3c 1427 95bd 80e2 5d3c 40ce f6bb
00000120: f00b 4bbc 94b2 f73d 145a da3d f2e3 e7bd
00000130: 2845 3abd 1062 61bc 0a91 933d 608a e0bc
00000140: 6863 9dbc 68b1 04bd 3c7d 9fbd 72eb dbbd
00000150: 1e74 cbbd 8053 c23c a8b1 6e3d a18a 03bc
00000160: 70b6 eb3d 60ec b1bc f4b7 be3d 48ac abbc
00000170: dc56 8ebd 6014 493c c434 ffbd 44e3 3f3d
00000180: 38e9 d83c 3496 6e3d cc88 853d f6d4 db3d
00000190: 18f2 a7bd 0a34 f1bd a077 2e3c 7412 62bd
000001a0: 00d0 243a 48cf dd3d b09a 593c 8018 763c
000001b0: 8ef9 d4bd 0093 2b3a 2847 cdbd 2022 00bd
000001c0: b612 b03d f0fc 26bc 4c6e 573d a0f1 2d3d
000001d0: 467b ac3d d055 243d cc17 e3bd 9043 1ebc
000001e0: f031 3b3c 0064 57bd e005 c1bd 1028 a5bd
000001f0: 206a 6c3d b46a 30bd 406d 39bc 7c37 1b3d
00000200: 82fe a83d 3e3c 843d b038 653d 10da e73d
00000210: e830 bc3c b4c6 61bd 94a2 673d 506c 46bc
00000220: 0020 fc3d 0af8 c5bd 1042 95bd 084a a63d
00000230: 84bf a7bd c4d3 8b3d ba02 a9bd 00b5 1c3d
00000240: 9a2e dc3d 20b3 4c3d 466e 98bd 5cc2 4c3d
00000250: 80be 8eba 786c d3bc 6604 fcbd 50be a8bd
00000260: f4fc 2dbd 30de be3d 6ee6 afbd 3c88 efbd
00000270: 1458 bbbd 18aa 243d 2e46 e4bd e8e6 ffbd
00000280: c0b0 623b 1e74 f1bd 50b1 ca3c 80bc 5fbc
00000290: 46ff e83d 24a8 3ebd e686 ecbd 5e7a 95bd
000002a0: 2037 d1bb 8424 4dbd 348c fa3d 02fb c7bd
000002b0: 2e0f f6bd 9042 5f3d 5079 f6bc 8c28 9f3d
000002c0: 5876 ab3c 603a 303d 84bc b73d 70fa 7bbc
000002d0: f423 58bd 5c52 38bd 74ec 05bd 64b7 e4bd
000002e0: bea4 d23d 7005 5f3d dc42 32bd a81f c93d
000002f0: f42d 4d3d d483 533d 1e02 963d 703f a23c
00000300: e0e6 20bc 38bd c03d ccb1 233d 645b ab3d
00000310: 227c 8f3d fcc1 aabd a8da febc f07f c73d
00000320: 889f b6bc 0051 5ebd 4444 5dbd fec8 cabd
00000330: 6ea8 953d 9ccc 933d 3477 8cbd ca5d f8bd
00000340: 00f6 ef3c 8040 f43b d254 b43d a828 d53c
00000350: 6004 97bc c684 9c3d da85 a73d 186a 803d
00000360: 808e b03d e23c e8bd d817 553d d04f 8e3d
00000370: aa30 9b3d 047b 50bd f8a0 f53c 623d d1bd
00000380: 6410 cd3d e0c4 133c 723d b23d b402 0d3d
00000390: 3441 67bd d2cc 8d3d e803 a53d 84e3 87bd
000003a0: 28b4 2e3c 8a6d 88bd 80b1 b6bd d075 453d
000003b0: 60a7 d6bd a01d 433d 0253 c2bd 4029 9bbb
000003c0: 38e4 37bd e0ca 723d e297 ee3d 4a1a c0bd
000003d0: e8ae 0bbd c021 a6bc 56c9 e0bd ce2a e3bd
000003e0: 3044 6dbd a86b dfbc 8c48 de3d b400 203d
000003f0: 5ce8 de3d 64c3 cfbd b634 88bd 4089 5e3c
0.0395623 0.0010855049 -0.0826865 -0.09059377 -0.018771961 0.045060307 0.007354766 0.014550179
-0.06712754 -0.05619146 -0.017212912 0.052089274 -0.11468689 0.053135186 0.07021357 -0.12351109
0.052462906 0.018854767 0.049766123 -0.069392085 0.078769654 -0.07218358 -0.05438046 0.040233582
-0.026923075 0.08712061 -0.014475778 -0.09745486 -0.104169205 0.0064348876 -0.09740889 0.11174375
0.10866283 0.07525155 -0.095378265 -0.028735176 0.09222682 0.025456622 0.00983426 -0.009698898
-0.068608105 -0.03976667 0.07286367 -0.024348095 -0.0334906 0.061603323 -0.060167268 -0.018545136
0.10383943 0.017892733 0.056938812 -0.06166932 0.06042771 -0.067720816 0.122363254 -0.03460762
-0.09124075 -0.027026221 0.09207535 0.098076105 0.008838877 0.0869447 -0.041706204 -0.012345493
0.091937184 -0.001357168 0.02638039 0.07434666 0.009668514 -0.07282844 0.013542771 -0.007531911
-0.012392983 0.12094608 0.10661712 -0.11322774 -0.04547611 -0.01375629 0.072053984 -0.027409732
-0.01921244 -0.03239575 -0.077875584 -0.10738267 -0.09934257 0.023721457 0.058274895 -0.008028657
0.115094066 -0.021719158 0.0931243 -0.020956174 -0.06950161 0.012272924 -0.12461236 0.046847597
0.026478395 0.058248714 0.065202326 0.107339785 -0.082004726 -0.11777504 0.010648638 -0.05519338
0.0006287098 0.108305514 0.013281509 0.01502049 -0.10399161 0.0006545037 -0.100233376 -0.031282544
0.08597319 -0.010192141 0.05259542 0.04246676 0.0842195 0.0401209 -0.11088523 -0.009659663
0.01142548 -0.0525856 -0.09424949 -0.08064282 0.057718396 -0.04307051 -0.011317551 0.03789471
0.082516685 0.06456803 0.055962265 0.11320889 0.022972539 -0.05512114 0.05655153 -0.012110785
0.12310791 -0.0966645 -0.07287991 0.08119589 -0.081908256 0.068275005 -0.08252473 0.038258553
0.10751076 0.049975514 -0.07442908 0.049990043 -0.0010890514 -0.025808558 -0.123055264 -0.08239424
-0.042477563 0.09319723 -0.08588873 -0.116959065 -0.09147659 0.040201277 -0.11146198 -0.12495214
0.0034590214 -0.11789726 0.024742752 -0.013655782 0.113768145 -0.04654707 -0.11549167 -0.0729873
-0.0063847452 -0.050083652 0.12233773 -0.09764673 -0.12014614 0.05450684 -0.030087143 0.077714056
0.020930454 0.04302442 0.089715034 -0.015379533 -0.052768663 -0.04500042 -0.032696202 -0.111677915
0.10285328 0.054448545 -0.043520793 0.09820491 0.050092652 0.051639393 0.073246226 0.01980564
-0.00982067 0.094110906 0.039964482 0.08367041 0.07006098 -0.08337781 -0.031110123 0.09741199
-0.022292867 -0.054276466 -0.05402018 -0.099016175 0.07307516 0.072167605 -0.06858674 -0.12127264
0.029292107 0.007453978 0.08805241 0.026020363 -0.018434703 0.07642512 0.08179827 0.06270236
0.0862093 -0.113397375 0.052024692 0.06948817 0.07577641 -0.050898567 0.029983982 -0.10216786
0.10012892 0.009019107 0.08703126 0.034426406 -0.056458667 0.06923832 0.08057386 -0.06635192
0.01066307 -0.06661518 -0.08920574 0.048208058 -0.10481143 0.047635674 -0.09488489 -0.004735142
-0.04489538 0.059275508 0.11650063 -0.09380014 -0.03410235 -0.020279765 -0.10975902 -0.11092149
-0.057926357 -0.027273014 0.10853681 0.03906317 0.10884163 -0.1014469 -0.06650679 0.013582528

lstm.bias_hh_l0 f4 [256]
00000000: e648 cbbd 0432 693d 0072 fcb9 04b3 fbbd
00000010: 2869 fabd 60e7 4d3c 140f 293d 8003 91bb
00000020: 70b2 16bd f00b a53d 0074 f13b 04d0 7ebd
00000030: d067 d63d ecb3 04bd 349c 23bd 7062 47bc
00000040: 1834 cbbc a0b9 07bc 6098 5abd 4868 993d
00000050: a0d1 ba3b 483c 913d 7060 673c cc7d aa3d
00000060: 68e5 abbd 1823 853d 9c24 463d a801 643d
00000070: 4a89 89bd 903b 4b3c bc57 42bd 2023 38bd
00000080: 709d a1bc d862 9cbc 7cc4 663d aa9f fd3d
00000090: fcb4 05bd f6af f33d 982b 883d 547e e4bd
000000a0: 302a c83d 4aca cabd 1c21 52bd d828 40bd
000000b0: 0038 22bb 521d fcbd 7e5e f0bd c65e d1bd
000000c0: c078 79bd 0067 183a 4230 aa3d 36c7 e9bd
000000d0: e0a7 633c aa6d c43d 1025 1d3d 78fd df3c
000000e0: b281 e3bd 64b5 a23d 88ed e4bc 30a2 523d
000000f0: 4ecc a9bd 105f adbc e6c6 963d b440 a4bd
00000100: 845f c5bd 101d 72bc aca8 833d a2fd adbd
00000110: e0a1 833c d439 57bd 680a 963c b8fd 9b3c
00000120: 2256 ac3d cc5c 81bd ca6d ebbd 101d 713c
00000130: 9e00 8f3d 34c5 61bd 3cac 253d 6857 e9bd
00000140: e49e 7c3d b885 843d f0e0 eebd 38c7 f0bc
00000150: 6c58 5d3d a015 673d 3021 183d 9dcf b8bd
00000160: 4629 d53d f0c7 dfbd 80d4 26bb 664c 88bd
00000170: 9c05 d2bd d4a6 60bd e891 e43d 0e9f debd
00000180: 70c1 ae3d 3e60 e33d 36f8 8fbd 089f 1b3d
00000190: 1c54 45bd 90db f0bd 966d e0bd 6854 b1bc
000001a0: e272 b8bd 1866 86bc a6ac 933d 7caf 783d
000001b0: 9217 fdbd 584c 473d 00f0 62ba 3ca7 2f3d
000001c0: 4ab5 a33d 7264 d5bd 5ca8 84bd 746a 5b3d
000001d0: c0e7 a93c 1cd5 10bd 3e18 81bd 6882 973c
000001e0: ac57 0abd acc1 153d c02b 62bd f6d5 f83d
000001f0: d07f 803c c89f 08bd 1e3d d3bd 5e3a f93d
00000200: c2e2 bfbd 680e dfbd 509f 483d 2007 84bd
00000210: 4ecd ba3d 00db cc3c 08e6 95bd 90bc e2bd
00000220: 8e66 a9bd b4d6 f63d 8038 603b e28b 95bd
00000230: 367d d93d 8425 333d dc24 bf3d 0088 af3d
00000240: 502c a33d 5ebc 843d 78ee 663d 8cb6 4f3d
00000250: acd9 7b3d 80ad 18bd 007b f8bc 68f2 5cbd
00000260: 02e7 8bbd a28d d93d 2c29 993d 76c3 c33d
00000270: f85b 4b3d acab b33d 9c63 9b3d 7012 3ebc
00000280: c607 eebd 6087 463d 5017 1fbd 62bf a3bd
00000290: 4c28 bf3d dec1 e03d 5864 993d ccf6 25bd
000002a0: c06a 63bd 167f d83d b88e 983d 0807 b2bc
000002b0: 9290 c3bd a4ab 63bd 342e 4abd e82d 9abd
000002c0: 1200 dabd 6843 e8bc 9ce2 ca3d 48f6 aabc
000002d0: d010 543d c010 073b 964a ddbd 4280 cc3d
000002e0: 36fe da3d 78c6 dbbc 0446 363d e083 4f3d
000002f0: 24f7 a2bd e8e2 c23c ce14 92bd c852 7d3d
00000300: a407 cabd 2063 9e3b b432 29bd 2e49 dbbd
00000310: b0e5 413c 0395 05bd d0d2 0dbc 40c9 e63b
00000320: f20e ce3d 6ede b4bd f0a6 5d3d d4f0 93bd
00000330: 903e 693d a0a4 373d 668a d23d b884 5cbd
00000340: c01e 4d3c 78f5 e7bc a090 cebd cc48 cbbd
00000350: 0abd f13d 20e9 843b 82d8 963d d2b9 e7bd
00000360: 4afb cb3d 369c 903d 367f 833d e81c a73d
00000370: 2834 a9bd 20ee e53b 34d0 debd f043 2abc
00000380: 78f2 ce3d 5ae7 823d 88de 923d 1eeb 8fbd
00000390: 6cef e2bd dc44 0bbd 54b7 c03d 7440 c73d
000003a0: edf8 fa3d 3820 5f3d 4063 e7bb 30e3 f3bd
000003b0: 802b debb 8c31 973d 4cfe 363d 7c2a 1fbd
000003c0: bcdf 80bd 42a1 903d 80de cf3b 50bd 083c
000003d0: 88d3 12bd f8cd 523d a878 06bd 24f4 9b3d
000003e0: 187e cc3c a413 19bd d04a 47bc 6869 67bd
000003f0: b6a2 be3d 2cb5 0ebd 4c67 d43d e078 fabd
-0.09926014 0.056932464 -0.00048150122 -0.12290004 -0.12227088 0.012567371 0.041274145 -0.004425466
-0.036791265 0.080589175 0.0073685646 -0.062210098 0.104690194 -0.03239815 -0.03994389 -0.012169465
-0.024805114 -0.008284003 -0.053367972 0.07490593 0.005701259 0.07091576 0.014122114 0.08324775
-0.08393365 0.06500834 0.048374757 0.055665642 -0.06715639 0.0124043375 -0.04744695 -0.044955373
-0.019728392 -0.019090101 0.056339726 0.12383969 -0.032643303 0.11898796 0.0664894 -0.11156908
0.097736716 -0.09901865 -0.051301107 -0.04691395 -0.0024752617 -0.1231028 -0.11736773 -0.10223155
-0.06090617 0.0005813688 0.08309986 -0.114149496 0.013895005 0.09591229 0.038365424 0.027342543
-0.11108722 0.07944754 -0.027945295 0.051424205 -0.08290921 -0.021163493 0.073621556 -0.08020154
-0.09637359 -0.014777437 0.06428656 -0.08495642 0.016068399 -0.052545384 0.018315509 0.019041881
0.08414866 -0.06316528 -0.1149555 0.014716402 0.069825396 -0.05511971 0.04044746 -0.113936245
0.061674967 0.06470817 -0.11663997 -0.02939187 0.054039404 0.056417108 0.037141025 -0.09023974
0.10408263 -0.10926807 -0.002545625 -0.06655197 -0.10254976 -0.0548466 0.11160642 -0.10870181
0.08532989 0.11102341 -0.07029764 0.03799346 -0.048175916 -0.11760628 -0.10958402 -0.021646693
-0.09006287 -0.016406104 0.072106645 0.06071423 -0.12358011 0.04865679 -0.00086569786 0.042884097
0.079935625 -0.10419549 -0.064774245 0.05356832 0.02074039 -0.035359487 -0.06303452 0.0184948
-0.033775017 0.036561653 -0.055217505 0.12150185 0.015685946 -0.033355504 -0.103143916 0.12169336
-0.093694225 -0.1089142 0.048980057 -0.064466715 0.0912119 0.025006771 -0.073192656 -0.11071122
-0.08271514 0.1205267 0.0034213364 -0.07302071 0.10619585 0.04373695 0.09333202 0.08570862
0.07967436 0.06481241 0.056379765 0.0507112 0.061486885 -0.037274837 -0.030332088 -0.053942114
-0.068311706 0.106227174 0.07478556 0.095587656 0.049648255 0.08772978 0.07587358 -0.0116010755
-0.116225764 0.048468947 -0.038840592 -0.07995488 0.09333858 0.10974477 0.07489842 -0.040518567
-0.055521727 0.10571115 0.074490964 -0.021731868 -0.09549059 -0.05558361 -0.04936047 -0.07528287
-0.10644545 -0.028352454 0.099065036 -0.02086939 0.051773846 0.002060935 -0.10805242 0.09985401
0.10693018 -0.026828036 0.044500366 0.050662875 -0.079572946 0.023789838 -0.071328744 0.061846524
-0.098647386 0.004833594 -0.04130812 -0.10707317 0.011834547 -0.03261281 -0.008656219 0.007043034
0.10061444 -0.088314876 0.054114282 -0.07223669 0.05694443 0.044834733 0.10280304 -0.053837508
0.012519538 -0.02831529 -0.10086179 -0.09925994 0.118036345 0.004056111 0.07365514 -0.11314739
0.09960039 0.07061045 0.06420748 0.0815981 -0.08261901 0.007016912 -0.10879555 -0.010392174
0.10104841 0.06391783 0.07171351 -0.07027267 -0.11080822 -0.034001216 0.09409967 0.0972909
0.1225451 0.054474086 -0.007061392 -0.11908567 -0.006780088 0.07382497 0.04467611 -0.038858876
-0.06292674 0.070620075 0.0063436627 0.008345917 -0.035846263 0.05146596 -0.03282991 0.076149255
0.02496247 -0.037372246 -0.012163833 -0.056497008 0.093083784 -0.034840748 0.10371265 -0.12230086

lstm.weight_ih_l1 f4 [256, 64]
00000000: 2421 a53d 6542 4f3d e88e d03d 166c 38bd
00000010: c2f4 b3bd ed91 373d 26d4 c8bd 5c9c ce3d
00000020: f04f 613c 7eb7 b23d 9f4a b33d d0dc e4bc
00000030: 20be 4ebd 78d9 0fbd 462d 88bd 407a 1e3d
00000040: 4881 d53c 24a5 a4bd e080 c63c 8a87 ed3d
00000050: f66e cd3d 2036 883d 007d 753c 6159 733d
00000060: 2e47 863d e757 55bd efee 11bd 0099 aabb
00000070: c88b 833d 88b6 dfbd 381b b43c 4c62 b63d
00000080: d8b2 1b3d 42f9 c1bd ba8b 8cbd 1ea1 e4bd
00000090: c01f cfbd 22e8 cdbd 30bf 22bc 9841 53bd
000000a0: abf0 f7bd a464 e33d f0a4 f43c 2694 a8bd
000000b0: 5648 8fbd 45ee f5bb a00e a93d b84e 23bd
000000c0: 5487 3dbd 5ae7 a13d 884e 92bc 2027 38bd
000000d0: 947c ab3d d6c7 cdbd 77b3 073d 609c debd
000000e0: e0b8 9e3b 548f b2bc 7b08 aebd be08 88bd
000000f0: 14aa a43d 4b1c cb3d 50cc d53c dcb1 563d
00000100: eaf1 8f3d eb1b a9bc 8aca febb 22ca ce3d
00000110: 2800 9d3d f703 42bd e8b2 e93c 2486 1b3d
00000120: 9c29 35bd b4e7 9b3d 11f8 4dbd 98bb 513d
00000130: 0e50 903d 5024 4fbc 722d cabd 14f1 d2bd
00000140: f8f6 80bc f4ad 8e3d fc53 e63d 1ee7 983d
00000150: 002d fc3b 4007 5ebc 6065 643c 4c77 39bd
00000160: 3079 cfbc ba86 8f3d 6ba7 d2bd 42f0 a1bd
00000170: 2060 08bd 08b0 9fbd 20ea bebd 68ae 7b3d
00000180: fc8c 663d 02ce 873d 28a3 b4bd fc9b 1d3d
00000190: 6952 873d c858 cf3c 942c 70bd b836 65bd
000001a0: 4e94 8d3d 1089 293d 8069 033d 5a92 c3bd
000001b0: f6ad e5bd 4e37 ca3d e000 ff3b 4a16 d83d
000001c0: 886e f5bd 659b 72bd 2aef ecbd 80ca ec3d
000001d0: 10b2 963c b46a 483d 871d c53d c0eb f03b
000001e0: 38ca dc3c 75f3 b7bd af43 6a3c 5a62 b33d
000001f0: c8f9 96bc 70a1 afbd bc64 84bd 8009 6d3b
00000200: b63d a93d 12fe 283c 8773 92bd ba9f 303c
00000210: c422 26bd 302c dd3b a633 a03d 9c4e d5bd
00000220: f0d5 0abd 9491 86bd ab10 d83d dafd d6bd
00000230: 485b efbc bac6 e5bd bea5 b5bd 1c6a 4cbd
00000240: 60d3 bb3c 061b e2bd 1091 51bc 96a5 8bbd
00000250: 42a7 b43d 5c60 a5bd e040 d7bd 3e56 40bc
00000260: 50b1 d2bd c89f 43bd f140 283d 945e cfbd
00000270: 30e3 4ebd 62da 913d 8e80 bd3d b439 d43d
00000280: 9c35 d83d 5839 d13d a0cb f4bc c46b 63bd
00000290: 5157 e0bc 98ee dc3c c090 533c da77 a1bd
000002a0: e460 d43d 78d0 0bbd 5c86 c13d 807d 353b
000002b0: dacf 513d 4aae 0f3c 9072 3f3d 0e89 9bbd
000002c0: d404 593d df7e 95bd 1a50 813d f4bd 68bd
000002d0: 541d 093d 1c2a f3bd db03 a5bd ccb5 d73d
000002e0: c6a5 c23d 0fd3 e3bd 91cc 9ebd f48d eabd
000002f0: 20a8 513c 6e6d 0bbd 0090 b1ba 04c4 223d
00000300: a453 0e3d dce0 a6bc 7250 a63c 1fb9 d0bd
00000310: 9c87 c43d 6666 e0bd e41d 86bd 882e 2abd
00000320: e65e 95bd a0d6 d73b 0951 813d ec31 2fbd
00000330: cc50 23bd 60c7 8fbd 4444 403d da0d b2bd
00000340: e43e bc3d e87d e33c 607c c6bd 10b3 12bc
00000350: 9c54 163d 4c78 fe3d 3481 35bd 0dac cebd
00000360: 0ae7 89bd b413 fd3c eed1 ab3d 40a3 833b
00000370: da16 e43d 9a8e b1bd 4077 febd f0a5 803c
00000380: 92f8 a03d 7c83 ef3d 0062 ed3b 0021 15bc
00000390: 71ab 7f3d c6b3 9d3d 6069 e9bd bcf4 7abd
000003a0: a1f6 b53d a857 13bd 3e87 cfbd 72b5 bebd
000003b0: fc34 83bd f631 5ebc 802c 0dbc 8672 d2bd
000003c0: 6ac5 f33d ae46 b83b aa1a f93d 48f8 35bd
000003d0: 6607 bc3d 5800 183d 8690 e8bd 446d b23d
000003e0: 84fc a43d fde7 bebd c6fc d13d 98ee d1bc
000003f0: c066 4fbd 5e9e 1bbd dc62 b2bd baa9 d83d
0.08062962 0.050600428 0.10183507 -0.045024954 -0.08786918 0.0448169 -0.09806089 0.10088417
0.013751969 0.087264046 0.08754467 -0.027937323 -0.050474286 -0.035119504 -0.0664926 0.038690805
0.026062623 -0.080393106 0.024231374 0.11598118 0.1003093 0.066509485 0.014983416 0.05941141
0.06556545 -0.052085783 -0.035628255 -0.0052062273 0.064231455 -0.10923487 0.021985635 0.089054674
0.038012356 -0.0947137 -0.06862588 -0.11163543 -0.10113478 -0.100540414 -0.009933278 -0.051576227
-0.12106451 0.1110318 0.029863805 -0.08231382 -0.06996219 -0.0075052106 0.082547426 -0.039869994
-0.046271637 0.07905455 -0.017859712 -0.044959188 0.08373371 -0.10047881 0.033130135 -0.1086967
0.004843816 -0.02179686 -0.08497711 -0.066422924 0.08040252 0.09917506 0.0260984 0.052415714
0.07028563 -0.020643195 -0.0077756094 0.100971475 0.076660454 -0.047367062 0.028527692 0.037969723
-0.044229135 0.07612553 -0.050285403 0.051204294 0.07046519 -0.012642935 -0.09871949 -0.10299888
-0.015742764 0.06966773 0.112464875 0.07465957 0.007695794 -0.013551533 0.013940185 -0.045279786
-0.025326341 0.07008119 -0.10285839 -0.07907154 -0.033294797 -0.07797247 -0.093219995 0.061445624
0.056286797 0.0663109 -0.08820182 0.038478836 0.06607515 0.025310889 -0.058636263 -0.055960387
0.069130525 0.04139048 0.032083035 -0.09549399 -0.11214821 0.0987383 0.0077820867 0.10551126
-0.11983973 -0.059230227 -0.115690544 0.11562061 0.018395454 0.048929885 0.096247725 0.0073523223
0.026951894 -0.089819826 0.014298364 0.087589934 -0.018429652 -0.08575714 -0.06464526 0.0036168993
0.082637236 0.010314481 -0.07150941 0.010780269 -0.0405605 0.0067496523 0.07822351 -0.10415384
-0.033895433 -0.065707356 0.10550054 -0.10497637 -0.029218331 -0.11219545 -0.088695034 -0.04990588
0.02292794 -0.110403106 -0.012790933 -0.068186924 0.088209644 -0.0807502 -0.10510421 -0.011739312
-0.10287726 -0.0477598 0.041077558 -0.10125461 -0.05050963 0.07121731 0.092530355 0.103625685
0.105571 0.102160156 -0.029882252 -0.055522695 -0.027385386 0.02696924 0.012912929 -0.07884188
0.10370043 -0.03413436 0.09449455 0.0027693212 0.051223613 0.008769581 0.046740115 -0.075945005
0.05298312 -0.07299589 0.06314106 -0.05682178 0.033475235 -0.11873266 -0.08057376 0.10532722
0.09504275 -0.111242406 -0.07753862 -0.11452857 0.012796432 -0.034039907 -0.0013546944 0.039737716
0.034747735 -0.020370893 0.020302031 -0.10191559 0.09596178 -0.10957031 -0.0654867 -0.041548282
-0.07293491 0.0065868646 0.06314284 -0.04277222 -0.039871976 -0.0702045 0.046940103 -0.08694048
0.09191683 0.027769998 -0.096916914 -0.008953825 0.036701784 0.124252886 -0.04431267 -0.1009141
-0.0673352 0.030893184 0.0838965 0.0040172637 0.11137171 -0.08669777 -0.12425089 0.015704125
0.07859911 0.116950005 0.0072443485 -0.009102106 0.06241936 0.07700305 -0.11397052 -0.061268553
0.08884931 -0.035972267 -0.10133217 -0.09311952 -0.0640659 -0.013561716 -0.008616567 -0.1027575
0.11902888 0.00562366 0.12163289 -0.044426233 0.09181099 0.037109703 -0.11355691 0.08712247
0.08055976 -0.09321592 0.10253291 -0.025626466 -0.0506351 -0.037992828 -0.08710262 0.10579248

lstm.weight_hh_l1 f4 [256, 64]
00000000: 7997 813d b598 01bd f761 ae3c f495 fbbc
00000010: fdd4 fbbd 7584 613d 7e43 1bbc dcdb ca3d
00000020: fe94 573c ec3c 03bd 4b68 243c 33cf 90bd
00000030: 34cb 643d f4e1 a73d 2f9b 02bd 3e47 f6bd
00000040: d3e5 85bd 293c c2bc fd83 d13d a94a c6bb
00000050: e32c a23d 241e 97bc 39fc 83bc 9e6c 873d
00000060: edf3 e3bd 0ee2 d6bc 939b ed3d d96c 003d
00000070: 3f8b 95bd 1c00 bd3d b050 333d 18e0 d3bd
00000080: f6cf 4f3d b275 e6bd bd57 b93b b4ed 7bbd
00000090: c3b8 bfbd eb99 93bd 518f c93b 7dc6 c53d
000000a0: 6fdb 963d 2659 2ebd 4fe2 ffbd eab3 64bc
000000b0: 2dc7 483d d1fa 1abc f572 f43d 36dc a7bd
000000c0: 03fb fdbd eaa5 9c3c 368b f5bc f3c6 453c
000000d0: 1e65 16bb 585a 333d e96e 843d c47f b83d
000000e0: 4672 20bd ded3 5cbd 891c dbbd 0856 1e3d
000000f0: d86f ccbc 46af e83d ede8 483d 4011 7c3d
00000100: 92c9 c53d f6a3 1dbc 1226 80bd b047 da3d
00000110: 5ef7 0fbd 191b f53d 0365 d6bd fdac d5bd
00000120: aa07 9b3d 2733 3f3d 9e83 893d e781 79bd
00000130: 272d 5fbd 6539 753d 1f6f bdba 3e28 f6bd
00000140: 1b24 d8bd ee0b e1bc 774a 17bd d91f c2bd
00000150: a140 a6bc 1279 6ebc 4601 193d cbc0 4fbd
00000160: 33d1 8bbd 7164 41bc 6648 b93d 694d 88bd
00000170: a465 d73d 9ca4 ea3d 2030 6abd dcd7 08bd
00000180: b2af d9bd f5da bf3c 1879 2cbb a4a9 bfbd
00000190: a644 c53d c410 51bd 5c08 b9bd c738 0f3d
000001a0: 40aa c13d f147 09ba b41e b8bc 9550 6fbc
000001b0: 4a19 58bd 8538 603d 700b eabd 73a2 773d
000001c0: ce97 5e3d b573 cb3b 0011 4c3d e1f8 133d
000001d0: 1f1c 9c3d 7cc3 953c 3c15 4dbb 84b4 ffbd
000001e0: 20f8 633d 81d2 323d dc01 b73c 84c0 1c3c
000001f0: 7b74 a23d a47c bd3b 928c ef3c 1956 d43c
00000200: 3b02 673d d4ad 80bd 0b88 803d f53e f3bd
00000210: 1b6e 57bd 82aa e53d f009 9e3d a5e8 a2bd
00000220: a05a 06bd 0c03 993d 7fbc c43d 22ba 8a3d
00000230: eb89 8fbd a4cf 3b3d 2c23 e53b bd6b 173b
00000240: 186a 433d c798 063c 032f a7bd fc7c efbc
00000250: fbe2 d6bd 3b02 933d 814a 94bd cffd e5bd
00000260: 3e55 b83d 0238 ebbd 595d 063d 0f68 f93d
00000270: 7db4 7f3d c215 e2bd c422 3cbd fc36 913d
00000280: 0295 e5bd 0dab 6a3d 4cf9 3fbc 7642 e5bd
00000290: 667a e0bd 1c42 aabd 5005 67bd 4ba0 26bd
000002a0: 8a4e 5f3c 4816 7ebd 3913 94bd 0ffa a63d
000002b0: 016c 193c 2eaf eabd 7e0d 9dba ad7c a13d
000002c0: 4f51 97bc ab08 93bd d8f4 3d3d 7099 393d
000002d0: 2761 213c 747f 97bd 1e7f 183d 74b6 9cbd
000002e0: d849 ea3d af6b c5bd da0f 233c 8f49 a63d
000002f0: b6ad 8c3d e70e bcbd cbf9 d5bd 1fb4 a1bd
00000300: 0be8 e4bd d426 b73d 6a70 7fbd a0ec d4bd
00000310: e165 03bd 3e7b de3c 754a d33d 9351 203d
00000320: 93c4 b0bd e400 e7bd 7ed1 de3c bc49 6b3c
00000330: a17d f83d 9311 f4bc ecc1 a0bd 8fbb 0abd
00000340: 8454 b93d cd52 d1bd dbdf e53c eb69 a53d
00000350: 8c17 4bbc 37ce 523c 03c4 7b3d a988 cf3d
00000360: af12 3ebd 4ee1 fc3d df60 47bd c21e 98bc
00000370: 5830 f33d 7907 bcbd 9697 b0bc a6f3 7a3d
00000380: 882f bbbd 1e8c f63d ed7f 403d fe51 6dbd
00000390: d3d7 f53d 6feb 2d3d f730 fdbc 96e3 fd3d
000003a0: fed2 96bd 51b8 753d a3af f0bd d925 df3c
000003b0: b40a 1a3d 9dc2 13bd a661 a73d ddcd e43d
000003c0: fc19 aabd e716 acbd 91cc b4bd e517 d73c
000003d0: 7d4f aa3d 8a3d 79bd b8fc ba3d fe87 9dbd
000003e0: 14ac b33d 30e1 ac3d f75e fcbd b1ec c9bd
000003f0: 6059 543d 3d9a 6bbd 208e 9b3d bc39 b6bd
0.06327719 -0.031639773 0.021286948 -0.030711152 -0.12296484 0.05505796 -0.009476541 0.09905216
0.013158081 -0.03204052 0.010034631 -0.0707077 0.055857852 0.08197394 -0.031886276 -0.12025307
-0.06537976 -0.023710327 0.10230253 -0.0060513807 0.07918718 -0.01844699 -0.01611148 0.06612514
-0.111305095 -0.026230838 0.11601939 0.031353805 -0.0730195 0.092285365 0.04377812 -0.10345477
0.050735436 -0.11252917 0.005656211 -0.06150599 -0.093614124 -0.07207092 0.006151118 0.09656999
0.073660724 -0.042565487 -0.12494337 -0.0139589105 0.049018074 -0.009459213 0.11935989 -0.08196299
-0.12401392 0.019122083 -0.029973608 0.012071359 -0.0022948454 0.04378733 0.06466467 0.09008744
-0.03917148 -0.05391299 -0.10698802 0.038656265 -0.024955675 0.11361556 0.04905026 0.06153989
0.09657587 -0.009621611 -0.06257261 0.106582046 -0.035148017 0.11968059 -0.10468485 -0.104333855
0.07569821 0.046679642 0.06714557 -0.0609149 -0.05448642 0.05986919 -0.0014452672 -0.12019394
-0.105537616 -0.027471509 -0.03693625 -0.09478731 -0.02029449 -0.014555233 0.03735473 -0.05072097
-0.06827011 -0.011803732 0.09047012 -0.0665539 0.10517433 0.11457178 -0.0571748 -0.033408985
-0.10629214 0.023419837 -0.0026317295 -0.09358528 0.09632234 -0.05104138 -0.090347975 0.034966256
0.09456301 -0.00052368554 -0.022475578 -0.014606615 -0.052758493 0.0547414 -0.11427963 0.060457658
0.05434399 0.0062088617 0.0498209 0.03612602 0.07622551 0.01828169 -0.0031293174 -0.124856025
0.055656552 0.043657783 0.022339754 0.009567384 0.07932373 0.0057826806 0.029241834 0.02591996
0.05639861 -0.06283155 0.06275948 -0.118772425 -0.05259524 0.112141624 0.07716739 -0.0795453
-0.03280127 0.07471284 0.09606265 0.06773783 -0.07008728 0.04585232 0.006992718 0.0023104989
0.0477086 0.008215136 -0.08163264 -0.029234402 -0.10492512 0.0717816 -0.07240773 -0.11230051
0.09000634 -0.11485292 0.032803867 0.12178051 0.062427986 -0.11039306 -0.045931593 0.070905656
-0.112100616 0.057292033 -0.011717152 -0.11194317 -0.10960846 -0.083133906 -0.05640155 -0.04068021
0.013629565 -0.062032968 -0.07230229 0.08153164 0.009364129 -0.11459194 -0.001198217 0.07885108
-0.018471388 -0.07179388 0.04637608 0.045312345 0.009849823 -0.07397357 0.037230603 -0.07651988
0.11439866 -0.0963968 0.00995251 0.08119499 0.0686907 -0.0918253 -0.10448035 -0.078956835
-0.11177071 0.08942953 -0.062363066 -0.10396695 -0.03207958 0.027158376 0.10316936 0.039140295
-0.086312436 -0.11279467 0.027199503 0.014360841 0.12133337 -0.029793536 -0.07849488 -0.033870276
0.09049323 -0.10220871 0.028060844 0.08076843 -0.012395751 0.012866548 0.06146623 0.10133488
-0.046404537 0.12347661 -0.048676368 -0.018569354 0.11874455 -0.09181113 -0.021556657 0.061267518
-0.09139925 0.12038444 0.046997 -0.057939522 0.12004056 0.042460855 -0.030907137 0.12396924
-0.07364462 0.05999023 -0.1175225 0.027239727 0.037607864 -0.03607427 0.08172922 0.11172078
-0.083057374 -0.08402806 -0.088280804 0.026256511 0.083159424 -0.060849704 0.091302335 -0.07691954
0.08773056 0.084413886 -0.123228006 -0.098595984 0.051843047 -0.05752014 0.075954676 -0.08897731

lstm.bias_ih_l1 f4 [256]
00000000: d6b1 653c 40dd b8bd dbab 89bd 0090 003d
00000010: e6f0 31bd 1db5 2abd 4328 abbc db1c 62bd
00000020: 4bca 8d3d 90b0 9fbd 8b24 c83d 417b 04bd
00000030: 4cc9 e3bd d76a 86bd 7383 873d a3b3 ac3d
00000040: 7237 afbd 6c0a b83d 44ed ccbd f5fb b4bc
00000050: bb79 393d 2f34 44bd 4b45 e03d 990b 5b3c
00000060: 8e20 14bc 36da fcbc d8af 483d 3a39 783d
00000070: 7956 dcbc 84f4 b4bd 5278 c53d d0dc a73d
00000080: 34a2 063d c1d7 f83c 7e7e 9a3d 2216 023c
00000090: 22a2 cb3d 4309 ec3c 27e2 18bd b12e 983d
000000a0: 2ce0 a93d d05e 763c f4b3 033c ca5c bf3d
000000b0: 9355 45bd cf98 40bc edf0 aa3b 839f 863d
000000c0: cdd4 32bd 385d 833d a4fe e5bc 18c8 e43d
000000d0: f71d d23d 2470 ff3b 9afb d43c 6339 eabd
000000e0: a6a5 9a3d b400 4cbc ca3c 12bd f341 573d
000000f0: aa43 59bd 094c f8ba 9573 f63d cc6b 573d
00000100: 387d d4bd 501d c33b 419c 50bc cfae cebd
00000110: 953a 583c 90ab ad3d 41ce 9cbd dca4 183d
00000120: 9c62 a33c ddef 99bd 218b 33bd bc34 bf3d
00000130: 5606 ffbd c709 adbd da3a fb3d 6a7d ba3d
00000140: 977e e93d 753f 62bd 6068 e63c e1c3 6e3d
00000150: 1ae2 e3bd 68fe 213d ac5b c03d cef9 703a
00000160: f3bc c63d ba2d 07bc dd89 d23c d0e2 17bc
00000170: 18ad afbd 6ddd 1e3c 478a d13d a7ff 5e3d
00000180: 350f a13d 43c7 883c 4b20 b7bd 59b5 05bb
00000190: 4941 edbd e0b1 dc3d f020 d1bd caa2 f73c
000001a0: b4e5 a23d 0ee8 d83d f860 133d 0838 bc3c
000001b0: da25 3dbd 6026 f33d f5d0 6a3d 9e06 ef3d
000001c0: ef39 0d3d 8917 adbd a393 8c3d 9c10 8cbd
000001d0: 3471 d1bd bd20 903d dfb0 85bd 95fc 9a3d
000001e0: 9f29 c73d f308 843d 6f41 9a3c ed04 fabc
000001f0: 04cf 943c 8373 b03d 4524 c2bd c435 283d
00000200: 15c5 1d3d dbc7 a33b 0513 7fbd c67f d8bd
00000210: 0285 b7bb f189 b1bd 0658 dc3c e0de 8abd
00000220: fe73 293d 9234 d93d 3893 423b 13ab 88bd
00000230: 3863 9dbb b665 f93d bb56 a6bc 2de0 5f3c
00000240: d436 72bc 41ac 6d3d c263 6e3b 9a1e 59bb
00000250: 76ce 433d 9026 abbc 6ecc 1c3c 5fd5 01bb
00000260: 0b2b 13bd f75a 373c 39f2 cebd 39e8 32bd
00000270: 9279 e1bc 7668 a93d 5665 703c af62 b8bd
00000280: a473 4d3c 4bdc 40bd 231a 9ebd 654b a2bd
00000290: 0dfd cabd 1f50 3f3c 9426 bf3d 6924 a73d
000002a0: 0b2e c7bd 37e5 e83d 4c84 603d 49fe edbd
000002b0: 1afd 813d b761 b73d 820f f6bd 640b e23c
000002c0: 1f99 4cbc c219 ce3d d6d0 363d 1ddb f63c
000002d0: ceaa 15bd f857 d23d bd8e 783d a134 7dbd
000002e0: 826f babd eecc 83bc c5b6 c6bd 6736 913d
000002f0: 30f5 923d d722 fcbc a38c a4bb 4994 513d
00000300: f698 ccbd 663b 1ebd 28b4 e43d 134e c83d
00000310: 50ad 1d3d 9006 98bd beb3 8e3d 81d8 863c
00000320: 8111 423c 351d 2dbd 2aa8 9f3d 74a3 39bd
00000330: a7d9 dfbd 868c 51bd 4010 35bd ae4e 9abc
00000340: 4ab5 e9bc cecf 43bd 35c6 f13d b4e4 bd3d
00000350: 0715 da3d b04c 90bd f8ce 23bd c7f7 debd
00000360: 562c 923d 643e 6c3d 75f2 bbbd 53bc 0bbd
00000370: ab8e d0bd afc6 37ba 91ec 9b3d 99d2 9d3d
00000380: a733 d33c accb 1c3d 9861 7b3d 887d 683d
00000390: ca55 8dbd 0260 c0bd 2683 db3c fc0a ddbc
000003a0: f670 2bbd 3527 a53d edbd ec3b ae62 ec3d
000003b0: a75b bdbd 87b3 f23c 3872 883d 790b e23d
000003c0: ead1 e6bd 5943 af3d c12e d73c b8f9 ddbd
000003d0: eb09 94bd 127b cbbc b013 aa3d 9e16 3d3d
000003e0: 5797 f43c 3cfd f9bc 7bc8 403d d7b2 87bd
000003f0: 1fb8 ccbd e8f5 efbc 5340 633c 4315 e0bb
0.01401945 -0.09026575 -0.06722232 0.03138733 -0.04344263 -0.04167663 -0.020893222 -0.0552033
0.0692335 -0.077973485 0.09772595 -0.032344107 -0.11122379 -0.06563347 0.06616869 0.084327005
-0.08555497 0.08986363 -0.10006192 -0.022092799 0.045282107 -0.04790133 0.109507166 0.013369464
-0.009040965 -0.03086577 0.048995823 0.06060145 -0.026896702 -0.088357 0.0964209 0.081964135
0.032869533 0.030376317 0.07543658 0.007939847 0.09943034 0.02881301 -0.03732505 0.07430781
0.082947105 0.0150372535 0.00803851 0.0934387 -0.048177313 -0.011755182 0.005216709 0.06573393
-0.043659974 0.064142644 -0.028075524 0.11170977 0.102596216 0.0077953506 0.02599888 -0.11436727
0.07551126 -0.0124513395 -0.035702504 0.05255313 -0.053043045 -0.0018943559 0.12033764 0.052593037
-0.10375446 0.005954422 -0.012732566 -0.10091936 0.013197561 0.084799886 -0.07656527 0.037266597
0.019944482 -0.075164534 -0.043833856 0.0933623 -0.1245238 -0.084491305 0.122670844 0.09105952
0.11401098 -0.0552363 0.028125942 0.058292273 -0.1112711 0.03954926 0.09392485 0.0009192497
0.09704008 -0.008250648 0.025700504 -0.009270385 -0.08577937 0.009696347 0.102314524 0.054443028
0.07864229 0.016696578 -0.08941706 -0.002040228 -0.11584718 0.107761145 -0.102113605 0.030228991
0.07953969 0.10591136 0.03598115 0.022975937 -0.046178676 0.11872554 0.057328183 0.11671184
0.034479078 -0.084517546 0.06864097 -0.068391055 -0.1022667 0.07037494 -0.06527876 0.075677074
0.097247355 0.064470194 0.01883003 -0.030519927 0.018165119 0.08615782 -0.09479574 0.0410669
0.03851803 0.00499819 -0.062273998 -0.10571246 -0.0056005726 -0.08668888 0.026897442 -0.06780791
0.041370384 0.1060573 0.00296898 -0.06673255 -0.0048030876 0.12177603 -0.020305028 0.0136642875
-0.01478358 0.058025602 0.0036375378 -0.0033129812 0.04780432 -0.020892411 0.009570224 -0.0019811017
-0.03592972 0.011191121 -0.10104794 -0.043678496 -0.02752379 0.082718775 0.014672598 -0.090031974
0.012539778 -0.047085088 -0.07719829 -0.079245366 -0.09911547 0.011676817 0.0933353 0.081612416
-0.09725579 0.11371844 0.054813668 -0.11620767 0.063471034 0.089541845 -0.12014677 0.027593322
-0.012487679 0.10063507 0.044632755 0.030133778 -0.036539845 0.10270685 0.060683 -0.06181777
-0.091033 -0.016088929 -0.09702829 0.070904545 0.07175672 -0.030778332 -0.005021648 0.051166806
-0.099901125 -0.038630866 0.111671746 0.097805165 0.03849536 -0.07423127 0.06967877 0.016460659
0.011844994 -0.042264182 0.077957466 -0.045321897 -0.10930186 -0.051159404 -0.04420495 -0.018836346
-0.028528828 -0.0478056 0.11805383 0.09272137 0.10648542 -0.07045877 -0.039992303 -0.108871035
0.07137363 0.057676688 -0.091771044 -0.034115147 -0.10183462 -0.0007010502 0.07613481 0.07706184
0.025781466 0.038280174 0.06137237 0.05676034 -0.069011286 -0.09393312 0.026795935 -0.026982777
-0.041855775 0.08064119 0.0072247894 0.11542259 -0.09245997 0.029626621 0.066624105 0.110373445
-0.11270507 0.085577674 0.026267411 -0.10838646 -0.07228454 -0.024838958 0.08304536 0.046164148
0.02985732 -0.03051626 0.047066193 -0.06625908 -0.09996056 -0.029292062 0.013870317 -0.006838472
