results/lstm_last_model.pth (torch, 217413 bytes, 9 tensors)

lstm.weight_ih_l0 f4 [256, 12]
0.095567316 0.10375099 -0.02928406 0.11482641 -0.027387947 0.025223836 -0.06085688 0.07341033
0.110192865 -0.09170352 0.10864952 0.023394912 0.09235111 0.016928822 0.060273513 -0.017648876
0.09636073 0.018476114 -0.05835499 0.03186229 -0.05759208 -0.014659107 -0.05076979 0.08292137
-0.09867127 -0.057626292 -0.035296842 -0.07515906 0.01179789 -0.12345989 0.112888634 -0.10618353
0.09650342 0.020802394 -0.040588066 0.077243745 0.019481346 0.10099542 0.013664961 -0.039421648
0.03358546 -0.03389743 0.052607194 0.11160277 0.072257444 -0.054646567 0.07215808 0.022365779
0.06347938 -0.07618813 -0.12373856 -0.048295066 -0.095877856 0.10256736 0.036003917 0.051776692
0.039532647 -0.0021744967 0.097826034 -0.0888142 0.0078704655 -0.08531752 0.038544 -0.043047786
0.038302034 -0.026042685 0.10367398 -0.07408774 -0.07454975 -0.07455425 0.11243035 0.04165639
0.12028134 -0.10315953 -0.123984516 -0.09779547 -0.084086135 0.050630018 0.044759482 0.10386555
-0.06455317 -0.085213974 0.06632227 -0.05052556 0.07586548 -0.02966258 0.07150574 -0.097121
-0.06308122 0.038109556 0.026425943 -0.031869844 0.07450868 0.08497615 -0.09064667 -0.066733524
0.11445774 -0.042179063 -0.04431455 -0.12094933 -0.07158378 0.031225458 -0.016499147 -0.09073575
0.0029320866 -0.08538519 -0.10604958 -0.06883283 -0.10940151 -0.07959226 0.12495111 0.02360937
0.038519964 -0.11658554 -0.082096726 -0.041606978 0.01954639 -0.109990165 -0.05385913 -0.07483357
0.0003464073 -0.0465129 -0.0086619705 -0.08470371 -0.085799396 -0.072925225 -0.04278718 -0.09866011
0.10480873 -0.024808004 0.10754959 0.03894776 -0.10584962 0.0865044 -0.034393102 -0.047915757
-0.10375881 -0.12427008 0.03576383 -0.027305484 0.04866539 -0.10258293 0.09280364 -0.09175672
-0.021584168 0.026108712 0.064531475 0.10091379 0.113869905 -0.09911527 0.031458408 -0.053765744
-0.013698101 -0.09356126 0.11385733 -0.09174381 0.066806406 0.04392995 0.040619493 -0.067580774
0.11361894 0.0274688 0.016080007 -0.11015685 0.05247356 -0.018752575 -0.057265535 0.10736832
0.027868599 -0.06915955 -0.063267365 -0.005969465 0.06979516 -0.031941727 -0.07132186 -0.04280536
-0.093384355 0.04457906 0.09675503 -0.11768004 0.029031336 0.06457397 0.022666171 -0.04451558
0.06524277 0.06568915 0.046740904 -0.021965176 -0.033100158 0.013372615 -0.022081763 -0.03725013
0.07990086 0.107424945 -0.012374669 -0.027987108 0.0018240362 -0.0074635297 0.03005141 0.035029203
-0.113532096 -0.04612972 0.10526618 0.048694372 -0.0062171966 -0.07536322 -0.076475635 -0.11197086
-0.040745303 0.042213023 0.079702705 0.057712168 -0.110493004 -0.07517031 -0.019727081 0.12091869
0.018082187 -0.032371342 0.051714405 -0.047610193 -0.08090696 0.091235906 -0.056837723 -0.025058344
-0.12435053 0.08365883 0.09470433 0.045556024 -0.087159276 -0.12336749 -0.10152237 0.09321253
0.06001322 0.10518806 0.065483734 0.03163652 -0.0012240857 -0.095063254 -0.10709652 -0.11691858
0.051170245 -0.061371 -0.025156572 -0.07193816 -0.022777945 -0.08797936 -0.08167696 0.041463852
-0.03714955 0.0771679 -0.040101096 -0.091695905 -0.022054866 -0.060593426 -0.038242698 -0.11899945
00000000: ccb8 c33d 667b d43d 20e5 efbc 1c2a eb3d
00000010: b05c e0bc 38a2 ce3c 1045 79bd 2858 963d
00000020: ccac e13d 0ecf bbbd a483 de3d b0a6 bf3c
00000030: 9422 bd3d 50ae 8a3c 5ce1 763d 6094 90bc
00000040: c658 c53d 385b 973c a405 6fbd 0882 023d
00000050: ace5 6bbd c02c 70bc fcf3 4fbd aed2 a93d
00000060: 2a14 cabd 8c09 6cbd 6c93 10bd feec 99bd
00000070: f04b 413c 8ad8 fcbd 2832 e73d c076 d9bd
00000080: 96a3 c53d c869 aa3c ac3f 26bd f831 9e3d
00000090: 5897 9f3c b0d6 ce3d 00e3 5f3c 9878 21bd
000000a0: e890 093d 08d8 0abd a47a 573d fe8f e43d
000000b0: b6fb 933d 14d5 5fbd 9ec7 933d 7038 b73c
000000c0: 7a01 823d 8608 9cbd a46a fdbd 0cd1 45bd
000000d0: 9c5b c4bd d60e d23d d878 133d cc13 543d
000000e0: fcec 213d 0082 0ebb 0459 c83d 38e4 b5bd
000000f0: 20f3 003c f4ba aebd 50e0 1d3d e052 30bd
00000100: 98e2 1c3d 7857 d5bc 0653 d43d 50bb 97bd
00000110: 8aad 98bd e6af 98bd e241 e63d e49f 2a3d
00000120: 1056 f63d 4e45 d3bd 98eb fdbd fe48 c8bd
00000130: 5a35 acbd 6c61 4f3d b855 373d 76b7 d43d
00000140: 7434 84bd aa84 aebd f8d3 873d e4f3 4ebd
00000150: 5c5f 9b3d f0fe f2bc 9a71 923d 60e7 c6bd
00000160: ba30 81bd c418 1c3d 387b d83c f489 02bd
00000170: 0298 983d fa07 ae3d f6a4 b9bd 96ab 88bd
00000180: d268 ea3d f4c3 2cbd 2c83 35bd 48b4 f7bd
00000190: 849a 92bd 88cc ff3c 3829 87bc aad3 b9bd
000001a0: 4028 403b 6ede aebd 8630 d9bd 3af8 8cbd
000001b0: e60d e0bd 4401 a3bd 5ee6 ff3d 7068 c13c
000001c0: 1cc7 1d3d 66c4 eebd 5422 a8bd 146c 2abd
000001d0: c01f a03c 8642 e1bd 649b 5cbd 5842 99bd
000001e0: 009e b539 5084 3ebd f0ea 0dbc 2479 adbd
000001f0: 98b7 afbd d259 95bd 9c41 2fbd 500e cabd
00000200: f6a5 d63d 283a cbbc f642 dc3d b087 1f3d
00000210: b0c7 d8bd 3829 b13d c8df 0cbd 5043 44bd
00000220: 807f d4bd 5081 febd 187d 123d c0af dfbc
00000230: 5c55 473d 0017 d2bd d60f be3d f2ea bbbd
00000240: 48d1 b0bc f0e1 d53c 1429 843d e4ab ce3d
00000250: a034 e93d f2fc cabd 88da 003d 7839 5cbd
00000260: 006e 60bc 0c9d bfbd 082e e93d 2ee4 bbbd
00000270: ccd1 883d e4ef 333d a060 263d ca67 8abd
00000280: 0cb1 e83d 4006 e13c 38ba 833c ea99 e1bd
00000290: 84ee 563d 009f 99bc 448f 6abd ece3 db3d
000002a0: b04c e43c 86a3 8dbd 5292 81bd 809b c3bb
000002b0: c4f0 8e3d 54d5 02bd 3211 92bd ac54 2fbd
000002c0: 4c40 bfbd 8898 363d 8027 c63d 3c02 f1bd
000002d0: 20d3 ed3c 5c3f 843d 68ae b93c f855 36bd
000002e0: 009e 853d 0888 863d 6473 3f3d 50f0 b3bc
000002f0: 0894 07bd d018 5b3c d0e4 b4bc 9893 18bd
00000300: 10a3 a33d 9c01 dc3d 20bf 4abc 3845 e5bc
00000310: 8014 ef3a a090 f4bb 602e f63c c87a 0f3d
00000320: 8483 e8bd 84f2 3cbd cc95 d73d c073 473d
00000330: a0b9 cbbb 0858 9abd 429f 9cbd fa50 e5bd
00000340: 8ce4 26bd 90e7 2c3d 2c3b a33d 9863 6c3d
00000350: 284a e2bd e4f2 99bd b09a a1bc 38a4 f73d
00000360: 1821 943c d097 04bd 7cd2 533d e802 43bd
00000370: 8cb2 a5bd e4d9 ba3d acce 68bd 2847 cdbc
00000380: 7eab febd 5255 ab3d 58f4 c13d f498 3a3d
00000390: 9080 b2bd 18a8 fcbd f6ea cfbd 36e6 be3d
000003a0: 6cd0 753d d66c d73d 561c 863d 4c95 013d
000003b0: 8071 a0ba 86b0 c2bd 6c55 dbbd 0273 efbd
000003c0: e497 513d 2860 7bbd 2815 cebc 5054 93bd
000003d0: d098 babc 862e b4bd 4046 a7bd 00d6 293d
000003e0: 202a 18bd 340a 9e3d 0c41 24bd 10cb bbbd
000003f0: 68ac b4bc d030 78bd 60a4 1cbd fcb5 f3bd

lstm.weight_hh_l0 f4 [256, 64]
-0.03144154 0.011249632 -0.03345731 -0.12238915 -0.012945995 0.060989946 -0.0145433545 -0.0615516
0.003960699 0.022810906 -0.034876958 -0.09693551 -0.0670179 -0.020379126 0.045017853 0.11115919
0.0023198575 0.044755265 0.07192139 -0.054506466 -0.041477114 0.082913235 0.08949852 0.029619858
-0.096597806 0.0709483 -0.10331188 0.062477797 0.014814287 0.040376842 -0.12184349 -0.043946907
0.05308707 0.09621078 -0.035786316 0.11146872 -0.027894855 -0.075393304 -0.054130435 0.0077783763
-0.022216663 0.060500488 -0.06917773 -0.03555882 -0.12387663 0.10203041 -0.023520365 -0.09853901
-0.0060317665 -0.00022816658 0.034716025 -0.013720125 0.07863289 -0.04312797 -0.03741382 -0.029683724
0.022316247 0.10015254 -0.0057516843 0.09617862 0.0981933 -0.06508124 -0.010740027 -0.059007376
0.051996753 -0.043946132 0.038131237 0.0074680746 -0.08205818 -0.08403677 -0.12209061 -0.069922686
0.03491929 0.00761573 0.09401275 -0.1099143 -0.0036527216 -0.11208123 0.0007317066 0.045542076
-0.11213042 0.11039406 -0.038823873 0.11075452 -0.020981386 0.07091436 0.11363457 -0.04550919
-0.030385837 0.06556618 -0.10701637 0.073991 -0.07851416 0.11609542 -0.08192067 -0.051438928
0.09327318 -0.054423347 0.10714391 0.08600244 0.114251435 -0.121160254 0.0014009774 -0.041114196
0.029775456 -0.09438139 0.051256746 -0.0059217215 -0.059086084 -0.11245045 0.06538352 -0.045238152
0.09223454 0.0222518 0.03801754 -0.018958047 -0.017315492 -0.042463705 -0.10823761 0.07858704
-0.07871762 0.0728547 -0.042160317 0.07830863 0.10712777 -0.076450765 0.103215694 0.0030465573
-0.09549138 0.051026464 0.070779905 0.11018896 -0.118990034 0.11287029 0.0947634 0.12297019
0.06812577 -0.060764134 0.09482646 0.11423962 -0.047796234 -0.020432547 0.09781653 0.10062282
0.082573324 0.09576653 -0.0642373 -0.02156438 -0.049938604 0.06496726 0.031151548 -0.09655663
-0.015701458 -0.101931885 -0.1176396 0.113953486 -0.062877625 0.055791214 -0.027834818 -0.025312409
-8.073449e-05 0.09749095 -0.017292008 0.10343321 0.073138475 0.08575109 -0.11336754 -0.058449417
-0.10184054 -0.02654858 -0.025890246 0.025400475 0.11199634 0.05611314 -0.086982206 -0.07839292
0.09438819 0.012443006 0.0353131 -0.06537941 -0.0152436495 0.035588115 -0.082028165 0.08158268
0.062293008 -0.072896525 -0.051260114 -0.029387623 0.019453272 -0.045852497 0.119577646 -0.12040116
-0.07064994 -0.07587232 0.033797547 0.017738372 -0.035619512 0.106682256 -0.10790664 0.044056267
-0.06878145 -0.028463572 -0.12037505 -0.09331338 -0.106056154 0.05453424 -0.046938315 0.06538759
-0.067743614 -0.030970573 0.0151308775 0.104740575 -0.0336892 0.072465226 0.034483984 0.07602532
0.07896353 0.050726995 -0.03769341 -0.03508331 0.048662663 0.068130314 -0.006671682 0.06265943
-0.07520239 0.070457265 -0.01533936 -0.08602148 -0.06073551 -0.09546228 0.025214672 -0.07413259
-0.035795435 -0.0078318715 -0.07627009 0.0032097101 -0.015864074 0.039592758 0.09030095 -0.075458646
0.06834328 -0.0026483536 -0.07144436 -0.056689233 0.031817243 0.026026681 -0.004037529 -0.06223069
0.06303696 0.018546358 -0.12151638 -0.022090837 -0.03391406 -0.05333869 -0.06933722 -0.101407796
00000000: d8c8 00bd 6050 383c 880a 09bd 2aa7 fabd
00000010: 701b 54bc 98d0 793d 4047 6ebc 881d 7cbd
00000020: c0c8 813b f0dd ba3c 24db 0ebd 2086 c6bd
00000030: ae40 89bd 20f2 a6bc a464 383d 6ea7 e33d
00000040: c008 183b 4c51 373d 864b 933d 2c42 5fbd
00000050: e8e3 29bd 6ace a93d 004b b73d 58a5 f23c
00000060: 12d5 c5bd 584d 913d 2e95 d3bd b8e8 7f3d
00000070: a0b7 723c 3062 253d 1489 f9bd ac01 34bd
00000080: d471 593d 280a c53d ac94 12bd b649 e43d
00000090: c083 e4bc ce67 9abd e0b7 5dbd c0e1 fe3b
000000a0: b8ff b5bc 5ccf 773d 0ead 8dbd 20a6 11bd
000000b0: 08b3 fdbd 52f5 d03d c8ad c0bc d2ce c9bd
000000c0: 20a6 c5bb 0040 6fb9 6432 0e3d 60ca 60bc
000000d0: 480a a13d f4a6 30bd 3c3f 19bd 482b f3bc
000000e0: 90d0 b63c c61c cd3d a078 bcbb 4cf9 c43d
000000f0: 9219 c93d 5049 85bd f0f6 2fbc b8b1 71bd
00000100: 8cfa 543d dc00 34bd 802f 1c3d c0b6 f43b
00000110: 1e0e a8bd 781b acbd a40a fabd a033 8fbd
00000120: 8807 0f3d 608d f93b c289 c03d c01a e1bd
00000130: 8062 6fbb d88a e5bd 00d0 3f3a 548a 3a3d
00000140: a2a4 e5bd 4816 e23d c805 1fbd 44d3 e23d
00000150: 28e1 abbc 8c3b 913d 3eb9 e83d d867 3abd
00000160: b8eb f8bc 9047 863d 662b dbbd 9888 973d
00000170: 08cc a0bd 70c3 ed3d 06c6 a7bd a0b1 52bd
00000180: 0206 bf3d 04eb 5ebd 446e db3d 0c22 b03d
00000190: a8fc e93d de22 f8bd 00a1 b73a 5c67 28bd
000001a0: a8eb f33c 084b c1bd 98f2 513d 000b c2bb
000001b0: 4004 72bd 6c4c e6bd cce7 853d a44b 39bd
000001c0: 76e5 bc3d 6849 b63c 48b8 1b3d e84d 9bbc
000001d0: 38d9 8dbc 6cee 2dbd aeab ddbd 3ef2 a03d
000001e0: b436 a1bd d834 953d 4cb0 2cbd 4660 a03d
000001f0: ce65 db3d 3892 9cbd c062 d33d c0a8 473b
00000200: fc90 c3bd 2001 513d 0ef5 903d c0aa e13d
00000210: 0cb1 f3bd 8a28 e73d 5013 c23d ccd7 fb3d
00000220: 8685 8b3d d0e3 78bd 6034 c23d 76f6 e93d
00000230: fcc5 43bd 2862 a7bc 0854 c83d 5613 ce3d
00000240: 341c a93d 3e21 c43d d88e 83bd c8a7 b0bc
00000250: 6c8c 4cbd 8e0d 853d 8831 ff3c 7cbf c5bd
00000260: 58a0 80bc aac1 d0bd 08ed f0bd 7260 e93d
00000270: fcc5 80bd 5485 643d d805 e4bc f85b cfbc
00000280: 0050 a9b8 56a9 c73d f8a7 8dbc cad4 d33d
00000290: a0c9 953d 449e af3d 3e2d e8bd a868 6fbd
000002a0: c691 d0bd 687c d9bc c817 d4bc a814 d03c
000002b0: 565e e53d e4d6 653d ba23 b2bd 788c a0bd
000002c0: 984e c13d c0dd 4b3c 78a4 103d a4e5 85bd
000002d0: 80c0 79bc d8c4 113d 62fe a7bd d214 a73d
000002e0: f426 7f3d c64a 95bd 20f6 51bd 50be f0bc
000002f0: 785c 9f3c d4cf 3bbd 20e5 f43d e294 f6bd
00000300: eab0 90bd f262 9bbd 4c6f 0a3d 1050 913c
00000310: c4e5 11bd 3a7c da3d 28fe dcbd 5874 343d
00000320: 4add 8cbd 702c e9bc 3287 f6bd 161b bfbd
00000330: f833 d9bd 4c5f 5f3d 6442 40bd eee9 853d
00000340: 2abd 8abd 00b6 fdbc 80e7 773c 3a82 d63d
00000350: b0fd 09bd a668 943d 143f 0d3d 2ab3 9b3d
00000360: a2b7 a13d 1cc7 4f3d 6864 1abd 84b3 0fbd
00000370: 8052 473d e887 8b3d 209e dabb 9653 803d
00000380: b603 9abd e64b 903d f051 7bbc 082c b0bd
00000390: ccc5 78bd ba81 c3bd 008f ce3c d4d2 97bd
000003a0: 3c9e 12bd 4051 00bc 7e33 9cbd 005a 523b
000003b0: 60f5 81bc 042c 223d b4ef b83d 108a 9abd
000003c0: 90f7 8b3d 0090 2dbb 6c51 92bd f832 68bd
000003d0: cc52 023d e835 d53c 404d 84bb 9ce5 7ebd
000003e0: 8619 813d 88ee 973c 94dd f8bd d8f7 b4bc
000003f0: 78e9 0abd ac79 5abd ac00 8ebd e4ae cfbd

lstm.bias_ih_l0 f4 [256]
0.0395623 0.0010855049 -0.0826865 -0.09059377 -0.018771961 0.045060307 0.007354766 0.014550179
-0.06712754 -0.05619146 -0.017212912 0.052089274 -0.11468689 0.053135186 0.07021357 -0.12351109
0.052462906 0.018854767 0.049766123 -0.069392085 0.078769654 -0.07218358 -0.05438046 0.040233582
-0.026923075 0.08712061 -0.014475778 -0.09745486 -0.104169205 0.0064348876 -0.09740889 0.11174375
0.10866283 0.07525155 -0.095378265 -0.028735176 0.09222682 0.025456622 0.00983426 -0.009698898
-0.068608105 -0.03976667 0.07286367 -0.024348095 -0.0334906 0.061603323 -0.060167268 -0.018545136
0.10383943 0.017892733 0.056938812 -0.06166932 0.06042771 -0.067720816 0.122363254 -0.03460762
-0.09124075 -0.027026221 0.09207535 0.098076105 0.008838877 0.0869447 -0.041706204 -0.012345493
0.091937184 -0.001357168 0.02638039 0.07434666 0.009668514 -0.07282844 0.013542771 -0.007531911
-0.012392983 0.12094608 0.10661712 -0.11322774 -0.04547611 -0.01375629 0.072053984 -0.027409732
-0.01921244 -0.03239575 -0.077875584 -0.10738267 -0.09934257 0.023721457 0.058274895 -0.008029275
0.115094066 -0.021719158 0.0931243 -0.020956174 -0.06950161 0.012272924 -0.12461236 0.046847597
0.026478395 0.058248714 0.065202326 0.107339785 -0.082004726 -0.11777504 0.010648638 -0.05519338
0.0006287098 0.108305514 0.013281509 0.01502049 -0.10399161 0.0006545037 -0.100233376 -0.031282544
0.08597319 -0.010192141 0.05259542 0.04246676 0.0842195 0.0401209 -0.11088523 -0.009659663
0.01142548 -0.0525856 -0.09424949 -0.08064282 0.057718396 -0.04307051 -0.011317551 0.03789471
0.082516685 0.06456803 0.055962265 0.11320889 0.022972539 -0.05512114 0.05655153 -0.012110785
0.12310791 -0.0966645 -0.07287991 0.08119589 -0.081908256 0.068275005 -0.08252473 0.038258553
0.10751076 0.049975514 -0.07442908 0.049990043 -0.0010890514 -0.025808558 -0.123055264 -0.08239424
-0.042477563 0.09319723 -0.08588873 -0.116959065 -0.09147659 0.040201277 -0.11146198 -0.12495214
0.0034590214 -0.11789726 0.024742752 -0.013655782 0.113768145 -0.04654707 -0.11549167 -0.0729873
-0.0063847452 -0.050083652 0.12233773 -0.09764673 -0.12014614 0.05450684 -0.030087143 0.077714056
0.020930454 0.04302442 0.089715034 -0.015379533 -0.052768663 -0.04500042 -0.032696202 -0.111677915
0.10285328 0.054448545 -0.043520793 0.09820491 0.050092652 0.051639393 0.073246226 0.01980564
-0.00982067 0.094110906 0.039964482 0.08367041 0.07006098 -0.083382644 -0.031110123 0.09741199
-0.022292867 -0.054276466 -0.05402018 -0.099016175 0.07307516 0.072167605 -0.06858674 -0.12127264
0.029292107 0.007453978 0.08805241 0.026020363 -0.018434703 0.07642512 0.08179827 0.06270236
0.0862093 -0.113397375 0.052024692 0.06948817 0.07577641 -0.050898567 0.029983982 -0.10216786
0.10012892 0.009019107 0.08703126 0.034426406 -0.056458667 0.06923832 0.08057386 -0.06635192
0.010660003 -0.06661518 -0.08920574 0.048208058 -0.10481143 0.047635674 -0.09488489 -0.004735142
-0.04489538 0.059275508 0.11650063 -0.09380014 -0.03410235 -0.020279765 -0.10975902 -0.11092149
-0.057926357 -0.027273014 0.10853681 0.03906317 0.10884163 -0.1014469 -0.06650679 0.013582528
00000000: 140c 223d 8047 8e3a 8a57 a9bd 3a89 b9bd
00000010: a8c7 99bc 2891 383d 4000 f13b e063 6e3c
00000020: 2a7a 89bd 0429 66bd 1802 8dbc 905b 553d
00000030: f6e0 eabd 48a4 593d 22cc 8f3d 62f3 fcbd
00000040: 58e3 563d 5075 9a3c 90d7 4b3d 701d 8ebd
00000050: fc51 a13d fcd4 93bd 0cbe 5ebd f8cb 243d
00000060: c88d dcbc 4a6c b23d d02b 6dbc 6a96 c7bd
00000070: aa56 d5bd c0db d23b 507e c7bd e8d9 e43d
00000080: 9e8a de3d 7c1d 9a3d ae55 c3bd 0866 ebbc
00000090: 6ae1 bc3d 688a d03c e01f 213c 20e8 1ebc
000000a0: 6882 8cbd 60e2 22bd 8c39 953d a875 c7bc
000000b0: 702d 09bd c453 7c3d f471 76bd f8eb 97bc
000000c0: c4a9 d43d c893 923c ac38 693d f898 7cbd
000000d0: 0c83 773d 36b1 8abd 9699 fa3d b8c0 0dbd
000000e0: 6edc babd 1866 ddbc 0092 bc3d 20dc c83d
000000f0: f0d0 103c 1010 b23d 20d4 2abd c044 4abc
00000100: 9049 bc3d 00e3 b1ba b01b d83c 1043 983d
00000110: b068 1e3c 1427 95bd 80e2 5d3c 40ce f6bb
00000120: f00b 4bbc 94b2 f73d 145a da3d f2e3 e7bd
00000130: 2845 3abd 1062 61bc 0a91 933d 608a e0bc
00000140: 6863 9dbc 68b1 04bd 3c7d 9fbd 72eb dbbd
00000150: 1e74 cbbd 8053 c23c a8b1 6e3d 388d 03bc
00000160: 70b6 eb3d 60ec b1bc f4b7 be3d 48ac abbc
00000170: dc56 8ebd 6014 493c c434 ffbd 44e3 3f3d
00000180: 38e9 d83c 3496 6e3d cc88 853d f6d4 db3d
00000190: 18f2 a7bd 0a34 f1bd a077 2e3c 7412 62bd
000001a0: 00d0 243a 48cf dd3d b09a 593c 8018 763c
000001b0: 8ef9 d4bd 0093 2b3a 2847 cdbd 2022 00bd
000001c0: b612 b03d f0fc 26bc 4c6e 573d a0f1 2d3d
000001d0: 467b ac3d d055 243d cc17 e3bd 9043 1ebc
000001e0: f031 3b3c 0064 57bd e005 c1bd 1028 a5bd
000001f0: 206a 6c3d b46a 30bd 406d 39bc 7c37 1b3d
00000200: 82fe a83d 3e3c 843d b038 653d 10da e73d
00000210: e830 bc3c b4c6 61bd 94a2 673d 506c 46bc
00000220: 0020 fc3d 0af8 c5bd 1042 95bd 084a a63d
00000230: 84bf a7bd c4d3 8b3d ba02 a9bd 00b5 1c3d
00000240: 9a2e dc3d 20b3 4c3d 466e 98bd 5cc2 4c3d
00000250: 80be 8eba 786c d3bc 6604 fcbd 50be a8bd
00000260: f4fc 2dbd 30de be3d 6ee6 afbd 3c88 efbd
00000270: 1458 bbbd 18aa 243d 2e46 e4bd e8e6 ffbd
00000280: c0b0 623b 1e74 f1bd 50b1 ca3c 80bc 5fbc
00000290: 46ff e83d 24a8 3ebd e686 ecbd 5e7a 95bd
000002a0: 2037 d1bb 8424 4dbd 348c fa3d 02fb c7bd
000002b0: 2e0f f6bd 9042 5f3d 5079 f6bc 8c28 9f3d
000002c0: 5876 ab3c 603a 303d 84bc b73d 70fa 7bbc
000002d0: f423 58bd 5c52 38bd 74ec 05bd 64b7 e4bd
000002e0: bea4 d23d 7005 5f3d dc42 32bd a81f c93d
000002f0: f42d 4d3d d483 533d 1e02 963d 703f a23c
00000300: e0e6 20bc 38bd c03d ccb1 233d 645b ab3d
00000310: 227c 8f3d 85c4 aabd a8da febc f07f c73d
00000320: 889f b6bc 0051 5ebd 4444 5dbd fec8 cabd
00000330: 6ea8 953d 9ccc 933d 3477 8cbd ca5d f8bd
00000340: 00f6 ef3c 8040 f43b d254 b43d a828 d53c
00000350: 6004 97bc c684 9c3d da85 a73d 186a 803d
00000360: 808e b03d e23c e8bd d817 553d d04f 8e3d
00000370: aa30 9b3d 047b 50bd f8a0 f53c 623d d1bd
00000380: 6410 cd3d e0c4 133c 723d b23d b402 0d3d
00000390: 3441 67bd d2cc 8d3d e803 a53d 84e3 87bd
000003a0: 4ba7 2e3c 8a6d 88bd 80b1 b6bd d075 453d
000003b0: 60a7 d6bd a01d 433d 0253 c2bd 4029 9bbb
000003c0: 38e4 37bd e0ca 723d e297 ee3d 4a1a c0bd
000003d0: e8ae 0bbd c021 a6bc 56c9 e0bd ce2a e3bd
000003e0: 3044 6dbd a86b dfbc 8c48 de3d b400 203d
000003f0: 5ce8 de3d 64c3 cfbd b634 88bd 4089 5e3c

lstm.bias_hh_l0 f4 [256]
-0.09926014 0.056932464 -0.00048150122 -0.12290004 -0.12227088 0.012567371 0.041274145 -0.004425466
-0.036791265 0.080589175 0.0073685646 -0.062210098 0.104690194 -0.03239815 -0.03994389 -0.012169465
-0.024805114 -0.008284003 -0.053367972 0.07490593 0.005701259 0.07091576 0.014122114 0.08324775
-0.08393365 0.06500834 0.048374757 0.055665642 -0.06715639 0.0124043375 -0.04744695 -0.044955373
-0.019728392 -0.019090101 0.056339726 0.12383969 -0.032643303 0.11898796 0.0664894 -0.11156908
0.097736716 -0.09901865 -0.051301107 -0.04691395 -0.0024752617 -0.1231028 -0.11736773 -0.10223155
-0.06090617 0.0005813688 0.08309986 -0.114149496 0.013895005 0.09591229 0.038365424 0.027342543
-0.11108722 0.07944754 -0.027945295 0.051424205 -0.08290921 -0.021163493 0.073621556 -0.08020154
-0.09637359 -0.014777437 0.06428656 -0.08495642 0.016068399 -0.052545384 0.018315509 0.019041881
0.08414866 -0.06316528 -0.1149555 0.014716402 0.069825396 -0.05511971 0.04044746 -0.113936245
0.061674967 0.06470817 -0.11663997 -0.02939187 0.054039404 0.056417108 0.037141025 -0.090240344
0.10408263 -0.10926807 -0.002545625 -0.06655197 -0.10254976 -0.0548466 0.11160642 -0.10870181
0.08532989 0.11102341 -0.07029764 0.03799346 -0.048175916 -0.11760628 -0.10958402 -0.021646693
-0.09006287 -0.016406104 0.072106645 0.06071423 -0.12358011 0.04865679 -0.00086569786 0.042884097
0.079935625 -0.10419549 -0.064774245 0.05356832 0.02074039 -0.035359487 -0.06303452 0.0184948
-0.033775017 0.036561653 -0.055217505 0.12150185 0.015685946 -0.033355504 -0.103143916 0.12169336
-0.093694225 -0.1089142 0.048980057 -0.064466715 0.0912119 0.025006771 -0.073192656 -0.11071122
-0.08271514 0.1205267 0.0034213364 -0.07302071 0.10619585 0.04373695 0.09333202 0.08570862
0.07967436 0.06481241 0.056379765 0.0507112 0.061486885 -0.037274837 -0.030332088 -0.053942114
-0.068311706 0.106227174 0.07478556 0.095587656 0.049648255 0.08772978 0.07587358 -0.0116010755
-0.116225764 0.048468947 -0.038840592 -0.07995488 0.09333858 0.10974477 0.07489842 -0.040518567
-0.055521727 0.10571115 0.074490964 -0.021731868 -0.09549059 -0.05558361 -0.04936047 -0.07528287
-0.10644545 -0.028352454 0.099065036 -0.02086939 0.051773846 0.002060935 -0.10805242 0.09985401
0.10693018 -0.026828036 0.044500366 0.050662875 -0.079572946 0.023789838 -0.071328744 0.061846524
-0.098647386 0.004833594 -0.04130812 -0.10707317 0.011834547 -0.03261766 -0.008656219 0.007043034
0.10061444 -0.088314876 0.054114282 -0.07223669 0.05694443 0.044834733 0.10280304 -0.053837508
0.012519538 -0.02831529 -0.10086179 -0.09925994 0.118036345 0.004056111 0.07365514 -0.11314739
0.09960039 0.07061045 0.06420748 0.0815981 -0.08261901 0.007016912 -0.10879555 -0.010392174
0.10104841 0.06391783 0.07171351 -0.07027267 -0.11080822 -0.034001216 0.09409967 0.0972909
0.12254203 0.054474086 -0.007061392 -0.11908567 -0.006780088 0.07382497 0.04467611 -0.038858876
-0.06292674 0.070620075 0.0063436627 0.008345917 -0.035846263 0.05146596 -0.03282991 0.076149255
0.02496247 -0.037372246 -0.012163833 -0.056497008 0.093083784 -0.034840748 0.10371265 -0.12230086
00000000: e648 cbbd 0432 693d 0072 fcb9 04b3 fbbd
00000010: 2869 fabd 60e7 4d3c 140f 293d 8003 91bb
00000020: 70b2 16bd f00b a53d 0074 f13b 04d0 7ebd
00000030: d067 d63d ecb3 04bd 349c 23bd 7062 47bc
00000040: 1834 cbbc a0b9 07bc 6098 5abd 4868 993d
00000050: a0d1 ba3b 483c 913d 7060 673c cc7d aa3d
00000060: 68e5 abbd 1823 853d 9c24 463d a801 643d
00000070: 4a89 89bd 903b 4b3c bc57 42bd 2023 38bd
00000080: 709d a1bc d862 9cbc 7cc4 663d aa9f fd3d
00000090: fcb4 05bd f6af f33d 982b 883d 547e e4bd
000000a0: 302a c83d 4aca cabd 1c21 52bd d828 40bd
000000b0: 0038 22bb 521d fcbd 7e5e f0bd c65e d1bd
000000c0: c078 79bd 0067 183a 4230 aa3d 36c7 e9bd
000000d0: e0a7 633c aa6d c43d 1025 1d3d 78fd df3c
000000e0: b281 e3bd 64b5 a23d 88ed e4bc 30a2 523d
000000f0: 4ecc a9bd 105f adbc e6c6 963d b440 a4bd
00000100: 845f c5bd 101d 72bc aca8 833d a2fd adbd
00000110: e0a1 833c d439 57bd 680a 963c b8fd 9b3c
00000120: 2256 ac3d cc5c 81bd ca6d ebbd 101d 713c
00000130: 9e00 8f3d 34c5 61bd 3cac 253d 6857 e9bd
00000140: e49e 7c3d b885 843d f0e0 eebd 38c7 f0bc
00000150: 6c58 5d3d a015 673d 3021 183d eecf b8bd
00000160: 4629 d53d f0c7 dfbd 80d4 26bb 664c 88bd
00000170: 9c05 d2bd d4a6 60bd e891 e43d 0e9f debd
00000180: 70c1 ae3d 3e60 e33d 36f8 8fbd 089f 1b3d
00000190: 1c54 45bd 90db f0bd 966d e0bd 6854 b1bc
000001a0: e272 b8bd 1866 86bc a6ac 933d 7caf 783d
000001b0: 9217 fdbd 584c 473d 00f0 62ba 3ca7 2f3d
000001c0: 4ab5 a33d 7264 d5bd 5ca8 84bd 746a 5b3d
000001d0: c0e7 a93c 1cd5 10bd 3e18 81bd 6882 973c
000001e0: ac57 0abd acc1 153d c02b 62bd f6d5 f83d
000001f0: d07f 803c c89f 08bd 1e3d d3bd 5e3a f93d
00000200: c2e2 bfbd 680e dfbd 509f 483d 2007 84bd
00000210: 4ecd ba3d 00db cc3c 08e6 95bd 90bc e2bd
00000220: 8e66 a9bd b4d6 f63d 8038 603b e28b 95bd
00000230: 367d d93d 8425 333d dc24 bf3d 0088 af3d
00000240: 502c a33d 5ebc 843d 78ee 663d 8cb6 4f3d
00000250: acd9 7b3d 80ad 18bd 007b f8bc 68f2 5cbd
00000260: 02e7 8bbd a28d d93d 2c29 993d 76c3 c33d
00000270: f85b 4b3d acab b33d 9c63 9b3d 7012 3ebc
00000280: c607 eebd 6087 463d 5017 1fbd 62bf a3bd
00000290: 4c28 bf3d dec1 e03d 5864 993d ccf6 25bd
000002a0: c06a 63bd 167f d83d b88e 983d 0807 b2bc
000002b0: 9290 c3bd a4ab 63bd 342e 4abd e82d 9abd
000002c0: 1200 dabd 6843 e8bc 9ce2 ca3d 48f6 aabc
000002d0: d010 543d c010 073b 964a ddbd 4280 cc3d
000002e0: 36fe da3d 78c6 dbbc 0446 363d e083 4f3d
000002f0: 24f7 a2bd e8e2 c23c ce14 92bd c852 7d3d
00000300: a407 cabd 2063 9e3b b432 29bd 2e49 dbbd
00000310: b0e5 413c 189a 05bd d0d2 0dbc 40c9 e63b
00000320: f20e ce3d 6ede b4bd f0a6 5d3d d4f0 93bd
00000330: 903e 693d a0a4 373d 668a d23d b884 5cbd
00000340: c01e 4d3c 78f5 e7bc a090 cebd cc48 cbbd
00000350: 0abd f13d 20e9 843b 82d8 963d d2b9 e7bd
00000360: 4afb cb3d 369c 903d 367f 833d e81c a73d
00000370: 2834 a9bd 20ee e53b 34d0 debd f043 2abc
00000380: 78f2 ce3d 5ae7 823d 88de 923d 1eeb 8fbd
00000390: 6cef e2bd dc44 0bbd 54b7 c03d 7440 c73d
000003a0: 51f7 fa3d 3820 5f3d 4063 e7bb 30e3 f3bd
000003b0: 802b debb 8c31 973d 4cfe 363d 7c2a 1fbd
000003c0: bcdf 80bd 42a1 903d 80de cf3b 50bd 083c
000003d0: 88d3 12bd f8cd 523d a878 06bd 24f4 9b3d
000003e0: 187e cc3c a413 19bd d04a 47bc 6869 67bd
000003f0: b6a2 be3d 2cb5 0ebd 4c67 d43d e078 fabd

lstm.weight_ih_l1 f4 [256, 64]
0.08062962 0.051116515 0.10150172 -0.04531747 -0.08786918 0.04481887 -0.09806089 0.10088417
0.013751969 0.087264046 0.087247774 -0.027937323 -0.050474286 -0.035119504 -0.0664926 0.038690805
0.026062623 -0.080393106 0.024231374 0.11598118 0.1003093 0.066509485 0.014983416 0.05912344
0.06556545 -0.052476607 -0.036168676 -0.0052062273 0.064231455 -0.10923487 0.021985635 0.089054674
0.038012356 -0.0947137 -0.06862588 -0.11163543 -0.10144665 -0.100540414 -0.009933278 -0.051576227
-0.12084252 0.1110318 0.029863805 -0.08231382 -0.07029921 -0.0071653193 0.082547426 -0.039869994
-0.046271637 0.078791395 -0.017859712 -0.044959188 0.08373371 -0.10047881 0.03352064 -0.1086967
0.004843816 -0.021502381 -0.08458538 -0.066422924 0.08040252 0.099587254 0.0260984 0.052415714
0.07028563 -0.017833058 -0.010760117 0.09882082 0.076660454 -0.047372714 0.028527692 0.037969723
-0.044229135 0.07612553 -0.052444134 0.051204294 0.07046519 -0.012642935 -0.09871949 -0.10299888
-0.015742764 0.06966773 0.112464875 0.07465957 0.007695794 -0.013551533 0.013940185 -0.047440752
-0.025326341 0.067901745 -0.10566621 -0.07907154 -0.033294797 -0.07797247 -0.093219995 0.061445624
0.056286797 0.0663109 -0.08820182 0.038478836 0.06388014 0.025310889 -0.058636263 -0.055960387
0.07142178 0.04139048 0.032083035 -0.09549399 -0.11421077 0.101670325 0.0077820867 0.10551126
-0.11983973 -0.06137751 -0.115690544 0.11562061 0.018395454 0.048929885 0.09842748 0.0073523223
0.026951894 -0.08767096 0.016961174 0.087589934 -0.018429652 -0.08292275 -0.06464526 0.0036168993
0.082637236 0.0150112165 -0.07583015 0.0072166733 -0.0405605 0.006765542 0.07822351 -0.10415384
-0.033895433 -0.065707356 0.102023214 -0.10497637 -0.029218331 -0.11219545 -0.088695034 -0.04990588
0.02292794 -0.110403106 -0.012790933 -0.068186924 0.088209644 -0.0807502 -0.10510421 -0.015218778
-0.10287726 -0.05156481 0.03645232 -0.10125461 -0.05050963 0.07121731 0.092530355 0.103625685
0.105571 0.102160156 -0.029882252 -0.055522695 -0.030929185 0.02696924 0.012912929 -0.07884188
0.10681824 -0.03413436 0.09449455 0.0027693212 0.04772525 0.0134556405 0.046740115 -0.075945005
0.05298312 -0.07612931 0.06314106 -0.05682178 0.033475235 -0.11873266 -0.07699314 0.10532722
0.09504275 -0.10794301 -0.072448775 -0.11452857 0.012796432 -0.029382901 -0.0013546944 0.039737716
0.034747735 -0.014446699 0.013830808 -0.10677858 0.09596178 -0.109565 -0.0654867 -0.041548282
-0.07293491 0.0065868646 0.058643065 -0.04277222 -0.039871976 -0.0702045 0.046940103 -0.08694048
0.09191683 0.027769998 -0.096916914 -0.008953825 0.036701784 0.124252886 -0.04431267 -0.10557261
-0.0673352 0.025871364 0.078008786 0.0040172637 0.11137171 -0.08669777 -0.12425089 0.015704125
0.07859911 0.116950005 0.0072443485 -0.009102106 0.05778192 0.07700305 -0.11397052 -0.061268553
0.0932182 -0.035972267 -0.10133217 -0.09311952 -0.06893968 -0.0070349243 -0.008616567 -0.1027575
0.11902888 0.0011555474 0.12163289 -0.044426233 0.09181099 0.037109703 -0.10871352 0.08712247
0.08055976 -0.08833822 0.10897207 -0.025626466 -0.0506351 -0.032053296 -0.08710262 0.10579248
00000000: 2421 a53d 8d5f 513d 22e0 cf3d d09e 39bd
00000010: c2f4 b3bd fe93 373d 26d4 c8bd 5c9c ce3d
00000020: f04f 613c 7eb7 b23d f6ae b23d d0dc e4bc
00000030: 20be 4ebd 78d9 0fbd 462d 88bd 407a 1e3d
00000040: 4881 d53c 24a5 a4bd e080 c63c 8a87 ed3d
00000050: f66e cd3d 2036 883d 007d 753c 6c2b 723d
00000060: 2e47 863d b6f1 56bd 9b25 14bd 0099 aabb
00000070: c88b 833d 88b6 dfbd 381b b43c 4c62 b63d
00000080: d8b2 1b3d 42f9 c1bd ba8b 8cbd 1ea1 e4bd
00000090: 43c3 cfbd 22e8 cdbd 30bf 22bc 9841 53bd
000000a0: 487c f7bd a464 e33d f0a4 f43c 2694 a8bd
000000b0: 08f9 8fbd 0ecb eabb a00e a93d b84e 23bd
000000c0: 5487 3dbd 625d a13d 884e 92bc 2027 38bd
000000d0: 947c ab3d d6c7 cdbd f04c 093d 609c debd
000000e0: e0b8 9e3b c325 b0bc 1a3b adbd be08 88bd
000000f0: 14aa a43d 67f4 cb3d 50cc d53c dcb1 563d
00000100: eaf1 8f3d a216 92bc 344b 30bc 9262 ca3d
00000110: 2800 9d3d e409 42bd e8b2 e93c 2486 1b3d
00000120: 9c29 35bd b4e7 9b3d a9cf 56bd 98bb 513d
00000130: 0e50 903d 5024 4fbc 722d cabd 14f1 d2bd
00000140: f8f6 80bc f4ad 8e3d fc53 e63d 1ee7 983d
00000150: 002d fc3b 4007 5ebc 6065 643c 3c51 42bd
00000160: 3079 cfbc 1210 8b3d 8767 d8bd 42f0 a1bd
00000170: 2060 08bd 08b0 9fbd 20ea bebd 68ae 7b3d
00000180: fc8c 663d 02ce 873d 28a3 b4bd fc9b 1d3d
00000190: 97d3 823d c858 cf3c 942c 70bd b836 65bd
000001a0: 9545 923d 1089 293d 8069 033d 5a92 c3bd
000001b0: 56e7 e9bd 8838 d03d e000 ff3b 4a16 d83d
000001c0: 886e f5bd fc66 7bbd 2aef ecbd 80ca ec3d
000001d0: 10b2 963c b46a 483d 5994 c93d c0eb f03b
000001e0: 38ca dc3c d58c b3bd 29f2 8a3c 5a62 b33d
000001f0: c8f9 96bc 67d3 a9bd bc64 84bd 8009 6d3b
00000200: b63d a93d 9bf1 753c d64c 9bbd d879 ec3b
00000210: c422 26bd 7bb1 dd3b a633 a03d 9c4e d5bd
00000220: f0d5 0abd 9491 86bd 8cf1 d03d dafd d6bd
00000230: 485b efbc bac6 e5bd bea5 b5bd 1c6a 4cbd
00000240: 60d3 bb3c 061b e2bd 1091 51bc 96a5 8bbd
00000250: 42a7 b43d 5c60 a5bd e040 d7bd 2e58 79bc
00000260: 50b1 d2bd 9f35 53bd 074f 153d 945e cfbd
00000270: 30e3 4ebd 62da 913d 8e80 bd3d b439 d43d
00000280: 9c35 d83d 5839 d13d a0cb f4bc c46b 63bd
00000290: 345f fdbc 98ee dc3c c090 533c da77 a1bd
000002a0: 85c3 da3d 78d0 0bbd 5c86 c13d 807d 353b
000002b0: 8d7b 433d 0c75 5c3c 9072 3f3d 0e89 9bbd
000002c0: d404 593d afe9 9bbd 1a50 813d f4bd 68bd
000002d0: 541d 093d 1c2a f3bd 94ae 9dbd ccb5 d73d
000002e0: c6a5 c23d 3a11 ddbd 0660 94bd f48d eabd
000002f0: 20a8 513c 69b4 f0bc 0090 b1ba 04c4 223d
00000300: a453 0e3d d9b1 6cbc 9d9a 623c baae dabd
00000310: 9c87 c43d 9d63 e0bd e41d 86bd 882e 2abd
00000320: e65e 95bd a0d6 d73b b633 703d ec31 2fbd
00000330: cc50 23bd 60c7 8fbd 4444 403d da0d b2bd
00000340: e43e bc3d e87d e33c 607c c6bd 10b3 12bc
00000350: 9c54 163d 4c78 fe3d 3481 35bd 7436 d8bd
00000360: 0ae7 89bd 2ff0 d33c 12c3 9f3d 40a3 833b
00000370: da16 e43d 9a8e b1bd 4077 febd f0a5 803c
00000380: 92f8 a03d 7c83 ef3d 0062 ed3b 0021 15bc
00000390: bcac 6c3d c6b3 9d3d 6069 e9bd bcf4 7abd
000003a0: 2fe9 be3d a857 13bd 3e87 cfbd 72b5 bebd
000003b0: 3f30 8dbd 3985 e6bb 802c 0dbc 8672 d2bd
000003c0: 6ac5 f33d bd75 973a aa1a f93d 48f8 35bd
000003d0: 6607 bc3d 5800 183d 32a5 debd 446d b23d
000003e0: 84fc a43d abea b4bd c02c df3d 98ee d1bc
000003f0: c066 4fbd 514a 03bd dc62 b2bd baa9 d83d

lstm.weight_hh_l1 f4 [256, 64]
0.063311845 -0.031640843 0.021349126 -0.030645553 -0.12297355 0.05506593 -0.009491723 0.09910309
0.013167086 -0.03207133 0.010064412 -0.07065843 0.05592178 0.081883736 -0.031903174 -0.12016446
-0.06532486 -0.023690395 0.10227495 -0.005962181 0.07919057 -0.018397985 -0.016135802 0.0661042
-0.111225516 -0.026276689 0.11605317 0.03130021 -0.07305108 0.09229932 0.043788638 -0.103459336
0.05070214 -0.11246968 0.0057044583 -0.061499245 -0.09363089 -0.07203287 0.0061033107 0.096547805
0.07368096 -0.04257138 -0.12498903 -0.013868062 0.049027458 -0.009502076 0.119382985 -0.08202168
-0.12405361 0.019046145 -0.029974932 0.012039291 -0.0022378343 0.04379891 0.0647211 0.090092465
-0.039174248 -0.053873368 -0.106949605 0.038658373 -0.024955884 0.11362636 0.049076296 0.06154979
0.096646644 -0.009771915 -0.06256036 0.106832355 -0.035258003 0.11972194 -0.104777135 -0.10407817
0.07571714 0.046670564 0.06724639 -0.060845803 -0.05411753 0.059356924 -0.0014232261 -0.11982029
-0.1053587 -0.027594458 -0.03689895 -0.094266295 -0.020364009 -0.014463738 0.037371952 -0.050833702
-0.067777716 -0.012045572 0.09065013 -0.0665526 0.10510805 0.11488773 -0.057263736 -0.033196848
-0.10633716 0.02368989 -0.0024927366 -0.0935773 0.09634778 -0.050899185 -0.09054123 0.03496661
0.094780505 -0.0005537901 -0.022871716 -0.014432161 -0.052816544 0.054536313 -0.11434876 0.060352888
0.05416142 0.005647726 0.04962288 0.03580434 0.07624539 0.018203992 -0.0028862196 -0.12491974
0.055713773 0.04406298 0.022442104 0.009411115 0.07931987 0.00565694 0.029274097 0.026061384
0.05681116 -0.06282463 0.06363166 -0.11794431 -0.0528208 0.112172276 0.07697912 -0.078867376
-0.032636575 0.07418863 0.09645457 0.06843429 -0.06931417 0.044760402 0.0067070164 0.0034501974
0.04850578 0.008493811 -0.08193929 -0.028084265 -0.104924865 0.07245715 -0.07274668 -0.112566195
0.09113192 -0.11554281 0.033251967 0.12093683 0.062105577 -0.11029671 -0.045691367 0.07070758
-0.11250054 0.058098946 -0.011076398 -0.111777 -0.10981549 -0.082678564 -0.05704631 -0.040977094
0.013948897 -0.062150575 -0.07286505 0.082838014 0.0095398305 -0.1151211 -0.0008980174 0.078091495
-0.019049073 -0.07274481 0.046366557 0.044897567 0.010713084 -0.07376531 0.03791479 -0.07648271
0.114344664 -0.095893815 0.010621346 0.08121463 0.06869683 -0.091588885 -0.104087666 -0.07872919
-0.111332685 0.089459874 -0.06163448 -0.103017874 -0.032151785 0.027260724 0.10297872 0.039809074
-0.086185046 -0.11320322 0.02758187 0.014942035 0.12221102 -0.03114699 -0.07865471 -0.032629527
0.09120972 -0.10196636 0.027689086 0.08192645 -0.012265304 0.013452454 0.06112141 0.10111767
-0.045325313 0.122813426 -0.048202503 -0.019192645 0.11822396 -0.091664046 -0.021517597 0.061212108
-0.09185537 0.12126898 0.047573995 -0.057862516 0.11979416 0.043040372 -0.031551488 0.123596855
-0.07344474 0.059918124 -0.11805792 0.02831334 0.037713178 -0.03661684 0.082101576 0.11090752
-0.08356968 -0.084960446 -0.088242665 0.02585459 0.08390884 -0.060709476 0.09210299 -0.07686111
0.087735236 0.08491214 -0.122831285 -0.09849463 0.05183932 -0.05738458 0.07631897 -0.08892103
00000000: a4a9 813d d499 01bd 5de4 ae3c 620c fbbc
00000010: 8ed9 fbbd d08c 613d 2c83 1bbc 90f6 ca3d
00000020: c3ba 573c 3a5d 03bd 34e5 243c 5eb5 90bd
00000030: 3d0e 653d a9b2 a73d e7ac 02bd c918 f6bd
00000040: 0ac9 85bd 5c12 c2bc 8775 d13d 665e c3bb
00000050: aa2e a23d 5fb7 96bc 3b2f 84bc a461 873d
00000060: 34ca e3bd 3642 d7bc 49ad ed3d a634 003d
00000070: ce9b 95bd 6d07 bd3d b75b 333d 7de2 d3bd
00000080: 0cad 4f3d 8156 e6bd 77ec ba3b a2e6 7bbd
00000090: 8dc1 bfbd f885 93bd 48fe c73b dbba c53d
000000a0: 0be6 963d 545f 2ebd 40fa ffbd de36 63bc
000000b0: 04d1 483d 98ae 1bbc 117f f43d fcfa a7bd
000000c0: d20f febd a906 9c3c fd8d f5bc 7240 453c
000000d0: a1a8 12bb 7c66 333d 7f8c 843d 6682 b83d
000000e0: 2d75 20bd 52aa 5cbd 6508 dbbd 3e58 1e3d
000000f0: 4870 ccbc f0b4 e83d 3a04 493d a21b 7c3d
00000100: adee c53d 621a 20bc a51f 80bd ecca da3d
00000110: b26a 10bd c730 f53d 6595 d6bd f026 d5bd
00000120: 9711 9b3d a229 3f3d 7ab8 893d 7339 79bd
00000130: 58aa 5dbd 3f20 733d 8b8b baba 5764 f5bd
00000140: 4dc6 d7bd c60d e2bc 5a23 17bd b00e c1bd
00000150: 6cd2 a6bc 50f9 6cbc 5513 193d 0037 50bd
00000160: 0bcf 8abd ca5a 45bc c6a6 b93d bb4c 88bd
00000170: e442 d73d 424a eb3d 618d 6abd 6bf9 07bd
00000180: 4cc7 d9bd 4d11 c23c 2e5d 23bb 75a5 bfbd
00000190: fc51 c53d aa7b 50bd ae6d b9bd 2639 0f3d
000001a0: 481c c23d 392c 11ba 775d bbbc df74 6cbc
000001b0: 2956 58bd 7861 5f3d af2f eabd 9734 773d
000001c0: 5dd8 5d3d 8f10 b93b 5c41 4b3d 92a7 123d
000001d0: 8b26 9c3d 8a20 953c bb26 3dbb ecd5 ffbd
000001e0: 2034 643d 627b 343d 81d8 b73c 1431 1a3c
000001f0: 7572 a23d da5d b93b 3bd0 ef3c af7e d53c
00000200: d2b2 683d 33aa 80bd 5151 823d c98c f1bd
00000210: a05a 58bd 94ba e53d 3ba7 9d3d 3885 a1bd
00000220: eead 05bd 35f0 973d f989 c53d 4727 8c3d
00000230: 96f4 8dbd af56 373d 88c6 db3b b51c 623b
00000240: ffad 463d a029 0b3c c9cf a7bd f910 e6bc
00000250: d9e2 d6bd 6a64 943d 36fc 94bd 1b89 e6bd
00000260: 5fa3 ba3d b5a1 ecbd 3733 083d bbad f73d
00000270: 6b62 7e3d 3ee3 e1bd df26 3bbd 23cf 903d
00000280: af66 e6bd 29f9 6d3d c879 35bc 57eb e4bd
00000290: f2e6 e0bd 6153 a9bd 64a9 69bd 99d7 27bd
000002a0: ea89 643c 9a91 7ebd 453a 95bd faa6 a93d
000002b0: f34c 1c3c 9cc4 ebbd ed68 6bba 6fee 9f3d
000002c0: cd0c 9cbc 3bfb 94bd dcea 3d3d 83e6 373d
000002d0: ee85 2f3c 4412 97bd 8a4c 1b3d f8a2 9cbd
000002e0: 892d ea3d fa63 c4bd 2705 2e3c db53 a63d
000002f0: ecb0 8c3d f492 bbbd ea2b d5bd c53c a1bd
00000300: 6402 e4bd bd36 b73d 7074 7cbd 09fb d2bd
00000310: 97b1 03bd e251 df3c 82e6 d23d d70e 233d
00000320: c981 b0bd 17d7 e7bd 60f3 e13c 70cf 743c
00000330: c549 fa3d f927 ffbc b815 a1bd 8aa6 05bd
00000340: 29cc ba3d bdd3 d0bd 39d4 e23c 0ec9 a73d
00000350: 6af4 48bc ae67 5c3c 725a 7a3d c816 cf3d
00000360: 09a7 39bd 9b85 fb3d fd6f 45bd e539 9dbc
00000370: 671f f23d 5cba bbbd ac45 b0bc 8cb9 7a3d
00000380: ab1e bcbd df5b f83d f3dc 423d 3f01 6dbd
00000390: a456 f53d 1a4b 303d 223c 01bd 5920 fd3d
000003a0: 326a 96bd b56c 753d 5ac8 f1bd 61f1 e73c
000003b0: 2279 1a3d 8afb 15bd df24 a83d 7b23 e33d
000003c0: 9526 abbd beff adbd 92b8 b4bd 01cd d33c
000003d0: 66d8 ab3d 80aa 78bd 7ea0 bc3d 5c69 9dbd
000003e0: 88ae b33d 6be6 ad3d f88e fbbd 8db7 c9bd
000003f0: 7855 543d 180c 6bbd 1f4d 9c3d 3b1c b6bd

lstm.bias_ih_l1 f4 [256]
0.013604525 -0.09307902 -0.07179086 0.025305385 -0.04381455 -0.041896984 -0.021514345 -0.057999007
0.06943537 -0.07920498 0.09646048 -0.03385086 -0.117281854 -0.08151293 0.065601215 0.074673764
-0.08743771 0.08888025 -0.10272572 -0.030354561 0.044102848 -0.050691 0.10833933 0.012803053
-0.014191041 -0.03297467 0.047613822 0.058415655 -0.029504564 -0.09119786 0.09597199 0.08052093
0.03066077 0.024958387 0.07421778 0.0075893723 0.09763186 0.025264977 -0.039933316 0.072561204
0.08219563 0.01484809 0.0041148425 0.08898384 -0.049030304 -0.014117415 0.0025893522 0.057485417
-0.04450247 0.0585132 -0.030093143 0.110086255 0.09724446 0.007089977 0.019003592 -0.11484118
0.075505175 -0.017223975 -0.036805563 0.049203187 -0.053051934 -0.0032664544 0.11951797 0.051683515
-0.10427448 0.0032991762 -0.018496823 -0.106520414 0.012476165 0.08458463 -0.07705308 0.034696512
0.020110773 -0.07667602 -0.04486134 0.091390565 -0.12931903 -0.09832246 0.12220112 0.08134143
0.111936815 -0.056725986 0.025879212 0.05117568 -0.11235299 0.03694303 0.09267305 0.00050489535
0.090925254 -0.009989471 0.024413591 -0.012605978 -0.08879181 0.0066122087 0.10187578 0.05212536
0.076105304 0.012237664 -0.09076757 -0.0023740204 -0.11734822 0.10552802 -0.104428515 0.028316608
0.07826543 0.10581095 0.032338675 0.016784761 -0.046886154 0.11681776 0.05469836 0.11043731
0.033376984 -0.09055127 0.06711588 -0.07049772 -0.10877831 0.06962936 -0.07110833 0.07523168
0.09729339 0.060078394 0.01747808 -0.03377439 0.018172864 0.084689766 -0.09562298 0.040011745
0.046489686 0.006885534 -0.036712065 -0.073179014 -0.012181236 -0.08697277 0.016500415 -0.04470506
0.03687135 0.08271031 0.019572066 -0.046844624 0.016736805 0.097186185 -0.030376386 0.05721564
0.0044111735 0.069025986 -0.004523098 0.035656273 0.04916384 0.0022422257 -0.0041144933 -0.0065713497
0.0001011926 -0.0062175486 -0.08160412 -0.07034268 -0.037385385 0.08859601 0.02365468 -0.0937969
-0.0051954337 -0.014080877 -0.06079487 -0.07398199 -0.102346644 0.027686078 0.071325324 0.06521073
-0.09152002 0.1131079 0.03527486 -0.08198202 0.06590984 0.06853107 -0.10489608 0.0041846284
-0.02447103 0.07357046 0.046262708 0.016546752 -0.0067571015 0.100036174 0.08342459 -0.056048658
-0.090972945 -0.0017432584 -0.07973337 0.07438741 0.07376699 -0.02181882 0.004381659 0.05851876
-0.10027082 -0.04190769 0.10639198 0.09119627 0.03804775 -0.074488014 0.06898512 0.013551501
0.012033728 -0.043709397 0.07712758 -0.047505718 -0.11749166 -0.073677726 -0.044752385 -0.029681137
-0.029939253 -0.048851144 0.11523701 0.087172344 0.1051702 -0.07356001 -0.041538604 -0.10937384
0.06386372 0.05581462 -0.093035094 -0.036805764 -0.10597788 -0.0039349743 0.07580307 0.075199865
0.023285165 0.033125147 0.0601168 0.05642691 -0.07101832 -0.09701323 0.023750648 -0.029096156
-0.04262162 0.08047793 0.0025225205 0.11059869 -0.09329455 0.028002422 0.063827045 0.10415765
-0.11365122 0.078780524 0.02443019 -0.11087284 -0.0788298 -0.025693297 0.074958436 0.04579119
0.029842636 -0.03566346 0.0461501 -0.069261685 -0.09997488 -0.030818751 0.012962172 -0.007827601
00000000: 83e5 5e3c 37a0 bebd 1607 93bd 3d4d cf3c
00000010: e376 33bd 2c9c 2bbd da3e b0bc 5e90 6dbd
00000020: 2234 8e3d 3836 a2bd 128d c53d 33a7 0abd
00000030: 7831 f0bd 40f0 a6bd ee59 863d 8fee 983d
00000040: 8b12 b3bd d906 b63d dd61 d2bd 21aa f8bc
00000050: 30a5 343d 5ea1 4fbd 03e1 dd3d e5c3 513c
00000060: 8a81 68bc 7310 07bd b606 433d 4145 6f3d
00000070: 8eb3 f1bc f2c5 babd f68c c43d 28e8 a43d
00000080: 4c2c fb3c 8875 cc3c 7eff 973d 45b0 f83b
00000090: 36f3 c73d 7ff8 ce3c 1e91 23bd f89a 943d
000000a0: 2f56 a83d 6745 733c cdd5 863b 293d b63d
000000b0: 00d4 48bd bb4c 67bc 1fb2 293b d475 6b3d
000000c0: 3948 36bd 8aab 6f3d e585 f6bc e774 e13d
000000d0: 1a28 c73d 0a53 e83b 6cad 9b3c da31 ebbd
000000e0: 75a2 9a3d 4b19 8dbc 6ec1 16bd 4889 493d
000000f0: fc4c 59bd 0312 56bb d6c5 f43d 18b2 533d
00000100: dc8d d5bd fe36 583b a686 97bc 6027 dabd
00000110: d468 4c3c b53a ad3d 01ce 9dbd ee1d 0e3d
00000120: 59bf a43c 5108 9dbd 86c0 37bd fa2a bb3d
00000130: 356c 04be 495d c9bd 9544 fa3d 5696 a63d
00000140: 213f e53d 8259 68bd a400 d43c 979d 513d
00000150: 5319 e6bd 9351 173d 5ecb bd3d f45a 043a
00000160: 0537 ba3d e1aa 23bc 03ff c73c 4e89 4ebc
00000170: 7bd8 b5bd 3aab d83b 40a4 d03d 6781 553d
00000180: 19dd 9b3d 7c80 483c 59e4 b9bd 7495 1bbb
00000190: 4354 f0bd 131f d83d 9ede d5bd 3bf8 e73c
000001a0: a049 a03d 69b3 d83d 8f75 043d 3280 893c
000001b0: b20b 40bd 263e ef3d 630b 603d f52c e23d
000001c0: 4eb6 083d f272 b9bd 0d74 893d 1c61 90bd
000001d0: 2ac7 debd d799 8e3d 3ea1 91bd 1113 9a3d
000001e0: c241 c73d c314 763d 312e 8f3c 0457 0abd
000001f0: 42df 943c d471 ad3d fbd5 c3bd 5be3 233d
00000200: f86b 3e3d 0ca0 e13b 645f 16bd e1de 95bd
00000210: cf93 47bc c81e b2bd e12b 873c a71c 37bd
00000220: 6a06 173d 0664 a93d 9955 a03c 26e0 3fbd
00000230: a01b 893c 8d09 c73d e6d7 f8bc f25a 6a3d
00000240: 9b8b 903b 7f5d 8d3d 7f36 94bb 500c 123d
00000250: 0660 493d 4ef2 123b dfd2 86bb 7a54 d7bb
00000260: 5d37 d438 94bc cbbb 1020 a7bd d30f 90bd
00000270: 6b21 19bd d371 b53d 76c7 c13c 9718 c0bd
00000280: 753e aabb 7bb3 66bc 0b04 79bd df83 97bd
00000290: 1e9b d1bd eacd e23c 0313 923d 348d 853d
000002a0: d96e bbbd 1da5 e73d 5f7c 103d 30e6 a7bd
000002b0: bdfb 863d 055a 8c3d c2d3 d6bd 351f 893b
000002c0: 7877 c8bc 1cac 963d f77d 3d3d 0e8d 873c
000002d0: ad6a ddbb c4df cc3d 83da aa3d 4793 65bd
000002e0: 0650 babd 0c7e e4ba 404b a3bd 6d58 983d
000002f0: 2613 973d 62bd b2bc 0594 8f3b 5eb1 6f3d
00000300: ca5a cdbd 66a7 2bbd 0ae4 d93d 1cc5 ba3d
00000310: f5d7 1b3d 2c8d 98bd 1248 8d3d 1d07 5e3c
00000320: 1d29 453c a008 33bd 11f5 9d3d 5b95 42bd
00000330: 789f f0bd 59e4 96bd 474e 37bd db25 f3bc
00000340: 2a43 f5bc 2318 48bd 6201 ec3d 6a87 b23d
00000350: 7963 d73d a1a6 96bd 6224 2abd 64ff dfbd
00000360: fbca 823d df9d 643d 2f89 bebd a4c1 16bd
00000370: ee0a d9bd f5f0 80bb a43e 9b3d 6302 9a3d
00000380: 88c0 be3c 3cae 073d 093d 763d e71f 673d
00000390: 0e72 91bd dfae c6bd b890 c23c 105b eebc
000003a0: 0294 2ebd 9dd1 a43d df50 253b 9181 e23d
000003b0: 3711 bfbd 5665 e53c c1b7 823d 9b50 d53d
000003c0: f9c1 e8bd af57 a13d d221 c83c 4d11 e3bd
000003d0: 8571 a1bd c07a d2bc cf83 993d 8b8f 3b3d
000003e0: 8b78 f43c d913 12bd e307 3d3d 12d9 8dbd
000003f0: a1bf ccbd 9b77 fcbc 4a5f 543c 573f 00bc
