results/lstm_best_model.pth (torch, 225605 bytes, 9 tensors)

lstm.weight_ih_l0 f4 [256, 20]
00000000: 1c66 c33d 9888 d53d dcc4 e7bc 1339 ea3d
00000010: aea3 debc e366 d13c 556f 79bd f60b 8e3d
00000020: 0f7d e13d 967c bbbd d292 de3d d125 b83c
00000030: 6005 be3d 47f3 853c 2da5 793d 0efc 92bc
00000040: c98b c63d 885d 973c a7d2 70bd f2df 023d
00000050: 6fdb 6bbd d967 6fbc 2db1 4dbd 4c15 a93d
00000060: a65f c9bd 4891 6bbd 2c45 1abd 25ab 9bbd
00000070: c9be 453c 45b1 fcbd 4496 e73d 8c3e d9bd
00000080: c4cb c53d 7b3e aa3c 9a35 25bd 9749 9e3d
00000090: bd4a a33c 21d7 ce3d d172 5e3c d182 21bd
000000a0: 503c 0a3d 1e6f 0bbd a2da 573d 895b e53d
000000b0: f044 943d 2b4b 5fbd df28 943d 97c0 be3c
000000c0: 34fe 823d f48d 9bbd 40ce fcbd e157 43bd
000000d0: 22f2 c3bd 8e52 d33d c14f 123d 8014 543d
000000e0: 04a7 243d 7f83 0ebb f38a c83d 385a b6bd
000000f0: 9a07 063c 1f2c aebd 8fc0 1f3d d9b4 2dbd
00000100: e7f3 1e3d 46cd d5bc 334c d23d f6cc 91bd
00000110: 3980 96bd 8dbd 97bd 0353 e83d 5dc1 2e3d
00000120: ca3b f63d 5474 d2bd c413 fcbd 4bc6 c7bd
00000130: 118f a9bd 2761 4f3d 8062 373d 871c d53d
00000140: 6eb6 82bd 6e1c 9bbd 91db 9b3d a84d 29bd
00000150: 572a a43d cebe cfbc ec96 a03d 2d37 b9bd
00000160: 13e5 53bd eec1 3a3d a2da 133d 0600 c5bc
00000170: d156 a13d cf12 b93d f184 afbd ddb1 82bd
00000180: 0cbe 023e 93c4 2cbd 4e5b 34bd c376 efbd
00000190: 9e12 93bd 4448 113d 6879 56bc c8a2 b2bd
000001a0: af46 8d3b 7ff0 abbd 8244 d1bd be54 8ebd
000001b0: cf12 d8bd 424f 9dbd cf45 033e f82a d73c
000001c0: 7ad4 243d c265 eabd c1da a5bd 19eb 25bd
000001d0: 6ad4 c33c a741 e1bd a653 5bbd 6f66 96bd
000001e0: c322 8f39 bdbd 3abd 1dcd 00bc 28ed abbd
000001f0: fbf1 aebd 8946 94bd 540d 2fbd 0299 c8bd
00000200: 0990 d83d 64e0 c6bc 1318 de3d 5a0c 223d
00000210: 278d d8bd fd33 b23d abea 0abd 565f 43bd
00000220: 60e1 d2bd 5081 febd ffaa 133d 79ba ddbc
00000230: ffb5 453d 3c72 cabd 74e0 c43d 6b06 b7bd
00000240: 4610 a8bc 1786 e23c 576b 8c3d b920 c63d
00000250: cb4d ee3d daa9 c6bd 8757 093d 7d46 57bd
00000260: 7bc0 46bc 0d5a bdbd 06ed ea3d bbf1 b9bd
00000270: e881 8f3d f4f1 333d 9c7f 253d f57d 87bd
00000280: db99 e83d 877c f73c 9b1c 983c c1ec dcbd
00000290: dc6d 5a3d a161 8fbc 169c 5cbd 371c d93d
000002a0: 9d5a f63c d739 8abd 2518 7bbd 1fcc 95bb
000002b0: 131e 913d e3cf fbbc ea53 90bd f01a 2cbd
000002c0: 068c b9bd 4c99 363d aa0c c63d 429d eebd
000002d0: 9b1c f13c d50f 873d 5c2d c03c 2cd9 2ebd
000002e0: a34f 873d 205d 873d 5517 3d3d 5f79 8bbc
000002f0: 0147 fdbc adb9 673c c396 a3bc fc82 0fbd
00000300: 0cfb a23d d8fe dd3d e2c2 33bc 28b3 ddbc
00000310: 1eb2 713b 5598 f4bb a3bd f93c ef44 123d
00000320: f26d e8bd ac7d 3dbd 31e3 d73d 2d89 483d
00000330: 6c70 c8bb 4a0e 9abd 370e 9dbd 1e6c e3bd
00000340: ba76 25bd 21a6 2d3d 739d a33d c59c 6d3d
00000350: 6afd e1bd 5b8c 99bd d2b6 a1bc 0fc9 f73d
00000360: 4a40 963c d297 04bd 0616 543d dfb2 42bd
00000370: f5de a5bd 33d3 bd3d 1728 64bd 9bd4 c5bc
00000380: b225 febd cb85 ad3d fb39 c63d 75f3 343d
00000390: 4b07 b1bd 5b06 fbbd d32b cebd 954a bf3d
000003a0: 52d4 773d 68ea d73d 9547 873d 84ab 023d
000003b0: 6b07 ff37 f5af c2bd 14d5 dbbd 744f eebd
000003c0: 007e 503d aae0 6dbd 5a33 b2bc db70 8fbd
000003d0: 3797 b3bc a30b b1bd b553 9ebd 9ad0 153d
000003e0: 6371 10bd 721d a23d 4312 1fbd ec20 bbbd
000003f0: 687c a5bc 6f35 78bd d273 18bd f3ac f1bd
0.0954096 0.10426444 -0.028292112 0.11436667 -0.027177658 0.025561756 -0.06089719 0.06935875
0.11010181 -0.09154622 0.108678475 0.02247897 0.09278369 0.016351355 0.06094854 -0.017942455
0.09694631 0.018477216 -0.058794644 0.031951852 -0.057582315 -0.014612162 -0.050217796 0.08256015
-0.098326966 -0.057511598 -0.037663624 -0.076010026 0.0120694125 -0.12338499 0.11307958 -0.10607633
0.09658006 0.020781746 -0.04033432 0.0772888 0.019933099 0.10099626 0.013577179 -0.039431397
0.033748925 -0.034041516 0.05269874 0.111990996 0.07239711 -0.054515045 0.07234358 0.023285193
0.06396142 -0.07595435 -0.123440266 -0.04769123 -0.095676675 0.103184804 0.03572059 0.051777363
0.04019834 -0.0021745858 0.097921275 -0.089039266 0.008180523 -0.08504509 0.039001998 -0.042408798
0.038806822 -0.026098859 0.1026844 -0.07119171 -0.07348675 -0.07409201 0.11343958 0.042664874
0.120231226 -0.10276094 -0.123084575 -0.09754618 -0.08279241 0.05062976 0.04477167 0.10405832
-0.06382452 -0.07573782 0.07610238 -0.041333824 0.08015888 -0.025359537 0.07841286 -0.09043727
-0.051732134 0.045595102 0.036097176 -0.024047863 0.07877887 0.090367906 -0.085702784 -0.06381581
0.1276781 -0.042179655 -0.044032387 -0.11692574 -0.07181285 0.03546931 -0.013090469 -0.08722454
0.0043114047 -0.0839548 -0.10218145 -0.06949757 -0.105504625 -0.07681133 0.12819599 0.026265606
0.040241696 -0.1144519 -0.080983646 -0.04050741 0.023904998 -0.1099885 -0.05354657 -0.073437564
0.00027300985 -0.045591105 -0.007861403 -0.08394843 -0.08542248 -0.07240016 -0.04273732 -0.09794809
0.105743475 -0.02427692 0.108444355 0.03956256 -0.10573798 0.08701322 -0.033915203 -0.04769834
-0.10296893 -0.12427008 0.036051746 -0.027066456 0.048269268 -0.0988507 0.096131235 -0.08936771
-0.020515572 0.02765183 0.06856411 0.0967421 0.116359316 -0.09700365 0.03353074 -0.052557457
-0.012130852 -0.092456914 0.1147099 -0.090793096 0.070071995 0.043931916 0.0404049 -0.06615821
0.113574706 0.030210746 0.018568328 -0.10787345 0.053327426 -0.017502608 -0.053859793 0.10601085
0.030072505 -0.06749313 -0.061302323 -0.0045714523 0.07085814 -0.030738777 -0.07047255 -0.042017877
-0.090599105 0.04457979 0.09670384 -0.11651088 0.029432585 0.065948166 0.023459129 -0.04268758
0.066069864 0.06609559 0.04616483 -0.017025648 -0.030917646 0.01414339 -0.01996935 -0.035037026
0.0795804 0.10839623 -0.010971757 -0.027062967 0.0036879848 -0.0074644485 0.030485934 0.03571027
-0.113490954 -0.04626243 0.1054138 0.048958946 -0.0061169174 -0.07522257 -0.07668727 -0.11104606
-0.04039643 0.04239476 0.079890154 0.058010835 -0.11034663 -0.07497474 -0.019740496 0.12098896
0.018341202 -0.03237135 0.051778816 -0.047533866 -0.08099166 0.09268799 -0.055702295 -0.02414923
-0.124095336 0.084727846 0.09679028 0.04417749 -0.08643969 -0.122570716 -0.100669526 0.09340397
0.06050522 0.10542756 0.0660545 0.03190185 3.0401823e-05 -0.095062174 -0.10734001 -0.11636248
0.050901413 -0.058075584 -0.021753002 -0.07003947 -0.02192269 -0.08644798 -0.077308096 0.03657589
-0.035264384 0.079157725 -0.038835775 -0.09137139 -0.020200923 -0.060597833 -0.03721983 -0.118005656

lstm.weight_hh_l0 f4 [256, 64]
00000000: 2853 d5bc 8217 fabd 1998 f8bd dcdf 86bc
00000010: 16be b73d 1ea6 a9bd 37d9 263d e43f 943d
00000020: 9505 babd 70bb 5a3d 8c90 bf3c 137f e9bd
00000030: 6336 13bb 9132 f0bd dbd5 df3d 8533 703d
00000040: d638 453d 70d5 c33d 04d5 c33d bb6d fd3d
00000050: 1b04 543d 3b69 b8bd 063b ed3d eede 0e3d
00000060: d382 49bd 6796 3dbd 331a ef3d 1e97 df3c
00000070: 441e ba3d 89e2 213c 8762 ec3d 3062 bbbd
00000080: 5f14 f43c e044 f13c 318b d0ba b0b2 e33d
00000090: edc7 cb3c 15d1 d23b 4f0f af3d 97ab 21bc
000000a0: 88a4 00bc 2342 d3bd 7052 54ba 1236 6dbd
000000b0: ce5e 943d 40ae de3d 0b5d eebd e8e4 93bd
000000c0: 687a f63d 5f90 59bd 7f7c e33d e518 fc3d
000000d0: 9bf6 00bd 7688 cebd 99be 7f3d 2e53 693d
000000e0: 4a5b de3d 246b 973c 2d41 8b3d 13eb dbbd
000000f0: 6a32 8f3c 6a92 f03c 3d82 a03d 4a46 89bd
00000100: 7ad1 73bc ba67 98bd ee4d acbd fc31 553d
00000110: 40d6 9e3c 8328 4b3d 1a6d 32bb 1e04 42bb
00000120: 1ca9 98bb 7f43 8a3d 7951 b1bd 98e4 dc3c
00000130: b6ac 8c3d 4084 943d 9600 76bd 1643 c63d
00000140: 9867 aabd f461 853d 1689 d13d aaad 753b
00000150: 3c18 1d3d 95ac f2bd 5ae1 4abd c2fe 48bd
00000160: 6e97 eebd d11c d9bc 2353 b23d d3ea 46bc
00000170: be17 fd3d 1147 e6bd 1856 4c3d f662 dd3d
00000180: cf83 f83d 1cf1 46bd 02ff e6bd f840 3cbd
00000190: 9e4c bd3d 98b7 313c eff1 f43d ecbe babd
000001a0: 2d17 a0bd 4e3e 823d 32f8 2f3d 0cea a5bd
000001b0: 4cd9 ed3d 50d0 44bd e0b3 d4bd 033a 0e3d
000001c0: 0e93 8fbd b77c 73bd 790d 8fbd b787 0b3d
000001d0: 6e11 6f3d 1d86 ac3d 4cec 90bd fc95 eebc
000001e0: a0b8 ee3d 9d10 83bd e7fc 38bd d5b0 c4bc
000001f0: 8d57 e2bd ae14 bdbd 6497 e43d 4c6e bd3c
00000200: fb75 c03c 6a3c 4b3d d5ab 9b3d d325 ac3d
00000210: 415b b73d 54ce 4e3d 9004 c13d c93c a73d
00000220: 1454 abbc e359 3b3c c330 86bd 55bb c0bd
00000230: 86d7 f23d 2285 bebd 87f3 9fbd 7f44 f7bd
00000240: 9842 c4bd 4280 e93c af1d 763d 8125 d5bd
00000250: ad2b 223c ea28 bdbd d0d1 c23c 6cd2 983d
00000260: 6884 44bd 3dca 60bd 4cc7 a63d 29f1 a4bd
00000270: 60e2 d0bc 6b45 d5bd 546d b33d be64 233d
00000280: 8e04 4bbd 5447 b63d 9d71 f23d 03c6 503d
00000290: 9ab2 b4bd b638 debc e9cc cd3d 12db b93d
000002a0: c7be 28bd a76c a93d 9d84 a7bd d63a 093d
000002b0: 2683 e13d 3215 ba3c e07d cbbd 898d 193d
000002c0: c69a 8e3d 2cfc b13d d550 a8bd 7766 b7bc
000002d0: 3135 d5bb 62cd b3bc f825 e3bc 03a7 38bd
000002e0: c33d 303d 2812 733d c9e7 c6bc c730 c93d
000002f0: 9fa1 24ba 56d7 f93c 4419 003d 7dd4 2dbd
00000300: 3bd0 a8bb 40b3 60bc ea08 413d 1039 89bd
00000310: 6902 6bbd 90ce f6bd bb16 5ebd 1830 233d
00000320: c7f4 ce3d b2b2 fbbd c584 38bd 1338 a13d
00000330: 1921 8abd f9e8 ac3d e21c a83b c20b f1bd
00000340: 0721 ab3c 8ce8 98bd e180 c83c fc04 e5bd
00000350: 2f34 f03d b0db 5bbd 3f47 a43d 0dfc a0bd
00000360: f7ef d6bd 839b 483d 27ff 993d bb4e 9eba
00000370: 822e d8bd f646 0dbd 5f60 b1bd 6f0d 113d
00000380: a13c a73c 0448 b23d 51b1 ff3d 6a6a 6dbd
00000390: 1348 ca3d cc59 b23d fcc4 9c3c b574 fbbd
000003a0: e604 b2bd 04c7 5e3d 731e be3d b503 893d
000003b0: b463 3c3c 5130 9bbd ae17 e1bd a182 92bd
000003c0: 77c7 573a 5433 863c 4f47 c43d 6278 b8bd
000003d0: bfb1 853d 68c2 d83d b223 e7bd 0c93 88bd
000003e0: 17fc 0ebd 674c c43c 9c5d e53d 1dad d13c
000003f0: 28d7 ac3d 4065 cf3d 0443 c93d 6ada e8bd
-0.026040629 -0.12211515 -0.12138385 -0.016464166 0.08971803 -0.082836375 0.040734496 0.07238749
-0.09083096 0.05340141 0.023384355 -0.114011906 -0.0022462837 -0.11728395 0.109294616 0.058642883
0.048149906 0.09562194 0.09562114 0.12374445 0.051761728 -0.09004446 0.115835235 0.03488057
-0.04919703 -0.046286013 0.11674919 0.027293738 0.09087804 0.00988067 0.1154223 -0.09149587
0.02979487 0.029451787 -0.0015910623 0.11118066 0.024875605 0.006433616 0.08547842 -0.00986757
-0.007851727 -0.10315349 -0.00080994423 -0.057912894 0.07244645 0.10873079 -0.1163884 -0.07221395
0.12035066 -0.0531162 0.1110773 0.12309436 -0.03148518 -0.100846216 0.062437627 0.056964092
0.10857256 0.018483706 0.06799541 -0.10738196 0.017480094 0.02936669 0.07837341 -0.0670286
-0.014881486 -0.07441659 -0.084133014 0.052049622 0.019389272 0.04959918 -0.0027225674 -0.0029604505
-0.0046588313 0.06751155 -0.08658118 0.02696447 0.068688795 0.07251787 -0.060059153 0.096807644
-0.0832054 0.06512824 0.10231225 0.0037487545 0.03835319 -0.11849324 -0.04953132 -0.04907108
-0.11649977 -0.026502999 0.08707263 -0.012140947 0.12358044 -0.112440236 0.049886793 0.10809891
0.121345155 -0.048569784 -0.11279108 -0.045960397 0.09243129 0.010846995 0.11960208 -0.09118447
-0.078169204 0.0635954 0.042961307 -0.081012815 0.11613712 -0.048050225 -0.10385871 0.034723293
-0.0701047 -0.05944511 -0.069849916 0.034064975 0.05836623 0.084240176 -0.0707632 -0.029124252
0.11656308 -0.06399653 -0.04516306 -0.024010101 -0.11051855 -0.0923246 0.11161688 0.023123883
0.023493757 0.049618162 0.07601134 0.08405652 0.08952952 0.05048974 0.09424698 0.08165891
-0.020914115 0.011435005 -0.06552269 -0.09410731 0.11857514 -0.09302737 -0.07810121 -0.120736115
-0.09583014 0.02850354 0.060086902 -0.10407544 0.009898108 -0.09236319 0.023781687 0.0746201
-0.047977835 -0.05488037 0.081434816 -0.0805381 -0.025498569 -0.10413631 0.08761087 0.039890997
-0.04956489 0.089003235 0.11838076 0.05097009 -0.08823128 -0.027126651 0.10048849 0.090749875
-0.041197564 0.08272677 -0.08179591 0.033503376 0.11011343 0.022715185 -0.09936118 0.037488494
0.069631144 0.08690676 -0.082185425 -0.022387726 -0.006506585 -0.02194852 -0.027728066 -0.04508115
0.04302765 0.059343487 -0.024280446 0.09823757 -0.0006280187 0.030498188 0.031274095 -0.042438973
-0.005151776 -0.0137146115 0.04712764 -0.06700337 -0.057375345 -0.120511174 -0.054220896 0.039840788
0.10105281 -0.12289943 -0.045048494 0.078720234 -0.06744594 0.084428735 0.005130396 -0.11769821
0.020889772 -0.0746623 0.024475517 -0.11182591 0.11728703 -0.053676307 0.080214016 -0.07860575
-0.104949884 0.048976433 0.075193696 -0.0012077907 -0.10555746 -0.0344915 -0.086609595 0.035413202
0.020414652 0.08705142 0.12484992 -0.057962812 0.09877028 0.08708534 0.019136898 -0.122781195
-0.086923406 0.054389015 0.092831515 0.0669016 0.01149838 -0.07577575 -0.10990845 -0.07153822
0.00082313217 0.016381897 0.095839135 -0.09007336 0.06528043 0.10583955 -0.11286105 -0.06668672
-0.03490838 0.023962213 0.11199495 0.025595242 0.08439475 0.10126734 0.09827235 -0.11369784

lstm.bias_ih_l0 f4 [256]
00000000: dfd3 933d 394e b439 fa0b 7a3d 17b5 dd3d
00000010: 58f8 5c3b 492a 213d bf89 953b d9b0 b43d
00000020: 5d82 8c3d 9044 223c 8e80 babd e234 203d
00000030: b9cf a43d 07a9 133c 8b6f 733d 7dc6 023d
00000040: 8751 6cbd dff5 67bd c456 aebc 6523 cdbd
00000050: 88f6 af3b 6f70 e6bc 35ba ccbd ec9d 813c
00000060: 8931 ba3c f8db 453d 5dd2 32bb 74ff 1bbd
00000070: c784 aebc 4806 c3bd 01d5 303b ba09 893d
00000080: 4d3a 873b f9a6 cb3c fa60 da3d 4c65 d13d
00000090: f2e5 fb3d 6205 ec3d 6c10 8d3d 6a6d b8ba
000000a0: 73d7 efbd 1e19 633c 5d3b 903d b963 0f3c
000000b0: 99c5 883d b32f bfbd 4c7f aeba 31ff f73d
000000c0: c072 e8bd 2f32 82bc 5d7f 633d d7f3 f3bd
000000d0: f80b 40bd 396d 46bd 9d5f aa3d dcd4 86bc
000000e0: bfc8 323b fa0b dd3d 9123 ed3c 4d44 2bbd
000000f0: c3a1 913d c753 51bd c1d6 ea3d b137 17bd
00000100: 15b5 e33d 93c8 19bd 9eed 8c3d aba4 e53d
00000110: 90c1 14bd 2a41 8cbb d0a9 77bd 218c 8b3d
00000120: a98c 26bd 28d2 c43d a0e2 a4bd 3e43 2abd
00000130: be33 e0bc 3aaa d33d e19e 8d3d 6f64 b6bb
00000140: 1a24 863d 76f0 d2bd 09c6 17bc 6a02 ed3d
00000150: 2ad8 babc 36ee 85bd b808 5fbd d3bb c93d
00000160: c824 a43c 8aaf ef3c 5184 67bd 584d 8d3d
00000170: 6b40 14bb 5e81 023e 0604 a63d 334e ddbd
00000180: a8c5 d23d f94d 8ebd ea9d 1dbd d610 9f3c
00000190: 3164 bebd b32a 203c 667a 83bd b214 f3bc
000001a0: 6912 27ba 1f61 a8bc 3541 2f3d d61a 00bd
000001b0: b5fb 873c 0bd9 80ba a46e 20bd c112 ecbd
000001c0: 3b2d 823d b7e2 d1bd cd1c 663c 305d 9d3d
000001d0: 367d ea3d a730 7cbd 4349 d93d 006f 84bd
000001e0: 594f 98bd 2366 c43c 014f 4cbd a23d a2bd
000001f0: 59e2 323d 77f1 d43d 0b08 993d 5c23 343d
00000200: f764 983d 5e4b d03d 324c 40bd fa4c c63d
00000210: a72f 653d 3610 cb3d 72f4 fdbd a904 453c
00000220: 7af9 53bc 5fbe 77bc 0ab8 c9bd 89ec 55bc
00000230: ca60 febc 60fd 28bd 9f91 d13d 06d1 eebd
00000240: a75d db3c 73de 153d 6c71 e23c 8527 9f3d
00000250: 91e8 d73c e5c8 d03d c24e 8f3d 367a a3bd
00000260: 3b46 c0bd c098 93bd 57c7 8ebd 5ed1 a4bd
00000270: 069b a83c b3b3 babd 46f8 bfbd 8d29 48bd
00000280: ea4b 02be 8cb3 9abd 8dcf e9bc 9407 283c
00000290: 7e93 db3c 4784 b23d 9a84 eebc fe2c afbd
000002a0: c4e8 8cbd 21c7 b4bd 6191 b63d 59d8 ce3d
000002b0: 4db6 f73c 312d 1a3d 8992 2b3d 5735 ad3d
000002c0: 6b4e 883d d629 9c3d 9755 323d fcf3 943c
000002d0: ef43 e9bc a87c 903d 9c7c 173d 04e8 be3d
000002e0: 93e7 f13d 38af b93d 9af4 d63d a160 c53d
000002f0: c983 20bd 9fa3 55bd cadb c13c fc6e af3d
00000300: 7f6a d7bd 47d0 1b3d 6be9 6c3d 3e04 70bd
00000310: aae4 3ebd 93c6 51bd ddca fd3d 34ad a9ba
00000320: 8825 87bd dad2 843d afbb adbd ec89 f2bd
00000330: 515b b13d 4ec8 d238 0e8b 313c fcbc 943d
00000340: de01 4dbc a09b 6fbb 9c68 a8bc c253 973d
00000350: 89cd 95bc a0c7 3a3c 863c 9fbd 7bcc 5fbd
00000360: eea8 d7bd fe96 b13d 9aef db3d 9bbf 693d
00000370: 423b 3f3d a848 5dbd 7adc 2a3d a8f3 533d
00000380: d62f f63d 55eb b3bd 309d 97bd 5681 7dbd
00000390: b32e e43d aa47 573c ab2c cf3d b40f 32bd
000003a0: b51e 8cbc 2ebc 963c 4fe9 08bd 998f cd3d
000003b0: 5715 b63d c6f9 c8bd 98b3 5bbd 3c33 a53d
000003c0: 54d4 a23d 3d3c 873b 976d cf3d 1a67 533c
000003d0: 6ea7 f3bd f876 0bbd 42e2 b43d be60 c9bc
000003e0: 0510 c0bd 8ff3 a3bc f1aa 97bd 22d9 553d
000003f0: 5431 523d c80a 67bd d93e 263d a665 b03d
0.072181456 0.00034390556 0.061046578 0.10825556 0.003371736 0.039346967 0.0045635398 0.088227935
0.06860802 0.009904042 -0.09106551 0.039112933 0.080474325 0.009012467 0.059432548 0.031927574
-0.057694938 -0.056630965 -0.021281607 -0.100165166 0.005369965 -0.028129784 -0.09996454 0.015822373
0.022728698 0.04830548 -0.002728603 -0.038085416 -0.021303548 -0.095226824 0.002698243 0.06691308
0.004126823 0.024859892 0.10663028 0.10224399 0.12299718 0.11524464 0.06887898 -0.0014070694
-0.117110156 0.013860969 0.07042573 0.008751803 0.06678314 -0.0933527 -0.0013313084 0.12109221
-0.11350012 -0.01589307 0.055541385 -0.11911743 -0.046886414 -0.048444007 0.08319018 -0.016458921
0.0027280299 0.107933 0.028947623 -0.041813184 0.07110932 -0.051105287 0.11466742 -0.036918346
0.11118523 -0.037544798 0.068812594 0.112130485 -0.036317408 -0.004280229 -0.06046468 0.06813837
-0.040661488 0.096103966 -0.08051038 -0.041568033 -0.027368423 0.103352025 0.06915069 -0.005566172
0.065498546 -0.102997705 -0.009263524 0.11572726 -0.022808153 -0.06539576 -0.054451674 0.09850278
0.02003707 0.029258508 -0.05652267 0.06899518 -0.0022621404 0.12744662 0.08106236 -0.10805931
0.10291606 -0.06948466 -0.038480677 0.019417208 -0.09296454 0.009775805 -0.0641983 -0.029672954
-0.0006373288 -0.020554123 0.042786796 -0.031275593 0.016599515 -0.0009830309 -0.039168015 -0.115270145
0.06356283 -0.102483205 0.014044953 0.0768379 0.11449663 -0.061569836 0.10609677 -0.06466484
-0.07437009 0.023974484 -0.04988003 -0.07921912 0.043672893 0.10397618 0.07472237 0.043979034
0.074411325 0.10170625 -0.046947666 0.09682651 0.055953648 0.09915201 -0.1240014 0.012025037
-0.012937898 -0.015121072 -0.09849556 -0.013056883 -0.031052012 -0.041257262 0.10232853 -0.11660962
0.026778055 0.036589097 0.027641974 0.077712096 0.026356013 0.101945676 0.06997444 -0.07982294
-0.093883954 -0.07206869 -0.06971615 -0.08047746 0.020581733 -0.09116306 -0.09373526 -0.04886775
-0.12724271 -0.07553777 -0.02854135 0.010255713 0.026803728 0.08716636 -0.029115964 -0.085535035
-0.06880334 -0.08827043 0.089144476 0.10099859 0.030238295 0.037640754 0.041887794 0.084574394
0.06655582 0.07625167 0.043538656 0.018182747 -0.028474776 0.07055026 0.03698407 0.09321597
0.118117474 0.090666234 0.10495873 0.09637571 -0.03918818 -0.052157994 0.023664374 0.085660905
-0.105183594 0.038040426 0.057839792 -0.058597796 -0.04660479 -0.051214766 0.12392209 -0.0012945295
-0.065989554 0.06485529 -0.084830634 -0.11842713 0.08659995 0.0001005089 0.010836376 0.072626084
-0.012512652 -0.0036561266 -0.020557694 0.073890224 -0.018286483 0.011400133 -0.07775216 -0.054638367
-0.10530268 0.086713776 0.1073906 0.057067495 0.046687372 -0.05402437 0.04171417 0.05174604
0.12020843 -0.087851204 -0.07403028 -0.061890922 0.1114172 0.013139645 0.101159416 -0.043472007
-0.017104486 0.018400278 -0.033425625 0.10037155 0.08890789 -0.098132655 -0.05363807 0.08066413
0.079506546 0.004127054 0.101283245 0.012902999 -0.11897169 -0.034049004 0.08832218 -0.024582263
-0.093780555 -0.020013599 -0.07405651 0.052209027 0.051316574 -0.056406766 0.04058728 0.08613138

lstm.bias_hh_l0 f4 [256]
00000000: 31b0 c33d 13ca 9c3c fafa 393d 4f9d 4bbd
00000010: 6b14 91bd 9d20 7a3d 15e4 203d cd33 da3d
00000020: 7351 2f3b 4c49 a23d eed2 9b3d be2a ae3b
00000030: 8bb0 8fbd 9f4e d7bd 1c9c b13d 6fca f4bd
00000040: e161 743d fc96 34bd 194d 36bc bd59 973d
00000050: e007 edbd 5d02 ba3d ba3d 3f3c be46 9f3d
00000060: e111 f13c 6732 823d 6bc8 03bd 5863 4dbd
00000070: 7de1 653d ba74 e6bd fe9b b7bd 3405 7b3a
00000080: 4a70 e53d 829e 2d3d 68df 5bbd 306e 943d
00000090: 0d66 8b3d b3b7 7b3d f267 f73d 7a1e cd3d
000000a0: e6bf 3f3d 4aa9 00be 5686 633d f25d 963d
000000b0: 755d 96bd 554c 9a3d 6d9e 013e 3506 1a3d
000000c0: ee97 af3d 2408 9b3d 5d29 adbc ad8d e2bd
000000d0: 7cff 4abd de85 9c3d e760 c3bd 5eeb e33d
000000e0: 3da1 b83c cdf7 13bd dbf6 c23d f701 d3bd
000000f0: 87ae 1f3a 0566 fcbd 1f80 873d 0b80 893c
00000100: 7309 aa3d c76d 82bd 4843 bf3d 4dbf fcbd
00000110: 73dd e73d 99d8 6f3d 9033 133d 7d3a bbbd
00000120: f903 83bd 5795 95bc c207 883d 1d5b bd3d
00000130: efdc ef3d 947c e63c ec91 eabc abfc d9bd
00000140: 1a34 513b 94d9 c73c 350a 4abd 1bbb 613d
00000150: 49bb a3bd 4da5 c23c ad61 533b 4185 b7bd
00000160: c386 e8bd 6538 d0bd 4a42 f73d 6ff4 1fbd
00000170: ab0f fb3c 86ae 15bd e9bf ca3c 9d40 d5bd
00000180: a57f 6d3d 63ec e93d f093 4cbb c59d 073c
00000190: 97d2 c4bd 0756 75bd 0c83 c6bd 5280 f03d
000001a0: 4476 c5bb 30a2 263d f1ee 84bc c77e 7f3d
000001b0: 3803 bd3d 7bfc bcbd 0530 a8bd d4e6 17bd
000001c0: 7188 fd3b 9fe8 adbc 9db7 5a3d 36c1 683d
000001d0: 4424 db3c 341b d4bd 71e7 9cbd 2823 883d
000001e0: afde 3fbd 62a1 a4bd 440b e6bc 26a7 c63d
000001f0: 2d9a 263d 806a 4bbd 592d d83d 5082 b2bc
00000200: 9326 df3d a4ae f73d 8ef6 b0bd a3cf e9bc
00000210: ab16 f13d 5485 d6bd ac98 af3d b114 ac3d
00000220: 3698 e03d f263 73bd 68f6 c53d 0531 f63c
00000230: d8fa cb3d 48a9 543d 7c7b 1a3b 2cbe 02be
00000240: 4f58 7fbd bb9f aa3d 9f4c 593d 07eb 39bd
00000250: 8bc8 063e c7f4 8abd fc0c c53d 41a0 003e
00000260: 94e6 06bd ece1 cd3c 5327 a63d 7b2c 87bc
00000270: 06de a73c 938a 8a3d 1e53 1dbd 4156 9dbd
00000280: 0861 ef3c 3cb3 d8bd c828 e3bd 6881 8c3b
00000290: 3d68 b3bd 355d 473c ee42 a93c 7a3a e6bd
000002a0: 226a 80bd 7f12 fd3d a531 86b9 348a d9bc
000002b0: 5555 6bbd bc8f 5b3d b1eb 453d 2f38 483d
000002c0: e576 47bd 56d6 653d 5324 a73d bd59 f43d
000002d0: 0708 ebbd d772 1e3d d894 33bd 3059 a1bc
000002e0: 833e bdbd 57aa 053d de72 e1bd b7c0 91bd
000002f0: 7d99 68bc 2d6c 263d eaf0 543d 0cff b03d
00000300: a7e5 febd 89b6 73bd 3964 b13c f30c b4bd
00000310: 13cf 52bd 4fb4 36bd 0158 823d 04b1 733d
00000320: f3db 32bd 1a61 75bd 0fee d03c 66e4 1c3d
00000330: 517c ec3d 0e64 b73d 69bf 08bd 0039 16bc
00000340: a686 923d 05ba 0f3d e212 7c3d eacc fc3d
00000350: dbeb 4a3d 30af adbb d04e edbd eb3d 6cbd
00000360: 40e3 6c3d c00f e93d de17 373d 404b a4bd
00000370: fbfb cdbd 35d1 fe3d 5e76 18bd 60e7 01bd
00000380: 4b67 b1bc cb3e af3d a626 e83d 4dd7 353d
00000390: 9f27 bc3d e5d3 fd3d efe8 f2bd 1432 40bd
000003a0: 62d8 83bd 710d 803d ce10 b63d 0aaa b23c
000003b0: 89bd ac3d 9c77 ecbd 5919 abbc 9139 493c
000003c0: 0c4d 2ebc 2c45 c93d b6a8 4bbd d87f d23d
000003d0: 51af 09bd cfd8 683c 62a2 b03c 4c02 de3d
000003e0: fa0d d4bc e74c 56b9 558f b63d cb1c fc3d
000003f0: 4724 6ebd 5c18 143d 416f a53b b8fd f1bd
0.0955509 0.019139325 0.045405366 -0.049710568 -0.070839725 0.06106626 0.039280016 0.106544115
0.0026751428 0.079241365 0.07608591 0.005315154 -0.07016095 -0.10513043 0.086723536 -0.11952674
0.059663657 -0.044089302 -0.01112678 0.07390163 -0.11573768 0.09082482 0.011672432 0.07777165
0.02942747 0.0635727 -0.032173555 -0.05014357 0.056123246 -0.112527326 -0.089653 0.00095756655
0.11203058 0.042387493 -0.053679854 0.07247579 0.06806574 0.061454486 0.12080373 0.100155786
0.046813868 -0.12564579 0.055548035 0.073421374 -0.07342044 0.075340904 0.12658091 0.037603576
0.085739 0.07569912 -0.021137888 -0.11062179 -0.049560055 0.07642721 -0.09539967 0.11128877
0.022537822 -0.036124993 0.0951974 -0.10303109 0.0006091375 -0.12324146 0.06616234 0.016784688
0.083025835 -0.063685946 0.09339005 -0.12341175 0.11321535 0.058556173 0.035937846 -0.09142015
-0.06397242 -0.018259687 0.06642105 0.09245894 0.117120616 0.028135575 -0.028634034 -0.10643896
0.0031921924 0.024395742 -0.04932614 0.05511008 -0.07994706 0.023760462 0.0032254264 -0.08960963
-0.11353829 -0.101670064 0.120731905 -0.03905147 0.03064712 -0.03654339 0.024749713 -0.10412715
0.05798306 0.1142204 -0.0031216107 0.008277361 -0.09610479 -0.059896495 -0.09692964 0.11743225
-0.0060260613 0.040682018 -0.016227217 0.062376764 0.092291296 -0.09227844 -0.08212284 -0.03708537
0.0077372123 -0.021229086 0.053397764 0.056824885 0.026750691 -0.10356751 -0.076613314 0.066473305
-0.046843227 -0.08038594 -0.028081544 0.0969985 0.040674377 -0.049662113 0.105555244 -0.021790653
0.10896029 0.12093857 -0.086407766 -0.028541392 0.11771902 -0.10474649 0.08574042 0.08402384
0.10966532 -0.059421487 0.09666139 0.030052671 0.09959954 0.05191925 0.0023572138 -0.12767857
-0.062340077 0.083312474 0.053051587 -0.045390155 0.13162439 -0.06784969 0.09621617 0.12561132
-0.03293474 0.025132142 0.08112969 -0.016500702 0.020491611 0.06764712 -0.038409345 -0.07682467
0.029221073 -0.10581061 -0.11091763 0.0042878874 -0.08760116 0.012168218 0.020661797 -0.11241622
-0.06270243 0.123570435 -0.0002559546 -0.026555158 -0.057454426 0.053603873 0.048320476 0.048881706
-0.04869737 0.05611261 0.08161225 0.11931179 -0.114761405 0.03868374 -0.04384312 -0.019695848
-0.09240439 0.03263315 -0.11008237 -0.071168356 -0.014196751 0.04063051 0.051987566 0.08642396
-0.124461465 -0.05950025 0.021654235 -0.08791532 -0.051467013 -0.04460555 0.06364442 0.059494987
-0.04366679 -0.059907056 0.02550414 0.038303755 0.11547149 0.08954631 -0.033385668 -0.009168863
0.071545884 0.03508951 0.061541446 0.12343772 0.049541336 -0.005300425 -0.11587298 -0.057676237
0.05783391 0.11379957 0.044700496 -0.08022165 -0.10057827 0.12442247 -0.03722226 -0.031714797
-0.0216557 0.08556899 0.113354966 0.04439478 0.091872446 0.12393931 -0.11860835 -0.04692276
-0.06437756 0.06252564 0.08889924 0.021809597 0.084345885 -0.11546251 -0.02088611 0.012281791
-0.010638487 0.098276466 -0.049721442 0.102782905 -0.03361446 0.014211847 0.021561805 0.10840282
-0.02588557 -0.00020437279 0.08914057 0.12310179 -0.058140066 0.036156043 0.005048663 -0.11815971

lstm.weight_ih_l1 f4 [256, 64]
00000000: 302b dcbd ba93 04bd bd9b e5bc 4649 9d3c
00000010: b5f3 80bd e095 e53c e76d fb3d b47c 573c
00000020: 8934 a63d 196f a1bd d8fc e03d fe87 01bd
00000030: c3f3 fc3d 7a52 31bd fcba 823c 3cee b13c
00000040: f09e 013d 0c8f f23b 4466 c4bc efe7 0fbd
00000050: c4ce b63d 586f e73d 649e f13d 679b 8ebd
00000060: 6f33 d33d bae3 dd3d aebf 813d e37f 2ebc
00000070: 286b aebd 8587 19bd 7430 f3bd fdbf 943d
00000080: 78e0 af3d b145 493d 1b19 f8bd cf62 2d3d
00000090: 4de5 83bd 5db5 5fbd 9069 c9bd eb46 d93d
000000a0: 2c98 893d f441 e43d 5c59 ed3d 158e 77bd
000000b0: d4e5 bb3d 77f6 c33d d189 033d bbbe f9bd
000000c0: ab4b 9fbc d911 fcbd 8956 52bc 0c90 d73d
000000d0: aab0 6abb 3df6 c8bd deda ef3d 9815 82bc
000000e0: 1fe6 8d3d 2b2d d2bc fc99 a1bd 6cca 203d
000000f0: 01ea a73c c787 243d 9969 9dbb 5a0e d63d
00000100: 0ddb e4bd c0a4 c4bd 800c d5bd f7e7 0dbd
00000110: 3f26 033d a38f 3bbd f4bb 00bd b60c 79bd
00000120: b60e 47bd b7f4 e5bd 624f 0b3c 03f6 223d
00000130: 91d5 3fbd 2440 023c b79f d73d f95c a53d
00000140: 0481 f5bd 1741 cabd ec98 573d 30b3 cbbb
00000150: 8363 d23d 4b8f b73d 3668 b6bd 72fc d9bd
00000160: 5b59 a73c 34eb 1f3d 0277 eebc d0c0 a63d
00000170: f9ff f53d 2bd5 67bc 44b7 2d3d eac0 efbd
00000180: 4861 78bc 53d9 c9bd c100 d23d a43f 1f3d
00000190: 1849 853d 14b6 49bd 1d69 603d 183c 403d
000001a0: 7fdd 64bd c09e bcbc d899 8e3d 3302 013d
000001b0: 0379 acbb eb6f feba 9217 b0bd 6ac4 90bc
000001c0: 0824 4e3c ce3f 533d f28d 3bbd a900 3a3d
000001d0: cb7f 983c ca36 eb3d 245e 463d 4f0d fcbd
000001e0: 3587 fdbc f9fb 03bc 754e 60bd 684f 38bd
000001f0: f49c c03b 26dc 34bb 7d50 04bd bb46 53bd
00000200: 0832 66bd 6d0f 2e3d c4a0 253d 4f80 b83c
00000210: 7044 b93d 7204 1b3c 506e ed3d 8d59 ccbc
00000220: b50f 003b a5e4 86bd 5126 ccbd 1366 5fbd
00000230: 63cd f73c 9987 1c3c 5186 533d 4a97 243d
00000240: 3ae2 f7bd 5701 d33d 20c1 0bbd 6b01 c8bd
00000250: 3412 4a3d 2341 083d 8805 92bd 38b4 fe3a
00000260: 55f1 d73d 1d21 0b3d 59a1 12bd 9787 00bd
00000270: 2287 263d 9c40 f43d c337 0fbd e01b e23d
00000280: fb12 4dbd abb7 b13d ee98 3f3c 8247 58bd
00000290: b45a d43d 14cd b83d 8338 bebc 32fd f3bd
000002a0: ec5b 82bd 94db f0bb de2e dbbd c643 c1bd
000002b0: ca7c 26bc d3bb fbbc 2351 9a3b d764 82bd
000002c0: 6a0d 81bd c663 293d 7919 cb3b fb43 a83d
000002d0: 72e9 8dbd 418f 57bd f77e 6dbd 755d a6bd
000002e0: 1303 8b3d 4e27 9dbc 2faf fe3d 8e2c 923d
000002f0: cd7a 76bd f441 01bd cd58 603d 6b26 b6bd
00000300: 6e53 df3d 0b85 a63c e3f4 123d c357 dc3d
00000310: 44c0 dbbd ad55 35bd 6a2d 64bd 9c30 a7bd
00000320: 4771 a73d 5882 a73d 94bc c13d fd57 f43d
00000330: 5860 7abd 5ae0 793a 8749 033d cc88 1dbd
00000340: 678b 903d 4662 f93d 1c12 fcbd 02af d5bc
00000350: b246 973d a1d6 b5bd feb4 b7bc 4aca a43d
00000360: a617 fc3c debd 87bd 7fdc 01bd 5033 ddb9
00000370: bead f23d 50b9 a6bd 55a0 1cbc 0c9a d4bc
00000380: 5d4a fe3d e524 c13d 627b 90bc 4c50 64bd
00000390: c1aa fb3d 9c47 75bc 9542 0cbd 58da ca3d
000003a0: 1d79 183d 756e 5c3c 8d93 e63d 5ff0 7fbd
000003b0: f204 cb3d a647 803d ad7e a3bd 1220 ea3d
000003c0: 89eb 303d d0ae b9bd 8738 db3d 1191 d0bd
000003d0: 8489 883c eb9b 6b3d c92c 883d 993e e1bd
000003e0: 2ee5 df3d 5cc5 e03d 74fd 953d f223 2f3d
000003f0: 4022 a4bd ad63 c03d eaed 013c 3148 92bc
-0.10750425 -0.032367446 -0.028028363 0.019199979 -0.062964834 0.028025568 0.122768216 0.01315229
0.08115489 -0.07882518 0.10985726 -0.031623833 0.12351181 -0.043291546 0.015958302 0.021720044
0.031645715 0.0074023064 -0.023974545 -0.0351333 0.08926156 0.11300534 0.11797789 -0.069632344
0.103125446 0.10834451 0.06335388 -0.010650608 -0.08516532 -0.037482757 -0.11874476 0.07263181
0.08587736 0.04913873 -0.121141635 0.04233056 -0.0644022 -0.05461632 -0.098345876 0.1060923
0.067184776 0.11145392 0.115893096 -0.060438234 0.091746956 0.09568494 0.032113854 -0.12194582
-0.019445261 -0.12308092 -0.012838014 0.10525522 -0.0035810866 -0.09812591 0.117116675 -0.015879437
0.06928658 -0.025656303 -0.07890698 0.039255545 0.020497324 0.04016855 -0.004803848 0.10451956
-0.11174593 -0.09601736 -0.10402775 -0.034645047 0.032018896 -0.04579128 -0.031429246 -0.060803138
-0.048598014 -0.11228316 0.008502813 0.039785396 -0.046834532 0.007949863 0.1052851 0.08074374
-0.119874984 -0.09875696 0.052636072 -0.006216429 0.102728866 0.08962878 -0.089065954 -0.10643853
0.02042835 0.039042667 -0.029109482 0.08142245 0.120117135 -0.014149944 0.042411104 -0.11706717
-0.015159912 -0.098559044 0.1025405 0.03887905 0.06508082 -0.04924591 0.054787744 0.04693231
-0.055875298 -0.023024917 0.06962937 0.031496238 -0.005263449 -0.0019412016 -0.08598246 -0.017671783
0.012581833 0.05157452 -0.045789666 0.045410786 0.018615624 0.114850596 0.048429623 -0.12307226
-0.03094826 -0.00805568 -0.054762322 -0.044997603 0.0058780853 -0.002759704 -0.032303322 -0.051581126
-0.056200057 0.04249518 0.04043652 0.02252212 0.090462565 0.009461509 0.11593306 -0.024945045
0.0019540612 -0.06586579 -0.09968246 -0.054540705 0.030249303 0.009553813 0.051641766 0.040183343
-0.12103696 0.1030299 -0.034119725 -0.097658955 0.049333766 0.033265244 -0.07129961 0.0019432371
0.10544077 0.033967126 -0.035798404 -0.03137931 0.040656216 0.11926386 -0.034965288 0.11040473
-0.05006693 0.0867761 0.011694176 -0.05280257 0.10368863 0.090234905 -0.023220306 -0.119135275
-0.06365189 -0.0073503945 -0.107022986 -0.09436755 -0.010161588 -0.03072921 0.0047093793 -0.0636689
-0.06301387 0.041354917 0.006198105 0.08216091 -0.06929292 -0.052626852 -0.05798241 -0.08123294
0.06787696 -0.019183781 0.12435757 0.071374044 -0.060175706 -0.03155704 0.054772187 -0.088940464
0.10904585 0.020327112 0.035878073 0.10758927 -0.10730031 -0.04427116 -0.055707373 -0.081635684
0.08175903 0.08179158 0.094597965 0.11930845 -0.061127037 0.0009532027 0.032052543 -0.038460538
0.07057839 0.12176947 -0.123081416 -0.026084427 0.07386531 -0.08878828 -0.022425171 0.08046396
0.030772995 -0.06628011 -0.031704422 -0.00042190636 0.11849545 -0.08140814 -0.0095597105 -0.025952362
0.124165274 0.09430865 -0.017636959 -0.05574064 0.12288428 -0.014970686 -0.034243185 0.09904927
0.037224878 0.013454069 0.11258612 -0.062485095 0.099130526 0.06263666 -0.07983146 0.11431898
0.043193374 -0.09066546 0.10704141 -0.10183919 0.016667135 0.05752174 0.06649167 -0.10998268
0.109323844 0.10975143 0.07323733 0.04275889 -0.08014345 0.09394012 0.007930258 -0.01785669

lstm.weight_hh_l1 f4 [256, 64]
00000000: 1cf9 403d 8a83 66bd 36c3 6dbd a035 573b
00000010: 80a5 0e3c 28fb c33d e976 bebd ee4b ecbd
00000020: dc80 9c3d 8e38 7cbd f6c2 c0bd f59c 023d
00000030: a18d f8bd 15df 933d 6160 5fbd 4e28 c93d
00000040: d399 f3bd 9e03 f4bd af84 4ebd 106f d83d
00000050: de96 ddbd 8ce6 9cbd 42c7 e83d 1ab8 c73d
00000060: 86f3 2f3c acc4 d6bd f344 c13d d7e1 833d
00000070: f729 bf3d dd8a ca3c 512c abbd d7eb e7bd
00000080: 820a bebd bdd5 fa3d 0767 f93c 4a65 833d
00000090: 002c 6ebd 5cca de3d 420f 163d d5f5 be3d
000000a0: 5378 8e3d 33b5 95bd b6b3 e13d 97a1 6ebd
000000b0: 567c 943d 70d1 913a ebb7 70bd 6427 a03d
000000c0: 6d9d 733d 4e4d 5c3c c37c bebd f73c 783d
000000d0: 8936 923d 43ab 33bd 2637 0a3d c8d6 61bd
000000e0: fc8f 923d 4e7e c3bd 7207 513d e437 c5bd
000000f0: 18dc eb3c 4f99 703d 1692 563d 3f63 283d
00000100: bc82 f93d d162 f1bd 0b1e 50bd e668 46bd
00000110: 1cc4 f33d 3711 353d 6957 0bbd 8d29 b83d
00000120: d144 573c 3433 eebd 52e6 8f3c a884 56bd
00000130: 3203 adbd 4d79 6e3c 37ed 813d 4161 edbd
00000140: f8e6 e93d 995a 62ba bcbf 5f3b e803 efbd
00000150: 3be9 08bb 1fee 0b3d e6b5 d6bd ebf2 b4bd
00000160: 9515 073d a646 08bc ef57 fc3d 5b9a 273a
00000170: 8c76 493c 1f21 84bd 65f6 21bd c7ed 923d
00000180: 15fb ebbd a051 483c 35a9 ae3d a2a6 13bd
00000190: 5895 f2bd 552c e3bd accb 83bd d1b5 d93b
000001a0: 6627 ab3d 153d b73d 0dfe b83c e72e 2cbd
000001b0: 7411 cd3c de3c 163c 8256 babc fa84 0a3d
000001c0: 556e 4c3c f474 b63d f1bc 5c3d 18a4 b93d
000001d0: 2b68 003d f3af 06bd 3dae f0bd 47bb abbd
000001e0: d9db 9fbd 9596 603d c859 8bbd 0baf dd3d
000001f0: eb81 f5bc 5877 d6bd 00a9 83bd 186a 3dbd
00000200: 7ef2 7bbd 8331 81bd f3cd 9b3d f233 43bd
00000210: 6f5e 7cbd 56ab ef3d b341 81bc 1d41 92bc
00000220: 3a6c 993d e649 db3d 17db 2a3c e6f7 f33d
00000230: 0111 c03c 1c00 c2bd e96b 963d 3d65 15bd
00000240: 1d5c 8dbd f1f0 bfbd e5c5 ff3d 657f 6a3d
00000250: 7795 883b 9588 53bd 5b17 b6bd e204 ca3d
00000260: 24c3 bd3d d7a0 6c3c 37a5 0ebd b646 063d
00000270: 166d 493c 01ff ca3c a533 afbc dc4e 49bd
00000280: 7aff f83c 1d73 903d d504 abbd 4d9a d0bc
00000290: c14b d9bc ea4a 18bd 4160 683d 9dc7 0ebd
000002a0: ac19 ba3c 6a58 f43d 1ea1 bdbd cbe4 d23d
000002b0: 8701 963c 8c24 c2bb 695f 623d ad25 2fbd
000002c0: 61d6 823d 9aaf f2bc 413e 9ebc 8715 b7bd
000002d0: 319a d63d 42aa be3d 3d1b c3bd 0fc4 f13d
000002e0: ddb3 53bc e568 60bd 3b26 74bd 0622 be3d
000002f0: 7cd6 763c f5fc 303d 6b5d 423d 9293 3abd
00000300: e7c9 a7bc 8a10 fbbc dbf5 ff3c c2e1 2b3d
00000310: 0058 52bd 19d9 f7bd 8334 c63d 6087 75bc
00000320: cff9 a3bd 9055 fcbc 9842 3c3c 0d48 f6bd
00000330: 4478 6abd 0bba c63d f195 c9bc fd2d b03d
00000340: 4692 64bd 83cf acbc 913f aebd dbaf 583d
00000350: d1b4 bfbd 50a5 763a c15b c7bd 01f4 f0bc
00000360: f829 1dbd 5e55 853d b0d6 81bc b658 073d
00000370: 1205 a2bd e478 81bd cd07 df3c de22 c13c
00000380: 8629 3ebd 6ff0 8abd 62ea b2bc e385 663c
00000390: d3c1 313d 295d f63c df2a dbbd af6d 7c3d
000003a0: 0c87 6fbc 0c2f 25bd b6a6 2dbd 2126 1abd
000003b0: bf2e ff3d cb68 87bd 0b9c f8bd e661 443d
000003c0: 1aaf fcbd 139d eb3d 5602 713d f2a3 d13d
000003d0: 58e2 67bd 08d9 e83d ab28 6d3d bcfb cb3d
000003e0: e0af 88bc 2b64 2dbd 30b9 fd3d c364 4bbd
000003f0: 7e3f c33b 0b68 613d 2360 8c3d 0ff6 c43c
0.04711257 -0.05627779 -0.058047496 0.003283836 0.00870645 0.09569389 -0.09300024 -0.1153792
0.076417655 -0.061577372 -0.09412186 0.031887967 -0.121363886 0.07220284 -0.054535273 0.09822141
-0.11894574 -0.119147524 -0.050419506 0.105680585 -0.10819791 -0.07661161 0.113661304 0.097519115
0.010739213 -0.10486731 0.09436979 0.0643956 0.09334176 0.024724418 -0.08358062 -0.1132428
-0.09279348 0.122477986 0.030444635 0.06415804 -0.05814743 0.10878441 0.036635645 0.093242325
0.06956544 -0.07309952 0.11020605 -0.058259573 0.07250278 0.0011125039 -0.058769148 0.07820013
0.059476305 0.013446165 -0.0930114 0.060605016 0.07139308 -0.0438645 0.033744 -0.055136472
0.07156369 -0.09545575 0.05103249 -0.09629801 0.028791472 0.058739956 0.052385412 0.041110273
0.12183139 -0.11786426 -0.0508099 -0.048439883 0.11902639 0.04420587 -0.034018908 0.089923
0.013138966 -0.1163086 0.01756588 -0.052372605 -0.08447875 0.014555288 0.06344073 -0.11590815
0.11421007 -0.0008634716 0.0034141382 -0.11670667 -0.002089097 0.034162637 -0.10483913 -0.088353954
0.032979567 -0.008317625 0.123214595 0.0006393545 0.01229633 -0.0645163 -0.03954162 0.07174259
-0.115224995 0.012226492 0.085283674 -0.036047585 -0.11844891 -0.1109244 -0.06435332 0.0066439887
0.08357124 0.08947197 0.022582078 -0.042036917 0.025032736 0.009169785 -0.022746328 0.033818223
0.012477477 0.08909026 0.053891126 0.090645015 0.031349342 -0.032882642 -0.11751983 -0.0838533
-0.078056045 0.054831106 -0.06804234 0.108244024 -0.029969176 -0.10471982 -0.064287186 -0.046243757
-0.061510555 -0.06308272 0.07607641 -0.04765696 -0.061613496 0.117026016 -0.015778398 -0.017853314
0.07491346 0.107074544 0.010428212 0.11912517 0.023445608 -0.09472677 0.07344801 -0.0364735
-0.06902335 -0.09372128 0.12488917 0.0572504 0.004168208 -0.051643927 -0.088911735 0.098642126
0.09265736 0.014442644 -0.03482553 0.03278228 0.0122940745 0.024779798 -0.02138693 -0.04914747
0.030395258 0.07053206 -0.08350531 -0.025464201 -0.02652538 -0.03718082 0.05673242 -0.034858335
0.02271732 0.11930926 -0.09259246 0.10297545 0.018311275 -0.005924767 0.05526677 -0.04276054
0.06388546 -0.029624749 -0.019316794 -0.08939653 0.104786284 0.09309818 -0.0952668 0.11804973
-0.012921301 -0.054787535 -0.059606772 0.09283833 0.0150657855 0.04320999 0.04745237 -0.04555089
-0.020482017 -0.030647535 0.031245163 0.041963346 -0.051353455 -0.12101955 0.096779846 -0.014985889
-0.080066316 -0.030802518 0.011490487 -0.12025461 -0.0572436 0.09703454 -0.02460763 0.086025216
-0.05580356 -0.021095043 -0.08508218 0.052902084 -0.0936066 0.0009408789 -0.097342975 -0.029413225
-0.038370103 0.06510423 -0.015849441 0.033043586 -0.07911123 -0.06321886 0.0272254 0.023576196
-0.04642632 -0.0678414 -0.021840278 0.014070007 0.043397736 0.03007372 -0.107015364 0.06162804
-0.0146196 -0.04032807 -0.042395316 -0.03763402 0.12460088 -0.066117845 -0.12139138 0.047944926
-0.123380855 0.11504569 0.05884012 0.10236348 -0.056612343 0.113695204 0.057900112 0.09960124
-0.016685426 -0.042331856 0.12388837 -0.04965664 0.0059584966 0.055030864 0.06854274 0.024043111

lstm.bias_ih_l1 f4 [256]
00000000: 6f06 94bd 5691 8e3c bf37 ff3d 98cc 813d
00000010: 0f2e 973d 9f3e cdbd d4cb cbbd a8c3 803d
00000020: ada8 9c3d e329 ecbd b5d2 d3bc f16d 433d
00000030: 25cb ccbc 8fac bc3d da72 0bbc 8114 823d
00000040: d3f4 d1bc ac3b da3c e6c1 a03d 4bdf 523c
00000050: 319f e03d caa0 21bd 520f b9bd a75c 5d3d
00000060: ddf8 2a3d 5c32 e73d 31ac debd 7c46 813b
00000070: 3eed dfbd 6149 d03d 4373 1bbd a9c8 acbc
00000080: ef20 fa3d ba4a 873d 3918 d0bd 2eca af3c
00000090: ef6d db3c 5b54 b3bd 862f e73d b960 87bc
000000a0: 91b9 b8bd 4d1e 86bb 14f9 fc3d 3658 f53d
000000b0: 2063 8b3c ebc5 963d 8bbe d6bc a615 9bbd
000000c0: a6cf cd3d 0b58 37bd 417e 24bd 2841 b0bd
000000d0: a181 b73d 23b9 f53d b43e b1bd 26c0 033d
000000e0: af33 053e e3d5 0b3d 0292 b33c 1483 fd3d
000000f0: 4cc5 a8bd 6ef0 e83c 9080 dfbd b064 d6bd
00000100: b869 f1bc b976 6e3d a26a ce3d 1c8b 13bd
00000110: b6ed 7ebd 2fc9 f8bd fb15 94bc b2ce b7bd
00000120: 9321 fc3d 674c a1bd 2227 94bd f5c5 ee3d
00000130: 3546 b3bd 7dad 66bd 3d4a a0bc 4766 f23d
00000140: 8b87 ffbd 0934 43bd bf49 eebb bbed 2dbd
00000150: b330 c8bd 14ac 453b 7620 883d c89a c33d
00000160: 9cbc 873d 0da2 1e3d 0c19 8ebd 9f27 b0bd
00000170: caf8 d5bd b28b 95bd c994 be3d 52b5 1bbc
00000180: 4410 9d3c 725f b1bd d925 ec3d e3f6 d03d
00000190: 5024 a53d 4ce5 9d3d 1ce5 cf3d 9046 f83d
000001a0: 362b f63d 3086 bbbc 42a1 2f3d d622 773d
000001b0: c194 f3bd f9bd 98bd 7c5c 4e3d 928b f1bd
000001c0: 2012 0cbd 1e12 e53d 7156 0bbd c958 a8bd
000001d0: 60e8 ebbd bc1f b73d eca2 313d 5b50 003d
000001e0: 56f7 2dbc 89ea a0bd bb73 9d3d 231c bfbd
000001f0: 5165 78bd fcdf 20bd 7e2a e93d 6160 613d
00000200: 295f d6bd 4cf2 debd bf77 8ebd 7e8b c6bd
00000210: de73 623d a534 2bbd 5a98 46bd 8749 fb3d
00000220: c108 1e3c 2ce9 d83d 5475 c4bd 3ebe e83c
00000230: 88dd d73b a92c 9fbd 7ae3 d6bd 5fb5 a5bc
00000240: 6251 f1bc fa4d f0bd 8b88 95bd 7231 a03d
00000250: 77c8 c13c 5d2f da3d 32d2 73bd 0cb1 f1bd
00000260: 1cea 95bd 1157 90bd 7e58 803d 2016 d1bd
00000270: 6ac1 a13d eaa4 8abd 027a b1bc e858 813d
00000280: fc42 563d 0a52 e6bc 4a5b 833d 7296 e2bd
00000290: 3ae3 21bd 1055 af3d e8d9 ff3c 5e52 0b3d
000002a0: f506 dfbd 2b56 083d 5167 e3bb 7deb ec3d
000002b0: be3d 123d c185 b63c be8c 963b 956b 19bd
000002c0: 0524 bcbc 102f 4f3d 5fb3 4cbc d26f fc3d
000002d0: 832d 053c 6729 bbbd 53a9 c7bc 1beb 4abd
000002e0: 8838 90bd dbfe 7cbd 0fa8 793d 898c a73d
000002f0: 1352 133d 15ec d4bc f3b5 0c3d cd38 b83d
00000300: acf8 efbc 78e7 9c3d 12ec 22bc e587 d83c
00000310: 1d7a b2bd 1de5 003d 37bf ccbc fa3d 06ba
00000320: 4fe7 47bd 27ce cf3d 5597 aa3c 257f 163d
00000330: 4805 ad3d 5b35 b03d 9edf 903d c1a2 433d
00000340: f343 afbc 9bcd ec3c fa52 debd ebaa 3c3b
00000350: ffda 8dbd ef9f c63d 6800 5bbd adce 3fbc
00000360: 63b2 ad3d 6fca 863d 0781 8bbc b41c 503d
00000370: 53f6 9ebd 3790 a93d a4f3 9fbd 9b56 ffbd
00000380: ca89 81bd 0b7b dcbd 9de4 a6bd e3d5 8dbd
00000390: f146 febc 9860 873d d85a 7d3d 6acc b83d
000003a0: f22f 373d 6488 b7bd ebcd 903d 4cc0 9abc
000003b0: 6af9 3f3d ef59 5fbd 95d6 64bd 4602 14bd
000003c0: 2116 763d ae19 a5bb 9d30 45bd 735e fb3b
000003d0: 2cdb 76bb 1fa5 803d 3c1d e93d 1406 703d
000003e0: 43bf 893d fa38 ce3d 9f23 a53d 4005 963d
000003f0: dc71 b53c dfc3 d7bc f99a 14bd 33bf 0e3c
-0.072277896 0.017403286 0.124618046 0.06337851 0.07381832 -0.1002171 -0.099509865 0.062873185
0.0764936 -0.11531427 -0.025857309 0.04771227 -0.02499921 0.092126004 -0.008511269 0.06351567
-0.025629437 0.026639782 0.07849483 0.01287062 0.10967863 -0.03945998 -0.09036125 0.05404344
0.04174124 0.11288902 -0.10872687 0.00394517 -0.10933922 0.10170246 -0.03795172 -0.021091776
0.12213313 0.0660605 -0.1016087 0.021458711 0.026785819 -0.08756324 0.11288361 -0.016525613
-0.09019769 -0.0040929676 0.123521954 0.119797155 0.01701504 0.073619686 -0.026213905 -0.075724885
0.100493714 -0.0447617 -0.040159468 -0.086061776 0.089602716 0.11998203 -0.08654538 0.03216567
0.13007997 0.034139525 0.021920208 0.12378517 -0.082407564 0.028434958 -0.10913193 -0.10468423
-0.029469356 0.05821869 0.10078932 -0.036021337 -0.062238418 -0.12147748 -0.018076887 -0.08974971
0.12311091 -0.07875901 -0.072340265 0.11658851 -0.08753625 -0.056317795 -0.01956665 0.11835914
-0.12477025 -0.047657046 -0.007271975 -0.042463046 -0.09774914 0.003016238 0.066468164 0.095510066
0.06627771 0.038728762 -0.06938371 -0.08601307 -0.104478434 -0.073020354 0.09305722 -0.009503679
0.019172795 -0.08660783 0.11530656 0.1020334 0.08063567 0.077097505 0.10151121 0.12122834
0.120199606 -0.022891134 0.042878397 0.060335957 -0.11893607 -0.074581094 0.05038117 -0.11794199
-0.034196973 0.11185096 -0.034017984 -0.082200594 -0.115189314 0.089416 0.043368265 0.031326633
-0.0106180515 -0.07857234 0.076880895 -0.093315385 -0.060643498 -0.03927611 0.11385058 0.055023555
-0.10467369 -0.10886058 -0.069564335 -0.09694575 0.05528628 -0.041798253 -0.048485138 0.122698836
0.009645642 0.10591349 -0.09592691 0.028411027 0.006587688 -0.0777219 -0.104926065 -0.020228086
-0.029457752 -0.11733623 -0.07301434 0.07821931 0.02365516 0.10653565 -0.05952663 -0.11801347
-0.073200434 -0.070478566 0.062668785 -0.10209298 0.07898219 -0.06769736 -0.021664623 0.06315786
0.052309975 -0.028115291 0.064138964 -0.110638514 -0.03952334 0.08561146 0.031231835 0.0340141
-0.10889999 0.0332853 -0.0069398065 0.11568353 0.035703413 0.022280576 0.0045944145 -0.037456114
-0.022966394 0.05058199 -0.012493937 0.123260155 0.008128527 -0.09138756 -0.024372732 -0.04954062
-0.070420325 -0.061766487 0.06095129 0.08181102 0.035966944 -0.025991479 0.034353208 0.08995209
-0.02929338 0.07661337 -0.009943979 0.026431987 -0.087146975 0.0314685 -0.024993522 -0.00051209296
-0.048804577 0.10146742 0.020824114 0.03674235 0.08448273 0.08603927 0.070739016 0.047762636
-0.021394705 0.028906634 -0.1085567 0.0028788398 -0.06926536 0.09698474 -0.053467184 -0.01170699
0.0848129 0.0658158 -0.017029298 0.050808623 -0.07761826 0.0827946 -0.07810143 -0.124676906
-0.06325109 -0.10765656 -0.08149073 -0.06925561 -0.031039687 0.06610221 0.061854213 0.09023364
0.04472346 -0.08961561 0.07070526 -0.018890522 0.04686872 -0.054529127 -0.055868704 -0.03613498
0.060079698 -0.0050384616 -0.048142064 0.0076711713 -0.0037667258 0.06281494 0.11382529 0.058599547
0.067259334 0.10069461 0.08063435 0.0732522 0.022149019 -0.026338516 -0.036280606 0.008712578
