experiments/lstm/v1/lstm_last_model.pth (torch, 225605 bytes, 9 tensors)

lstm.weight_ih_l0 f4 [256, 20]
000000 c8 40 c3 3d 5f 06 d5 3d 9a 09 e8 bc 6e 27 ea 3d
       0.095338404 0.10401606 -0.02832489 0.11433302
000010 2d 38 df bc f8 b9 d1 3c 4b 5b 7a bd 6b c4 8d 3d
       -0.027248466 0.025601372 -0.06112222 0.069222294
000020 85 29 e1 3d d4 7f bb bd e8 74 de 3d 49 86 b7 3c
       0.10994247 -0.09155241 0.10862142 0.0224029
000030 e9 fe bd 3d 65 ed 85 3c 2c 4c 79 3d b0 ec 92 bc
       0.09277136 0.01634855 0.06086366 -0.017935127
000040 98 7d c6 3d 87 60 97 3c f7 2c 71 bd a1 f4 02 3d
       0.09691924 0.018478645 -0.058880772 0.031971578
000050 02 76 6b bd b6 d7 74 bc 4e 05 4e bd 31 1e a9 3d
       -0.057485588 -0.014944008 -0.050298028 0.08257712
000060 4e 52 c9 bd 5d 26 6c bd ad 85 1c bd 75 2c 9b bd
       -0.098301515 -0.057653774 -0.03821342 -0.07576839
000070 46 eb 46 3c 66 cf fc bd d5 71 e7 3d 40 38 d9 bd
       0.0121410545 -0.123442456 0.113010086 -0.10606432
000080 9a c4 c5 3d ad 8b a9 3c 23 ef 24 bd f8 30 9e 3d
       0.096566394 0.020696485 -0.04026712 0.07724184
000090 4a f8 a3 3c 21 d7 ce 3d be d2 5c 3c b4 c4 21 bd
       0.020015854 0.10099626 0.013477979 -0.03949423
0000a0 b2 08 0b 3d cc c5 0b bd 17 27 58 3d 2d 18 e6 3d
       0.03394384 -0.03412418 0.052771654 0.1123508
0000b0 1f 94 94 3d c1 88 5e bd 31 44 95 3d 7b 6d c0 3c
       0.07254814 -0.054329637 0.07288397 0.023489704
0000c0 67 12 84 3d 2c d2 9a bd 38 1e fc bd 68 65 40 bd
       0.064488225 -0.07559618 -0.12310451 -0.04697171
0000d0 91 31 c4 bd 66 80 d4 3d 37 3f 12 3d 7d a2 54 3d
       -0.095797665 0.103760526 0.035704818 0.051912773
0000e0 35 e4 26 3d f0 82 0e bb 63 72 c8 3d af 33 b6 bd
       0.04074498 -0.0021745525 0.097874425 -0.088965766
0000f0 36 f5 0c 3c 03 86 af bd 48 a7 1e 3d f3 00 2e bd
       0.008603385 -0.085704826 0.03873375 -0.042481374
000100 7a c7 1f 3d b4 26 dc bc ec b9 d1 3d 02 14 90 bd
       0.039008595 -0.026873924 0.1024054 -0.07035066
000110 71 4a 96 bd 40 ae 97 bd 48 f1 e7 3d 07 88 30 3d
       -0.07338417 -0.074062824 0.113253176 0.043098476
000120 e4 12 f6 3d 89 dd d2 bd 93 66 fb bd 58 9f c7 bd
       0.12015322 -0.10296161 -0.12275424 -0.09747189
000130 38 79 a8 bd 78 5d 4f 3d 73 44 36 3d 0c d9 d4 3d
       -0.08226246 0.050626248 0.044498872 0.10392961
000140 6c c0 81 bd 19 49 a2 bd 2e c3 9c 3d a6 2b 28 bd
       -0.0633553 -0.079240985 0.07654415 -0.04105725
000150 a8 bc a4 3d e2 f5 c2 bc 84 1f 9a 3d 16 ba ae bd
       0.08043796 -0.023798887 0.075255424 -0.08531587
000160 98 bb 53 bd 1b 69 3d 3d 61 2c 17 3d 46 b0 ba bc
       -0.051692575 0.046242815 0.036907557 -0.022789132
000170 8e f1 9f 3d 62 87 b9 3d bf 8f ad bd 08 ea 80 bd
       0.07809745 0.09059025 -0.08474683 -0.06294638
000180 7b d4 04 3e f9 c4 2c bd 0d 3e 38 bd dd e5 ee bd
       0.1297168 -0.042180035 -0.04498105 -0.11664937
000190 60 c4 93 bd 3b 50 11 3d 19 10 56 bc d6 d8 af bd
       -0.0721519 0.035476904 -0.013065361 -0.0858628
0001a0 dc 7e 94 3b 93 12 aa bd 2d 8d cf bd 99 1f 89 bd
       0.0045317244 -0.08304324 -0.10134349 -0.0669548
0001b0 a0 1d d6 bd f9 71 9b bd 88 c6 04 3e da 9d e3 3c
       -0.10454869 -0.07590098 0.12966359 0.02778523
0001c0 57 3e 23 3d b1 6b e7 bd e0 b3 a5 bd b6 32 24 bd
       0.039854374 -0.112998374 -0.08090949 -0.040087424
0001d0 26 2a cd 3c 47 40 e1 bd 09 78 5a bd a1 f8 95 bd
       0.025044512 -0.10998588 -0.05333713 -0.07322813
0001e0 4b 2e 8e 39 a0 d6 39 bd 57 69 f7 bb 32 77 ab bd
       0.00027118842 -0.045370698 -0.0075503993 -0.08372344
0001f0 91 ac ae bd 62 b3 93 bd a7 66 30 bd d9 37 c7 bd
       -0.08529008 -0.07211949 -0.043066647 -0.09727449
000200 12 3e d9 3d c8 80 c5 bc 0b ba de 3d de 6c 22 3d
       0.10607542 -0.02410926 0.10875329 0.039654605
000210 12 7a d8 bd ad 4f b2 3d ac d5 09 bd f8 1b 43 bd
       -0.10570158 0.08706603 -0.03365104 -0.047634095
000220 7e 23 d2 bd 50 81 fe bd 34 32 14 3d 6c 55 de bc
       -0.10260676 -0.12427008 0.03618069 -0.027140342
000230 74 82 44 3d 38 a5 ca bd e0 f3 c4 3d 0d 4a b5 bd
       0.047975972 -0.09894794 0.09616828 -0.08852015
000240 2b 9e a8 bc 34 ab e7 3c 03 4a 8d 3d c5 36 cb 3d
       -0.020583233 0.028279878 0.06898882 0.09922556
000250 1a c0 ee 3d c2 c0 c5 bd 7f 5e 0d 3d cc 60 55 bd
       0.11657734 -0.09655906 0.034513947 -0.052094266
000260 0e 13 4f bc 71 b3 bb bd 40 e4 ea 3d d0 07 b9 bd
       -0.01263882 -0.09165085 0.114693165 -0.09034693
000270 0c 82 91 3d 48 f6 33 3d 05 32 25 3d f7 db 87 bd
       0.071048826 0.043936044 0.040330905 -0.06633752
000280 05 68 e8 3d 92 84 f6 3c 8a 0a 99 3c 6a 30 dc bd
       0.11347965 0.030092511 0.018681783 -0.10751422
000290 30 27 5a 3d e5 21 8a bc a3 54 5c bd 6b 9b db 3d
       0.05326003 -0.016861865 -0.053791653 0.10723003
0002a0 b4 02 f5 3c fc e5 89 bd 56 d4 78 bd 88 c4 8e bb
       0.029908516 -0.06733319 -0.060749374 -0.0043569244
0002b0 0c 91 90 3d e5 87 f7 bc f9 bf 90 bd 11 b3 2a bd
       0.070589155 -0.030216167 -0.07067866 -0.041674677
0002c0 95 67 b8 bd 1e 9c 36 3d b4 d6 c5 3d 10 c0 ee bd
       -0.09004132 0.04458248 0.09660092 -0.11657727
0002d0 3a e6 f4 3c 93 33 86 3d da f1 be 3c e8 ea 2d bd
       0.029894937 0.06552806 0.023308683 -0.042460352
0002e0 15 c4 87 3d e7 f3 85 3d 03 0b 3d 3d ff 73 7d bc
       0.066291966 0.06540661 0.04615308 -0.01546955
0002f0 15 7b fa bc 12 17 67 3c 81 f6 a3 bc 53 4b 0d bd
       -0.030576268 0.0141046215 -0.020015003 -0.034495663
000300 12 d9 a2 3d e5 72 dd 3d d0 66 2d bc bd 3e db bc
       0.07951559 0.1081293 -0.010583594 -0.026763314
000310 b6 52 90 3b 1b c6 f4 bb 08 f2 f7 3c cb b5 11 3d
       0.004404391 -0.007469905 0.030266777 0.035573762
000320 88 6d e8 bd 0f 0b 40 bd e1 b9 d7 3d 49 31 48 3d
       -0.113490164 -0.046885546 0.105335005 0.048875127
000330 74 94 ca bb d5 0c 9a bd 0a dc 9d bd ca d4 e2 bd
       -0.006182248 -0.07521979 -0.07707985 -0.110757425
000340 43 1d 26 bd 9a 65 2d 3d 54 46 a3 3d 6b 2d 6d 3d
       -0.04055525 0.042333223 0.079723984 0.057904642
000350 84 1c e2 bd c1 03 9a bd 5b 69 a1 bc de e6 f7 3d
       -0.11040595 -0.07520247 -0.019703558 0.12104581
000360 d6 5f 96 3c d2 97 04 bd f3 b1 53 3d 7d 29 43 bd
       0.018356245 -0.03237135 0.051683377 -0.04764699
000370 eb 4d a6 bd d2 a5 be 3d 50 93 63 bd 27 ea c3 bc
       -0.081203304 0.093089715 -0.05556041 -0.023915363
000380 5e 90 fe bd 01 7f b0 3d e9 09 c7 3d 6f d6 37 3d
       -0.124298796 0.08617974 0.09718687 0.044882234
000390 14 b8 b1 bd d1 89 fa bd 98 e4 cc bd 58 93 be 3d
       -0.08677688 -0.12233318 -0.10004538 0.09305447
0003a0 ab d2 76 3d b3 43 d8 3d a9 92 87 3d 76 3e 03 3d
       0.060259502 0.105597876 0.0661977 0.03204199
0003b0 3b fa 9e 39 cc ad c2 bd c7 10 dc bd cb 37 ee bd
       0.00030322545 -0.095058054 -0.107453875 -0.116317354
0003c0 0d dd 4e 3d 28 e1 70 bd d3 f1 b2 bc fe 44 90 bd
       0.05050378 -0.058808476 -0.021843826 -0.07044409
0003d0 8b 6b b6 bc 54 0e af bd 45 60 a0 bd 3b bc 18 3d
       -0.022268077 -0.08547655 -0.07830862 0.037288886
0003e0 fd b0 15 bd f2 ce a1 3d ef 16 1e bd c0 74 bc bd
       -0.036545742 0.079008 -0.03859609 -0.09201956
0003f0 ed bf aa bc fb 3c 79 bd 33 5e 19 bd 58 5d f0 bd
       -0.02084347 -0.06084917 -0.03744335 -0.11736554

lstm.weight_hh_l0 f4 [256, 64]
000000 0e 88 d5 bc e2 1f fa bd 3c 8f f8 bd 39 e3 86 bc
       -0.026065852 -0.122131124 -0.12136695 -0.01646577
000010 ff ce b7 3d e5 aa a9 bd 02 e7 26 3d 79 3e 94 3d
       0.08975028 -0.08284549 0.04074765 0.07238478
000020 4c 03 ba bd d0 b9 5a 3d 7c 92 bf 3c f0 73 e9 bd
       -0.0908266 0.05339986 0.023385279 -0.113990664
000030 20 f0 13 bb 28 31 f0 bd e3 c9 df 3d 44 48 70 3d
       -0.0022573546 -0.11728126 0.10927179 0.058662668
000040 ae 56 45 3d 8a d2 c3 3d a2 cf c3 3d e5 58 fd 3d
       0.048178367 0.095616415 0.09561087 0.12370471
000050 e8 1b 54 3d b5 6d b8 bd ab 26 ed 3d 2c e4 0e 3d
       0.051784426 -0.090053 0.11579641 0.03488557
000060 c8 82 49 bd 83 a6 3d bd 5c 10 ef 3d 6e 81 df 3c
       -0.04919699 -0.046301376 0.11673042 0.027283397
000070 53 1c ba 3d e4 2f 22 3c 0d 60 ec 3d 06 5f bb bd
       0.09087434 0.009899113 0.11541758 -0.09148984
000080 8c d1 f3 3c e0 38 f1 3c dc 3e cf ba 98 bd e3 3d
       0.029763006 0.029446065 -0.001581158 0.111201465
000090 eb b5 cb 3c b0 a9 d2 3b 4d 14 af 3d 61 fe 20 bc
       0.024867019 0.0064289197 0.08548794 -0.009826274
0000a0 63 30 00 bc b6 40 d3 bd df 84 4f ba 43 41 6d bd
       -0.007824036 -0.10315077 -0.00079162227 -0.057923567
0000b0 27 65 94 3d 63 af de 3d 79 5d ee bd 9b e6 93 bd
       0.07245856 0.10873296 -0.11638922 -0.07221719
0000c0 bf 77 f6 3d b0 8d 59 bd 5c 78 e3 3d 03 1b fc 3d
       0.120345585 -0.05311364 0.11106941 0.123098396
0000d0 58 01 01 bd 9b 7c ce bd 4e ad 7f 3d 30 5a 69 3d
       -0.031495422 -0.1008236 0.062421136 0.056970775
0000e0 3c 58 de 3d 09 76 97 3c b8 50 8b 3d a6 e2 db bd
       0.10856673 0.0184889 0.06802505 -0.10736589
0000f0 01 6d 8f 3c 15 98 f0 3c fc 8a a0 3d 8c 4f 89 bd
       0.017508032 0.029369393 0.07839009 -0.067046255
000100 fb 26 74 bc 38 63 98 bd 8d 54 ac bd 61 3e 55 3d
       -0.014901872 -0.074407995 -0.08414564 0.052061442
000110 28 37 9f 3c 99 5c 4b 3d d9 d5 2f bb b6 59 43 bb
       0.01943548 0.049648855 -0.0026830344 -0.002980811
000120 b6 95 98 bb 1b 58 8a 3d 30 47 b1 bd 22 41 dd 3c
       -0.004656519 0.06755086 -0.08656156 0.027008597
000130 d4 af 8c 3d 3b 7e 94 3d 41 20 76 bd 37 40 c6 3d
       0.06869474 0.07250639 -0.060089353 0.09680217
000140 8a 6d aa bd 80 72 85 3d 41 8c d1 3d cc 2f 74 3b
       -0.08321674 0.0651598 0.102318294 0.0037259934
000150 4f 00 1d 3d ad cd f2 bd 18 e0 4a bd d8 fe 48 bd
       0.038330372 -0.11855636 -0.04953012 -0.049071163
000160 56 af ee bd b3 79 d9 bc 3e 44 b2 3d f6 ea 46 bc
       -0.116545364 -0.026547289 0.087044224 -0.01214098
000170 85 20 fd 3d 23 45 e6 bd 36 69 4c 3d b1 65 dd 3d
       0.12359718 -0.112436555 0.049905024 0.10810412
000180 56 6d f8 3d 12 c1 46 bd 29 e8 e6 bd b6 47 3c bd
       0.12130229 -0.04852397 -0.1127475 -0.045966826
000190 70 47 bd 3d f0 54 32 3c c9 fb f4 3d 11 b0 ba bd
       0.09242141 0.0108845085 0.11962087 -0.09115613
0001a0 58 11 a0 bd 24 35 82 3d 89 06 30 3d 37 df a5 bd
       -0.07815808 0.06357792 0.042974982 -0.080992155
0001b0 1a c5 ed 3d e3 a7 44 bd a9 b9 d4 bd 87 1f 0e 3d
       0.1160986 -0.04801167 -0.10386974 0.034698036
0001c0 73 91 8f bd 76 a1 73 bd 0f 0e 8f bd 80 92 0b 3d
       -0.07010164 -0.059480153 -0.06985103 0.03407526
0001d0 b7 f5 6e 3d e4 7d ac 3d 6e ef 90 bd 20 6e ee bc
       0.0583398 0.08422449 -0.070769176 -0.029105246
0001e0 19 ab ee 3d d4 1b 83 bd e3 00 39 bd a5 93 c4 bc
       0.11653728 -0.06401792 -0.04516686 -0.023996184
0001f0 6f 52 e2 bd a7 09 bd bd 6b b2 e4 3d 09 6e bd 3c
       -0.11050879 -0.09230357 0.11166843 0.023123758
000200 63 8b c1 3c c7 71 4b 3d 9d a7 9b 3d b2 45 ac 3d
       0.023626035 0.049669053 0.07600329 0.08411731
000210 f2 4d b7 3d cd d1 4e 3d ab 0a c1 3d cd 3f a7 3d
       0.08950414 0.05049305 0.09425863 0.08166466
000220 56 35 ab bc 9a 36 3c 3c 34 59 86 bd b5 f4 c0 bd
       -0.020899456 0.011487627 -0.06559983 -0.09421674
000230 73 e9 f2 3d 0a 64 be bd cc c6 9f bd ed 43 f7 bd
       0.11860933 -0.09296425 -0.07801589 -0.12073503
000240 44 55 c4 bd dd 8f e9 3c 1c 68 76 3d 47 ff d4 bd
       -0.095865756 0.028510982 0.06015788 -0.10400253
000250 d9 7c 21 3c 7f 31 bd bd eb 74 c3 3c 6a cd 98 3d
       0.009856426 -0.09237956 0.023859462 0.074610546
000260 f0 6e 44 bd 34 8b 60 bd 29 d5 a6 3d 42 04 a5 bd
       -0.04795736 -0.054820254 0.08146126 -0.08057453
000270 5e bd d0 bc 53 4a d5 bd 95 64 b3 3d 0a 87 23 3d
       -0.025480922 -0.10414567 0.08759419 0.039923705
000280 3d 71 4a bd 5b 33 b6 3d 6a 64 f2 3d ca 96 50 3d
       -0.0494244 0.08896514 0.11835559 0.050925054
000290 5e ad b4 bd 13 64 de bc 4a b5 cd 3d 92 8c b9 3d
       -0.0882213 -0.027147328 0.10044344 0.09060015
0002a0 b0 f3 28 bd b8 6e a9 3d 69 88 a7 bd 09 38 09 3d
       -0.041248024 0.08273071 -0.08180315 0.033500705
0002b0 c2 62 e1 3d 99 32 ba 3c 98 8a cb bd da b7 19 3d
       0.11005165 0.022729205 -0.09938544 0.03752885
0002c0 85 86 8e 3d ce fd b1 3d 36 4c a8 bd 03 1d b7 bc
       0.06959251 0.086909875 -0.08217661 -0.022352701
0002d0 0b 9d d4 bb 20 43 b4 bc 17 16 e3 bc 17 cf 38 bd
       -0.0064884475 -0.022004664 -0.027720494 -0.04511937
0002e0 c4 4a 30 3d ed 35 73 3d b8 03 c7 bc ba 28 c9 3d
       0.043040052 0.0593776 -0.024293765 0.09822221
0002f0 72 7f 07 ba 07 8c f9 3c ba 33 00 3d f9 72 2d bd
       -0.0005168832 0.030462278 0.03129933 -0.042345975
000300 8d ec a9 bb 53 c9 5f bc 12 ab 40 3d 6d 24 89 bd
       -0.0051856698 -0.013658839 0.047038145 -0.06696401
000310 2a 57 6b bd a1 85 f6 bd b2 d3 5d bd 47 dd 22 3d
       -0.057456173 -0.120372064 -0.054156967 0.039761808
000320 9b d8 ce 3d 5f 8d fb bd 23 5b 38 bd 16 5e a1 3d
       0.10099908 -0.12282824 -0.04500879 0.078792736
000330 34 1f 8a bd 71 d8 ac 3d eb 3e a9 3b d7 27 f1 bd
       -0.06744233 0.084397204 0.005164971 -0.11775177
000340 cf 66 aa 3c 1e af 98 bd d3 96 c8 3c 25 fd e4 bd
       0.020800976 -0.07455276 0.024485981 -0.11181096
000350 00 01 f0 3d d6 6b 5c bd ea 79 a4 3d be ea a0 bd
       0.11718941 -0.053813778 0.08031066 -0.078572735
000360 46 14 d7 bd bd 44 48 3d b6 0b 9a 3d dc e5 9d ba
       -0.10501914 0.04889368 0.07521765 -0.0012046653
000370 b7 15 d8 bd 7e 83 0d bd a8 71 b1 bd 1e 26 11 3d
       -0.10551017 -0.03454923 -0.08664256 0.035436742
000380 30 4d a7 3c 3a 96 b2 3d 24 c9 ff 3d 63 81 6d bd
       0.020422548 0.0872006 0.124895364 -0.05798472
000390 93 47 ca 3d 08 aa b2 3d 91 b4 9c 3c f9 b4 fb bd
       0.09876933 0.08723837 0.01912907 -0.12290377
0003a0 e3 3e b2 bd d5 d3 5e 3d 6e 30 be 3d 45 f6 88 3d
       -0.08703401 0.054401238 0.09286581 0.06687597
0003b0 b2 0d 3b 3c 0e 10 9b bd bf 1e e1 bd c5 9f 92 bd
       0.011416839 -0.075714216 -0.109921925 -0.0715938
0003c0 26 40 5b 3a 5b e5 85 3c 1d 48 c4 3d 6b 76 b8 bd
       0.0008363746 0.016344717 0.09584067 -0.090069614
0003d0 c9 d2 85 3d 6d 89 d8 3d 70 2a e7 bd 76 7b 88 bd
       0.06534345 0.10573087 -0.11287391 -0.06664173
0003e0 b0 04 0f bd 21 be c3 3c 26 2a e5 3d b5 bb d1 3c
       -0.03491658 0.023894371 0.1118968 0.025602201
0003f0 34 bd ac 3d fd 7b cf 3d 2b 84 c9 3d 8f e5 e8 bd
       0.08434525 0.10131071 0.09839662 -0.1137191

lstm.bias_ih_l0 f4 [256]
000000 9c a3 93 3d 21 c5 8a 39 15 65 7c 3d a8 f6 dd 3d
       0.072089404 0.00026468284 0.061619837 0.108380616
000010 01 3e 9b 3b 4a 8f 27 3d 00 36 a3 3b 88 2e b6 3d
       0.004737616 0.040908135 0.0049808025 0.08895594
000020 75 4f 8d 3d 96 16 28 3c 00 e6 ba bd 7e 0f 21 3d
       0.06899921 0.010259291 -0.091259 0.039321415
000030 98 d5 a3 3d c5 76 15 3c 45 a2 72 3d 76 28 04 3d
       0.07999724 0.009122555 0.059236784 0.03226515
000040 ff 4b 69 bd ba 6d 63 bd e5 18 b2 bc c8 16 cd bd
       -0.05695724 -0.055524565 -0.021740386 -0.10014111
000050 15 43 ec 3b a8 23 e5 bc 33 03 ca bd 1e dc 81 3c
       0.0072101452 -0.027971104 -0.098638915 0.01585203
000060 bf 03 be 3c 18 dd 46 3d 31 54 0c bb be 38 1a bd
       0.023195146 0.048550695 -0.0021412487 -0.03765177
000070 a9 c3 b0 bc e1 66 c2 bd 67 be 3d 3b 15 9b 88 3d
       -0.021577673 -0.09492279 0.00289526 0.066702046
000080 f9 55 7b 3b 65 11 d7 3c 70 4d da 3d 7a 76 d1 3d
       0.0038350804 0.026253412 0.10659301 0.10227676
000090 94 cc fc 3d a5 67 f1 3d 89 aa 8d 3d c0 1c ca ba
       0.12343708 0.11787347 0.069172926 -0.0015419945
0000a0 a1 34 ef bd f4 4b 62 3c 22 44 90 3d f2 20 0a 3c
       -0.1167996 0.013812054 0.07044245 0.008430706
0000b0 19 be 88 3d b6 f9 be bd cd 72 d2 ba 65 e6 f7 3d
       0.06676883 -0.09324972 -0.0016055942 0.12104491
0000c0 0d 4d e7 bd e3 32 7e bc dd 57 63 3d 81 c8 f3 bd
       -0.11293993 -0.015515062 0.055503715 -0.119034775
0000d0 1e 26 3e bd ae 9a 3e bd b6 b3 aa 3d 97 06 88 bc
       -0.04642307 -0.046534233 0.083350584 -0.016604705
0000e0 39 6f 33 3b a1 d8 df 3d ed 77 f6 3c b4 1a 2b bd
       0.0027379526 0.109299906 0.030086482 -0.041773513
0000f0 87 8e 94 3d ad 0d 50 bd db f4 ea 3d 16 d4 17 bd
       0.072537474 -0.050794292 0.11472484 -0.037067495
000100 11 44 e3 3d 77 fe 19 bd f8 37 8e 3d 6a c8 e5 3d
       0.11096967 -0.037596192 0.06944269 0.112198666
000110 b8 f7 12 bd b8 1a 38 bb d4 fc 76 bd 0d 3c 8c 3d
       -0.035880774 -0.0028092097 -0.06029971 0.06847391
000120 90 d3 25 bd eb ee c4 3d e2 12 a5 bd 5c 04 2a bd
       -0.040484965 0.096158825 -0.08060242 -0.041508064
000130 f0 43 e8 bc fd 5a d3 3d d8 7a 8d 3d a5 da ab bb
       -0.028352708 0.10320089 0.06908196 -0.0052445703
000140 aa 0f 87 3d bb ee d1 bd 2a 7f 1f bc b4 1e ec 3d
       0.065947846 -0.10250612 -0.009734908 0.11529294
000150 a5 13 af bc 3e f7 84 bd 1a 80 5c bd b6 e0 c9 3d
       -0.021371672 -0.0649247 -0.053833105 0.09857313
000160 bd d6 a7 3c 50 55 ee 3c a4 ba 66 bd 17 f9 8c 3d
       0.020488137 0.029093415 -0.056330338 0.068834476
000170 61 84 27 bb bd 7b 02 3e ce 76 a6 3d 10 8d dd bd
       -0.0025561082 0.12742515 0.08128129 -0.10817921
000180 73 e3 d1 3d d9 2b 8b bd a1 d2 1c bd 38 e2 9f 3c
       0.102484606 -0.06795473 -0.03828681 0.01951705
000190 78 72 be bd 01 8b 3c 3c 4e 8c 83 bd 24 0c f5 bc
       -0.09299177 0.0115077505 -0.06423245 -0.029913016
0001a0 fc e0 de b9 20 30 a8 bc 91 92 2f 3d 74 a8 03 bd
       -0.00042510766 -0.02053076 0.042864386 -0.03214307
0001b0 b8 5d 88 3c 97 d8 72 ba 17 9a 21 bd a2 31 ec bd
       0.016646251 -0.0009263842 -0.039453592 -0.11532904
0001c0 51 de 82 3d 41 dc d0 bd f7 48 64 3c 17 47 9d 3d
       0.0639006 -0.1019826 0.013933412 0.07679575
0001d0 ca 92 ea 3d d0 73 76 bd 12 6b d9 3d c7 e0 85 bd
       0.11453779 -0.06016904 0.10616125 -0.065370135
0001e0 8b 1d 98 bd 52 49 ca 3c 01 49 48 bd 91 8e a2 bd
       -0.0742751 0.024693165 -0.048897747 -0.07937349
0001f0 87 72 33 3d 38 8b d5 3d 99 a2 96 3d de 82 33 3d
       0.043810394 0.104269445 0.07355232 0.043825977
000200 15 70 97 3d 14 c5 cc 3d 80 98 3a bd c2 dc c1 3d
       0.07394425 0.09998527 -0.04555559 0.09465934
000210 1f 7a 6a 3d 10 58 d0 3d 1a 5b 00 be da 58 16 3c
       0.05724537 0.101730466 -0.12534752 0.009176457
000220 1b 03 6b bc 43 8e a1 bc dc 75 c9 bd 85 8d 51 bc
       -0.014344002 -0.019721156 -0.09836933 -0.012790089
000230 fd 90 05 bd ae 69 31 bd 13 17 cf 3d cd 3d ed bd
       -0.032608975 -0.043313675 0.10111823 -0.11584053
000240 60 a4 09 3d 32 af 01 3d 72 ae cc 3c a7 8e 97 3d
       0.033604026 0.03166122 0.024985526 0.07400256
000250 8e f7 e6 3c d0 81 dc 3d 40 bf 89 3d 7e 8a a0 bd
       0.028194215 0.10766947 0.06725931 -0.07838915
000260 8b ca bc bd 11 29 90 bd 00 9e 94 bd e3 e2 99 bd
       -0.092183195 -0.07039083 -0.072566986 -0.07513978
000270 21 f0 94 3c 4b 75 af bd 4b 14 be bd 36 97 44 bd
       0.018180909 -0.08567294 -0.09281214 -0.04799577
000280 8e f5 03 be f9 da 9f bd 51 8c f7 bc a6 81 34 3c
       -0.1288664 -0.078054376 -0.030218275 0.011017239
000290 91 51 c7 3c 7a c1 9a 3d 43 47 e9 bc 14 3f ab bd
       0.024330886 0.07556434 -0.028476363 -0.083616406
0002a0 01 63 87 bd 3e c1 b2 bd 6b af b7 3d 5a 73 d2 3d
       -0.0661068 -0.08728264 0.08969005 0.10275908
0002b0 91 03 f3 3c ee 1e 15 3d a6 80 2e 3d bd 44 ac 3d
       0.029664787 0.03640645 0.042603157 0.08411548
0002c0 41 97 87 3d 18 f0 9a 3d d7 8e 2e 3d 7e af 90 3c
       0.06620646 0.075653255 0.04261669 0.017661806
0002d0 ca fb e0 bc 37 45 9a 3d 36 52 16 3d 7a ab c1 3d
       -0.027463812 0.07532733 0.036699496 0.09456535
0002e0 44 8b f0 3d 96 82 c1 3d cd 94 d5 3d 40 31 c5 3d
       0.11745313 0.094487354 0.10428772 0.09628534
0002f0 a1 0c 03 bd b1 46 54 bd 1b af e0 3c 86 b0 ae 3d
       -0.031994466 -0.05182523 0.027427247 0.08529763
000300 5c 03 d8 bd 54 95 1b 3d ef c7 6f 3d a5 0b 70 bd
       -0.10547516 0.037984207 0.05854028 -0.058604855
000310 b9 5b 3b bd fa 46 4c bd 36 82 fe 3d 2a ad 70 b9
       -0.04574177 -0.049872376 0.124271795 -0.00022952692
000320 ca 8e 86 bd 84 9c 85 3d 9a 2d ae bd 79 df f1 bd
       -0.065702036 0.065239936 -0.085047916 -0.11810202
000330 57 47 b0 3d b4 63 6e 39 4e 36 2e 3c 06 7a 95 3d
       0.08607357 0.00022734591 0.010633064 0.07298665
000340 90 98 3f bc c8 14 2e bb 2d 1c ac bc aa 84 97 3d
       -0.011694089 -0.002656268 -0.021009529 0.073983505
000350 8a 56 89 bc 36 52 3e 3c 8d 7a 9c bd ed be 5f bd
       -0.016764898 0.01161628 -0.07640562 -0.05462544
000360 b6 56 d6 bd d9 c2 b1 3d ea 21 dd 3d 97 fc 6a 3d
       -0.104657575 0.08679742 0.10797484 0.057369795
000370 9b 3a 3e 3d bc 49 5a bd 5e 8f 2b 3d b6 31 53 3d
       0.04644261 -0.053292975 0.041884772 0.05156108
000380 d6 f4 f5 3d 6c b7 b1 bd ca d9 97 bd c1 97 7c bd
       0.120095894 -0.08677563 -0.07414587 -0.06166816
000390 fd a8 e4 3d e2 d1 74 3c b7 97 cf 3d de 36 32 bd
       0.111650445 0.014942618 0.10136359 -0.043509357
0003a0 40 15 89 bc 90 6e 96 3c 18 e9 08 bd 74 3a cc 3d
       -0.016733766 0.018363267 -0.03342542 0.099720865
0003b0 e8 13 b6 3d f2 b4 c8 bd 51 df 5c bd 1e 02 a5 3d
       0.088905156 -0.098001376 -0.05392391 0.080570444
0003c0 e3 f5 a3 3d 4e 54 94 3b 87 6d cf 3d 24 ec 54 3c
       0.080058835 0.0045266515 0.101283126 0.012995753
0003d0 8e ed f2 bd e2 e4 01 bd 73 46 b5 3d 37 88 ca bc
       -0.11861716 -0.03171242 0.08851328 -0.024723155
0003e0 56 f5 bf bd b2 3d 9a bc cf 41 95 bd f8 d3 55 3d
       -0.09372966 -0.018828247 -0.072879426 0.052204102
0003f0 fd 2b 57 3d 86 e5 65 bd 34 5b 27 3d fa 26 b0 3d
       0.052532185 -0.056127094 0.040858462 0.08601184

lstm.bias_hh_l0 f4 [256]
000000 ee 7f c3 3d f2 23 9c 3c 15 54 3c 3d 45 1a 4b bd
       0.09545885 0.019060109 0.045978624 -0.0495856
000010 3b 48 8e bd d0 42 80 3d 95 99 22 3d 7c b1 db 3d
       -0.069473706 0.062627435 0.03969725 0.10727212
000020 17 f2 48 3b 87 03 a3 3d 7c 6d 9b 3d e6 fe b4 3b
       0.0030661875 0.07959657 0.07589242 0.0055235503
000030 ac aa 90 bd e7 14 d7 bd 79 35 b1 3d 84 19 f4 bd
       -0.07063803 -0.10502034 0.08652777 -0.11918929
000040 69 67 77 3d d7 0e 30 bd 53 d1 3d bc 5a 66 97 3d
       0.060401354 -0.042982902 -0.011585551 0.07392569
000050 19 43 e9 bd 7e 55 ba 3d 7b f4 54 3c 40 56 9f 3d
       -0.11389751 0.090983376 0.012997742 0.07780123
000060 17 e4 f4 3c f4 b2 82 3d 8d 60 01 bd a2 9c 4b bd
       0.029893918 0.06381789 -0.03158622 -0.049709924
000070 2a c2 64 3d 53 d5 e5 bd a6 34 b7 bd e6 b4 43 3a
       0.05584923 -0.11222329 -0.08945589 0.00074656156
000080 49 d7 e4 3d a3 53 33 3d 94 06 5c bd 5e 7f 94 3d
       0.11173875 0.043780934 -0.05371721 0.07250856
000090 af 4c 8c 3d 20 3e 83 3d 0f 02 f8 3d b2 d7 cc 3d
       0.06850564 0.06408334 0.12109768 0.10002078
0000a0 ec 05 41 3d 1f b6 00 be ab 97 63 3d 97 b5 95 3d
       0.04712479 -0.12569474 0.055564564 0.07310026
0000b0 f5 64 96 bd 52 82 9a 3d 8a 56 01 3e 61 d4 19 3d
       -0.07343475 0.07544388 0.12630668 0.037556056
0000c0 a1 bd b0 3d 69 ce 9b 3d 6d 78 ad bc 57 62 e2 bd
       0.08629919 0.07607729 -0.021175588 -0.11053913
0000d0 a2 19 49 bd 33 6f a0 3d ce 0c c3 bd d1 9e e3 3d
       -0.04909671 0.078337096 -0.09523927 0.11114276
0000e0 0a b6 b8 3c 2d 5e 0e bd ef 4b c5 3d 48 ed d2 bd
       0.02254774 -0.03475778 0.09633624 -0.10299164
0000f0 e0 84 05 3b f5 c2 fb bd 39 9e 87 3d f6 46 88 3c
       0.002037339 -0.122930445 0.066219755 0.0166354
000100 6f 98 a9 3d aa 88 82 bd a2 8d c0 3d 8e 9b fc bd
       0.082810275 -0.06373723 0.09402014 -0.12334357
000110 43 c2 e8 3d 12 df 75 3d 8c e0 13 3d 91 8a ba bd
       0.113651775 0.06002719 0.036102816 -0.09108461
000120 6b a7 82 bd 24 22 95 bc 80 d7 87 3d 9c 7a bd 3d
       -0.06379589 -0.018204756 0.066329 0.092519015
000130 e5 d8 ed 3d 53 3f e5 3c d7 21 eb bc fb 53 d9 bd
       0.11613635 0.027984297 -0.02870266 -0.10611721
000140 4f a5 6e 3b 2a e0 cb 3c 81 f8 4b bd 79 f3 5f 3d
       0.003641445 0.024887163 -0.04979754 0.054675553
000150 1e ca a0 bd 18 81 c6 3c ee eb 7b 3b 5e 60 b7 bd
       -0.07851051 0.024231479 0.0038440186 -0.089539275
000160 36 9a e7 bd f1 8e d0 bd 22 a7 f7 3d aa 9c 20 bd
       -0.1130871 -0.10183514 0.12092425 -0.039211906
000170 15 a7 f8 3c e0 c5 15 bd 0e 8b cc 3c 7a 7f d5 bd
       0.030353108 -0.03656566 0.02496865 -0.10424705
000180 7e bb 6b 3d 83 0e ed 3d e5 e0 3f bb 6e 40 09 3c
       0.057551853 0.115750335 -0.0029278335 0.008377178
000190 de e0 c4 bd df 3d 6e bd f4 94 c6 bd 62 02 f0 3d
       -0.096132025 -0.058164474 -0.09696379 0.117192045
0001a0 01 82 be bb 98 ba 26 3d 52 4c 84 bc 29 f1 7b 3d
       -0.0058138375 0.040705293 -0.016149674 0.061509285
0001b0 aa 1b bd 3d b6 de bc bd a9 c5 a8 bd 88 24 18 bd
       0.09233792 -0.09222166 -0.08240826 -0.037144214
0001c0 a4 4c 04 3c 85 ce a9 bc b3 42 5a 3d da 94 68 3d
       0.008074913 -0.020728359 0.053286266 0.05678258
0001d0 9f 7a db 3c cb 3c d1 bd a2 c5 9c bd 61 b1 86 3d
       0.026791869 -0.102166735 -0.07654883 0.06576801
0001e0 db 7a 3f bd 9b 28 a3 bd 8f ff dd bc 37 56 c6 3d
       -0.046748023 -0.07966729 -0.027099399 0.09684413
0001f0 5b 2a 27 3d 27 37 4a bd e7 c7 d5 3d 42 c3 b3 bc
       0.040811878 -0.049369004 0.10438519 -0.021943692
000200 b1 31 de 3d 5a 28 f4 3d d1 1c ae bd 6b 90 fb bc
       0.10849322 0.11921759 -0.0850159 -0.030708512
000210 c3 bb f3 3d 7a 3d d1 bd fd d6 ac 3d 3f 3f a6 3d
       0.11901047 -0.10216804 0.08439443 0.08117532
000220 f8 b6 dd 3d c6 1d 83 bd 96 38 c6 3d 84 60 f8 3c
       0.10825914 -0.06402163 0.09678762 0.03031946
000230 87 ca c8 3d fa 3c 4c 3d 0e 54 96 3a 75 f4 01 be
       0.09804254 0.04986284 0.0011469142 -0.12690909
000240 c1 62 63 bd 00 88 a0 3d 2c 6b 4e 3d d0 1c 49 bd
       -0.0555141 0.0783844 0.050395176 -0.049099743
000250 4b aa 08 3e bd 77 7e bd 7a 7d bf 3d 10 18 02 3e
       0.13346212 -0.06212591 0.09350105 0.12704492
000260 bc de ff bc 00 a1 db 3c aa 50 a0 3d 50 e5 36 bc
       -0.031234138 0.02681017 0.078278854 -0.011163071
000270 21 33 94 3c fb c8 95 3d 4b 8b 19 bd 0b 8d 9b bd
       0.018090786 0.073137246 -0.037486356 -0.07595261
000280 91 14 e2 3c a9 da dd bd fc 97 e6 bd 59 75 a5 3b
       0.027597697 -0.10832722 -0.112594575 0.0050493893
000290 bf 78 b8 bd 03 6d 14 3a 45 80 ae 3c 90 4c e2 bd
       -0.090074055 0.0005661996 0.021301398 -0.110497594
0002a0 9e c8 75 bd 62 18 ff 3d 00 c1 97 39 57 1e cb bc
       -0.060005777 0.124558225 0.0002894476 -0.02479474
0002b0 9e ae 6d bd 79 81 56 3d ce d9 48 3d f4 56 46 3d
       -0.058027856 0.05236957 0.04903584 0.04842277
0002c0 79 e5 48 bd cd 62 63 3d ee 40 a5 3d 8b 48 f3 3d
       -0.049046967 0.055514146 0.08069025 0.11879071
0002d0 05 f6 e8 bd 2e 04 32 3d 3e bf 34 bd 37 4b 96 bc
       -0.113750495 0.043461017 -0.044127695 -0.018346412
0002e0 d2 9a be bd 41 51 15 3d ab d2 e2 bd 18 f0 91 bd
       -0.093068734 0.036454443 -0.11075338 -0.071258724
0002f0 ac 79 e5 bb 1b c9 27 3d 94 5a 64 3d 96 40 b0 3d
       -0.00700303 0.040963273 0.055750445 0.08606069
000300 84 7e ff bd 7c f1 73 bd 25 21 b7 3c a3 10 b4 bd
       -0.12475303 -0.05955647 0.022354672 -0.08792236
000310 22 46 4f bd b6 34 31 bd 5a 0f 83 3d e9 0d 78 3d
       -0.050603993 -0.04326316 0.063994125 0.06056014
000320 80 ae 31 bd af cd 73 bd b9 26 cf 3c 67 39 1e 3d
       -0.043379307 -0.059522327 0.02528702 0.038628962
000330 57 68 eb 3d 8b a6 b7 3d 95 94 09 bd 8b 50 10 bc
       0.114945106 0.089673124 -0.033588964 -0.008808265
000340 c2 33 94 3d 82 d2 13 3d fd 38 7a 3d d2 fd fc 3d
       0.072364345 0.036089428 0.061089505 0.123531
000350 7e 27 51 3d 04 9a a6 bb d7 8c ea bd 5d 30 6c bd
       0.051063053 -0.005084278 -0.11452644 -0.05766331
000360 a2 87 6f 3d 9b 3b e9 3d 83 7c 39 3d c2 ac a3 bd
       0.05847896 0.11388322 0.04528476 -0.07991935
000370 46 7c ce bd 33 28 00 3e 7a c3 17 bd 52 a9 02 bd
       -0.10082297 0.12515335 -0.037051655 -0.031899758
000380 35 53 b2 bc b4 72 b1 3d 0c ea e7 3d e2 c0 36 3d
       -0.021768192 0.08664456 0.11323938 0.04461754
000390 e9 a1 bc 3d a2 c2 00 3e e3 7d f2 bd 3e 59 40 bd
       0.092105694 0.12574247 -0.11840417 -0.046960108
0003a0 f5 15 83 bd 27 f4 7f 3d e6 10 b6 3d 21 55 ad 3c
       -0.06400672 0.0624887 0.08889942 0.021158757
0003b0 1a bc ac 3d c8 32 ec bd ac 70 ad bc 56 b1 47 3c
       0.08434315 -0.11533123 -0.02117189 0.012188276
0003c0 5e 40 25 bc b0 16 ca 3d b2 a8 4b bd 73 b0 d2 3d
       -0.010086147 0.098676085 -0.049721427 0.10287561
0003d0 76 3b 08 bd 91 90 87 3c ec 32 b2 3c 5d b8 dd 3d
       -0.03325983 0.016548427 0.021752797 0.1082618
0003e0 2f a3 d3 bc 87 95 80 3a 77 f8 b8 3d 31 1a fc 3d
       -0.025834648 0.0009810188 0.09031766 0.12309683
0003f0 9e 29 69 bd 9e 3d 15 3d a9 52 ae 3b 64 3c f2 bd
       -0.056924455 0.036435716 0.0053199125 -0.11827925

lstm.weight_ih_l1 f4 [256, 64]
000000 e2 30 dc bd e8 9b 04 bd a0 9c e5 bc ab 35 9d 3c
       -0.10751511 -0.032375246 -0.028028786 0.01919063
000010 0c fe 80 bd 18 86 e5 3c c6 64 fb 3d aa 75 57 3c
       -0.062984556 0.028018042 0.122750804 0.013150612
000020 81 33 a6 3d ce 75 a1 bd 5b 00 e1 3d 58 95 01 bd
       0.08115292 -0.078837976 0.10986396 -0.031636566
000030 1a f1 fc 3d 42 58 31 bd ae c2 82 3c 2d fb b1 3c
       0.12350674 -0.04329706 0.015961971 0.021726215
000040 cf 9c 01 3d 42 7b f2 3b ce 74 c4 bc 40 dd 0f bd
       0.031643685 0.0073999474 -0.023981478 -0.03512311
000050 0a cf b6 3d f7 75 e7 3d c8 9d f1 3d ea 9e 8e bd
       0.08926208 0.11301797 0.117976725 -0.06963904
000060 e5 36 d3 3d e4 ee dd 3d 74 c6 81 3d f1 3f 2e bc
       0.10313205 0.108365804 0.0633668 -0.010635362
000070 60 6e ae bd 75 83 19 bd 3d 31 f3 bd 36 c1 94 3d
       -0.08517146 -0.037478883 -0.11874626 0.072634146
000080 3c df af 3d 36 41 49 3d 49 1d f8 bd 9c 6a 2d 3d
       0.085875005 0.049134456 -0.12114961 0.042338
000090 76 df 83 bd 39 b9 5f bd 11 6c c9 bd ba 4a d9 3d
       -0.06439106 -0.05462 -0.09835065 0.10609956
0000a0 71 96 89 3d 74 45 e4 3d de 57 ed 3d d9 9d 77 bd
       0.067181475 0.1114606 0.11589025 -0.06045327
0000b0 e8 ec bb 3d 55 ed c3 3d 9c 85 03 3d ab bd f9 bd
       0.09176046 0.09566752 0.03210984 -0.121943794
0000c0 cf 2d 9f bc cc 0d fc bd d9 6a 52 bc bf 8c d7 3d
       -0.019431023 -0.12307319 -0.012842857 0.10524892
0000d0 ef d1 69 bb af fa c8 bd 27 da ef 3d ce 28 82 bc
       -0.0035678109 -0.09813439 0.11711531 -0.015888598
0000e0 f5 e8 8d 3d 76 3a d2 bc 8f 9d a1 bd 04 c3 20 3d
       0.06929199 -0.025662642 -0.0789138 0.03924848
0000f0 ce e6 a7 3c da 7d 24 3d 16 f9 9d bb 41 07 d6 3d
       0.020495798 0.040159084 -0.004820953 0.10450602
000100 f9 e7 e4 bd 46 b3 c4 bd 3c 0c d5 bd 93 c6 0d bd
       -0.11177058 -0.09604506 -0.10402724 -0.034613203
000110 bc 1b 03 3d b5 5b 3b bd 9c 8c 00 bd d0 29 79 bd
       0.03200887 -0.045741756 -0.031384096 -0.06083089
000120 bb 34 47 bd 91 e5 e5 bd 25 99 0b 3c d2 24 23 3d
       -0.048634272 -0.11225427 0.008520399 0.039830036
000130 15 f2 3f bd 82 71 02 3c 1d 95 d7 3d b2 5e a5 3d
       -0.046861727 0.007961633 0.10526488 0.08074702
000140 a1 89 f5 bd 39 37 ca bd 51 8a 57 3d 19 55 cb bb
       -0.11989141 -0.09873814 0.052622143 -0.006205213
000150 ef 5c d2 3d b4 78 b7 3d 91 63 b6 bd c0 fd d9 bd
       0.10271632 0.08958569 -0.089057095 -0.10644102
000160 50 4a a7 3c d0 b5 1f 3d be 8d ee bc 51 ca a6 3d
       0.020421177 0.03899175 -0.029120322 0.081440575
000170 58 ff f5 3d a5 28 68 bc a0 c6 2d 3d 9d bd ef bd
       0.120115936 -0.014169847 0.04242575 -0.11706088
000180 2b ea 77 bc 2b b5 c9 bd 91 1d d2 3d c9 37 1f 3d
       -0.015131514 -0.09849008 0.102595456 0.03887156
000190 78 4c 85 3d 56 58 49 bd 48 79 60 3d f8 19 40 3d
       0.06508726 -0.04915651 0.054803163 0.046899766
0001a0 36 e2 64 bd a2 a1 bc bc 9f 99 8e 3d a0 f0 00 3d
       -0.055879794 -0.023026291 0.06962895 0.031479478
0001b0 09 8e ac bb 00 63 fb ba a3 1a b0 bd 6f e8 90 bc
       -0.0052659553 -0.0019179285 -0.085988306 -0.017688958
0001c0 17 7c 4d 3c b7 1c 53 3d 80 86 3b bd 9f 1a 3a 3d
       0.012541792 0.051541056 -0.045782566 0.045435544
0001d0 ab 87 98 3c ca 2d eb 3d 81 4d 46 3d e5 04 fc bd
       0.018619379 0.11483343 0.048413757 -0.12305621
0001e0 8e 9f fd bc a9 bb 04 bc b5 42 60 bd cc 35 38 bd
       -0.03095987 -0.008101382 -0.054751117 -0.04497318
0001f0 e9 e1 bf 3b a1 cc 33 bb 3c 3a 04 bd d3 4d 53 bd
       0.005855788 -0.00274352 -0.0322821 -0.05158789
000200 e8 da 66 bd f9 ac 2d 3d bf 01 26 3d 9a 91 b8 3c
       -0.05636111 0.042401288 0.04052901 0.022530366
000210 73 2e b9 3d 38 f0 1a 3c 03 83 ed 3d 8b 44 cd bc
       0.090420626 0.009456687 0.11597254 -0.025057098
000220 a9 ce f8 3a bb d8 86 bd ed 1f cc bd fc dd 5e bd
       0.0018982488 -0.06584307 -0.09967027 -0.05441092
000230 e6 93 f6 3c 59 db 1c 3c 2a 28 53 3d 72 f5 24 3d
       0.03009982 0.009573781 0.051551975 0.040273137
000240 d1 b8 f7 bd 57 27 d3 3d 36 1d 0c bd 0c 15 c8 bd
       -0.12095798 0.10310238 -0.034207545 -0.097696394
000250 9e 4d 4a 3d 17 eb 07 3d b5 47 92 bd b1 2c 00 3b
       0.049390428 0.033183184 -0.07142583 0.0019557888
000260 4a 08 d8 3d 29 cb 0a 3d 2d 9a 12 bd ad 3f 00 bd
       0.10548456 0.033885155 -0.035791565 -0.031310726
000270 62 50 26 3d 4b 48 f4 3d b9 5c 0f bd 2a 37 e2 3d
       0.040604003 0.11927851 -0.035000537 0.11045678
000280 36 14 4d bd 09 ef b1 3d 32 30 41 3c 74 fe 57 bd
       -0.050068103 0.086881705 0.011791276 -0.0527329
000290 b8 7d d4 3d 19 2c b9 3d 46 40 be bc 53 c6 f3 bd
       0.103755414 0.09041614 -0.023224007 -0.11903062
0002a0 ae 48 82 bd 28 09 f0 bb 2c fd da bd 59 b9 c1 bd
       -0.06361519 -0.0073253103 -0.1069282 -0.094591804
0002b0 4c ce 24 bc b5 fa fb bc ba 80 98 3b 87 73 82 bd
       -0.010058951 -0.030759195 0.0046540173 -0.06369691
0002c0 29 34 81 bd 04 64 29 3d 97 04 ca 3b 49 48 a8 3d
       -0.06308777 0.041355148 0.006165098 0.08216912
0002d0 06 d4 8d bd 8c 5c 57 bd c8 b6 6d bd 5e 7e a6 bd
       -0.06925206 -0.052578494 -0.058035642 -0.081295714
0002e0 d5 0a 8b 3d 30 f9 9d bc 41 f6 fe 3d 9b 6a 92 3d
       0.067891754 -0.01928386 0.12449313 0.0714924
0002f0 12 95 76 bd 52 3c 01 bd 97 65 60 3d 22 66 b6 bd
       -0.06020076 -0.031551667 0.054784384 -0.08906199
000300 aa 4d df 3d 3a 44 a6 3c 19 0c 13 3d 9c 62 dc 3d
       0.10903485 0.020296205 0.03590021 0.10760996
000310 a7 d9 db bd 90 44 35 bd a5 1c 64 bd 44 3e a7 bd
       -0.10734873 -0.04425484 -0.05569138 -0.08166173
000320 d4 65 a7 3d 90 8b a7 3d ff bf c1 3d 6f 5c f4 3d
       0.08173719 0.08180916 0.094604485 0.11931693
000330 31 86 7a bd 19 f1 7d 3a 4d 42 03 3d 91 7a 1d bd
       -0.06116313 0.00096871104 0.03204565 -0.038446967
000340 5b 84 90 3d 32 67 f9 3d 26 17 fc bd da 42 d5 bc
       0.07056495 0.12177886 -0.12309103 -0.026032854
000350 6c 42 97 3d da de b5 bd f2 b2 b7 bc 54 c4 a4 3d
       0.07385716 -0.08880396 -0.022424195 0.08045259
000360 63 44 fc 3c d7 c2 87 bd f2 cc 01 bd 34 26 cb b9
       0.030794328 -0.066289596 -0.03168959 -0.0003874764
000370 76 a7 f2 3d 57 c4 a6 bd 21 76 1c bc ec 8b d4 bc
       0.11848347 -0.081429176 -0.0095496485 -0.025945626
000380 08 6a fe 3d 98 3f c1 3d 52 36 90 bc 53 60 64 bd
       0.124225676 0.09435958 -0.017604027 -0.055755924
000390 52 bd fb 3d 75 21 74 bc 9b 48 0c bd b8 c8 ca 3d
       0.12291969 -0.014900555 -0.03424893 0.09901565
0003a0 ec 68 18 3d 0d 7f 5c 3c 87 8e e6 3d 2c 0b 80 bd
       0.037209436 0.013458026 0.11257654 -0.06252131
0003b0 45 0f cb 3d 36 45 80 3d df 85 a3 bd 8e 21 ea 3d
       0.09915022 0.06263201 -0.07984518 0.11432181
0003c0 41 c8 30 3d 99 b8 b9 bd 85 37 db 3d 5f 89 d0 bd
       0.043159727 -0.09068412 0.10703949 -0.101824515
0003d0 12 ad 88 3c 81 94 6b 3d ec 27 88 3d ad 4a e1 bd
       0.016684089 0.05751467 0.066482395 -0.110005714
0003e0 e0 e5 df 3d 26 af e0 3d 17 06 96 3d 69 2b 2f 3d
       0.10932517 0.10970907 0.0732538 0.04276601
0003f0 07 2b a4 bd e9 5f c0 3d dd 98 01 3c 0e 5a 92 bc
       -0.08016019 0.093932934 0.007909981 -0.017865207

lstm.weight_hh_l1 f4 [256, 64]
000000 17 f9 40 3d 55 7c 66 bd ec b8 6d bd d2 67 57 3b
       0.04711255 -0.056270916 -0.058037683 0.0032868278
000010 45 9a 0e 3c fd fa c3 3d c4 72 be bd c1 55 ec bd
       0.008703773 0.095693566 -0.092992336 -0.11539794
000020 02 7a 9c 3d 58 3b 7c bd 79 bf c0 bd 6d 93 02 3d
       0.07640459 -0.061580032 -0.094115205 0.031878877
000030 85 a0 f8 bd 6b e4 93 3d c7 56 5f bd 32 37 c9 3d
       -0.12139992 0.07221302 -0.054526117 0.09824981
000040 0d 98 f3 bd fc fe f3 bd bc 90 4e bd 66 6a d8 3d
       -0.11894236 -0.11913869 -0.050431 0.10567169
000050 db 98 dd bd 4f e8 9c bd 40 c1 e8 3d 4b b8 c7 3d
       -0.108201705 -0.07661497 0.113649845 0.09751948
000060 a5 dd 2f 3c ba bc d6 bd fd 41 c1 3d 1c e7 83 3d
       0.0107339965 -0.104852155 0.094364144 0.06440565
000070 a5 1f bf 3d f0 bc ca 3c 67 36 ab bd df eb e7 bd
       0.093322076 0.024748296 -0.08359986 -0.11324286
000080 79 0e be bd 7c d5 fa 3d f5 57 f9 3c fb 64 83 3d
       -0.09280104 0.1224775 0.030437449 0.06415745
000090 bb 22 6e bd 77 ce de 3d 92 e9 15 3d 0a f2 be 3d
       -0.05813859 0.10879224 0.036599703 0.09323509
0000a0 a5 7d 8e 3d 18 b8 95 bd b6 b3 e1 3d d8 af 6e bd
       0.069575585 -0.07310504 0.11020605 -0.058273166
0000b0 3a 76 94 3d 92 59 90 3a bd b2 70 bd 5f 27 a0 3d
       0.072491124 0.0011013022 -0.058764208 0.078200094
0000c0 36 9f 73 3d 41 4f 5c 3c e9 81 be bd b9 33 78 3d
       0.059478007 0.01344663 -0.09302122 0.0605962
0000d0 10 34 92 3d fc a5 33 bd e4 28 0a 3d c4 d0 61 bd
       0.071388364 -0.043859467 0.033730403 -0.055130735
0000e0 94 89 92 3d 3d 7e c3 bd 95 0a 51 3d 7c 37 c5 bd
       0.07155147 -0.095455624 0.051035482 -0.096297234
0000f0 45 ec eb 3c af 95 70 3d 0e a4 56 3d 89 5a 28 3d
       0.028799186 0.0587365 0.05240255 0.041101966
000100 07 81 f9 3d 88 5e f1 bd 18 18 50 bd 8c 61 46 bd
       0.12182813 -0.117856085 -0.050804228 -0.04843287
000110 e4 c1 f3 3d 7c 1a 35 3d ff 61 0b bd f3 31 b8 3d
       0.11902216 0.04421471 -0.034029003 0.08993902
000120 53 5e 57 3c 2c 33 ee bd ca df 8f 3c fe 85 56 bd
       0.013145047 -0.11630854 0.017562766 -0.05237388
000130 98 ed ac bd 58 74 6e 3c 67 e9 81 3d a0 70 ed bd
       -0.08443755 0.014554106 0.06343346 -0.11593747
000140 2f e9 e9 3d fb 04 64 ba fd f0 5f 3b a1 01 ef bd
       0.11421429 -0.0008698252 0.003417074 -0.116702326
000150 c8 f5 08 bb 2f ec 0b 3d bd b8 d6 bd 8e ef b4 bd
       -0.002089845 0.03416079 -0.10484455 -0.08834754
000160 1c 15 07 3d e7 42 08 bc 56 5a fc 3d aa a6 26 3a
       0.032979116 -0.008316732 0.12321918 0.00063572323
000170 ba 98 49 3c b5 24 84 bd 3f ec 21 bd 3d e7 92 3d
       0.012304479 -0.06452314 -0.039531942 0.071730115
000180 7b f8 eb bd 7c 50 48 3c d8 a8 ae 3d a3 ae 13 bd
       -0.11522003 0.01222622 0.08528298 -0.03605522
000190 d2 9c f2 bd ac 32 e3 bd 39 bb 83 bd b9 18 da 3b
       -0.11846317 -0.11093649 -0.06432194 0.006655779
0001a0 63 28 ab 3d 0c 40 b7 3d bb 01 b9 3c 28 2a 2c bd
       0.083573125 0.08947763 0.022583833 -0.04203239
0001b0 2e 1f cd 3c 25 50 16 3c 61 44 ba bc 56 8f 0a 3d
       0.025039282 0.009174381 -0.022737684 0.033828102
0001c0 b6 50 4c 3c 6b 74 b6 3d 0b c6 5c 3d 66 a3 b9 3d
       0.012470415 0.08908924 0.053899806 0.09064369
0001d0 7d 72 00 3d 9b a6 06 bd 00 ac f0 bd 1e bb ab bd
       0.031359185 -0.03287373 -0.117515564 -0.08385299
0001e0 3d df 9f bd b1 98 60 3d d3 5c 8b bd 5b aa dd 3d
       -0.07806251 0.054833118 -0.06804814 0.10823508
0001f0 7b 8f f5 bc 6f 72 d6 bd 23 b1 83 bd 61 5e 3d bd
       -0.029975643 -0.10471045 -0.064302705 -0.046232585
000200 3d 01 7c bd 02 13 81 bd 2f e7 9b 3d 55 1f 43 bd
       -0.06152462 -0.063024536 0.07612454 -0.047637302
000210 e3 87 7c bd 12 b3 ef 3d 8f fe 80 bc 78 cb 92 bc
       -0.06165303 0.11704077 -0.015746383 -0.017919287
000220 d5 53 99 3d 5c 43 db 3d b5 f7 2a 3c 5a eb f3 3d
       0.07486693 0.10706207 0.0104350345 0.11910124
000230 82 c2 bf 3c d9 14 c2 bd 4e 75 96 3d ee 24 15 bd
       0.023408178 -0.094766326 0.07346593 -0.036412172
000240 05 4e 8d bd 26 fd bf bd 9a b4 ff 3d 4c 6a 6a 3d
       -0.06899647 -0.09374456 0.12485619 0.05723028
000250 0c 92 87 3b 18 92 53 bd a7 31 b6 bd 56 05 ca 3d
       0.004137283 -0.051652998 -0.08896189 0.09864299
000260 6f c8 bd 3d d4 9d 6d 3c 6a ca 0e bd ae 59 06 3d
       0.09266745 0.014502961 -0.034861006 0.03280037
000270 f2 a6 48 3c ba 44 cb 3c 2b 7d af bc 46 77 49 bd
       0.012246834 0.024813045 -0.02142199 -0.049186014
000280 e7 ec f8 3c c4 6a 90 3d e9 1c ab bd ac d1 d0 bc
       0.030386401 0.07051614 -0.083551235 -0.025490604
000290 ca 3f d9 bc cb 3d 18 bd da 56 68 3d ba f2 0e bd
       -0.026519675 -0.037168305 0.056723453 -0.03489945
0002a0 f6 7f ba 3c 54 49 f4 3d 05 9a bd bd 32 e4 d2 3d
       0.022766095 0.11928049 -0.092578925 0.10297431
0002b0 a2 0c 96 3c 5f 4f c3 bb db 9b 62 3d 0d 19 2f bd
       0.01831657 -0.0059603895 0.055324417 -0.0427485
0002c0 ef ce 82 3d 08 72 f2 bc 9e 83 9e bc d8 1d b7 bd
       0.06387126 -0.02959539 -0.01934987 -0.08941239
0002d0 39 a1 d6 3d 0f b2 be 3d d8 3d c3 bd 48 c6 f1 3d
       0.104799695 0.09311306 -0.0953328 0.11805397
0002e0 65 48 54 bc ed 5e 60 bd 68 09 74 bd e6 2e be 3d
       -0.012956713 -0.05477803 -0.059579283 0.09286289
0002f0 7b 92 77 3c 40 29 31 3d 1a 63 42 3d 90 a3 3a bd
       0.015110607 0.04325223 0.047457792 -0.04556614
000300 54 c5 a7 bc 57 02 fb bc 97 07 00 3d 39 e6 2b 3d
       -0.020479836 -0.030640764 0.03125724 0.041967604
000310 9d 57 52 bd 13 d3 f7 bd 53 3a c6 3d 71 ca 75 bc
       -0.051353086 -0.12100806 0.09679093 -0.015001879
000320 f3 fc a3 bd b2 5b fc bc be 3f 3c 3c f3 4e f6 bd
       -0.080072306 -0.030805442 0.011489807 -0.12026777
000330 87 90 6a bd 4b c2 c6 3d ac 8d c9 bc 50 39 b0 3d
       -0.05726674 0.09705027 -0.024603687 0.086046815
000340 2b 8c 64 bd 0f b2 ac bc 7c 46 ae bd 2a a1 58 3d
       -0.055797737 -0.021080999 -0.085095376 0.052888073
000350 70 b7 bf bd 4d 34 77 3a b0 67 c7 bd 72 f1 f0 bc
       -0.0936116 0.00094300957 -0.09736574 -0.029412005
000360 d6 2d 1d bd 27 61 85 3d 54 d7 81 bc 1b 68 07 3d
       -0.03837379 0.06512671 -0.015849747 0.033058267
000370 61 0f a2 bd 5f 67 81 bd e0 de de 3c d9 1f c1 3c
       -0.079130895 -0.063185446 0.027205884 0.023574756
000380 c4 39 3e bd 5e f6 8a bd 74 f1 b2 bc 9e 3f 66 3c
       -0.04644181 -0.06785272 -0.02184365 0.014053253
000390 77 c5 31 3d b4 71 f6 3c b0 3c db bd b5 62 7c 3d
       0.043401208 0.030083515 -0.107049346 0.06161757
0003a0 cb 2f 6f bc 17 3a 25 bd a6 a1 2d bd f5 31 1a bd
       -0.014598797 -0.040338602 -0.042390488 -0.0376453
0003b0 ef 28 ff 3d f0 6e 87 bd d2 99 f8 bd df 6b 44 3d
       0.12458979 -0.066129565 -0.12138714 0.047954436
0003c0 19 b0 fc bd 50 9e eb 3d 6b fd 70 3d 8a 9d d1 3d
       -0.123382755 0.11504805 0.05883543 0.10235126
0003d0 7f ed 67 bd dd d9 e8 3d b2 16 6d 3d 85 02 cc 3d
       -0.05662298 0.11369679 0.057882972 0.09961418
0003e0 db ee 88 bc b1 5b 2d bd 24 b9 fd 3d a5 5f 4b bd
       -0.016715458 -0.042323772 0.123888284 -0.04965176
0003f0 9c 64 c3 3b b8 6e 61 3d 7d 6a 8c 3d de ec c4 3c
       0.0059629213 0.05503723 0.068562485 0.024038728

lstm.bias_ih_l1 f4 [256]
000000 ab 23 94 bd ee 05 8e 3c c5 91 fe 3d d5 bf 81 3d
       -0.072333656 0.017336812 0.12430147 0.06335417
000010 9c 01 97 3d 99 58 cd bd 96 fd cb bd af 9b 81 3d
       0.07373354 -0.10026664 -0.09960477 0.063285224
000020 f2 ac 9c 3d 89 2f ec bd 55 bb d4 bc fb f7 43 3d
       0.07650174 -0.11532504 -0.025968233 0.047843914
000030 c2 18 b5 bc 9e d2 bd 3d ab a4 0d bc 21 24 86 3d
       -0.022106532 0.09268688 -0.008645217 0.0654986
000040 84 ef d1 bc e1 63 da 3c 31 c4 a0 3d d9 c0 57 3c
       -0.025626905 0.026658954 0.078499205 0.013168537
000050 d8 94 e0 3d 8a 19 22 bd 2f bd b9 bd bc 52 5d 3d
       0.1096589 -0.039575137 -0.09069287 0.05403398
000060 bf 0d 2c 3d 79 ba e8 3d f7 2f de bd 79 43 a2 3b
       0.042005297 0.11363692 -0.10848992 0.004951891
000070 b2 0c e0 bd ef 0f d2 3d 63 9d 18 bd 77 d8 ab bc
       -0.109399214 0.10256945 -0.03725947 -0.020977242
000080 9a 4b fa 3d 0c 46 87 3d 34 78 d0 bd 3b e2 af 3c
       0.12221451 0.06605157 -0.10179177 0.02147018
000090 6a 51 df 3c 6a 15 b3 bd 15 43 e8 3d e5 c4 87 bc
       0.027260501 -0.08744319 0.1134092 -0.016573379
0000a0 ea 3e b8 bd f8 0f 87 bb 3c 06 fd 3d 01 a3 f5 3d
       -0.08996375 -0.0041217767 0.12354705 0.11993981
0000b0 9d ac 8d 3c 45 04 97 3d b1 d6 d7 bc 81 ff 9a bd
       0.017294222 0.07373861 -0.02634749 -0.07568265
0000c0 b4 52 ce 3d 0f fd 36 bd 2c 4b 24 bd 95 46 b0 bd
       0.10074368 -0.04467493 -0.040110752 -0.086072125
0000d0 97 d9 b7 3d 6e a6 f5 3d 7a 95 b1 bd a5 0a 06 3d
       0.08977049 0.119946346 -0.086710885 0.032724995
0000e0 b3 b5 05 3e 86 1e 0c 3d cc 29 b6 3c 86 ba fd 3d
       0.13057594 0.034208797 0.022236727 0.12389092
0000f0 d6 a0 a8 bd 84 cc e6 3c 27 cf de bd f7 75 d6 bd
       -0.08233802 0.028173693 -0.10879355 -0.10471719
000100 34 7e f1 bc 49 f5 6d 3d ca ca cd 3d f1 c9 13 bd
       -0.029479124 0.05809525 0.100484446 -0.03608126
000110 13 2f 7f bd 4f 96 f8 bd ff 87 94 bc f3 71 b7 bd
       -0.062300753 -0.12138044 -0.018131254 -0.08957281
000120 fe e4 fb 3d 1b 14 a1 bd f1 38 94 bd b3 ba ee 3d
       0.12299536 -0.07865163 -0.07237423 0.11656704
000130 5a a4 b0 bd d3 79 63 bd e2 6b a1 bc 32 58 f3 3d
       -0.086250976 -0.055536103 -0.019704763 0.11882056
000140 98 91 ff bd a9 56 42 bd ad 0d ed bb 42 f4 2d bd
       -0.12478942 -0.047445927 -0.0072342963 -0.04246927
000150 9e 25 c8 bd 1b 7b 3e 3b 29 5c 87 3d b1 92 c3 3d
       -0.097728 0.0029065076 0.06609375 0.095494635
000160 98 27 88 3d f8 85 1f 3d d1 a3 8d bd 83 92 ae bd
       0.06648177 0.038946122 -0.06916011 -0.08524039
000170 b1 b5 d6 bd a0 ce 95 bd 75 f7 bf 3d 90 2d 19 bc
       -0.10483874 -0.07314801 0.093733706 -0.009349242
000180 f4 b0 9c 3c 2e 67 b1 bd 69 bc eb 3d dd 30 d1 3d
       0.019127347 -0.08662258 0.11510546 0.10214398
000190 c1 9a a5 3d 63 16 9e 3d 40 d4 cf 3d 93 02 f8 3d
       0.080861576 0.07719114 0.10147905 0.12109866
0001a0 6d 4c f6 3d 7b 80 bb bc 8a b8 2f 3d 79 5d 77 3d
       0.12026296 -0.022888413 0.0429006 0.060391877
0001b0 ff 34 f3 bd 4b 94 98 bd 3b 8d 4d 3d a1 73 f1 bd
       -0.118753426 -0.0745016 0.050183516 -0.117896326
0001c0 b9 69 0b bd 40 16 e5 3d 4f e6 0a bd c7 73 a8 bd
       -0.03403637 0.111858845 -0.033911046 -0.08225208
0001d0 52 98 eb bd bf f7 b6 3d 17 06 2f 3d f0 7f 01 3d
       -0.11503662 0.089339726 0.042730417 0.03161615
0001e0 37 f6 2c bc b8 b8 a0 bd 08 8c 9e 3d f1 d3 be bd
       -0.010556749 -0.07847732 0.077415526 -0.09317768
0001f0 2a 3d 78 bd 6c db 21 bd b3 0c ea 3d bb e1 60 3d
       -0.060605206 -0.039515898 0.114282034 0.054902773
000200 4b 89 d6 bd 8e 05 dd bd ad da 8d bd d1 24 c4 bd
       -0.10475405 -0.10792075 -0.06926475 -0.09577335
000210 85 55 60 3d 7b 8e 23 bd 28 2c 42 bd cc 2f fa 3d
       0.054769058 -0.0399308 -0.047405392 0.12216148
000220 40 92 e8 3b 38 fd d5 3d b3 f9 c2 bd 6c 96 e8 3c
       0.0070975125 0.10448688 -0.095202826 0.02839204
000230 3f c8 2f 3c 08 f7 9e bd c0 88 d3 bd ab 54 aa bc
       0.010728895 -0.07761961 -0.10328817 -0.020792326
000240 4e 8e ef bc 3b dd ed bd 3e 93 98 bd 51 0b 9e 3d
       -0.02924266 -0.11614462 -0.07449959 0.07717002
000250 57 99 be 3c 46 45 d8 3d 54 f1 7c bd c4 29 ef bd
       0.023266478 0.10560088 -0.061753586 -0.11677888
000260 6d be 9a bd d0 c8 8a bd f4 63 81 3d d1 c1 ce bd
       -0.07555852 -0.06776583 0.06317893 -0.10095561
000270 6f 96 9e 3d a6 3e 8d bd 3b bf b9 bc 20 d2 83 3d
       0.07743537 -0.06896715 -0.022674194 0.064365625
000280 88 ff 4f 3d b4 26 f1 bc 92 7b 82 3d 97 90 e6 bd
       0.050780803 -0.0294374 0.063712254 -0.11258047
000290 bb 2e 17 bd 33 e9 af 3d 83 64 f2 3c ee 36 00 3d
       -0.0369098 0.08589401 0.029588943 0.031302385
0002a0 7f b7 dc bd 3c b3 04 3d 1f 1b de bb f4 e9 e6 3d
       -0.107771866 0.032397494 -0.0067781354 0.11275092
0002b0 ac 73 0f 3d 09 9f a7 3c 15 c9 d1 3b 95 84 17 bd
       0.035022423 0.020461576 0.0064021447 -0.036991674
0002c0 59 c1 b1 bc d4 71 55 3d 03 6e 4f bc 30 5d f9 3d
       -0.02169864 0.052110508 -0.012660506 0.12175977
0002d0 e3 95 05 3c 88 29 b8 bd cf 8f da bc 67 a1 46 bd
       0.008153412 -0.089922965 -0.026679901 -0.04849377
0002e0 bc b9 93 bd 19 50 76 bd 1a d6 83 3d 37 44 a5 3d
       -0.072131604 -0.06013498 0.06437321 0.080696516
0002f0 2f 4f 16 3d ed f5 d8 bc 7e 67 0f 3d 11 65 b9 3d
       0.03669661 -0.026484454 0.035010807 0.0905248
000300 b4 46 f0 bc 24 c4 9c 3d fd bd 27 bc 30 75 d8 3c
       -0.029330589 0.07654598 -0.010238168 0.026423067
000310 bb a3 b2 bd c0 8a 00 3d da 10 cd bc 52 f7 b4 b9
       -0.08722635 0.031382322 -0.02503245 -0.00034516543
000320 12 d0 47 bd 56 d4 cf 3d 4a 8f a9 3c 30 d1 16 3d
       -0.048782416 0.10147922 0.020698208 0.03682059
000330 ae 85 b1 3d 82 86 b1 3d ef a3 90 3d 4a 52 47 3d
       0.086680755 0.086682335 0.07062518 0.04866246
000340 de 42 af bc 24 c0 ec 3c 3a 4e de bd dc 13 4f 3b
       -0.02139419 0.028900214 -0.10854764 0.003159753
000350 a1 e9 8d bd 9c 66 c6 3d 12 e5 5c bd 5b d5 3f bc
       -0.06929327 0.0968754 -0.053929396 -0.011708583
000360 64 3d ae 3d fe 2c 88 3d ea be 89 bc 4e b4 53 3d
       0.08507803 0.066492066 -0.016814668 0.051685624
000370 0f 14 9f bd 0b ae aa 3d 13 93 9f bd 64 05 ff bd
       -0.07767498 0.08333977 -0.07791724 -0.124522
000380 57 5d 81 bd 7a 89 dc bd af 49 a7 bd 77 c2 8d bd
       -0.06316631 -0.10768409 -0.08168351 -0.06921857
000390 2b 67 fb bc 63 97 87 3d 43 bf 7f 3d cf c2 b8 3d
       -0.030688843 0.066206716 0.06243826 0.09021532
0003a0 12 a7 37 3d 76 e2 b7 bd a8 da 90 3d 2a 79 99 bc
       0.044837065 -0.08978741 0.07072955 -0.018734533
0003b0 84 a3 41 3d ed 33 5f bd e7 70 65 bd cc d6 13 bd
       0.04727508 -0.05449288 -0.056015875 -0.03609352
0003c0 b8 23 77 3d 59 fe a1 bb 49 12 45 bd 96 6d f8 3b
       0.0603368 -0.0049436507 -0.04811314 0.007581423
0003d0 1e d7 6c bb f0 84 80 3d 90 7b e8 3d eb ec 72 3d
       -0.0036138962 0.06275356 0.11351693 0.059307974
0003e0 a3 8b 8a 3d c7 48 ce 3d 36 ae a5 3d 61 34 96 3d
       0.06764915 0.10072475 0.08089869 0.07334209
0003f0 a3 f5 b5 3c 9b 52 da bc 88 1d 14 bd 92 3d 0e 3c
       0.022211855 -0.026650717 -0.036160976 0.008681672
