experiments/gru/v2/gru_last_model.pth (torch, 170293 bytes, 9 tensors)

gru.weight_ih_l0 f4 [192, 20]
-0.005642852 -0.004023864 -0.0046631256 -0.0031418735 -0.0040713404 -0.011429109 0.00021577951 -0.004193037
-0.0033307094 -0.0006037529 -0.0044163372 -0.0013107025 5.5294546e-05 0.0012649313 -0.0068941615 -0.0005802331
-0.0056956373 -4.0304826e-07 0.00035776664 0.0011388652 0.01232625 0.0052260673 0.015373899 0.007259553
0.007046535 0.031882796 0.011622438 0.015356336 0.006032973 0.00050959433 0.020865953 0.010221255
-0.00012754541 0.014426778 0.014006445 0.0010990051 0.020538667 0.00014458969 -0.0041817664 0.014843727
0.0008044887 -0.0008203479 0.00031327442 0.00039308905 0.0002727766 0.0006766494 0.0006897255 -6.1963896e-05
-0.00011105796 0.00075516547 -0.0005384313 -0.00046824862 6.2065083e-06 -0.0007888633 0.0004964833 -4.7893725e-05
-0.0009124383 1.97743e-05 0.0006756509 0.0004700649 0.04877627 0.03733811 0.04381573 0.059681963
0.027655263 0.069553725 0.035401605 0.08449602 0.042287815 0.016969645 0.06757649 0.05827346
-0.009263626 0.054759387 0.032848064 0.025138725 0.079282895 0.00045431053 0.011280973 0.0010430954
0.0008496212 -0.00030800162 -0.000100389865 -0.0002155056 -0.00036771223 -0.0008734575 -0.0009976814 -0.00039111602
0.0001380074 -0.00042435637 8.048542e-05 0.00073999685 1.4023504e-05 0.0003178998 -0.0008207628 -8.316887e-05
-0.0016271104 -1.1716773e-05 0.0006355922 -0.00052759395 0.033003956 0.021713117 -0.08553346 -0.031315017
-0.018330107 -0.06987481 -0.01812652 -0.04754493 -0.050636027 0.00032356993 -0.06968235 -0.0086922245
-0.01615246 -0.009825017 -0.057931937 -0.0025334454 -0.07529229 0.00020005352 0.0153316595 -0.030062085
0.035456933 0.02384173 0.041105676 0.040978022 0.035590325 0.074530095 0.058265846 0.06300632
0.040553994 0.028565258 0.048530698 0.036288153 2.7172338e-05 0.015656965 0.055864498 0.004181278
0.06489128 -8.075664e-05 0.0027027177 0.017021634 -0.0012961421 -0.0039224927 -0.004835977 -0.0024315387
-0.0037739016 -0.009489205 -0.0023282953 -0.008365565 -0.0052099805 -0.003419762 -0.0072150216 -0.004507067
-2.9467526e-05 -0.0050701727 -0.0044045066 -7.3263196e-05 -0.012365574 9.460973e-05 0.0024075704 0.003157221
0.028874489 -0.05506646 -0.036826145 -0.02982769 -0.0068189474 -0.027554303 -0.014423299 -0.041055106
-0.044970218 -0.04214975 -0.045970555 -0.02497817 -0.0065854127 -0.01994447 -0.02215821 -0.010139336
-0.051304296 -6.9691214e-07 0.012216991 -0.023287313 0.01451878 -0.00670104 -0.0010536615 0.006877928
-0.0022821382 -0.00083392335 0.014450616 0.004974681 -0.0050766184 -0.016537616 -0.0025798602 -0.0002199975
1.977678e-05 0.0005950551 -0.003118808 -0.00047192926 -0.009204968 6.765283e-05 0.0023228363 0.015039655
0.013884861 -0.016812302 -0.008429887 -0.005672958 -0.0016825477 -0.012036357 -0.003490895 -0.010613061
-0.011373026 -0.009453554 -0.010539429 -0.005528655 -1.7902914e-05 -0.0019674627 -0.010302423 -0.00019290144
-0.014351211 -0.00016049187 0.0022832109 -0.0074772416 0.046690285 -0.014148246 0.011300439 0.021256687
0.024474341 0.038005732 0.030063411 0.027528362 0.006214175 0.0062312474 0.021622904 0.015538359
-0.006653251 0.0154284 0.022796806 0.0016072897 0.025459008 0.0002475394 0.0010306163 -0.005600381
0.003454136 -0.008876806 -0.010686081 -0.0074321358 -0.0015201077 -0.008485732 -0.0016059713 -0.0043217177
-0.013883041 -0.01064083 -0.010969876 -0.012130952 -8.018277e-05 -0.008066211 -0.001786597 -0.0014057676
00000000: ace7 b8bb 9eda 83bb 22cd 98bb e4e7 4dbb
00000010: e168 85bb 2841 3bbc df42 6239 be65 89bb
00000020: 0848 5abb 2c45 1eba ecb6 90bb e1cb abba
00000030: 11ec 6738 0dcc a53a 6be8 e1bb c91a 18ba
00000040: 78a2 babb 8862 d8b4 a092 bb39 fa45 953a
00000050: 0af4 493c 6e3f ab3b cee2 7b3c 8be1 ed3b
00000060: 9fe6 e63b 8997 023d 0a6c 3e3c 2499 7b3c
00000070: 3fb0 c53b 4c96 053a 13ef aa3c 0d77 273c
00000080: b6bd 05b9 4b5e 6c3c 4a7b 653c 7e0c 903a
00000090: b540 a83c 009d 1739 3307 89bb 1b33 733c
000000a0: 53e4 523a 9e0c 57ba fb3e a439 8517 ce39
000000b0: 7503 8f39 2c61 313a b2ce 343a 9df2 81b8
000000c0: cae7 e8b8 4cf6 453a 8325 0dba 447f f5b9
000000d0: 8041 d036 b8cb 4eba 6e26 023a 7fe1 48b8
000000e0: b330 6fba fce0 a537 2a1e 313a 0b73 f639
000000f0: a0c9 473d d9ef 183d 1f78 333d 1375 743d
00000100: 4a8d e23c 2f72 8e3d 4601 113d 400c ad3d
00000110: fd35 2d3d ed03 8b3c 8b65 8a3d 27b0 6e3d
00000120: 77c6 17bc 614b 603d b18b 063d baef cd3c
00000130: 125f a23d 8730 ee39 d5d3 383c 79b8 883a
00000140: 1db9 5e3a 477b a1b9 6688 d2b8 58f9 61b9
00000150: 80c9 c0b9 bef8 64ba a2c4 82ba b40e cdb9
00000160: 14b6 1039 267c deb9 48ca a838 59fc 413a
00000170: 7e46 6b37 caab a639 7628 57ba f26a aeb8
00000180: c444 d5ba 2893 44b7 df9d 263a 3b4e 0aba
00000190: 282f 073d b5df b13c 2b2c afbd 2d44 00bd
000001a0: 0529 96bc 861a 8fbd 117e 94bc 79be 42bd
000001b0: b967 4fbd d2a4 a939 9fb5 8ebd d569 0ebc
000001c0: 2a52 84bc 1cf9 20bc 0a4a 6dbd 2908 26bb
000001d0: d832 9abd 75c5 5139 a431 7b3c c344 f6bc
000001e0: 4a3b 113d bb4f c33c 6d5e 283d 92d8 273d
000001f0: 29c7 113d 3ca3 983d 2ba8 6e3d 7509 813d
00000200: f21b 263d b001 ea3c 20c8 463d e3a2 143d
00000210: 27f0 e337 0943 803c 2cd2 643d 1a03 893b
00000220: b8e5 843d e45b a9b8 1420 313b f470 8b3c
00000230: 50e3 a9ba 4188 80bb 1e77 9ebb 735a 1fbb
00000240: 9053 77bb 9c78 1bbc 5096 18bb b90f 09bc
00000250: 7cb8 aabb 161e 60bb fd6b ecbb 05b0 93bb
00000260: 0831 f7b7 b123 a6bb ae53 90bb e1a4 99b8
00000270: fa98 4abc 3669 c638 54c8 1d3b 61e9 4e3b
00000280: 318a ec3c 5e8d 61bd 03d7 16bd 3359 f4bc
00000290: 7a71 dfbb 90b9 e1bc b34f 6cbc 6629 28bd
000002a0: b132 38bd 37a5 2cbd 9f4b 3cbd 059f ccbc
000002b0: 72ca d7bb 9662 a3bc 2285 b5bc 751f 26bc
000002c0: 7424 52bd 7013 3bb5 c629 483c 09c5 bebc
000002d0: 2de0 6d3c 6694 dbbb 031b 8aba 3e60 e13b
000002e0: ed8f 15bb a69b 5aba 47c2 6c3c a602 a33b
000002f0: c359 a6bb e579 87bc df12 29bb 21af 66b9
00000300: 50e6 a537 79fd 1b3a ea64 4cbb 466d f7b9
00000310: 6fd0 16bc d6e0 8d38 ba3a 183b e368 763c
00000320: 547d 633c f4b9 89bc 821d 0abc 39e4 b9bb
00000330: ef88 dcba 2434 45bc 80c7 64bb 67e2 2dbc
00000340: ee55 3abc 14e3 1abc 92ad 2cbc b829 b5bb
00000350: 372e 96b7 8cf0 00bb 7ecb 28bc 9645 4ab9
00000360: 5721 6bbc b549 28b9 eca1 153b a603 f5bb
00000370: 503e 3f3d 0bce 67bc 7a25 393c 8122 ae3c
00000380: 6a7e c83c e6ab 1b3d 8b47 f63c 2983 e13c
00000390: 47a0 cb3b 7e2f cc3b 8422 b13c 9a94 7e3c
000003a0: 8403 dabb 66c7 7c3c 5ec0 ba3c b1ab d23a
000003b0: 698f d03c 2dc8 8139 bf15 873a 6783 b7bb
000003c0: c95e 623b 0670 11bc ac14 2fbc 4689 f3bb
000003d0: 5a3e c7ba bd07 0bbc 747f d2ba 329d 8dbb
000003e0: b275 63bc e056 2ebc ffba 33bc e7c0 46bc
000003f0: cc27 a8b8 2428 04bc 3f2c eaba bc41 b8ba

gru.weight_hh_l0 f4 [192, 64]
-0.0009580214 -0.0010129932 0.0005641989 -0.005470905 -0.0017804073 -0.00191927 -0.0045362157 0.0016147165
0.0009376452 -0.0043456163 -0.0014572409 -0.0038264296 0.0018947617 0.00032256052 0.0040620063 -0.003020245
-0.00013086468 -0.0017066548 0.0005155839 3.862649e-05 -0.0018742124 0.002724009 0.0009781636 -0.00071620103
0.0005728347 0.0017609355 0.00041064117 -0.002870223 -0.0005650943 0.0010415015 0.0012381707 -0.0014564076
-1.697489e-05 -0.0037226214 -0.001354162 -0.00058115355 -0.0013554754 0.00067778816 0.0008014406 0.0034021249
0.00027540352 0.00030070674 -0.00067337416 0.0010697598 -7.6295575e-05 -0.0032730286 -0.0006903353 0.0013941248
0.0027376565 0.0031045934 -0.0018472562 0.00041095077 -0.0042816694 -0.0011125808 -0.00069795235 0.0010712412
-0.00054801896 0.0012786062 0.00048409327 -0.0023598357 0.0006126162 -0.00093926996 -0.0014582464 -0.006697756
0.0036762564 0.0019061661 -0.0026881814 0.004415026 0.002290436 -0.00013839873 -0.0016471078 -0.00073064363
1.8443752e-06 0.0038964131 0.00060672936 0.00059263426 0.0014547133 0.0001654699 -0.0017870851 0.00662036
0.001162211 0.0015629414 2.571677e-05 0.0014717694 0.001015872 -0.0027197103 -0.0017643475 0.000297065
-0.00080118614 0.0010332562 0.0006533975 0.003143373 0.0050223307 -0.0018270784 0.0023529283 0.0035886813
0.0020184203 0.0045149704 -0.0035979447 0.0013531032 0.0030062923 -0.003328785 -0.0018598831 -0.0031435117
-0.00038551562 0.0021491086 0.003576112 -0.0063003898 -0.002165311 -0.0040248036 0.0026598657 -0.005768291
0.0010537779 -0.0064254254 -0.00069688226 -0.0005987883 0.006039665 0.0019936627 -0.00025134158 -0.0021240914
0.002700591 0.0005538127 -0.0008984499 0.004355619 5.2711126e-05 -0.003878723 -0.0016485628 0.0052299537
0.00069517986 -0.0004096907 -0.00022517335 -0.0004815794 -4.7144935e-05 0.00046569438 -0.0009017765 -7.0477894e-05
-0.0006899912 -0.0002163118 0.00020938432 -0.0002285477 -0.00024364774 -0.00020611679 -0.0001386726 0.00012407958
-0.00012109543 0.000136143 -3.088805e-05 7.9340796e-05 2.139655e-05 -6.292673e-05 -3.2898693e-05 -0.0002634203
1.3003691e-05 -8.397554e-05 6.3326996e-05 0.00056946353 0.00059556024 0.0001177378 0.00080533006 0.00028612197
5.94721e-05 1.6004517e-05 -0.00040720636 1.2166529e-05 3.2193995e-05 -0.00049817585 -0.00048205812 0.00011929309
5.9693382e-05 0.000581963 2.0251493e-05 -0.000581634 -7.278181e-05 -9.0050635e-05 -0.000116132906 -0.00020955206
0.0010782989 8.715604e-05 0.00033382763 0.0002727345 -0.00011410317 -0.0001921203 0.0008314334 -0.0005940112
0.0010404201 -0.0008629369 9.1136346e-05 -0.00021276867 -0.0005621531 -0.0006807472 -8.2522485e-05 -2.485518e-05
0.009502892 -0.0024548655 -0.013922495 0.01571343 0.006362735 0.033092722 -0.012599087 -0.009795552
-0.02902639 0.013933102 0.011309817 0.0066765114 -0.0112023195 0.0028055192 -0.011996589 0.012374626
-0.0009822575 0.009677161 -0.0035632097 0.007726376 0.0037559567 -0.013258509 -0.005827019 0.0011860409
-0.001316826 -0.0090416735 0.0025950975 0.020346323 0.019528788 0.0014823473 0.003256106 0.011775219
0.0069446606 0.014673942 -0.009434629 0.007912311 0.008564361 -0.02410097 -0.015770048 -0.01684762
-0.001607448 0.014562223 0.0046887742 -0.018042507 -0.003026357 -0.0016186582 0.0020862662 -0.016450062
0.01223754 -0.016953453 0.013446598 -0.0018685851 0.015309348 -0.0029725851 0.022505222 -0.003120015
0.02767169 -0.027439695 0.0020445846 0.014295743 -0.018922783 -0.016647901 -0.0033007036 0.023103302
00000000: ba23 7bba 69c6 84ba bfe6 133a 4745 b3bb
00000010: 8e5c e9ba 0490 fbba 89a4 94bb e5a4 d33a
00000020: 4ecc 753a ac65 8ebb e400 bfba d6c4 7abb
00000030: a759 f83a 571d a939 941a 853b 4eef 45bb
00000040: b838 09b9 d5b1 dfba 4028 073a e102 2238
00000050: 22a8 f5ba 4a85 323b b935 803a 70bf 3bba
00000060: 492a 163a 31cf e63a 534b d739 5a1a 3cbb
00000070: d622 14ba fe82 883a 1d4a a23a eee4 beba
00000080: 4c65 8eb7 39f7 73bb 237e b1ba 8e58 18ba
00000090: 35aa b1ba 98ad 313a c517 523a 2ff6 5e3b
000000a0: 0964 9039 2da8 9d39 6085 30ba 2f37 8c3a
000000b0: e000 a0b8 4f80 56bb 9ef7 34ba 11bb b63a
000000c0: 416a 333b 6f76 4b3b a21f f2ba e174 d739
000000d0: 3f4d 8cbb 04d4 91ba caf6 36ba e468 8c3a
000000e0: eea8 0fba e896 a73a e6cd fd39 79a7 1abb
000000f0: fa97 203a 5739 76ba a122 bfba d978 dbbb
00000100: 59ed 703b 52d8 f93a 332c 30bb ecab 903b
00000110: 241b 163b 201f 11b9 c4e3 d7ba aa88 3fba
00000120: 408c f735 f75a 7f3b eb0c 1f3a 035b 1b3a
00000130: 14ac be3a fd81 2d39 a03c eaba 9bef d83b
00000140: 5455 983a 9cdb cc3a 58ba d737 63e8 c03a
00000150: 0227 853a 2b3d 32bb ae41 e7ba 64bf 9b39
00000160: b106 52ba 536e 873a c448 2b3a 0c01 4e3b
00000170: 5d92 a43b 947a efba 9633 1a3b 1530 6b3b
00000180: 7947 043b 51f2 933b 7fcb 6bbb 9c5a b13a
00000190: 3705 453b bf27 5abb 52c7 f3ba 6003 4ebb
000001a0: 081f cab9 0fd8 0c3b 345d 6a3b 8073 cebb
000001b0: e4e7 0dbb 80e2 83bb 2451 2e3b ef03 bdbb
000001c0: eb1e 8a3a 608c d2bb faae 36ba 01f8 1cba
000001d0: 62e8 c53b 1ca8 023b 7fc6 83b9 5734 0bbb
000001e0: 66fc 303b be2d 113a f485 6bba 95b9 8e3b
000001f0: 2416 5d38 2c32 7ebb 9714 d8ba 0860 ab3b
00000200: bb3c 363a c1cb d6b9 831c 6cb9 7e7c fcb9
00000210: 7dbd 45b8 7128 f439 3265 6cba 88cd 93b8
00000220: 87e0 34ba c2d1 62b9 2d8e 5b39 4ea6 6fb9
00000230: b17b 7fb9 0e21 58b9 a568 11b9 5c1b 0239
00000240: 9df4 fdb8 9cc1 0e39 cb8d 01b8 c463 a638
00000250: be7c b337 88f7 83b8 b4fc 09b8 ad1b 8ab9
00000260: 6d2a 5a37 061c b0b8 6cce 8438 0d48 153a
00000270: 5f1f 1c3a 00ea f638 c91c 533a a402 9639
00000280: ae71 7938 7041 8637 507e d5b9 d81e 4c37
00000290: 0a08 0738 0498 02ba bfbc fcb9 fd2c fa38
000002a0: 485f 7a38 e08e 183a c0e1 a937 cc78 18ba
000002b0: 70a2 98b8 91d9 bcb8 618c f3b8 34bb 5bb9
000002c0: b555 8d3a 8bc7 b638 9605 af39 cefd 8e39
000002d0: ac4a efb8 e673 49b9 8df4 593a 6bb7 1bba
000002e0: b55e 883a b736 62ba 7420 bf38 a81a 5fb9
000002f0: 755d 13ba 2c74 32ba ec0f adb8 1880 d0b7
00000300: 05b2 1b3c cfe1 20bb 2d1b 64bc 73b9 803c
00000310: 7d7e d03b 3c8c 073d 676c 4ebc 867d 20bc
00000320: c0c8 edbc aa47 643c d04c 393c a3c6 da3b
00000330: ef89 37bc cddc 373b 578d 44bc f1be 4a3c
00000340: 18bf 80ba f58c 1e3c bd84 69bb 8a2d fd3b
00000350: 7f26 763b 383a 59bc 94f0 bebb ee74 9b3a
00000360: 5999 acba 8723 14bc 8312 2a3b 55ad a63c
00000370: d6fa 9f3c 524b c23a 6564 553b d9ec 403c
00000380: 0990 e33b f96a 703c b493 1abc a3a2 013c
00000390: 8951 0c3c 666f c5bc 3030 81bc 0504 8abc
000003a0: 01b1 d2ba 6496 6e3c 4aa4 993b e1cd 93bc
000003b0: d855 46bb 2829 d4ba bdb9 083b 48c2 86bc
000003c0: f77f 483c f8e1 8abc 1f4f 5c3c 50eb f4ba
000003d0: 0fd4 7a3c b4cf 42bb df5c b83c 2a79 4cbb
000003e0: bdaf e23c 36c9 e0bc 70fe 053b b138 6a3c
000003f0: f403 9bbc 2e61 88bc 9e50 58bb 2343 bd3c

gru.bias_ih_l0 f4 [192]
-0.0060763354 0.019207403 -0.0007705013 0.08373205 -0.0011536876 -0.075946815 0.058760826 -0.00724722
-0.06623729 -0.00090223766 -0.013165875 0.015069714 -0.017785626 -0.0046767457 -0.0015395292 -0.0037282668
-0.0037693742 0.013210973 -0.0019871106 -0.0025347436 -0.025011273 -0.00074394426 0.0036211887 0.0029603182
6.880818e-05 -0.0016124477 -0.0029891753 -0.0022591592 0.010350785 -0.024175873 -0.01591976 -0.0012540161
0.0011966112 -2.5777845e-06 -0.003925086 -0.008621389 0.00025271965 0.010785734 -0.0054234313 -0.0035471353
-6.8848225e-05 -0.0038240165 0.0019568384 -0.009308447 -0.0012448921 -0.0006389559 -0.0033844765 -0.003731199
-0.022279926 -0.0036012004 -0.011607622 -0.001159387 0.0013717501 -0.029000226 -0.078704715 -0.017197687
-0.059941694 -0.11213939 0.0021048659 -0.008918734 -0.06431833 0.011004839 0.0028503516 0.0020944024
0.007092391 0.0054976535 0.00014361895 -0.147207 -0.002356635 -0.08150597 -0.10923139 -0.005324509
-0.07609937 -0.064555615 -0.006777429 -0.09400119 -0.020894855 -0.008164132 -0.035414286 -0.024750393
0.00024365932 0.0010279283 -0.00019362743 -0.00020404637 -0.012677847 -0.024626883 -0.0016650513 -0.0055218795
0.00035749006 -0.08156772 0.0009508993 -0.02121675 0.0014600062 -0.02885837 -0.014719476 -0.0014413527
4.5168883e-05 -0.031130116 -0.031693704 0.004749643 -0.0012964949 -0.0039871223 0.0029295683 -0.06939438
-0.004105459 0.0060688816 0.0014975271 -0.00021776801 -0.006060988 -0.035511415 0.0025468105 -0.0027768186
-0.13539091 -0.002305546 -0.020487279 -0.0012613151 -0.047910396 -0.017681068 -0.08809479 -0.023873368
-0.060641304 -0.10725785 0.0011348578 -0.0034050362 -0.06712728 -0.0040413085 -0.01752259 -0.10051585
-0.03037145 -0.012067398 0.017197195 0.069248706 0.032987274 0.0116645545 0.11839089 -0.0022644284
0.061222307 0.058256984 -0.016568158 -0.0014948912 -0.00182606 -0.061833754 -0.14625072 0.10224805
0.011882571 0.049044315 -0.020720344 -0.028259413 0.15192434 -0.10041831 -0.0074820714 -0.028199628
-0.007907904 0.005846198 -0.05297842 0.051272962 0.0021047452 0.055050496 0.04524566 0.013530978
-0.014518525 0.03850892 0.07866153 0.013897936 0.00219861 0.0056924294 0.055595692 -0.09463154
-0.019603394 -0.0009796355 -0.0065318765 0.06192659 -0.010378797 0.109973684 -0.012427243 0.012971711
-0.25485155 -0.025438888 -0.010587263 -0.017047359 0.09175185 0.14925046 -0.1291982 -0.0686707
-0.17695871 0.0848864 -0.013784267 0.046272375 0.12941648 -0.0054754848 0.055069238 0.120893784
00000000: ff1b c7bb d858 9d3c 78fb 49ba b67b ab3d
00000010: 5537 97ba 018a 9bbd 31af 703d 167a edbb
00000020: 6ba7 87bd 2584 6cba afb5 57bc f6e6 763c
00000030: 29b3 91bc 633f 99bb 07ca c9ba f055 74bb
00000040: 9b07 77bb d672 583c 2f3a 02bb f11d 26bb
00000050: 71e4 ccbc 4105 43ba 7751 6d3b e601 423b
00000060: 1c4d 9038 c458 d3ba 0ae6 43bb 670e 14bb
00000070: 5796 293c 7b0c c6bc 286a 82bc cc5d a4ba
00000080: 9cd7 9c3a 00fe 2cb6 029e 80bb ba40 0dbc
00000090: 757f 8439 a6b6 303c 0ab7 b1bb 0e77 68bb
000000a0: 9c62 90b8 5a9c 7abb 4d3e 003b 7582 18bc
000000b0: a62b a3ba 9b7f 27ba 18ce 5dbb 2287 74bb
000000c0: 6484 b6bc 1e02 6cbb e52d 3ebc 92f6 97ba
000000d0: 4ccc b33a e291 edbc f02f a1bd 2ae2 8cbc
000000e0: 6c85 75bd 56a9 e5bd caf1 093b e21f 12bc
000000f0: 54b9 83bd a44d 343c f7cc 3a3b 3e42 093b
00000100: 4a67 e83b a925 b43b 6b98 1639 6fbd 16be
00000110: c671 1abb 9aec a6bd b5b4 dfbd 3879 aebb
00000120: fdd9 9bbd bc35 84bd 3215 debb b283 c0bd
00000130: b02b abbc dac2 05bc 920e 11bd 56c1 cabc
00000140: cd7e 7f39 8dbb 863a 7808 4bb9 48f5 55b9
00000150: bfb6 4fbc 51be c9bc da3d daba e2f0 b4bb
00000160: 816d bb39 fa0c a7bd c645 793a c0ce adbc
00000170: ae5d bf3a 6368 ecbc f529 71bc c5eb bcba
00000180: b873 3d38 9604 ffbc 42d1 01bd e5a2 9b3b
00000190: 26ef a9ba 68a6 82bb 00fe 3f3b a41e 8ebd
000001a0: 1687 86bb 78dd c63b ac48 c43a a858 64b9
000001b0: 419b c6bb 6b74 11bd 64e8 263b 49fb 35bb
000001c0: eaa3 0abe a518 17bb f0d4 a7bc b652 a5ba
000001d0: b13d 44bd e3d7 90bc 0b6b b4bd 1592 c3bc
000001e0: 0463 78bd 01aa dbbd 82bf 943a 0727 5fbb
000001f0: 077a 89bd f46c 84bb 898b 8fbc 41db cdbd
00000200: 8ccd f8bc 56b6 45bc 22e1 8c3c 44d2 8d3d
00000210: aa1d 073d b01c 3f3c ec76 f23d ce66 14bb
00000220: 3ec4 7a3d e09e 6e3d f2b9 87bc 3af0 c3ba
00000230: 6858 efba 6445 7dbd c0c2 15be 6d67 d13d
00000240: 1daf 423c b1e2 483d b6bd a9bc 4980 e7bc
00000250: 0e92 1b3e 1da8 cdbd 2a2c f5bb e802 e7bc
00000260: 2790 01bc 7791 bf3b e6ff 58bd 9903 523d
00000270: c4ef 093b a17c 613d 8353 393d 09b1 5d3c
00000280: 1cdf 6dbc 88bb 1d3d 4c19 a13d 2bb4 633c
00000290: 8e16 103b 8f87 ba3b 4fb8 633d 2ece c1bd
000002a0: 4c97 a0bc 1d67 80ba 5a09 d6bb bca6 7d3d
000002b0: d40b 2abc e239 e13d a39b 4bbc 4d87 543c
000002c0: e77b 82be 3765 d0bc 3376 2dbc e7a6 8bbc
000002d0: 65e8 bb3d 1dd5 183e 884c 04be 39a3 8cbd
000002e0: aa34 35be ecd8 ad3d 68d7 61bc 1a88 3d3d
000002f0: c185 043e b26b b3bb 4890 613d 2997 f73d

gru.bias_hh_l0 f4 [192]
-0.0060766763 0.019207157 -0.0007700353 0.08373184 -0.0011541245 -0.0760245 0.058762096 -0.0072547593
-0.06623666 -0.0009023587 -0.0131660355 0.0150691345 -0.017785601 -0.004676744 -0.0015400245 -0.0037306899
-0.0037698722 0.013210679 -0.0019877274 -0.0025337292 -0.02501265 -0.0007444485 0.0036205081 0.0029562872
6.8763824e-05 -0.0016100702 -0.002989007 -0.0022588882 0.010349958 -0.024177436 -0.015924213 -0.0012540144
0.0011966552 -2.1145097e-06 -0.00392589 -0.008621363 0.00025325824 0.010784845 -0.005423286 -0.0035471476
-6.8668756e-05 -0.0038223562 0.0019568324 -0.009307422 -0.0012450669 -0.00063875125 -0.0033857948 -0.003730948
-0.016649632 -0.0036008973 -0.011607598 -0.0011594365 0.0013711834 -0.029000234 -0.07870399 -0.017197168
-0.05995396 -0.11213925 0.0021085776 -0.008918424 -0.06431791 0.011003592 0.0028506485 0.0020945193
0.00709246 0.0054976908 0.00014360587 -0.14720693 -0.0023566328 -0.07692491 -0.10923144 -0.005324463
-0.07609931 -0.06455514 -0.0067772954 -0.09400118 -0.020894807 -0.008164084 -0.03541437 -0.024750065
0.00024113292 0.0010289607 -0.00019295377 -0.00020404313 -0.012677845 -0.024626939 -0.001665062 -0.0055246796
0.00035747746 -0.08156771 0.0009508956 -0.021216763 0.0014588416 -0.02885834 -0.01471924 -0.0014415634
4.5252644e-05 -0.031130014 -0.03169403 0.004749613 -0.0012964944 -0.0039871624 0.002929564 -0.069394365
-0.0041054254 0.006068863 0.0014976917 -0.00021775631 -0.0060608885 -0.035511304 0.0025468068 -0.0027767182
-0.13557355 -0.0023054832 -0.020487253 -0.0012618524 -0.047910318 -0.01768107 -0.088090144 -0.023873195
-0.060643822 -0.107257865 0.0011349234 -0.003405409 -0.067060515 -0.004041567 -0.017523717 -0.10051586
-0.0060149 -0.012111381 0.00089519966 -0.0012912101 0.018221267 0.08264606 0.011564234 -0.0054284236
0.009880545 0.017876606 -0.01616431 -0.017585102 0.006806259 -0.021583421 -0.05306104 0.0381488
-0.0043451143 0.003891559 -0.011213843 -0.014478941 0.024431614 -0.04115269 -0.007519284 -0.011208313
-0.0064296452 0.016090699 -0.009287027 0.021402348 0.035218038 0.047872543 0.00500565 0.019219212
-0.006423872 0.019723251 0.016758014 0.009904261 0.00042045425 0.0058882385 0.0033558293 -0.012143812
0.004792701 0.0078123817 -0.0034484733 0.00085109595 -0.01247383 0.05306988 -0.01460901 0.018626457
-0.19886012 -0.0018135421 -0.0121382065 -5.2164425e-05 0.04206246 0.052380055 -0.03421984 -0.037574667
-0.067043155 0.012059143 -0.0077555287 0.009611381 0.025345765 -0.026074363 0.024356877 0.06455714
00000000: db1e c7bb 5458 9d3c 32dc 49ba 997b ab3d
00000010: fe45 97ba bcb2 9bbd 86b0 703d 55b9 edbb
00000020: 16a7 87bd 448c 6cba 5bb6 57bc 88e4 763c
00000030: 1cb3 91bc 5f3f 99bb a6da c9ba 977e 74bb
00000040: f60f 77bb 9b71 583c 8844 02bb ec0c 26bb
00000050: 54e7 ccbc 1827 43ba 0c46 6d3b 45be 413b
00000060: 4c35 9038 fe08 d3ba 37e3 43bb db09 14bb
00000070: df92 293c c20f c6bc 7f73 82bc be5d a4ba
00000080: 16d9 9c3a 00e7 0db6 c1a4 80bb 9e40 0dbc
00000090: bfc7 8439 ebb2 303c d2b5 b1bb 4377 68bb
000000a0: 4202 90b8 7f80 7abb 333e 003b 287e 18bc
000000b0: 8331 a3ba df71 27ba 36e4 5dbb ec82 74bb
000000c0: cf64 88bc 08fd 6bbb cb2d 3ebc 3cf8 97ba
000000d0: 48b9 b33a e691 edbc 8f2f a1bd 13e1 8cbc
000000e0: 4992 75bd 43a9 e5bd 1030 0a3b 951e 12bc
000000f0: 1cb9 83bd 6948 343c f2d1 3a3b 3444 093b
00000100: de67 e83b f925 b43b e894 1639 6abd 16be
00000110: bd71 1abb cf8a 9dbd bcb4 dfbd d578 aebb
00000120: f4d9 9bbd 7c35 84bd 1314 debb b183 c0bd
00000130: 962b abbc a6c2 05bc a90e 11bd a6c0 cabc
00000140: a0d8 7c39 31de 863a a253 4ab9 69f4 55b9
00000150: bcb6 4fbc 6fbe c9bc 363e daba 5f08 b5bb
00000160: d06b bb39 f90c a7bd 8645 793a c7ce adbc
00000170: 9a36 bf3a 5368 ecbc f828 71bc d7f2 bcba
00000180: a8cd 3d38 5f04 ffbc 99d1 01bd a4a2 9b3b
00000190: 22ef a9ba bea6 82bb eefd 3f3b a21e 8ebd
000001a0: ce86 86bb 50dd c63b 324e c43a 8455 64b9
000001b0: 6b9a c6bb 4d74 11bd 54e8 263b 9af9 35bb
000001c0: cbd3 0abe 9717 17bb e2d4 a7bc be64 a5ba
000001d0: 9c3d 44bd e4d7 90bc 9b68 b4bd b891 c3bc
000001e0: a865 78bd 03aa dbbd b6c1 943a 482d 5fbb
000001f0: 0657 89bd 1f6f 84bb e68d 8fbc 42db cdbd
00000200: a318 c5bb d06e 46bc d5ab 6a3a d23d a9ba
00000210: c444 953c 5642 a93d ea77 3d3c ebe0 b1bb
00000220: 02e2 213c f671 923c 046b 84bc a20e 90bc
00000230: 0a07 df3b b7cf b0bc 8856 59bd eb41 1c3d
00000240: 7661 8ebb 8709 7f3b 44ba 37bc 1539 6dbc
00000250: cf24 c83c b98f 28bd 5364 f6bb 12a3 37bc
00000260: c6af d2bb a4d0 833c 9d28 18bc fa53 af3c
00000270: ca40 103d 0016 443d 7006 a43b 9c71 9d3c
00000280: 587f d2bb a892 a13c 1a48 893c 7b45 223c
00000290: 6a70 dc39 20f2 c03b 79ed 5b3b d7f6 46bc
000002a0: 170c 9d3b 02ff ff3b c8ff 61bb 151c 5f3a
000002b0: 095f 4cbc cd5f 593d a15a 6fbc 8396 983c
000002c0: fda1 4bbe 60b4 edba 54df 46bc 20cb 5ab8
000002d0: b049 2c3d 788c 563d 1a2a 0cbd e5e7 19bd
000002e0: ec4d 89bd b693 453c 1722 febb 0e79 1d3c
000002f0: eca1 cf3c e799 d5bc 1388 c73c 8936 843d

gru.weight_ih_l1 f4 [192, 64]
-0.00029945065 0.001344464 -0.00035425654 0.0024908707 0.00029698637 0.00071278564 0.0021988046 -0.00067060645
-8.567236e-05 0.0028428643 0.00015114699 0.00061230763 -0.00024143465 0.00026198843 -0.000798309 0.0011932787
-0.00031199135 0.0008021096 -0.000339723 6.842741e-05 0.0007846463 -0.0006752158 -0.00078513846 0.00019035215
1.5086279e-05 -0.00014025284 -0.00018901353 0.00033205742 -0.00022495737 0.00026862058 -0.00045877654 0.00064489775
0.00017790454 0.0010059642 0.00022960977 0.000425608 0.0006413655 -0.00048062822 -0.00011048014 -0.00219087
-0.00049780664 -2.7716786e-05 0.00031889422 -9.028662e-05 2.1348354e-05 0.00048131827 0.0002896904 -0.0007943689
-0.00059986085 -0.0012195908 0.00016705605 -0.0007034327 0.0025366447 0.0005356851 -0.00037691562 0.00019817325
0.00011642432 0.0001934076 -0.00020086623 0.0012620875 0.0005688495 0.0005659807 0.00036474539 0.0031515353
-6.823893e-05 -0.0002068663 4.9952083e-05 1.8993192e-05 -4.164544e-05 -0.00011971861 0.00021581413 -4.6855675e-05
1.1461525e-05 0.00029379097 -1.4031002e-05 6.836362e-05 7.146625e-05 -2.1816795e-05 8.33805e-05 -1.5117348e-07
-5.0222323e-05 -1.4028534e-05 3.5020945e-05 -3.1601845e-05 -2.8894334e-05 5.5175336e-05 0.000108606015 -1.5672671e-05
-1.6993366e-05 -6.3098065e-05 -1.561725e-06 -0.00015185875 9.069963e-05 -0.00016870863 8.9433415e-06 -7.287585e-05
-6.0476526e-05 0.000103039274 2.628529e-05 5.8043555e-05 -8.913061e-06 0.000107207496 6.8039626e-05 0.000109280634
1.7747381e-05 -0.0001242068 1.5295298e-05 -8.712296e-05 6.7803354e-05 -5.8236797e-05 -1.0400252e-05 0.000114697905
3.644042e-05 9.822461e-05 -6.545752e-05 -3.3649372e-05 9.1950795e-05 -5.2568394e-05 3.553638e-05 0.00010785081
-2.6501253e-05 4.6655703e-05 -1.8986146e-05 0.00014120697 -0.00012776439 0.00011670281 5.7511483e-05 3.0948333e-05
0.026827341 -0.019499745 -0.006075487 -0.015511688 0.0052079167 0.020160886 -0.04020133 0.014445821
-0.033616733 -0.043178953 0.0040283403 0.010173552 0.00535326 -0.025051668 0.013277313 0.0040775295
0.024070991 0.002791702 0.008095424 -0.001108997 0.0026876815 0.013772809 0.0033403365 -0.02138703
0.0042639133 -0.012203888 0.0041910075 0.01212875 0.061626967 -0.034646194 0.019524198 0.006329401
0.005343586 0.022301616 -0.021700466 -0.016084004 -2.2577453e-05 -0.016409617 -0.014908338 0.04863306
0.019825049 0.0048821196 0.012237362 -0.03422325 -0.022658387 -0.01422555 0.013136475 -0.030329626
0.0071469555 -0.0077495286 -0.006601586 0.024421098 -0.030796804 -0.017743668 0.042218756 -0.019881379
0.03364357 -0.042161938 0.031216055 -0.00091452687 -0.043421675 -0.029119639 -0.017555593 -0.023205904
-0.00088500173 0.0008150727 -0.00028157094 0.0023631172 -0.00090635975 0.0030252389 -0.00021394475 -0.00040442962
-0.0021258008 0.0016016185 0.001776039 0.0019853578 -0.0012011325 0.002311997 0.00029443472 -0.003562847
-0.0009827417 -0.00047345154 -0.00044952022 0.0021646046 -0.0023806705 0.0015119342 -0.00010864742 0.0016590492
0.000265768 -0.0018096964 0.00057766226 -0.00033647832 -0.0019159301 -0.0012581157 -0.002694976 -7.31975e-05
0.0004900439 7.84532e-05 -0.00036956352 0.0012535773 0.00041592726 -0.00031454297 -0.0004362553 -0.0027992246
-0.0010591495 -0.0005073697 0.0002996793 7.2205876e-06 0.0011594348 -0.0012106944 0.00070662 0.0005151106
-0.001232492 -0.0010809591 0.0020648614 -0.000955744 0.0004429062 -0.0026763235 0.0019178166 0.0027142337
0.0017215522 -0.002300046 0.0002795887 0.00021494212 -0.0021639783 0.0011039473 0.00016481969 0.0018905575
00000000: 96ff 9cb9 ba38 b03a 82bb b9b9 e03d 233b
00000010: d6b4 9b39 3cda 3a3a d219 103b a3cb 2fba
00000020: ffaa b3b8 594f 3a3b 367d 1e39 4583 203a
00000030: 9f29 7db9 7e5b 8939 9c45 51ba ca67 9c3a
00000040: c592 a3b9 aa44 523a d91c b2b9 b080 8f38
00000050: b9b0 4d3a f700 31ba c0d1 4dba 4499 4739
00000060: 131b 7d37 d610 13b9 ef31 46b9 fe17 ae39
00000070: 89e2 6bb9 a5d5 8c39 f287 f0b9 5b0e 293a
00000080: e38b 3a39 8fda 833a 67c3 7039 2424 df39
00000090: 4f21 283a d4fc fbb9 93b1 e7b8 b394 0fbb
000000a0: 3d7f 02ba 5881 e8b7 4231 a739 4358 bdb8
000000b0: 3e15 b337 7259 fc39 96e1 9739 323d 50ba
000000c0: fb3f 1dba adda 9fba c42b 2f39 9266 38ba
000000d0: d63d 263b 386d 0c3a c29c c5b9 bacc 4f39
000000e0: d528 f438 75cd 4a39 9e9f 52b9 a16c a53a
000000f0: d81e 153a 525e 143a 4c3b bf39 fd89 4e3b
00000100: 7f1b 8fb8 40ea 58b9 a483 5138 9253 9f37
00000110: 73ac 2eb8 7011 fbb8 2a4c 6239 e686 44b8
00000120: e04a 4037 f507 9a39 b266 6bb7 705e 8f38
00000130: 27e0 9538 3603 b7b7 91dc ae38 4052 22b4
00000140: cfa5 52b8 185c 6bb7 74e3 1238 398c 04b8
00000150: 1c62 f2b7 116c 6738 69c3 e338 ce78 83b7
00000160: fa8c 8eb7 8453 84b8 769c d1b5 463c 1fb9
00000170: fe35 be38 61e7 30b9 5c0b 1637 edd4 98b8
00000180: 2da8 7db8 ca16 d838 3b7f dc37 cb73 7338
00000190: 4e89 15b7 96d4 e038 7fb0 8e38 982d e538
000001a0: 36e0 9437 823d 02b9 674e 8037 c8b5 b6b8
000001b0: a631 8e38 4943 74b8 be7c 2eb7 f889 f038
000001c0: 9ad7 1838 f0fd cd38 3d46 89b8 bd22 0db8
000001d0: b5d5 c038 e27c 5cb8 e60c 1538 f62d e238
000001e0: 024f deb7 2eb0 4338 7044 9fb7 f510 1439
000001f0: 7ef8 05b9 58be f438 7c38 7138 85ce 0138
00000200: 03c5 db3c eebd 9fbc e114 c7bb bc24 7ebc
00000210: 2ca7 aa3b 7128 a53c 26aa 24bd 2aae 6c3c
00000220: b3b1 09bd 6adc 30bd 2b00 843b f8ae 263c
00000230: 666a af3b 2839 cdbc 1689 593c cc9c 853b
00000240: 8730 c53c fdf4 363b aba2 043c c45b 91ba
00000250: d023 303b 59a7 613c 8ce9 5a3b da33 afbc
00000260: 4cb8 8b3b d1f2 47bc b854 893b aab7 463c
00000270: 8f6c 7c3d 2be9 0dbd 36f1 9f3c dd66 cf3b
00000280: 4019 af3b e1b1 b63c 2dc5 b1bc 9ac2 83bc
00000290: b664 bdb7 766d 86bc 1a42 74bc 7633 473d
000002a0: 2468 a23c 30fa 9f3b 377f 483c ae2d 0cbd
000002b0: 159e b9bc 4812 69bc 5f3a 573c d675 f8bc
000002c0: 0231 ea3b c2ef fdbb 1e52 d8bb c10e c83c
000002d0: 9449 fcbc 2b5b 91bc 93ed 2c3d 46de a2bc
000002e0: d7cd 093d ffb1 2cbd d0b8 ff3c dcbc 6fba
000002f0: edda 31bd 4f8c eebc bfd0 8fbc 4f1a bebc
00000300: 76ff 67ba 9aaa 553a d09f 93b9 87de 1a3b
00000310: c698 6dba 1643 463b 5b56 60b9 a009 d4b9
00000320: 0551 0bbb 66ed d13a fbc9 e83a c71c 023b
00000330: 526f 9dba e084 173b 5c5e 9a39 a77e 69bb
00000340: 57cf 80ba 9739 f8b9 95ad ebb9 0adc 0d3b
00000350: 0605 1cbb 182c c63a a4d9 e3b8 7474 d93a
00000360: c756 8b39 5633 edba 426e 173a 5b69 b0b9
00000370: f21f fbba 5ce7 a4ba 329e 30bb 9c81 99b8
00000380: 4a76 003a 3e87 a438 fac1 c1b9 134f a43a
00000390: d010 da39 3ee9 a4b9 32b9 e4b9 3273 37bb
000003a0: 29d3 8aba 0101 05ba 461e 9d39 6048 f236
000003b0: 2df8 973a 2ab0 9eba 773c 393a 7d08 073a
000003c0: 928b a1ba f8ae 8dba a052 073b e58a 7aba
000003d0: dd35 e839 4265 2fbb 3f5f fb3a 49e1 313b
000003e0: b5a5 e13a 5ebc 16bb c395 9239 1662 6139
000003f0: 88d1 0dbb 53b2 903a 73d3 2c39 95cc f73a

gru.weight_hh_l1 f4 [192, 64]
0.00023966194 6.602342e-05 0.0004714653 0.00016923658 -0.00021157383 3.311276e-05 -8.4013736e-05 -2.3150129e-05
0.00040658657 -4.2427077e-06 1.1575127e-05 0.0011663302 -1.8291388e-05 -0.00013959057 0.00042662205 -5.09132e-05
0.0010865652 -0.00034844165 9.527439e-05 0.00015293065 0.00041442947 -3.0028745e-05 -5.1825555e-05 -5.5555494e-05
0.00014518772 7.32508e-05 2.3414195e-05 -0.00010483006 -0.00033594793 0.0013637567 -5.6823854e-05 -2.0428655e-05
-6.8778885e-05 -0.00012942626 1.550895e-05 0.00016854765 -6.2434454e-05 3.6157136e-05 5.3599088e-06 0.00010703858
0.00024242497 -2.1019903e-05 -7.7559176e-05 -0.00028820033 3.3028668e-05 5.1334624e-05 4.2864976e-05 3.2121494e-05
0.00014911834 -1.2729333e-06 -5.2949406e-05 -0.00016560435 0.00027253845 5.5381694e-05 4.2201482e-05 -4.6980563e-06
0.00053089764 1.2205805e-05 -7.80741e-06 0.00046604784 0.00018443278 2.2266066e-05 0.000110599416 -2.1874197e-05
-3.2715026e-05 2.8365532e-05 -0.00025528378 -8.524974e-05 8.05749e-06 -5.129003e-06 8.9956186e-05 6.4363034e-05
-6.5475935e-05 -2.5971603e-06 -7.1458544e-08 -0.00020842974 -8.166674e-06 4.9546707e-05 -7.8300895e-05 6.2887557e-06
-0.0006510837 7.312362e-05 -0.00011180237 1.6862838e-05 0.00052147923 2.0058038e-05 -1.3148276e-05 4.2167017e-06
-2.263869e-05 -8.212207e-05 1.512414e-06 5.954469e-06 -1.1122303e-05 -0.0001664983 -6.087179e-06 1.2804847e-05
6.981228e-05 3.102983e-05 8.9039295e-06 -2.0488274e-06 1.2931273e-05 -1.15262865e-05 2.2655477e-05 -2.6670095e-05
0.000104490864 -8.0943995e-05 2.2862914e-05 0.0001370249 2.4919442e-05 4.0949843e-05 -5.857262e-06 6.9175185e-06
-5.5234366e-05 5.38272e-06 7.694926e-05 8.338396e-07 -0.00014171042 1.3448285e-05 3.6471585e-05 -5.630319e-05
-0.00013067674 -3.3984274e-05 -3.7166867e-06 -0.00016210022 -4.5077653e-05 4.843333e-06 1.1944705e-05 -2.0974137e-05
-0.0018660282 0.0031723008 -0.0062819743 -0.010614452 0.0028646397 -0.0031281444 0.0061925896 -0.015192502
-0.0048379665 8.284491e-05 0.00321893 0.07435933 -0.0072889645 -0.0003643238 0.054613817 0.0012718292
0.078611694 0.010010432 -0.0014617094 0.0049584266 0.02165765 -0.0011486089 0.00040636215 -0.0042123795
0.0036039527 -0.006666121 -0.0018763957 -0.0013986814 0.0028192615 0.04837246 -0.009785169 -0.0049039517
-0.029262945 0.0006148231 -0.0011542276 0.002391139 -0.0036971741 0.0024918262 -0.0014471028 -0.0025526595
-0.00811438 -0.007550584 0.00028820723 0.0073182057 0.0033848847 -0.0013920038 -0.0014744065 -0.0006845861
0.0013889405 -0.002186017 -0.0007726382 -0.0015070381 -0.011436356 -0.0019430872 0.004994998 -0.00042884087
-0.017250976 -0.0032999434 0.006154574 -0.0033796364 -0.0063646575 -0.003764344 -0.0042293128 0.006888178
0.00034135615 8.3329156e-05 0.0026079344 0.0015452632 -7.0338436e-05 7.609719e-05 0.00036661085 -0.00040345063
6.2886524e-05 -4.9963823e-05 3.9079267e-05 -0.0022544116 3.7318106e-05 -4.166449e-05 -0.0018085345 2.2456794e-05
0.0010885492 0.0006069349 -0.0007987643 -0.0006162747 7.8408426e-05 -0.00014488904 6.089315e-05 3.922081e-05
-2.1395887e-05 0.00020676694 8.370408e-05 0.00014608903 0.00028130834 0.0020164428 -0.00033218972 0.00038785662
-0.0011725004 -0.00023940271 -9.6990116e-05 5.628908e-05 -0.00024668113 0.00028505857 -3.9527837e-05 -5.4973418e-05
0.0012298075 0.00028443377 2.0840806e-05 0.0003152439 -1.973057e-05 0.00020977728 0.00013415786 0.000119449316
0.0006941938 7.702839e-05 -0.00037836086 6.2232946e-05 0.0001353758 -0.00012500273 -0.0004874856 -0.00054130075
-0.0011994302 -0.00020304557 -7.90638e-05 0.004269277 0.00019257706 -0.00010142341 -0.00012543859 0.00029997865
00000000: c34d 7b39 0e76 8a38 002f f739 1975 3139
00000010: ebd9 5db9 8ee2 0a38 8830 b0b8 8632 c2b7
00000020: 202b d539 955c 8eb6 cb32 4237 8cdf 983a
00000030: 7570 99b7 0f5f 12b9 3eac df39 a28b 55b8
00000040: 146b 8e3a 0caf b6b9 0cce c738 025c 2039
00000050: c847 d939 3de6 fbb7 445f 59b8 4204 69b8
00000060: 883d 1839 399e 9938 9a69 c437 36d8 dbb8
00000070: 2b22 b0b9 15c0 b23a 2656 6eb8 345e abb7
00000080: 623d 90b8 99b6 07b9 3719 8237 2abc 3039
00000090: 3eef 82b8 6ea7 1738 44d9 b336 e679 e038
000000a0: 7533 7e39 e653 b0b7 44a7 a2b8 9819 97b9
000000b0: 4388 0a38 2250 5738 ebc9 3338 31ba 0638
000000c0: a65c 1c39 a8d9 aab5 fe15 5eb8 14a6 2db9
000000d0: 7ee3 8e39 a449 6838 7f01 3138 ffa3 9db6
000000e0: f02b 0b3a 89c7 4c37 92fc 02b7 e257 f439
000000f0: 4c64 4139 03c8 ba37 9cf1 e738 7b7e b7b7
00000100: 7e37 09b8 84f2 ed37 9cd7 85b9 1bc8 b2b8
00000110: a82e 0737 cd19 acb6 dca6 bc38 a4fa 8638
00000120: 2050 89b8 e04a 2eb6 c074 99b3 ef8d 5ab9
00000130: 9903 09b7 5fd0 4f38 7935 a4b8 0004 d336
00000140: 7dad 2aba f259 9938 7177 eab8 ab74 8d37
00000150: e1b3 083a 4f42 a837 6a97 5cb7 317d 8d36
00000160: 37e8 bdb7 f338 acb8 26fe ca35 80cc c736
00000170: ed99 3ab7 0c96 2eb9 7840 ccb6 66d4 5637
00000180: 2f68 9238 0726 0238 1662 1537 967e 09b6
00000190: 65f3 5837 0661 41b7 440c be37 98b9 dfb7
000001a0: 1b22 db38 7ac0 a9b8 bcc9 bf37 57ae 0f39
000001b0: 180a d137 8fc1 2b38 7f89 c4b6 081d e836
000001c0: 73ab 67b8 369d b436 d25f a138 05d5 5f35
000001d0: 1a98 14b9 f29f 6137 11f9 1838 1727 6cb8
000001e0: 4506 09b9 568a 0eb8 316c 79b6 72f9 29b9
000001f0: c311 3db8 ea83 a236 1e66 4837 9ef1 afb7
00000200: 8495 f4ba 60e6 4f3b 05d9 cdbb 3de8 2dbc
00000210: aebc 3b3b 8e01 4dbb 35eb ca3b f9e9 78bc
00000220: ce87 9ebb 06bd ad38 aff4 523b b449 983d
00000230: 44d8 eebb b602 bfb9 bdb2 5f3d 82b3 a63a
00000240: 2bff a03d cc02 243c d496 bfba 4c7a a23b
00000250: 626b b13c eb8c 96ba 010d d539 0008 8abb
00000260: 4b30 6c3b 7a6f dabb 64f1 f5ba f653 b7ba
00000270: 5cc3 383b 3322 463d f951 20bc 54b1 a0bb
00000280: d8b8 efbc 142c 213a 7449 97ba a8b4 1c3b
00000290: 4a4c 72bb e84d 233b b6ac bdba 854a 27bb
000002a0: 2df2 04bc e46a f7bb 851a 9739 8fcd ef3b
000002b0: f1d4 5d3b e673 b6ba df40 c1ba cc75 33ba
000002c0: 1c0d b63a 4843 0fbb df8a 4aba cf87 c5ba
000002d0: 8e5f 3bbc 30af feba 15ad a33b 0cd6 e0b9
000002e0: eb51 8dbc dd43 58bb 4fac c93b e47c 5dbb
000002f0: 9e8e d0bb 36b3 76bb 0c96 8abb 3ab6 e13b
00000300: 0cf8 b239 00c1 ae38 e1e9 2a3b 6e8a ca3a
00000310: a982 93b8 5e96 9f38 ad35 c039 3a86 d3b9
00000320: f2e1 8338 3f90 51b8 0be9 2338 c0be 13bb
00000330: 0386 1c38 e8c0 2eb8 590c edba 9961 bc37
00000340: a6ad 8e3a b61a 1f3a 2a64 51ba 7f8d 21ba
00000350: 346f a438 5bed 17b9 8667 7f38 0681 2438
00000360: 517b b3b7 94cf 5839 498a af38 7a2f 1939
00000370: 917c 9339 4c26 043b c029 aeb9 3c59 cb39
00000380: 96ae 99ba 2d08 7bb9 2c67 cbb8 f017 6c38
00000390: fb54 81b9 ea73 9539 b1ca 25b8 4293 66b8
000003a0: 7e31 a13a 0e20 9539 4ad3 ae37 5247 a539
000003b0: 1483 a5b7 a9f7 5b39 baac 0c39 dd80 fa38
000003c0: 8ffa 353a 4d8a a138 bc5e c6b9 0f83 8238
000003d0: aaf3 0d39 2a13 03b9 3695 ffb9 14e6 0dba
000003e0: 3336 9dba a1e8 54b9 0ecf a5b8 4be5 8b3b
000003f0: 83ee 4939 47b3 d4b8 2a88 03b9 7446 9d39

gru.bias_ih_l1 f4 [192]
0.004071961 0.00033533992 0.23122473 -0.0032458012 0.00014326468 -0.00046781608 -0.00045553807 0.0108626615
-0.00011305889 -2.631828e-05 -0.0006776338 0.22566555 -0.00042134253 -0.0017063513 0.24233557 -0.00047299266
0.12092608 -0.0029103064 0.000294471 -0.002199909 0.14856912 0.00041063258 -0.00041844902 -0.0021458548
-0.00031833167 -0.0017521915 -0.0008753593 -0.0018937691 -0.00023798688 0.31438446 -0.0033428771 -0.0019439077
0.005680334 -0.00042754225 -0.0007823 -0.0033380801 -0.0023867944 -0.000323508 -0.001452727 7.3423616e-06
0.002173537 -0.005329316 -0.0022674846 0.008926092 -4.572585e-05 -0.00018984277 0.0004583473 0.0010065916
-0.00033040642 1.6673688e-05 -0.0014036065 -0.00044470062 -0.012519255 -0.0025232406 -0.0012818176 0.0011566348
0.0018557662 -0.00015875643 -0.0021617692 -0.011937657 -0.0005344427 -0.0015213436 -0.0070263473 -0.00012763892
-0.0010444899 -0.0005086986 0.53960127 -0.0018555052 0.00034792602 -0.0004202301 0.0003405007 0.005054507
-0.0022719658 2.7241097e-06 0.00029527865 0.20457491 -3.502155e-05 0.0016008288 0.10763567 3.882252e-05
-0.19969822 -0.009051793 8.941825e-05 -0.0029205075 0.07638898 -0.00021077055 -0.00035994727 0.00037275077
0.00031149332 -0.005379382 0.00038216612 -0.00080584595 0.0011495628 -0.19201492 0.0028544257 0.0020118847
0.030117884 2.0314172e-05 0.000107911685 -0.0004233095 0.00033325676 0.000100050784 0.00016541503 -0.0023115724
-0.0022144278 0.008068024 -0.0005999065 -0.008893635 -0.00038298644 -0.0006745132 0.000508816 0.0018483924
-0.002838574 -0.00013420607 0.00065678905 -0.00051543437 0.023499807 0.00052065996 0.0031803194 -0.0064133448
0.0070581045 0.0006797676 0.0009459975 -0.007434518 -0.0015648953 7.421055e-05 0.0030559807 0.0005837522
-0.025522754 0.005530049 -0.09822514 -0.038164377 0.0076806284 -0.0048609236 0.04961956 0.033627115
-0.028657518 0.0029336065 0.0056973514 0.3844172 -0.009107706 0.008112111 0.17553289 -0.0063168034
0.16679817 0.05084639 -0.032917462 0.022392191 0.13803108 -0.0018422271 -0.0051551703 -0.015742263
0.007894021 -0.042743992 0.011540596 -0.023519382 0.002849038 0.047229163 -0.003363421 -0.010214599
0.033090632 -0.0007768867 -0.0037515764 -0.014475702 0.014277823 0.0027305656 0.01720489 -0.0075611486
-0.034481898 -0.009191024 -0.011841365 0.072980106 0.012517999 0.0037207056 -0.014206919 -0.0039493013
-0.03747515 -0.0002003516 0.01309537 0.005996162 -0.0069194245 -0.015585028 0.0046908576 -0.03942919
-0.03879236 -0.0074903485 -0.007988735 -0.10081105 -0.027335111 0.012808782 0.012760562 0.0063693784
00000000: 166e 853b 90d0 af39 2dc6 6c3e 82b7 54bb
00000010: 5239 1639 3645 f5b9 49d5 eeb9 4ef9 313c
00000020: 081a edb8 13c6 dcb7 3ca3 31ba df14 673e
00000030: a3e7 dcb9 a6a7 dfba d126 783e 00fc f7b9
00000040: 18a8 f73d d7ba 3ebb 3b63 9a39 592c 10bb
00000050: 8122 183e 2c4a d739 4763 dbb9 78a1 0cbb
00000060: c1e5 a6b9 caa9 e5ba 5e78 65ba 5938 f8ba
00000070: 1e8c 79b9 00f7 a03e 2c14 5bbb b8ca feba
00000080: 1822 ba3b c027 e0b9 4413 4dba b1c3 5abb
00000090: c46b 1cbb 829c a9b9 6e69 beba 685e f636
000000a0: e671 0e3b 8ba1 aebb 149a 14bb be3e 123c
000000b0: c2c9 3fb8 8810 47b9 554e f039 9cef 833a
000000c0: 663a adb9 79de 8b37 38f9 b7ba b526 e9b9
000000d0: 901d 4dbc f45c 25bb a902 a8ba 399a 973a
000000e0: 2e3d f33a db77 26b9 78ac 0dbb 2a96 43bc
000000f0: d819 0cba d267 c7ba 463d e6bb d0d6 05b9
00000100: 44e7 88ba 2f5a 05ba 4f23 0a3f 6c34 f3ba
00000110: d769 b639 5452 dcb9 3b85 b239 47a0 a53b
00000120: 43e5 14bb d9cf 3636 a1cf 9a39 167c 513e
00000130: 1ae4 12b8 e7d2 d13a 1770 dc3d 5dd5 2238
00000140: b17d 4cbe f94d 14bc 0f86 bb38 fc65 3fbb
00000150: d371 9c3d 4a02 5db9 4eb7 bcb9 c36d c339
00000160: ed4f a339 8745 b0bb 785d c839 683f 53ba
00000170: edac 963a 8f9f 44be 5111 3b3b d3d9 033b
00000180: c8b9 f63c 5a68 aa37 a54e e238 a4ef ddb9
00000190: f7b8 ae39 5bd2 d138 4273 2d39 c07d 17bb
000001a0: ef1f 11bb bf2f 043c 0b43 1dba 9cb6 11bc
000001b0: 92cb c8b9 d1d1 30ba 1062 053a c245 f23a
000001c0: 5e07 3abb abb9 0cb9 5e2c 2c3a 371e 07ba
000001d0: ab82 c03c e67c 083a e86c 503b 0927 d2bb
000001e0: ac47 e73b 6e32 323a d1fc 773a 429d f3bb
000001f0: 2c1d cdba 7ca1 9b38 d946 483b f206 193a
00000200: 1815 d1bc 6a35 b53b 432a c9bd 4052 1cbd
00000210: c8ad fb3b 6248 9fbb e13d 4b3d 96bc 093d
00000220: 2cc3 eabc c041 403b d9b0 ba3b 55d2 c43e
00000230: 7d38 15bc a9e8 043c e5be 333e 30fd cebb
00000240: 24cd 2a3e 4e44 503d 76d4 06bd d46f b73c
00000250: 0558 0d3e e276 f1ba b4ec a8bb ebf5 80bc
00000260: ed55 013c 5314 2fbd c514 3d3c b8ab c0bc
00000270: edb6 3a3b 5e73 413d d76c 5cbb 225b 27bc
00000280: 0b8a 073d fca7 4bba 02dd 75bb 7f2b 6dbc
00000290: 88ed 693c 4af3 323b 45f1 8c3c 83c3 f7bb
000002a0: e43c 0dbd f395 16bc 4902 42bc 9876 953d
000002b0: 4b18 4d3c 15d7 733b 23c4 68bc 2469 81bb
000002c0: 8b7f 19bd 7915 52b9 f68d 563c 747b c43b
000002d0: 57bc e2bb 5858 7fbc c4b5 993b 8180 21bd
000002e0: bde4 1ebd 9971 f5bb 2fe3 02bc 0676 cebd
000002f0: e2ed dfbc eddb 513c ad11 513c 38b6 d03b

gru.bias_hh_l1 f4 [192]
0.0040720305 0.00033524883 0.23129244 -0.0032467423 0.00014361105 -0.00046782027 -0.00045540452 0.010857622
-0.00011321978 -2.6323602e-05 -0.0006777013 0.22663203 -0.0004212604 -0.0017061394 0.24237444 -0.000473017
0.12092696 -0.0029087458 0.00029415305 -0.0022002186 0.148569 0.00041086855 -0.00041839667 -0.002146765
-0.00031877184 -0.0017522689 -0.00087513804 -0.0018935399 -0.00023566262 0.31496286 -0.0033423626 -0.0019439714
0.0056796432 -0.00042755823 -0.000782266 -0.0033368822 -0.0023867763 -0.00032352353 -0.0014527383 7.3535557e-06
0.002173359 -0.0053290296 -0.0022676177 0.008925301 -4.573254e-05 -0.00018945587 0.00045709638 0.0010068191
-0.0003303592 1.6672668e-05 -0.0014035482 -0.00044472588 -0.012519169 -0.0025232465 -0.001281865 0.0011594618
0.0018558356 -0.00015787572 -0.002161613 -0.011938924 -0.0005331426 -0.0015214984 -0.0070262733 -0.00012773195
-0.0010443539 -0.0005087115 0.5539847 -0.0018558127 0.00034802922 -0.00042021484 0.00034051694 0.005000486
-0.0022720678 2.7245487e-06 0.00029528735 0.17871284 -3.5004894e-05 0.0016009058 0.09897382 3.881873e-05
-0.19968645 -0.009051941 8.941906e-05 -0.002920466 0.076402 -0.00021072273 -0.00035994372 0.00037310642
0.00031147065 -0.005377295 0.0003821662 -0.00080452615 0.0011490505 -0.18438832 0.0028544317 0.0020130165
0.030094817 2.0268404e-05 0.00010790226 -0.00042331818 0.00033333898 0.00010005779 0.00016539864 -0.002311694
-0.0022143275 0.008068197 -0.00059992913 -0.008893221 -0.0003829922 -0.0006745126 0.00050880003 0.0018483562
-0.0028385792 -0.00013420991 0.0006567895 -0.0005154205 0.023504669 0.00052066124 0.0031803136 -0.0064133387
0.007059236 0.0006769692 0.00094603363 -0.007434547 -0.0015649097 7.420293e-05 0.0030557823 0.00058364565
-0.030746166 -0.0046560992 -0.015693817 -0.028011149 0.003523816 -0.0023964278 0.042801533 0.038281374
-0.035052866 -0.0034150812 -0.0043503465 0.27523303 -0.010142454 0.0023641116 0.11458785 -0.01395334
-0.028276982 0.044923346 -0.030371731 0.012600882 0.19571035 -0.00050521694 -0.0104164295 -0.007563779
0.009983418 -0.034407 0.001667609 -0.0069055725 0.008485085 -0.05643443 0.00495628 -0.005851401
5.1248702e-05 0.0031967126 0.008057779 -0.011833671 0.014847682 0.0025508306 0.013368526 -0.010100761
-0.036680292 -0.007855088 -0.022336911 0.0702779 -0.0008653288 -0.007911739 -0.00990137 -0.008203648
-0.02997916 -0.007315228 -0.020469122 0.00045282114 -0.011584928 -0.024782902 0.0019536451 -0.046817604
-0.032855157 0.0017957255 -0.005047827 -0.07277243 -0.023366658 0.014555541 0.025958758 0.0061637987
00000000: ab6e 853b 56c4 af39 edd7 6c3e 4cc7 54bb
00000010: 4c96 1639 c645 f5b9 5cc3 eeb9 2be4 313c
00000020: 6870 edb8 81d1 dcb7 c4a7 31ba 3a12 683e
00000030: 9ddc dcb9 8aa0 dfba 0131 783e 44ff f7b9
00000040: 8ea8 f73d a8a0 3ebb 8e38 9a39 8b31 10bb
00000050: 7922 183e d869 d739 405c dbb9 bdb0 0cbb
00000060: d520 a7b9 63ac e5ba 8569 65ba a830 f8ba
00000070: 341c 77b9 d042 a13e 8a0b 5bbb dbcc feba
00000080: 4d1c ba3b e529 e0b9 fc10 4dba 98af 5abb
00000090: 766b 1cbb 989e a9b9 cf69 beba 90be f636
000000a0: ea6e 0e3b 249f aebb 509c 14bb 6d3b 123c
000000b0: f1d0 3fb8 aca8 46b9 70a6 ef39 3ef7 833a
000000c0: 1034 adb9 48dc 8b37 43f7 b7ba 192a e9b9
000000d0: 331d 4dbc 0d5d 25bb 4104 a8ba 15f9 973a
000000e0: 823f f33a 718b 25b9 d9a9 0dbb 7a9b 43bc
000000f0: 98c2 0bba 046d c7ba a73c e6bb c9ef 05b9
00000100: b4e2 88ba 0d5b 05ba f1d1 0d3f be3e f3ba
00000110: b177 b639 4850 dcb9 6987 b239 1edb a33b
00000120: f9e6 14bb 64d7 3636 ccd0 9a39 8000 373e
00000130: 38d2 12b8 7cd5 d13a c9b2 ca3d 4bd1 2238
00000140: 9b7a 4cbe 984e 14bc 7e86 bb38 4a65 3fbb
00000150: a778 9c3d 74f5 5cb9 d4b6 bcb9 7f9d c339
00000160: e24c a339 0534 b0bb 7b5d c839 d6e6 52ba
00000170: bd9b 963a 4bd0 3cbe 6b11 3b3b d0ec 033b
00000180: 6889 f63c 1106 aa37 9649 e238 cef0 ddb9
00000190: 00c4 ae39 1ed6 d138 dc6e 2d39 ca7f 17bb
000001a0: 401e 11bb 7930 043c 9044 1dba dfb4 11bc
000001b0: 58cc c8b9 c6d1 30ba fe60 053a 8b44 f23a
000001c0: 7507 3abb b3ba 0cb9 662c 2c3a 491d 07ba
000001d0: dd8c c03c fc7c 083a cf6c 503b fc26 d2bb
000001e0: 2a51 e73b a276 313a 3eff 773a 809d f3bb
000001f0: a81d cdba 659d 9b38 8543 483b ccff 183a
00000200: 62df fbbc 3192 98bb 5290 80bc a377 e5bc
00000210: d2ef 663b 630d 1dbb a950 2f3d eecc 1c3d
00000220: 9893 0fbd 8ecf 5fbb 5a8d 8ebb 58eb 8c3e
00000230: 892c 26bc 36ef 1a3b 09ad ea3d 8d9c 64bc
00000240: 21a5 e7bc 8b01 383d 23ce f8bc ee73 4e3c
00000250: 4b68 483e 8970 04ba aca9 2abc 94d9 f7bb
00000260: 7d91 233c 5bee 0cbd ac93 da3a 2448 e2bb
00000270: 0705 0b3c ca27 67bd 4a68 a23b 1cbd bfbb
00000280: e0f3 5638 f07f 513b c604 043c 03e2 41bc
00000290: b143 733c d62b 273b a907 5b3c aa7d 25bc
000002a0: 133e 16bd a1b2 00bc e6fb b6bc dced 8f3d
000002b0: 3cd7 62ba 3da0 01bc 5b39 22bc 9868 06bc
000002c0: db96 f5bc 95b4 efbb dcae a7bc a068 ed39
000002d0: b6ce 3dbc 8305 cbbc ba08 003b d1c3 3fbd
000002e0: 2193 06bd 8d5e eb3a 3e68 a5bb b609 95bd
000002f0: 6f6b bfbc 5d7a 6e3c 76a7 d43c b1f9 c93b

fc.weight f4 [1, 64]
-0.0062844735 -0.0025858793 -0.056634005 -0.0030273418 0.004333421 -0.0032133649 0.011136556 -0.008103424
-0.0028303883 -0.00012884375 0.0025481929 0.20346183 -0.0032715297 0.006902085 0.22631033 -0.0018903697
0.17791276 0.010553774 -0.008221763 0.0027147222 0.11349569 0.0012638597 -0.006144491 -0.009639753
0.00052741636 -0.014590251 0.0020400172 -0.011727926 0.0031315812 -0.111211896 0.00291865 0.0046967375
-0.012535547 -0.0012846241 -0.00097639416 -0.0041000294 0.0067982213 0.00086294324 0.0037071798 0.006494305
-0.006204803 0.008091116 -0.007258235 0.018900556 -0.0016044913 -0.0029233326 0.0006209335 -0.0046298536
-0.0065354067 0.0020521153 -0.0042834016 0.0032841987 0.018988248 -0.009112629 -0.0019956257 -0.019410552
0.001848177 -0.006315083 -0.0052713715 -0.022539573 -0.0054815514 0.00499431 0.013899589 0.0044165235
00000000: fced cdbb db77 29bb 0ff9 67bd 5e66 46bb
00000010: 5fff 8d3b 5197 52bb 1a76 363c 39c4 04bc
00000020: 097e 39bb 3b1a 07b9 95ff 263b 4c58 503e
00000030: 2967 56bb e32a e23b e5bd 673e 48c6 f7ba
00000040: c32e 363e bde9 2c3c 93b4 06bc 7be9 313b
00000050: 6e70 e83d 18a8 a53a ba57 c9bb 0ef0 1dbc
00000060: 5042 0a3a f30b 6fbc cfb1 053b 7d26 40bc
00000070: 373b 4d3b 10c3 e3bd d246 3f3b 17e7 993b
00000080: e561 4dbc d560 a8ba b4f4 7fba 8a59 86bb
00000090: 9dc3 de3b 2437 623a 28f4 723b 2ece d43b
000000a0: a951 cbbb 9a90 043c 7dd6 edbb 57d5 9a3c
000000b0: cb4d d2ba 6295 3fbb 24c6 223a 07b6 97bb
000000c0: f726 d6bb c87c 063b c75b 8cbb b63b 573b
000000d0: 3e8d 9b3c 234d 15bc 0bc9 02bb e102 9fbc
000000e0: 883e f23a c1ee cebb 78bb acbb e9a4 b8bc
000000f0: 969e b3bb 4fa7 a33b 1abb 633c 7cb8 903b
