experiments/gru/v2/gru_best_model.pth (torch, 170293 bytes, 9 tensors)

gru.weight_ih_l0 f4 [192, 20]
00000000: 6856 d63b bf66 e03b ed44 81b9 8e86 0b3a
00000010: 29d5 03ba e02f 84ba 08f8 353b 3961 e13a
00000020: f4ba 62bb 78b6 79bb cdd6 4cba 7231 20bb
00000030: 89fb 98b7 7d88 bebb ee35 363b d658 0e39
00000040: 65d6 ac39 18a0 c9b6 e01e d1ba 7e7d 903a
00000050: 0292 f8ba ac7c 163c d905 e7bb 5c57 29bc
00000060: a106 29bb 305a bbbc 8133 5dbc 13bc aebb
00000070: 6f7f a2ba e5c5 9dbb 2433 8cba da17 0cbc
00000080: 655b b939 2d7f 0cbc ec5f 81bb 16cb 3ab9
00000090: 745c d1bb 0495 be39 d176 d1bb c473 8dbb
000000a0: aeb0 bf38 ad35 95bb 0f60 b93a 0245 2e3b
000000b0: eb06 b7b9 bf0f a03b 08e8 813b ecbe 303b
000000c0: cdf7 a7ba 1068 f7bb 333c b83b 02a1 e23b
000000d0: 6a16 93b8 997b 8d3b c9c2 233b 2317 113a
000000e0: 74a6 223c 7c40 9138 c67c 95b9 b421 c73b
000000f0: 6e85 c43c 1b5b c8bc 5deb 2abb f988 0dbc
00000100: 7417 2abc 93e4 1cbb 56b5 bbbc 02c5 8f3c
00000110: 57ed 00bd 49d8 29bd fcdb 13bb a5fd 96bb
00000120: 02e4 11bc 24fc 053d d085 efbc fe55 49bc
00000130: 3774 ef3c a100 a1ba 0695 12bd 5e50 96bb
00000140: fb4e 0e3c 7d9b 93bb 7a62 4bbb cc18 2b3a
00000150: 0869 99bb 53bd 373c c704 243c 6987 1abb
00000160: 2faf 07bc c8bc 4b3c 3629 213a 8989 a1bb
00000170: 2eda 2fbb 6c8a 193c 1478 d4bb 1ccd e2bb
00000180: cd80 753b b1ec 4ab8 b4ea 7f3c 9fb1 113c
00000190: 91d9 753c 39a4 943e a8c4 37bc c234 7b3d
000001a0: 6290 f1bc 331a 553c 24c5 ae3d 4002 223d
000001b0: b004 d13c ac69 aabb a184 8a3d 40a6 d73c
000001c0: 3e26 45bd f250 873d 1604 a9bc 0c7e 863c
000001d0: 8e1a 7b3c c7cf 58b8 6bdb 323d 2b9d a73c
000001e0: 8980 e33c 3db2 09bd d5c1 34bc b76b 8bbc
000001f0: 1c8e 25ba bab5 9eba d219 a1bc 11ad 61bc
00000200: 095d 82bc b2e0 85bc cae2 c5bc eba4 bfbc
00000210: 5c01 43ba fcca a9bc ee07 2cba 788a 24bc
00000220: 4e87 07bc dd3e d939 f7a3 a93b 7372 dcbc
00000230: 076a 243c 4841 95bc a626 7cbc 8228 d6bb
00000240: 47e0 12bc a073 edbc 4c90 bfbb 261d 0ebd
00000250: 65e1 11bd 85df 3fbc c2bd cebc 2135 19bc
00000260: f3e9 bbb9 4990 2dbc 97da 6bbc 1a13 18bb
00000270: 8c9e 17bd f820 8737 da2a 673c 30ec 4338
00000280: 75a1 223d ae46 f3bc c518 a4bc 4a80 57bb
00000290: 6f20 4abc fcaa 1bbd cf1d a53c 86fd 60bd
000002a0: 0a2d 38bd 001f f4bc 354c 27bd 8737 c5bb
000002b0: 6b4a 6a3a ba76 29bc f169 12bd 5458 0b3b
000002c0: 638c 1fbd f670 3538 37f4 9e3c 2785 0c3c
000002d0: 335b ad3c 6962 0cbc 4295 d6ba 9cfb bcba
000002e0: 2c87 6e3b ceaf 4bba 37f1 b3bb efb4 b83b
000002f0: 4764 d33a 4051 d0bb fa9c 5abb 4fcf d8bb
00000300: e0b6 fb36 5847 bdbb 9b38 513b 51de 4cba
00000310: 18e0 973b a8d8 e1b9 2b38 b93b d5c1 72bc
00000320: 7091 ac3c da32 b2bc 71eb b6bc 8bdf 2abc
00000330: e243 26bc e0ba b2bc 162e 06bc a6fe 32bd
00000340: 94c4 33bd df69 d0bc f4bf 0fbd 0700 47bc
00000350: 3ddd b7bb f977 77bc 732a a2bc fccc 33bb
00000360: ce67 4dbd 7f9c 9eb7 4b12 023c 3309 dd3b
00000370: d567 383d f59e ddbc 3792 67bc ca60 e8bb
00000380: 2084 0dbb 3369 17bc e23e f6bb b9de dfbc
00000390: d082 1fbd b67d 1bbd 4cab 2fbc ae92 49bc
000003a0: 0b3f 3bbc 0a7f 5e3c f058 91bc 3c39 9fbc
000003b0: 930d b1bc 170a 00ba dc61 1e3b 1b03 853b
000003c0: 025e 043d b0df f2bc 0bf5 44bc 2838 903b
000003d0: 0dfa 83bb e880 8fbc 91e5 743c d3a7 0dbd
000003e0: 8872 0cbd 38fe 99bc 1621 b8bc 0381 13bb
000003f0: 3e60 8d3a ed18 b4bb 905e 77bc 0530 e7ba
0.006541062 0.006848186 -0.0002465615 0.00053224794 -0.0005029017 -0.0010085069 0.0027766246 0.0017195112
-0.0034596296 -0.0038103145 -0.000781399 -0.0024443534 -1.8236942e-05 -0.0058146105 0.002780314 0.00013575269
0.00032966133 -6.008904e-06 -0.0015954636 0.0011023728 -0.0018964412 0.0091849975 -0.0070502576 -0.0103357695
-0.0025791305 -0.022870153 -0.013501049 -0.005332479 -0.0012397597 -0.0048148506 -0.0010696393 -0.0085506085
0.00035354044 -0.008575243 -0.0039482024 -0.00017813998 -0.006389195 0.0003635065 -0.006392338 -0.004316779
9.140499e-05 -0.004553518 0.0014143008 0.0026591425 -0.00034909634 0.0048846896 0.003964428 0.0026969267
-0.0012814939 -0.007550247 0.0056224107 0.0069161663 -7.013681e-05 0.0043177125 0.0024987927 0.00055347587
0.009927381 6.92615e-05 -0.00028512458 0.006077016 0.023989405 -0.024457505 -0.002608023 -0.008638614
-0.010381568 -0.0023939952 -0.022913616 0.017549995 -0.031476345 -0.04146603 -0.002256154 -0.0046078735
-0.008904459 0.032711163 -0.029238611 -0.012288569 0.02923022 -0.0012283513 -0.03578665 -0.0045872172
0.008685823 -0.0045046196 -0.0031034038 0.00065268273 -0.00468171 0.011214572 0.010010905 -0.0023579246
-0.008281513 0.012435146 0.00061478035 -0.0049297255 -0.0026832926 0.009371381 -0.006484041 -0.0069214236
0.0037460804 -4.838099e-05 0.015619922 0.008892446 0.015005485 0.29031542 -0.01121632 0.06132961
-0.029487792 0.013006735 0.08533695 0.039552927 0.02551493 -0.0052005854 0.06763578 0.026324391
-0.048132174 0.06607236 -0.020631831 0.016417526 0.015326155 -5.169192e-05 0.043666285 0.020460686
0.027771251 -0.033617247 -0.011032541 -0.017019136 -0.00063154264 -0.0012108602 -0.019665632 -0.013774172
-0.015913503 -0.016342495 -0.024155993 -0.023394069 -0.0007438862 -0.020726673 -0.0006562461 -0.010042779
-0.008272005 0.00041436302 0.005177017 -0.026910042 0.0100350445 -0.018219605 -0.015390074 -0.0065355906
-0.008964605 -0.028985798 -0.005846059 -0.034695767 -0.035615344 -0.011711006 -0.025236968 -0.009351046
-0.00035841725 -0.010593482 -0.014395378 -0.0023204745 -0.037016436 1.6108606e-05 0.014109338 4.671159e-05
0.03970476 -0.029696789 -0.020031342 -0.0032882863 -0.012336834 -0.03800486 0.020155815 -0.05492928
-0.044964828 -0.029799938 -0.04084416 -0.0060185823 0.0008937481 -0.010343248 -0.035745565 0.0021262364
-0.038952243 4.3258966e-05 0.01940356 0.008576668 0.021161651 -0.008568385 -0.0016371387 -0.0014418247
0.0036396487 -0.00077700324 -0.0054914015 0.0056368033 0.0016127907 -0.006357342 -0.0033357725 -0.00661651
7.5016724e-06 -0.005776327 0.0031924609 -0.000781511 0.0046348684 -0.00043076766 0.0056524477 -0.014816721
0.021065444 -0.021752764 -0.022329064 -0.010429273 -0.01014802 -0.021817625 -0.008189699 -0.043699883
-0.043888643 -0.025441108 -0.03509517 -0.012146003 -0.0056110905 -0.015104287 -0.019795632 -0.0027435413
-0.050147824 -1.8907942e-05 0.007938932 0.0067454814 0.045020897 -0.027053336 -0.014133981 -0.0070916163
-0.0021593645 -0.00924139 -0.0075148204 -0.027327882 -0.038943112 -0.037961684 -0.010721993 -0.012303038
-0.011428605 0.013580093 -0.017742604 -0.019436471 -0.021612918 -0.0004884316 0.0024167215 0.004059208
0.032316215 -0.029647678 -0.012021313 0.0044012256 -0.004027611 -0.017517522 0.014947311 -0.034583878
-0.034288913 -0.018797979 -0.022476714 -0.0022507317 0.0010786129 -0.0054961354 -0.015098229 -0.0017638212

gru.weight_hh_l0 f4 [192, 64]
00000000: 5bdc 09bb ad2b 4ebb 61fc 90ba 1e24 12ba
00000010: ca62 04bb 2148 92bb 0067 91b8 7f2f 0f3b
00000020: ee8a 463b b6a7 a2ba 76cc 19ba 0059 d9ba
00000030: 526c 583b da10 d238 8039 f839 ae89 0f39
00000040: f027 c4b9 6af6 62ba 5ffe d13a e91c 49ba
00000050: b3b0 9b3a d905 793a dbae 64bb ab90 17ba
00000060: 304d 0f3b 8816 043b db6a 7039 16f2 1bbb
00000070: 8547 893a d825 9239 0d2a 8a39 9a8b adba
00000080: 11c7 d1ba 4f2f e2b9 d6fc c43a efbc 2ebb
00000090: 9b39 a7ba 08eb 9eb9 0066 283b 8514 ba3a
000000a0: 1034 213a e05d d1ba a43b 1cba d586 093a
000000b0: 6faf 8aba b2b0 8f39 1587 253a 9bf7 383a
000000c0: b467 a53b 80f8 7938 c830 17bb 4a7b 10ba
000000d0: b19f 76ba 002f bf39 6963 01bb de9a 51ba
000000e0: 82bc 91ba 1974 f43a 258b 38b9 b14e 4fba
000000f0: 22f9 173b c3ea 7eba 28ef ed38 be0f 1dbb
00000100: fd83 413b 1a17 8a38 8e2a 183b 7ea5 163b
00000110: 7cf0 a939 5845 06bb e6de 853b 26a0 803a
00000120: 09c9 2e3b af75 963a c471 f4ba dfb0 97ba
00000130: acec c13a f87b 13bb ac88 b639 00a6 d5ba
00000140: cec7 8d3a 2cae b9ba 731c 26ba 5f13 1fbb
00000150: 0f61 033b 330f 50ba a06e 75ba acdc 8739
00000160: b649 0a3a 6e86 a53a 0c1d 87bb f50f d1ba
00000170: 6eb2 64ba d895 a53a 7dc0 813a cb90 1ebb
00000180: be78 0c3a 40e6 a23a 9a44 e3b9 b225 fab9
00000190: 94b5 8dbb 615a 2bb9 434d 903b 8cf1 59ba
000001a0: f8ac 24bb 69ad 8cba 236c 0fba 804f 4d3a
000001b0: 560f c6ba 60c3 643a b4d3 5d39 c3d1 2a3b
000001c0: fa0a 37bb df47 193a 77ef 8fbb 3270 3abb
000001d0: 8dfb 2fbb 33f0 0f3b 2bd3 99bb d885 a1b9
000001e0: 91aa 8bbb 7b1b 903b f9f4 7f3a c826 50b9
000001f0: 3d34 963b dd95 6d39 a933 57ba 2c1f e238
00000200: 682d 95ba af1a c838 0110 a138 2886 6739
00000210: 5c08 a4ba 506e 30b9 07fa c939 70da 223a
00000220: fcc7 003a 6583 a9b9 b0cc 6239 96f7 afb9
00000230: 4ead 8c39 02de 5838 2d3d 41ba 52b9 c93a
00000240: 993e a0ba ec15 45b9 1a11 9e3a 1de2 14ba
00000250: f151 9b3a 38ab cab7 72a4 72ba 3447 f3b7
00000260: 0708 993a b03d b7b9 14eb 843a fc0b 8237
00000270: 9a9d bdb9 d8a3 a939 00e0 0d3a 77c8 a8ba
00000280: d05a 5439 5f68 4cb9 e87f 5337 6996 8fba
00000290: 08ca 8039 6b9b 60b9 e0de 65b6 5e9f b3b9
000002a0: 80ff 6f39 6715 06ba b77f d9b7 531d 9439
000002b0: c169 e439 5b07 ad39 14a1 c9b9 68cc b4b8
000002c0: d57b d6b8 16fb eeba 7a8f f839 7bb6 f239
000002d0: ecbd 07ba 930e e339 987a 34ba b89e a2ba
000002e0: 27d7 1aba 8415 fa39 c9b3 0bba b70b 63ba
000002f0: bacd 123a 6f84 84b8 00de f739 cc12 8639
00000300: 1a55 01bc aff0 323b 648a 87bb cc99 163c
00000310: 2602 083c dfff c33c 64b6 86bb e94c 67bc
00000320: b644 9abc 8abd 283c b8b9 2b3b d743 983c
00000330: 5ba8 40bc a908 203c accc 943b fd02 40bb
00000340: 2e95 8239 338c 123c d1ef c7ba 81ad 3a3c
00000350: 66fa 7bbc b2ff e23a e695 e23b 0469 5a3b
00000360: ccd2 52bc 308c 48bc 5ea3 fb3b d54a 173c
00000370: a3f6 913b d407 93bb f101 a8bb 6eab ad3c
00000380: 788f 0fbb 24af 8eb9 f3c6 bf3b 5ec6 283c
00000390: df3f 4e3c af18 dd3b f8f6 d3bb 8918 7bbc
000003a0: a154 353c b949 b73b 5c27 7dbb abdf acbb
000003b0: abef be3b 3031 bdba fcaa 903b e5fd d8b9
000003c0: fcde cdbb fe74 bf3c a88c a33c e925 223c
000003d0: 316a ed3c 8b43 78bc c1b7 9a3c 43cf 113c
000003e0: c769 9d3c 6a65 9bbc 403e 6bb9 64a9 b23c
000003f0: a006 fcbb 82b6 33bb 7c6d 923c 19aa 6c3c
-0.0021035883 -0.0031459138 -0.0011061543 -0.000557484 -0.0020200484 -0.004464165 -6.933324e-05 0.0021848378
0.003029521 -0.0012409601 -0.0005866954 -0.001658231 0.0033023548 0.00010016719 0.00047345087 0.00013688832
-0.0003741379 -0.00086579344 0.0016021243 -0.00076718495 0.0011878222 0.00094994676 -0.003489426 -0.000578175
0.0021866076 0.0020155031 0.0002292799 -0.0023795418 0.0010473585 0.00027875486 0.0002635274 -0.0013240457
-0.0016004761 -0.00043141327 0.0015028964 -0.0026662906 -0.0012758257 -0.0003031122 0.0025695562 0.0014196789
0.00061494205 -0.0015973412 -0.0005959815 0.0005246227 -0.0010580848 0.00027406734 0.0006314379 0.0007055939
0.0050477628 5.959766e-05 -0.0023069847 -0.00055115356 -0.0009407951 0.00036465377 -0.001974309 -0.00079957943
-0.0011118802 0.0018650322 -0.00017599443 -0.0007908149 0.0023189266 -0.0009724313 0.00011345587 -0.0023965682
0.0029528134 6.584656e-05 0.0023218724 0.0022986825 0.00032413367 -0.002048811 0.0040854095 0.0009813353
0.002667012 0.0011479164 -0.0018649627 -0.0011573097 0.0014795265 -0.002250431 0.00034815574 -0.0016300082
0.0010816993 -0.0014166287 -0.0006336637 -0.002427302 0.0020046865 -0.0007936835 -0.0009362493 0.0002591362
0.0005275266 0.0012628564 -0.0041233357 -0.001595019 -0.0008724098 0.0012633158 0.0009899285 -0.002419519
0.0005358568 0.0012428239 -0.00043347926 -0.000477118 -0.0043246243 -0.000163415 0.0044037416 -0.00083138864
-0.0025127511 -0.0010732833 -0.0005471131 0.0007831976 -0.0015110772 0.0008726623 0.00021155068 0.002606497
-0.0027930127 0.00058471964 -0.00439256 -0.0028448221 -0.0026852817 0.0021963238 -0.0046943626 -0.00030808034
-0.0042622765 0.004397807 0.0009763982 -0.00019850873 0.004583864 0.0002265791 -0.0008209297 0.00010782326
-0.001138133 9.5417134e-05 7.680059e-05 0.00022079854 -0.0012514698 -0.00016825763 0.00038523992 0.00062123593
0.00049126125 -0.00032332088 0.00021629292 -0.00033563067 0.00026832003 5.1705174e-05 -0.00073714816 0.0015390313
-0.0012225687 -0.0001879555 0.001205954 -0.00056794455 0.0011849982 -2.4160006e-05 -0.00092560716 -2.9001014e-05
0.0011675366 -0.0003495044 0.001014086 1.5502788e-05 -0.00036166311 0.00032356265 0.0005412102 -0.0012877126
0.00020251726 -0.00019493837 1.26063605e-05 -0.001095486 0.00024564588 -0.00021420202 -3.425339e-06 -0.00034260278
0.00022887997 -0.00051148835 -2.5927888e-05 0.00028250608 0.00043566342 0.00033002612 -0.0003845772 -8.6211425e-05
-0.00010227381 -0.0018232788 0.00047409144 0.00046293795 -0.0005178142 0.00043307673 -0.0006884723 -0.0012406921
-0.0005906694 0.00047699746 -0.0005329219 -0.00086611084 0.00056001137 -6.318918e-05 0.00047276914 0.00025572476
-0.007893825 0.0027304103 -0.0041363705 0.0091919415 0.0083012935 0.02392572 -0.004111098 -0.014117458
-0.018831592 0.010299096 0.0026203226 0.018587036 -0.011758889 0.00976769 0.0045410004 -0.0029298656
0.0002490668 0.008944559 -0.0015253966 0.011393906 -0.015379524 0.0017318635 0.006914842 0.0033326754
-0.012867641 -0.012240455 0.007679387 0.00923415 0.00445445 -0.004487017 -0.0051271846 0.021199908
-0.0021905582 -0.0002721484 0.005852574 0.010301201 0.01258847 0.0067473273 -0.00646865 -0.015325674
0.01106754 0.005593505 -0.0038628196 -0.0052756867 0.0058269105 -0.0014434215 0.004414914 -0.00041387897
-0.0062826853 0.023371216 0.019964531 0.009896734 0.0289813 -0.015152822 0.018886449 0.008899513
0.019215478 -0.018969256 -0.00022434536 0.021809287 -0.0076912194 -0.0027422016 0.017874472 0.014444851

gru.bias_ih_l0 f4 [192]
00000000: d45b bfba b954 a6bb 1fc2 183c 79ae a2bc
00000010: 30bc 9bbc 2ca8 293d d528 34bd 1846 e9bc
00000020: f663 2dbd c174 38bc 3b6e 39bd a0bc 1bbd
00000030: d821 dbbc 077f 173c 3815 3cbd 1fbc 16bd
00000040: 7d17 79bc ccef 5bbc 056e 743a 89bd f7bc
00000050: 1449 debc 4b84 46bc ca18 313d 04c0 1fbc
00000060: 1487 25bc 6912 52bd 950a fbbc 702e ebbb
00000070: 164a 6ebb 154b 8bbc cd39 5abc c667 ff3a
00000080: e534 16bc 526a 403b c370 68bc cdc1 473a
00000090: 0b24 75bc 2fc8 c8bb 7b19 22bd 4c75 9abb
000000a0: 110d 633c 2ec5 b5ba 15de b6bb 8698 d3bc
000000b0: 3a74 febb 069c adbc ab00 edbb 8a6c 35bc
000000c0: 06b4 eabd 0abd e3bc 3af5 19bd 7073 bab9
000000d0: 3573 10bb 5700 5ebc 5d1c 28bd 9ea2 29bb
000000e0: f8e8 06bd 8a73 93bd 6992 af3b 18b9 3fbc
000000f0: 34f0 2dbd 70fa f83b a9d4 8bbc de3a 933a
00000100: 6b78 bbbb cb38 9c3c 08c5 063d 518c 12be
00000110: c4c2 f03c d43a 3f3d 498a bfbd 8e1a f4bc
00000120: d5e8 a7bd 666c 88bd 5d96 c0bc 551f cabd
00000130: 9306 9fbd 6c1d 133c 6fe6 65bc bbde 4dbd
00000140: 0b20 e93b 4190 14bc a3a0 89bb 571b ccbc
00000150: 622e d2bc 4e36 17bd dd03 0dbc f511 3bbc
00000160: ee86 47bb bcc0 02be 40a9 e63a f41b 8cbc
00000170: fb04 d8ba 9a0d dbbc 01e7 45bc 1c03 583c
00000180: ff8a a63a 7de6 9bbd e996 6cbd 125b 43bc
00000190: 3c78 36bc 9fc2 53bd 4f2a 11bd 99e4 a5bd
000001a0: a8b0 963a 56a9 abbc 3171 a53b 8820 05bd
000001b0: cc6f 08bd e0ca 89bc 1017 7e3c a96c 24bd
000001c0: 78dd ccbc 90cb 21bd 6837 bebc b44b 7abc
000001d0: dc8c 38bd 9c4f 0ebd e5bd 8cbc 3d0c ab39
000001e0: 27f0 8dbd 6cef d0bd a8b1 f838 66d4 5ebd
000001f0: 60cb db3c 8b88 22bd f2ae 5cbd 90a0 81bd
00000200: 0987 0ebe d857 0abd b63d 373d d6b0 f23c
00000210: 931d 24bd 8b49 41bd dad3 0e3e d4e4 513d
00000220: b2f6 323d f279 283d d6b9 843c b9a9 d2ba
00000230: 3e0a 373d 900c 95bd fbbe 0abe d874 b03d
00000240: e520 8dbb 0ac2 9c3c f388 3a3d 2f79 bfbc
00000250: a984 243e 6fa9 87bd b31a a2bc 7746 a8bd
00000260: bb19 733d f30c cbbc 2d76 dfbd 463f 27bd
00000270: 798b bcbd 70f1 173b 7337 a73d 2984 28bd
00000280: e108 82bd bf60 b73c 4034 f83d 5f78 76bd
00000290: a286 5e3b d0b6 b7bc 8f05 0d3e 42a7 00be
000002a0: 3918 8ebd 1acb 0dbc 7aab d7bb 6374 f83d
000002b0: 5666 033d 1ce5 8c3b 9372 0d3d 7a4a 0eba
000002c0: 0ee1 28be 4ab1 9abc ebc4 61bd 549b 90bd
000002d0: 5e2e ab3d e166 093e bdc0 aabd 94c6 c23a
000002e0: b9e8 0ebe 1cc4 963d d4fb 62bc 60f3 933c
000002f0: 45ec 013e 9614 8b3c d3a6 5c3d fe2f a93c
-0.001459951 -0.0050760177 0.009323626 -0.019858586 -0.019010633 0.041420147 -0.043984253 -0.028475806
-0.04233166 -0.011258305 -0.04527114 -0.038021684 -0.026749536 0.009246594 -0.045918673 -0.0368005
-0.015203354 -0.013423871 0.00093242555 -0.030241745 -0.027134456 -0.012116502 0.04323653 -0.00975037
-0.010103006 -0.05128709 -0.030644694 -0.0071771666 -0.0036360077 -0.017003575 -0.013319445 0.0019485883
-0.0091678845 0.0029360247 -0.014187041 0.0007620126 -0.014962207 -0.0061273794 -0.03957508 -0.00471369
0.013858096 -0.0013867968 -0.0055806735 -0.025829565 -0.00776532 -0.021192562 -0.0072327456 -0.011073241
-0.11460118 -0.027800102 -0.037587382 -0.00035562692 -0.0022041325 -0.013549886 -0.041042674 -0.002588428
-0.03293702 -0.07199772 0.0053580296 -0.011701845 -0.042465404 0.007598214 -0.017069178 0.0011232754
-0.005721142 0.01907005 0.032902747 -0.14311339 0.029389746 0.046686962 -0.09352548 -0.029797819
-0.08198706 -0.066613 -0.023509199 -0.09869257 -0.07764926 0.008979183 -0.01403199 -0.05026124
0.0071144155 -0.009067596 -0.0042000576 -0.02491538 -0.025656883 -0.036917023 -0.008606878 -0.0114178555
-0.0030445415 -0.12768835 0.0017598048 -0.017103173 -0.0016480976 -0.026739884 -0.012079001 0.013184335
0.0012706219 -0.076123215 -0.057761107 -0.011923568 -0.011137065 -0.051699277 -0.03544074 -0.08100242
0.001149674 -0.02095477 0.005048894 -0.032501727 -0.033309743 -0.016820371 0.015508428 -0.04014269
-0.025007948 -0.039500773 -0.02321978 -0.015276838 -0.04505621 -0.03474389 -0.017180393 0.0003262478
-0.06930571 -0.10201916 0.000118586526 -0.054401778 0.026830375 -0.039681 -0.05387778 -0.06329453
-0.139187 -0.03377518 0.044736587 0.029625338 -0.040067267 -0.047189277 0.13948002 0.051243618
0.0436923 0.04113192 0.016201895 -0.001607231 0.044687502 -0.07277787 -0.13549416 0.08616036
-0.0043069 0.019135494 0.04554076 -0.023373215 0.16066231 -0.06624114 -0.019788122 -0.08216565
0.05935071 -0.024786448 -0.10911212 -0.040831827 -0.0920629 0.002318468 0.08164873 -0.041141663
-0.0634935 0.022385 0.12119341 -0.06017339 0.003395476 -0.022426039 0.13771652 -0.12563804
-0.06938214 -0.00865438 -0.006581721 0.12131574 0.032080017 0.004299773 0.034533095 -0.0005427968
-0.16492102 -0.018883366 -0.055119436 -0.070608765 0.08358453 0.13418151 -0.08337543 0.0014860206
-0.13955964 0.07361624 -0.013853986 0.018060386 0.12687786 0.01697759 0.053870033 0.020652767

gru.bias_hh_l0 f4 [192]
00000000: 12cb beba c89e a4bb 70c7 183c d0de 9fbc
00000010: dc8d dbbb c453 0c3d b52d 34bd 21b2 edbc
00000020: a819 42bd 0258 38bc b988 2fbd 7c52 18bd
00000030: 543d ddbc b97e 173c 1f36 38bd 8596 13bd
00000040: 0604 75bc 9472 6ebc f156 6e3a d807 f8bc
00000050: 4e41 debc be54 3fbc 9af5 303d e4d8 1ebc
00000060: 3f78 18bc 4ed2 53bd 2e80 febc 7f43 2ebb
00000070: 48fc c6bb bfdf 83bc c98b 56bc 3fbc ff3a
00000080: e927 16bc 4a79 403b 76ca 69bc 4318 4b3a
00000090: 3e5d 82bc 3e94 c7bb 2cb8 1cbd 40a9 9cbb
000000a0: 32f5 623c ae13 d2ba d5d4 b6bb 7595 d3bc
000000b0: 4b4b e8bb 5543 b0bc 7212 edbb a052 35bc
000000c0: f95a 8fbd 93f3 e3bc 714e 1cbd 0de1 bdb9
000000d0: 963f 18bb 5f51 5cbc a81e 13bd 3ebb 4dbb
000000e0: 413b 47bd f9e5 93bd 3bea ac3b 0cd9 3fbc
000000f0: 1607 f9bc b785 e63b 28fb 8bbc 2ecf ab3a
00000100: aa6b bbbb 9e3b 9c3c bbc5 063d ab8c 12be
00000110: 27e1 e73c cf94 e73d 1b8b bfbd 261a f4bc
00000120: 72d9 acbd 296b 88bd 9496 cbbc 0d9a c9bd
00000130: dfe2 9ebd d117 133c 76ea 57bc 91d0 4dbd
00000140: 3ed2 e93b 5074 14bc 56b1 89bb 911b ccbc
00000150: 082c d2bc 4338 17bd 1705 0dbc 930e 3bbc
00000160: d8b7 47bb d7c2 02be 93a7 e63a b662 89bc
00000170: 78c9 d7ba 8f28 d9bc 25d6 45bc a542 583c
00000180: 2c77 a63a 86e4 9bbd c99b 6cbd 345b 43bc
00000190: b976 36bc aac2 53bd 2f84 11bd 9ce4 a5bd
000001a0: 0caf 963a c3a5 abbc 4188 a53b 5528 05bd
000001b0: 2d70 08bd 8e52 87bc c016 7e3c b86c 24bd
000001c0: 00f0 eebc facb 21bd d760 ddbc c243 7abc
000001d0: ef83 38bd fed8 0ebd 770d 6fbc d643 3b3a
000001e0: 6e39 93bd ca9c cebd dc6c fb38 89d4 5ebd
000001f0: cb62 493d 2988 22bd 03b1 5cbd 42c7 81bd
00000200: 18c1 3abd 8c56 1cbd c0cf fcbc adbb b53d
00000210: e6b7 8abd 759d 523d 2cdc 263d 4ff1 873d
00000220: eae6 a13d 483a 773a 90fb adbc f15c 80bc
00000230: 9715 b33d f5e1 2ebd 5831 2dbd 9ce0 d93d
00000240: a557 6ebd d73b afbd 3163 12bd 5f81 4bbd
00000250: 06b1 873d 0f90 90bd 5509 66bd 94df 143d
00000260: e0bf 6d3d b6e1 1c3c 3abf a13c 4aac 64bd
00000270: a14a 88bd d2d4 2b3d 9a3f 5cbc ec32 913b
00000280: 5443 a5bb 9e41 533d 61db 833d 1332 6ebd
00000290: 011c 7bbd 8431 a33d 4780 843d f575 94bd
000002a0: 518d 14bd 7a2b 83bd 48ae f8bc 632f 813c
000002b0: 6848 1bbd f159 013e 8006 37bd 1050 d53c
000002c0: e77d c3bd 4034 3ebc a5fa 63bd c5c4 2b3c
000002d0: 3416 b83d 103a 8b3d acee 38bd a80b a0bd
000002e0: 1330 7cbd 4c9d a73a 7e72 cabc c4e9 d83c
000002f0: 357b 4e3d 6ab6 693d 2b7e 0b3c f759 8d3c
-0.0014556369 -0.005023811 0.009324893 -0.019515425 -0.0067002606 0.034259573 -0.043988902 -0.029015603
-0.04738775 -0.011251451 -0.042855 -0.03718804 -0.027006783 0.009246522 -0.04497349 -0.03603222
-0.014954573 -0.014553685 0.0009091935 -0.030277178 -0.02713075 -0.011677919 0.043202974 -0.009695265
-0.009306013 -0.051714234 -0.03106698 -0.0026590524 -0.0060725547 -0.016097901 -0.013094851 0.0019511058
-0.009164789 0.002936917 -0.014269462 0.0007747451 -0.015913602 -0.00609067 -0.038261577 -0.0047809184
0.013852404 -0.0016027594 -0.005579571 -0.025828103 -0.0070890537 -0.021516481 -0.007234865 -0.011067063
-0.069997735 -0.027826106 -0.038160745 -0.00036216565 -0.002323126 -0.013447135 -0.035917908 -0.0031392123
-0.048640493 -0.07221598 0.005276946 -0.011709463 -0.030398887 0.007034983 -0.017087534 0.0013108009
-0.0057196217 0.019071396 0.032903414 -0.14311473 0.028305603 0.1130768 -0.09352704 -0.029797625
-0.08439912 -0.06661064 -0.024852075 -0.09843836 -0.07758116 0.008977846 -0.013178458 -0.050247733
0.0071356585 -0.009060934 -0.0042020483 -0.024915488 -0.025655761 -0.03691889 -0.008607171 -0.011417049
-0.003047457 -0.12769638 0.0017597548 -0.016770702 -0.0016463241 -0.026508598 -0.012074982 0.013199483
0.0012700311 -0.07611947 -0.057765756 -0.0119236 -0.011136704 -0.051699318 -0.03552645 -0.081002444
0.001149626 -0.020953065 0.005051643 -0.032509167 -0.033310104 -0.016518857 0.015508354 -0.040142745
-0.029167175 -0.039501168 -0.027023716 -0.015274944 -0.045047697 -0.03487491 -0.014590613 0.0007143592
-0.07188688 -0.10088499 0.00011988889 -0.054401908 0.049166482 -0.039680634 -0.05387975 -0.063368335
-0.045594305 -0.038168475 -0.030860782 0.08873687 -0.06773357 0.051419694 0.040737316 0.06637823
0.079053715 0.0009430987 -0.021238118 -0.015669318 0.08744352 -0.04269596 -0.042283386 0.10638544
-0.058189053 -0.085563354 -0.035739128 -0.049683925 0.066255614 -0.07058727 -0.056161243 0.036346033
0.058044314 0.009575298 0.019744504 -0.05582837 -0.06654859 0.04195101 -0.013442898 0.004431119
-0.0050434265 0.05157625 0.064383276 -0.058153223 -0.061306003 0.07968429 0.064697795 -0.07249061
-0.036267582 -0.06404777 -0.030356541 0.015769666 -0.03791085 0.12631966 -0.044683933 0.026039153
-0.09545498 -0.011609137 -0.055658955 0.010483925 0.0898861 0.06798184 -0.04514949 -0.07814723
-0.061569285 0.0012787967 -0.024712797 0.026478656 0.050410468 0.05705873 0.0085139675 0.017254813

gru.weight_ih_l1 f4 [192, 64]
00000000: 9e63 db3a e675 2a3a 7b24 2fba 8247 c0ba
00000010: da3a 94ba 9eb9 29b9 5eaf 93bb 4de0 d1ba
00000020: 97e5 07bb 302c abba e3de 363b c1ef 623a
00000030: 5735 41ba 86d2 0e3b 714c f73a 8894 4dbb
00000040: 9475 fcb9 ad02 35b9 383f 4d3a 1bb8 053b
00000050: 9df3 8abb cdf4 3a3b f38b d83a 12d8 053a
00000060: dcc6 f6b6 b174 98b9 ddcc 433a 5539 873a
00000070: 353c 0b3a be24 f1ba 24e7 ecb8 af9e c03a
00000080: 92e0 3a39 a770 7bba 086f a8ba e55f 003a
00000090: f879 b13a 7cc4 45ba c0bb c1ba 4060 3b3b
000000a0: d991 6a3a ed2d b03a 9d76 933a 3bf1 1fbb
000000b0: 7de2 c43a 9565 51bb ad7a 55b8 594f f2b9
000000c0: cfe9 bb3b f295 c53a 92ee 9c39 6cfa e539
000000d0: 1d75 46ba fe8c 8ebb 325e 403b 0921 153b
000000e0: 43ef 553b 3fc6 5fb9 ec6b 23ba 91df 02bb
000000f0: e296 13bb b9f4 93ba 16e2 32bb 14d2 efba
00000100: f137 933b 36d0 4bbb 4b68 c6bb 8af8 87bc
00000110: 7a17 ffba a1fa 81bc 54ba a3bc 6947 133a
00000120: 97f1 903a 5303 75bc a043 213c 5ed9 34bc
00000130: 9e43 ef3b de60 a43b 0648 163c c353 34bc
00000140: e4b9 40bb 78f3 63bb 3101 8f3b dbbc b03b
00000150: 1738 6abc 07ca 843c 2144 933a 7f49 afba
00000160: a10c b73a 76a0 253c 5818 e73b b5d6 6dbb
00000170: b9bc 24bb 30a6 bcbb d64c f0ba d04a 103b
00000180: 4426 5f39 a007 1dbc ef81 30bc 8cc6 52bb
00000190: 7128 753b be84 17bc 2cf5 e33a d442 3d3c
000001a0: 8f76 b53a 6618 3f3b d45e 173a 8cd9 6cbb
000001b0: 90a7 a9bb 231c 98bc 6503 9c3a 8b6f 8339
000001c0: d4cb c13c 0ed6 363a 1dae 153b b719 7dbb
000001d0: 8e2c 7cbc 1a39 1cbc c8e0 c93a 93f3 c53b
000001e0: d6cc 8b3b a0f9 ef3a af95 b7bb ab96 4bbc
000001f0: 6a61 d4bb 5c4c fcbb 3b6a 6abc 0ecb 29bc
00000200: e5f5 b8bb a2d4 27bc 0843 49bd 387a 693a
00000210: c832 d7bc 4b07 9abc 7374 e0bb 921c 353c
00000220: 7721 1ebd a0e1 2638 d7c4 513c 4e5d 263c
00000230: ee6a 03bc 60b6 f73c fa5f 9a3c 5e8a e0bb
00000240: 2483 0dbd a469 79bb bc98 f63c 1a33 b93c
00000250: ec2a 06bd b834 243d 201d 33bd f9c9 103c
00000260: 7258 bb3c 3799 a2bc ee0b 2a3d d523 d9bc
00000270: 2271 cfbb a3f4 d0bc 6aac 16bd d5e8 aebc
00000280: e83f ac3c 5fa5 6a3b 3a91 2d3b 023a 21bc
00000290: e62f fe3c 07a1 8cbc ef87 e0ba 452f 22bc
000002a0: ea11 103d bc1a b93b 1843 60bc 840c 9ebc
000002b0: 8426 67bb 771b 2fbd 08e6 003c f81b 8e3b
000002c0: 152f dc3c 1e55 4bbb d9f8 e13c e121 c13c
000002d0: b99b 5ebc 448d d4bc 4e96 1c3d 0308 383d
000002e0: f55e 1a3d 0ce3 19bd 3868 b9bc c4a7 7ebc
000002f0: 8f09 05bd 6894 fb39 4449 c1bb d352 a0bc
00000300: 21e0 383a cafc 7f38 2fbb 83b9 5cc1 ccb9
00000310: 5234 07b9 600f 663a 9da1 8db9 d0f0 09ba
00000320: 37e1 5bba 3d2e 37ba 3166 9e3a 895b 26ba
00000330: f82e f939 d31b 503a b942 bd39 b728 b0ba
00000340: 3244 1539 d812 4fba d81a f837 0bea 623a
00000350: f58c d3b9 de82 9f3a 04ad b739 ddb0 34b9
00000360: 0220 9239 82cd 2139 f437 a339 f44e 123a
00000370: b2e8 94b9 efe1 56ba d0d3 bcb9 fd7f b939
00000380: 45ef ba39 8c8a d2b9 8d8f 08ba 177d 6c38
00000390: 595d c8b9 0989 a4b9 7577 1dba f0c2 a83a
000003a0: e2e5 6e38 f718 6c3a 7aa8 c138 f727 40ba
000003b0: 4659 00b9 c367 51ba cfcd c539 d3f1 1fba
000003c0: ddc2 103b eaf9 0f3a f4fc aa39 bab5 ce38
000003d0: 2c94 71ba 7a2b 6eba e115 713a 5582 afb8
000003e0: 5713 773a 0101 25b9 6208 03ba a942 92ba
000003f0: 3ace 01bb f8f7 5039 54e1 9aba 0098 74ba
0.0016738062 0.00065025536 -0.0006681156 -0.0014669748 -0.0011309043 -0.00016186244 -0.0045069894 -0.0016012281
-0.0020736211 -0.0013059434 0.0027903847 0.0008656942 -0.0007370314 0.0021792962 0.0018867386 -0.003136905
-0.00048152788 -0.00017262502 0.000782955 0.0020403925 -0.0042404667 0.002852726 0.00165212 0.00051057443
-7.3545216e-06 -0.0002907864 0.00074691867 0.0010316769 0.0005311401 -0.0018397791 -0.0001129641 0.0014695729
0.00017822001 -0.00095916766 -0.0012850473 0.0004897102 0.0013540378 -0.0007544232 -0.0014780685 0.0028591305
0.00089481246 0.0013441421 0.001125056 -0.002440526 0.0015021112 -0.0031951417 -5.0897408e-05 -0.00046216956
0.0057346593 0.0015074594 0.00029932387 0.00043864863 -0.0007570552 -0.0043503037 0.002935302 0.0022755286
0.0032643832 -0.0002134079 -0.0006234038 -0.0019969682 -0.0022520353 -0.0011288143 -0.0027295402 -0.0018296861
0.0044927527 -0.0031099445 -0.006054913 -0.016598005 -0.0019461953 -0.01586658 -0.01998631 0.0005618246
0.0011058328 -0.014954406 0.009842783 -0.0110381525 0.007301762 0.0050164303 0.009172445 -0.0110062985
-0.0029407674 -0.003478257 0.0043641557 0.005393607 -0.014295599 0.016209615 0.0011235514 -0.0013373344
0.0013965556 0.010109058 0.0070524625 -0.0036291305 -0.0025136902 -0.005757116 -0.0018333446 0.0022017248
0.00021281192 -0.0095843375 -0.010773166 -0.00321618 0.0037408138 -0.009247957 0.0017391792 0.011551578
0.0013844537 0.002915883 0.00057743234 -0.003614041 -0.0051774457 -0.018568104 0.0011902867 0.00025069373
0.023656763 0.00069746457 0.0022839375 -0.0038620064 -0.015391482 -0.009535098 0.0015402073 0.006040999
0.0042663617 0.0018308647 -0.0056025605 -0.012426059 -0.006481339 -0.0076995324 -0.014307554 -0.010363353
-0.0056445473 -0.010243567 -0.04913619 0.00089064566 -0.026269332 -0.018802306 -0.0068498193 0.011054175
-0.038606133 3.9787614e-05 0.012803278 0.0101540815 -0.0080210995 0.03023833 0.018844593 -0.006852432
-0.034548894 -0.0038057351 0.030102126 0.022607375 -0.032755777 0.04008934 -0.043728948 0.0088372165
0.022869322 -0.01984845 0.041515283 -0.026506344 -0.006330625 -0.025507277 -0.03678552 -0.021351257
0.021026567 0.0035804135 0.0026484267 -0.00984049 0.0310287 -0.017166628 -0.0017130355 -0.009898965
0.035173334 0.005648939 -0.013687871 -0.019293077 -0.003527076 -0.042750802 0.007867344 0.00433683
0.02687792 -0.0031026076 0.02758448 0.023575725 -0.013586932 -0.025946267 0.03822928 0.044929516
0.037688214 -0.037570044 -0.022632703 -0.015542928 -0.03247982 0.00047985022 -0.0058986265 -0.019570744
0.0007052441 6.1032166e-05 -0.0002512573 -0.00039053976 -0.00012894094 0.0008776095 -0.00027014027 -0.0005262019
-0.00083877466 -0.0006987786 0.0012084899 -0.0006346037 0.00047527975 0.00079387164 0.000360986 -0.0013439868
0.00014235152 -0.0007899231 2.9576404e-05 0.0008656091 -0.00040350077 0.0012169739 0.00035033387 -0.00017232024
0.00027871138 0.00015430714 0.0003113147 0.0005581223 -0.0002840213 -0.0008197119 -0.00036015967 0.00035381308
0.00035654954 -0.00040157547 -0.0005209379 5.6383284e-05 -0.00038216522 -0.00031382617 -0.0006006875 0.0012875479
5.6957717e-05 0.00090064056 9.234338e-05 -0.0007330174 -0.00012240288 -0.0007988179 0.00037728107 -0.0006101403
0.0022088804 0.0005492257 0.00032613392 9.856695e-05 -0.00092155 -0.0009085458 0.00091966806 -8.3689265e-05
0.0009425184 -0.00015736 -0.00049985026 -0.0011158782 -0.0019806759 0.00019928801 -0.0011816421 -0.0009330511

gru.weight_hh_l1 f4 [192, 64]
00000000: b236 313a 3c3b 57ba 434f f839 9c01 143a
00000010: c55e f3b9 cf8f 86b9 d655 dc38 942d 9cbb
00000020: 6417 9939 0a02 bdba 75a9 353a 4ff5 2fbb
00000030: fa96 afb9 027f dbb9 062a 8bbb d33b 983a
00000040: c30b c23a 8aca 2b39 311b c7b9 c2be 5239
00000050: 47ad b33b 9232 fa38 4c51 a439 8ec9 223a
00000060: bbd5 9fb9 6364 4a3a 7a4f e4b9 af2c 7439
00000070: 1ea5 0f37 7121 ae3b 1ccb 6039 f6f4 de3a
00000080: c6e1 d0bb 3659 11ba efab 9cba 792a 3b3a
00000090: ccf0 4939 d6b8 e2b9 83df 003a 7644 d03a
000000a0: 6475 d4b9 55d9 04ba d559 e0b9 4d81 ee39
000000b0: 18fb 293a 8479 9cb9 fbb7 14ba 2db8 f83a
000000c0: 54dd 38b9 97d4 623b f2b5 253a 988a 99b9
000000d0: bb41 c9b9 02ee 1bba 1385 3b3a ce30 0cb9
000000e0: b940 97b8 e3df fe39 a96b 0bba 2e24 24ba
000000f0: 0fa5 8bba af59 0d39 b9f8 21b8 3e81 213a
00000100: a6eb a33a 1fb6 663b 44e2 f0bc 6a14 43b8
00000110: 9ccf 15bb 9a72 45bb 451a 283b 7a2a 93bb
00000120: 4934 303a a8ca 853b c2a3 863b f51f 0fbc
00000130: 5ada 08bb c269 f7ba 6533 debc d5f9 6c3b
00000140: c88c 88bc b6fb 0a38 b158 67bb 4c5f 62ba
00000150: 771c f83c 0b09 b3b8 39d7 1a3b ead8 8139
00000160: 303b 0cba d596 a73a 56fc c6ba faa9 983a
00000170: 82b0 223b caf2 c43c ce93 1a3b ae3e 083c
00000180: c9ce b5bc a975 f4ba 9152 53bc 9037 13bb
00000190: ac36 2c39 062d 05bb 6600 193b 97a0 80bb
000001a0: 1822 763b 7fe2 e3ba ed75 24bb e636 963b
000001b0: a964 723c e12d 11ba dc5e 0cbb 0a18 e63b
000001c0: 0376 6dba 2cd3 563b 748d 833b 0e01 afba
000001d0: adb3 8239 0e3c 68bb 94ac a33b f151 04bb
000001e0: 0b9b 57ba 86ab dd3a 80d9 3f3b 52ff a9bb
000001f0: a66d 80bb a00c 3cbb 40e3 bc39 1f7f a53a
00000200: dadd 3a3b edb9 2cbc 159a e0bd f0c9 a93b
00000210: da9d 433a f95f cebb 2bf6 62bb dd4a 62bd
00000220: 548c b9bb 679e ab3c a1bc c83b ea6a 96bd
00000230: c52c 2abc dcb0 c1ba a92d 33be 6cee dd3c
00000240: 400c 8fbc 171f 33bb d99d c63b a093 e43a
00000250: b48c 9e3d a8f4 a8bb eef6 853b 7677 e63a
00000260: 30b0 b8bb b28d 1dba 372c 103c 40a6 8bbb
00000270: 3d6e 9e3a d8ec 0c3e 8dc1 87bb ca59 153d
00000280: 4f07 fcbd 6bb5 8abc f837 2fbd 309b c2ba
00000290: a8bc e53b 51e3 bb3a 5ef4 353a f852 033d
000002a0: 85b2 ca3b 373c ecba 11e2 bcbb 7db2 143a
000002b0: 3764 fd3c 8a23 9b3b 834c 41bc 5a1f 053d
000002c0: 982e 1fbc db22 223d 3693 d5ba 8ee1 3cbb
000002d0: 14fd 92bb e68d 193b 669a dc3a 91e4 bcba
000002e0: 3fb7 1b3b 7976 233c dbcc cc3c 0024 22b7
000002f0: a832 30bc 315f 99bc a11c 53bc 9247 87bb
00000300: a60b 7b37 c162 a5b9 e313 8dba 1ca2 02b9
00000310: 3c57 24b9 b320 3eb8 dd25 4739 cb83 e5ba
00000320: f44b 83b9 2ff9 d237 30b9 5238 aaa6 b5ba
00000330: b268 8cb9 ec05 43b9 7aae 05bb ed77 1e3a
00000340: fe0a d939 b44c 0eb9 fa4f 13b9 2a3b 46b9
00000350: 76be 193b 9089 fc37 918f 58b9 1c3f 8538
00000360: 553c 87b8 7187 a9b8 5d55 5eb9 3394 36b9
00000370: 0045 8d39 5847 503b 8da5 5fb7 2894 183a
00000380: ed65 3cbb 14e7 98b9 0a46 42ba aa3d 4eb9
00000390: 1f3c 8239 6cfb e538 0284 eeb8 038f 2d3a
000003a0: 3d96 20b9 5e86 2ab8 04d8 2fb9 315e dfb8
000003b0: b1b8 0e3a 6594 05b8 6243 5e37 8af1 893a
000003c0: f09b 2639 4cd7 293a 1e54 7339 4c58 c639
000003d0: 59dd 1438 81ee 99b8 d64a d638 b1d2 6fb9
000003e0: ff7b 85b8 a086 94b7 c442 553a 2883 69b9
000003f0: 30ca 4b38 c505 65ba a1e5 14b9 89d3 b638
0.00067601644 -0.0008210426 0.000473613 0.0005645992 -0.0004641918 -0.00025665617 0.00010506406 -0.0047661755
0.00029199861 -0.0014420163 0.0006929853 -0.0026849096 -0.00033491087 -0.00041865563 -0.004246953 0.0011614509
0.0014804531 0.00016383282 -0.00037976497 0.00020098223 0.0054833028 0.000119303484 0.00031341088 0.00062098436
-0.00030486085 0.0007720647 -0.00043546763 0.00023286299 8.5619085e-06 0.005314045 0.00021437969 0.001701026
-0.0063745705 -0.00055446045 -0.0011953096 0.0007139813 0.00019258558 -0.00043243793 0.00049161183 0.0015889544
-0.00040523254 -0.00050677854 -0.0004279154 0.00045491234 0.0006484254 -0.00029845175 -0.0005673167 0.0018975787
-0.00017630059 0.0034611577 0.00063213625 -0.00029285694 -0.0003838668 -0.00059482467 0.00071533135 -0.00013369622
-7.2122966e-05 0.00048613464 -0.0005318472 -0.0006261495 -0.001065405 0.00013480218 -3.8617032e-05 0.0006160921
0.0012506142 0.0035203767 -0.029404767 -4.6510635e-05 -0.002285934 -0.0030128122 0.0025650423 -0.0044911476
0.0006721658 0.0040829964 0.004108877 -0.0087356465 -0.00208821 -0.0018876123 -0.027124116 0.0036159654
-0.016668692 3.3136188e-05 -0.0035300667 -0.0008635416 0.03028701 -8.5370695e-05 0.0023626818 0.0002476641
-0.0005349396 0.001278604 -0.0015181403 0.0011647337 0.0024824445 0.024041552 0.0023586634 0.008315725
-0.02219333 -0.0018650788 -0.012898103 -0.0022463538 0.00016423565 -0.0020321026 0.0023346185 -0.003925394
0.0037556943 -0.0017386227 -0.0025094703 0.004584181 0.014794507 -0.00055381475 -0.0021418845 0.0070219086
-0.00090584176 0.0032779677 0.0040146653 -0.0013351755 0.000249294 -0.0035436186 0.004994938 -0.0020190442
-0.00082247023 0.001691208 0.0029273927 -0.0051879073 -0.003919321 -0.0028694049 0.0003602747 0.0012626386
0.0028513581 -0.010542375 -0.10966889 0.0051815435 0.00074621814 -0.006298062 -0.003463159 -0.055247176
-0.0056624804 0.020949556 0.006126002 -0.07344611 -0.01038665 -0.001477744 -0.17497887 0.027091227
-0.017461896 -0.0027331763 0.0060612974 0.0017439015 0.07741681 -0.0051561184 0.004088274 0.001758321
-0.0056362376 -0.0006010189 0.008799604 -0.004261762 0.0012087297 0.13762224 -0.004142946 0.036462583
-0.123060815 -0.01693221 -0.042777985 -0.0014847275 0.007011015 0.0014334713 0.00069410156 0.032061547
0.006185832 -0.0018023317 -0.005764254 0.0005672349 0.030931575 0.004734461 -0.011798027 0.032500602
-0.009715699 0.039584022 -0.0016294483 -0.0028820965 -0.0044857357 0.0023430525 0.0016830682 -0.001441138
0.0023760346 0.009976977 0.025000026 -9.664334e-06 -0.010754265 -0.018722149 -0.012885244 -0.004128405
1.4963478e-05 -0.0003154483 -0.0010763373 -0.00012458157 -0.00015672756 -4.5329984e-05 0.00018992224 -0.0017510591
-0.00025042857 2.5149986e-05 5.024037e-05 -0.0013858874 -0.00026780885 -0.00018598855 -0.0020398186 0.0006045092
0.00041397655 -0.0001357075 -0.00014048806 -0.00018904792 0.002345947 3.0104798e-05 -0.00020652848 6.353689e-05
-6.448539e-05 -8.083776e-05 -0.0002120337 -0.00017412081 0.00026945025 0.0031780805 -1.3330381e-05 0.0005820417
-0.0028747276 -0.00029163866 -0.00074109493 -0.00019668663 0.00024840326 0.00010966402 -0.00011373313 0.00066207367
-0.00015314757 -4.0656298e-05 -0.00016769773 -0.00010651013 0.0005444391 -3.1847874e-05 1.324792e-05 0.0010524255
0.00015889085 0.000647892 0.00023205622 0.0003783129 3.5492096e-05 -7.340033e-05 0.000102182545 -0.00022871305
-6.36503e-05 -1.7705665e-05 0.0008135254 -0.00022269471 4.8587273e-05 -0.00087365165 -0.00014199923 8.717838e-05

gru.bias_ih_l1 f4 [192]
00000000: 686f 72bb fa58 273d 7501 323e a889 073b
00000010: 76de 693b 6088 b539 958e e7bb bcfb ca3d
00000020: a5b1 593b 757a 32bc 2fef 49bb 8518 043d
00000030: e0e4 cd36 1bc1 79bb 2c12 ee3c b595 863b
00000040: 31e5 63bc b84b 4fba 4c61 b9bb 73d0 b1ba
00000050: 0733 2d3d aa5d 1e39 3cf5 373c 49c3 45bb
00000060: e67d ce39 21b9 603b eefb 8cbb ab58 95bb
00000070: 0643 103a a2f7 1b3d 1722 2dbb 17a8 6dba
00000080: 0220 d53c 10c0 39b8 ef56 63bc e5fa 603b
00000090: 7d11 ce3b 4734 1e3b 906a a5ba cc43 373c
000000a0: 7364 923c 66c9 3b3a e544 ac39 02f9 813b
000000b0: fd6c 68bb 3640 1bbb aa4a 363b d291 533b
000000c0: 4a72 90ba 04c0 52bc 17cc 26bb 12fe 4e3c
000000d0: 1d8b 69bb 0db5 d5bb 9357 eeba f0fa 0bba
000000e0: eb62 48bb 3351 cabb f821 22bc db80 89bc
000000f0: a424 023c 6673 44bc 3044 4a3b a0da 72bb
00000100: 316b eb3a a083 5dbb ee54 093f 18fc e53b
00000110: 5aca 05bb 0e8d 553b e12a 6cbb 5bd4 c6bd
00000120: 5c6d 043c d88d 8bbc 2e33 59bc 204b 4c3e
00000130: 097a 56bb e7c9 22bb 88cc e23d 68c8 a9bc
00000140: 3284 21be ee94 0e3a c473 12bb de71 0fb9
00000150: 6a29 f03d 368c 5bb9 b713 62bc 72a2 d03a
00000160: 5e14 1fbb 50b4 4e3b 4e48 59bb 7417 94bb
00000170: 99b5 aeba 0e9c 42be a4e6 2a3b 08d7 ed3c
00000180: d393 e0bd 17c5 b0bb b265 3b3d c8dc 5438
00000190: caef 13bc b020 993b cc64 9dbb 6713 823d
000001a0: 6148 483c 8af9 c239 d885 e638 cfc2 813c
000001b0: e495 133e 3879 2ebb f5bb ad3b f8e0 91bc
000001c0: f94d 3a3b c20a a338 8c46 5aba faae 243b
000001d0: 4695 373a 2fa1 43bc 4e9b 4fbc a3c3 1bba
000001e0: 7f3a 13bc 2ea3 aaba f79b 99bb 2a0c b6bc
000001f0: e478 413c 7260 02bb 07de 1dbb 9acc 80bb
00000200: 09d5 7b3c 9022 ae3d a14c a0be f203 acbc
00000210: 893d c2bc 01a7 c9bc 0640 67bc f751 0a3e
00000220: b335 7fbc 6eb0 a73d 869f 54bc f962 a83e
00000230: 50ee 8c3c 3c2a 02bc b177 503e a99e 0c3d
00000240: 177b d53d 1a91 8fbc 4abc da3c e166 d43c
00000250: a95f 3a3e 2d62 d4bc 1763 663d 4b47 4b3c
00000260: 9cbe 7cbc 931e 3d3d a187 8b3c e783 c8bc
00000270: 51d1 af3c 2a6b 2cbd 8ddf ba3a 98fc 113d
00000280: 50a9 1e3e cf72 a3bb a6e4 d0bd 467e 34bd
00000290: 73bf 1abc 380e 94bd 47c3 5b3c f566 1abd
000002a0: dd5e d13d 398a 20bd a470 05bc 4717 013c
000002b0: 86f6 e33d 8f78 8c3c 19a4 53bd 6b42 d73c
000002c0: 0930 2bbc 3855 9b3d 7b3e 933b f056 5f3d
000002d0: ac0b aabc 664b 353d 4ca4 a2bc ea07 fb3b
000002e0: 72e5 8b3b ea50 ae3c 2c76 c93d 7d34 9d3c
000002f0: 977c 9dbc 7c52 b3bd e51f 3f3c 8090 3fbb
-0.0036992673 0.04085634 0.17383368 0.0020681415 0.0035685576 0.00034624618 -0.0070665576 0.09911296
0.0033217457 -0.010893454 -0.003081273 0.032249946 6.1361206e-06 -0.0038109485 0.0290614 0.004107202
-0.013909624 -0.00079077063 -0.0056573506 -0.0013566151 0.04228499 0.00015102947 0.011227902 -0.0030176213
0.00039385183 0.0034290033 -0.0043024933 -0.004557689 0.00055031513 0.038077958 -0.0026418024 -0.000906588
0.02601624 -4.428631e-05 -0.013875707 0.0034329232 0.006288706 0.0024140046 -0.0012620259 0.011185598
0.017870164 0.00071634946 0.00032857727 0.0039664516 -0.0035465353 -0.0023689396 0.00278155 0.003228296
-0.0011020389 -0.012863163 -0.0025451237 0.012633817 -0.0035635896 -0.006521827 -0.0018184058 -0.0005339822
-0.0030576538 -0.0061742305 -0.009895794 -0.016785076 0.007943306 -0.011990404 0.0030863397 -0.003705658
0.0017961023 -0.0033800378 0.5364522 0.0070185773 -0.00204148 0.0032585296 -0.00360363 -0.09708472
0.008082714 -0.01703541 -0.013256831 0.19950533 -0.0032726547 -0.0024839581 0.110741675 -0.020725444
-0.15773085 0.00054390624 -0.0022346834 -0.00013679962 0.11726649 -0.000209377 -0.013798646 0.0015917553
-0.0024273614 0.003154058 -0.003315467 -0.0045193974 -0.0013329267 -0.19004843 0.0026077414 0.029033199
-0.10965695 -0.0053945887 0.04575128 5.0750357e-05 -0.009029338 0.004673086 -0.0048032757 0.06351357
0.012224288 0.00037188485 0.00010992185 0.015839962 0.14412647 -0.0026622545 0.0053019472 -0.017807469
0.0028427823 7.7744495e-05 -0.00083265523 0.0025128708 0.00070031395 -0.011940285 -0.012671305 -0.0005941933
-0.0089861145 -0.0013018602 -0.004687782 -0.022222597 0.011808608 -0.0019893912 -0.0024088637 -0.0039306404
0.015370616 0.08502686 -0.31308463 -0.020997975 -0.023710983 -0.024615766 -0.0141143855 0.1350783
-0.015576768 0.08187948 -0.0129774865 0.3288801 0.01720348 -0.00794464 0.20358159 0.034330998
0.10423868 -0.017525245 0.026701111 0.025927963 0.18200554 -0.02592572 0.056246843 0.012407134
-0.015426304 0.046171736 0.017032446 -0.024476958 0.021462115 -0.042094387 0.0014257297 0.035641283
0.15494275 -0.0049880515 -0.10199861 -0.044065736 -0.009445059 -0.072292745 0.013413257 -0.037695844
0.10223172 -0.03919432 -0.008144531 0.007879085 0.11131005 0.01714733 -0.051670168 0.026276788
-0.010448464 0.075846136 0.0044935322 0.05452627 -0.020757519 0.04426136 -0.019853733 0.0076608555
0.0042692954 0.021278817 0.098369926 0.019190067 -0.019224448 -0.08755967 0.011665319 -0.0029230416

gru.bias_hh_l1 f4 [192]
00000000: 13ce f439 cabf 3e3d 9f97 353e 84a4 063b
00000010: 9913 6a3b 65a2 b539 3075 e7bb 8e11 a33d
00000020: 8922 5b3b 0257 f5ba 23d8 49bb 215f a23d
00000030: b8e2 0637 6a23 79bb 357c fb3c ff88 863b
00000040: 0e53 61bc a001 51ba 2f1e b9bb 964f b1ba
00000050: aa02 2d3d c29c 2139 b775 1d3c a765 46bb
00000060: 78aa c939 c8b9 603b 8556 8cbb 493f 96bb
00000070: d0a6 133a bdd5 7a3d 8c5d 2dbb b400 6dba
00000080: a748 9d3c b106 39b8 26fe 68bc 2598 633b
00000090: 6615 ce3b be6c 1e3b 5ad1 a5ba c28e 383c
000000a0: f76f 963c 31b4 3b3a 75fa a639 054a 663b
000000b0: e4c2 25bb 0a70 1abb ac01 bc3a 318c 533b
000000c0: b5a8 91ba 5260 52bc 3260 26bb 5ee0 4d3c
000000d0: b8fe 6abb f208 d6bb 0072 f1ba 72cf 0fba
000000e0: 0df1 38bb 33f7 05bc 976a 22bc a9b7 89bc
000000f0: f857 023c 4ae2 43bc 50f0 493b 0908 73bb
00000100: c5c4 e63a 5762 20bb 1e07 133f b5f1 e53b
00000110: 2839 05bb 115a 553b 4438 6cbb 97ce d7bd
00000120: 2b77 043c 1f83 a3bc 4865 59bc cc28 133e
00000130: dc7d 56bb d9fb 22bb a833 c73d f0c6 a9bc
00000140: 3953 21be fa85 0e3a bc73 12bb b99c 0fb9
00000150: 8cdf f03d b495 5bb9 daf0 61bc b7bd d03a
00000160: 4b26 1fbb 07a6 4e3b f547 59bb 8097 90bb
00000170: 18f4 b0ba de8b 20be dfe6 2a3b b6d5 ed3c
00000180: b71c e4bd 5bcd b0bb 91f4 3e3d 7534 5438
00000190: 23ee 13bc a922 993b 156f 9dbb b844 743d
000001a0: 787b 453c 2ae0 c239 795d e538 7fc0 813c
000001b0: 44ee 123e 9878 2ebb 20c9 ad3b 6de4 91bc
000001c0: e94d 3a3b aab1 6239 f441 5aba f5cd 243b
000001d0: 54d9 373a fe90 43bc 6c99 4fbc 70c0 1bba
000001e0: ea53 13bc 2152 adba 7318 99bb 2e1a b6bc
000001f0: dd79 413c 9867 02bb a948 1fbb bfac 80bb
00000200: 30ad 8c3d af86 563d 1278 79be cf3f c53b
00000210: 25d6 c9bb 7ecb 2dbd 6130 c43c fbb0 3d3e
00000220: 1af4 fe3a 7d5e 263d 96b5 c4bc 7669 633e
00000230: 614a a2bc 3a49 9b3c 161d 9d3d 68d9 21bd
00000240: d6ca 953d 5ddd db3c 3626 9f3a ee96 24bd
00000250: 649d 343e a141 743c beda cabb 52ff 50bc
00000260: 5a3e 123d bc74 efbb 8bc3 483c 044e 053d
00000270: a414 783d 5db6 b6bd 28b4 b43c c747 c43d
00000280: 49e3 c13d 2aff 90bd 76b8 79bd 654a 01bd
00000290: 415f e0bc 690b 653c c3fc 1abd 0bea 39bd
000002a0: f3c9 3e3d b2da f93c 6e10 07bd 2334 aa3c
000002b0: 5201 bf3d e331 013c 62fb bbbc 9838 f3bc
000002c0: d7b4 ce3b dc6d b73c e6aa a53b 2839 40bd
000002d0: 226a 19bb 5ad8 fdbc 0eeb 6ebc 5148 33bd
000002e0: 89e4 c93c a0cc a03d 28ad ba3d a271 b93a
000002f0: 2a4b 643d 2272 28bd 1bca 18bb 6e65 e73a
0.00046692844 0.046569623 0.1773362 0.0020544836 0.0035717248 0.00034644004 -0.0070635304 0.07962333
0.0033437333 -0.0018717947 -0.0030798994 0.07928301 8.0398095e-06 -0.0038015493 0.030698875 0.0041056867
-0.013752712 -0.00079729594 -0.00564935 -0.0013527747 0.04223887 0.00015412553 0.009610585 -0.0030272992
0.00038464717 0.0034290422 -0.004282775 -0.004585181 0.0005632462 0.061238993 -0.0026453463 -0.00090409373
0.019199682 -4.411367e-05 -0.01422075 0.0034728136 0.006289172 0.0024173702 -0.0012650893 0.011264505
0.018363936 0.00071603345 0.00031848592 0.0035139334 -0.0025293166 -0.0023565316 0.001434376 0.0032279606
-0.0011112901 -0.012840347 -0.0025386927 0.0125657 -0.003585739 -0.006531828 -0.0018420815 -0.0005485929
-0.002821985 -0.008176613 -0.009913108 -0.016811209 0.007955544 -0.011955807 0.0030813403 -0.0037083647
0.0017606249 -0.0024472678 0.57432735 0.007017339 -0.0020328257 0.0032554904 -0.003604428 -0.10537451
0.0080850525 -0.019959984 -0.013268776 0.14371032 -0.0032728827 -0.0024869351 0.097266495 -0.020724744
-0.15754403 0.0005436834 -0.0022346815 -0.00013695926 0.11761388 -0.00020941236 -0.013790334 0.001592568
-0.00242843 0.0031532065 -0.0033154462 -0.0044125915 -0.001350048 -0.15678355 0.0026077551 0.02903257
-0.111382894 -0.005395574 0.046619955 5.0593593e-05 -0.009028944 0.0046733213 -0.004804502 0.059635848
0.012053363 0.0003716958 0.000109369816 0.01583886 0.14348704 -0.0026622172 0.005303517 -0.017809117
0.0028427786 0.00021619225 -0.0008325868 0.0025147174 0.00070132804 -0.011936424 -0.012670856 -0.0005941456
-0.008992175 -0.0013223329 -0.004672104 -0.02222928 0.01180884 -0.0019898172 -0.0024304783 -0.003926843
0.068689704 0.052374538 -0.2436221 0.0060195695 -0.006159561 -0.042430393 0.02394885 0.18524544
0.001945141 0.040617455 -0.024012368 0.22208199 -0.019810857 0.018955816 0.07671563 -0.039513975
0.073140785 0.026838953 0.0012142125 -0.040183 0.17638165 0.014908225 -0.006190627 -0.012756186
0.035703994 -0.007307617 0.012253652 0.032545105 0.06056656 -0.08921502 0.022058561 0.09584003
0.09467179 -0.07079919 -0.06096693 -0.03156509 -0.02738917 0.013979771 -0.03783871 -0.045389216
0.046579313 0.03049979 -0.032974653 0.020776814 0.09326424 0.007885429 -0.022947017 -0.029690072
0.006308179 0.022391252 0.005055773 -0.04692951 -0.0023409207 -0.030986954 -0.014582409 -0.04377014
0.024645107 0.07851529 0.09115058 0.0014148245 0.055735745 -0.04112447 -0.0023313824 0.001765413

fc.weight f4 [1, 64]
00000000: bf23 193c 7595 fd3a 4740 03be f5f6 473a
00000010: 6e3f 4f3b 1cc4 9c3a 5ab7 56ba 8027 753d
00000020: 93c9 35bc 8cb8 cb3c 701e 13bc 2371 453e
00000030: 7b52 adbb 6e25 e93b a7bc 593e 3c47 863c
00000040: e618 0c3e 3307 cbb9 c52e 723c 8332 063b
00000050: 7a9c ab3d bee1 6aba 7593 b8bb 34c2 ba3b
00000060: c84f 0fbc 227a e1b9 970a b53b 86e4 2cbc
00000070: 6fef ccbb dbd8 d5bd dfbd 02bc 39a5 823c
00000080: db3f 8c3d 2993 29bc b799 07bd 1b68 a03b
00000090: 2b29 013c 6878 af3a d133 f33a c05e e73c
000000a0: 69b6 463b d9dd 88ba 3ca6 89ba aea3 36bc
000000b0: 89a6 743c 3dbb 1939 1c50 c3bb 85f1 673c
000000c0: f359 22bb c434 473d ceba 33bc 17ae 7b3b
000000d0: 3c7a 97bb 70d8 a63b 196f 0ebc ed14 2f3b
000000e0: 0676 2dbb 6ad9 083b 3819 483c 2731 ed3b
000000f0: 8a89 9fbb ccef 5bbc a177 1abc 3ee1 7eb9
0.009346901 0.001934691 -0.12817489 0.0007628047 0.00316235 0.0011960301 -0.00081907737 0.059852123
-0.011095422 0.024868272 -0.008979425 0.1928144 -0.0052893735 0.0071150577 0.21263371 0.01639139
0.13681373 -0.0003872454 0.014781659 0.0020476885 0.08379455 -0.000896003 -0.0056328126 0.0056994203
-0.008747049 -0.0004300634 0.005524944 -0.010552531 -0.0062541286 -0.104417525 -0.007979839 0.015947925
0.06848117 -0.010350027 -0.03310558 0.004895223 0.00788335 0.0013387324 0.0018554871 0.028243423
0.0030321127 -0.0010442092 -0.0010501812 -0.011147423 0.014932283 0.00014660969 -0.0059604775 0.014156704
-0.0024772852 0.048634306 -0.010969831 0.0038403326 -0.004622726 0.0050917193 -0.00869348 0.0026715354
-0.0026468053 0.0020881542 0.012213044 0.0072385254 -0.004868691 -0.013423871 -0.009427936 -0.00024307237
